data/CNNModel_final.pth (torch_old, 251530 bytes, 18 tensors)

extract_features.cnn_layers.0.0.weight f4 [16, 3, 3, 3]
0.015941083 0.0032963564 -0.08342275 -0.12678978 -0.04454043 0.09412296 -0.15042844 -0.17870592
-0.16060044 0.023762815 0.14848675 0.11778575 -0.10646402 -0.037587408 0.15340188 -0.00049459125
0.09959186 -0.052513536 -0.020311229 0.025691612 -0.012651649 0.11174011 -0.11618599 -0.10149995
-0.19868077 -0.11777885 0.11293325 0.07430101 -0.18937548 0.07795124 -0.03159956 0.11349816
0.080163226 0.1785921 -0.12682623 0.11685946 0.10668622 -0.043403357 -0.13997246 -0.10152996
-0.1505637 0.18748441 0.039066263 0.12653552 0.050058175 -0.17302288 -0.11724957 -0.003146148
-0.14632763 -0.02381216 0.0062637115 -0.009317329 -0.17324492 0.004128073 0.049697667 0.12621723
0.079311654 -0.16467954 0.013778249 -0.17704806 -0.15391077 -0.07527876 0.07412686 0.112611994
-0.08090719 -0.12111736 6.506691e-05 -0.15597203 -0.072204925 -0.06401231 -0.16628097 -0.0140651865
-0.14837153 -0.1526394 0.18082274 -0.10137136 0.075540066 -0.16403039 -0.007307093 -0.080738015
0.010202291 0.01719756 -0.07371783 0.090676196 -0.13280034 -0.12237764 -0.16118875 -0.06966444
0.08183145 -0.19448005 -0.1351831 0.00917988 -0.19111353 -0.06211608 -6.753088e-05 0.023142507
-0.11408289 -0.1626666 0.12304361 -0.049935084 -0.16892849 0.12906107 0.10961482 -0.1495061
0.07259763 0.081713475 0.039042756 0.006182844 -0.008112287 0.07634434 0.13162075 -0.1028764
-0.020368097 0.053723086 0.13146985 -0.076388665 -0.027462568 0.017749134 -0.12820596 0.089755625
0.18444416 0.0709129 0.05667752 -0.015569974 -0.16091266 -0.09524035 -0.13333634 0.0135217
0.103219256 0.14107536 -0.041763205 0.073904164 -0.12265424 0.14114511 0.09295958 0.045673355
-0.16292588 -0.060942493 -0.16973916 -0.14325432 -0.08315084 -0.121829145 -0.032502066 -0.107881315
0.043889474 0.10311326 -0.068440266 0.02299412 -0.13894373 0.010714835 0.14936607 -0.066355385
0.12683347 0.0838727 -0.14717676 -0.061596043 0.099052384 0.13774644 0.10659482 0.041904524
0.016891135 0.13973503 -0.06607247 -0.15256402 0.041823782 0.17808215 0.026603108 0.010303779
-0.13006938 0.12479125 0.07358383 0.0012296322 -0.1062401 -0.03801714 -0.084941395 0.0077164
-0.12504749 -0.014816285 -0.09221678 0.019403204 0.07063318 -0.090641044 0.11043836 0.1766405
0.13399886 -0.04836642 -0.15117292 0.19615267 0.11814416 -0.15513393 -0.04293661 -0.058703005
-0.14175081 -0.14302063 -0.14588752 0.14615905 0.036869846 0.15080142 0.06499874 -0.15317634
0.114832774 -0.08427993 -0.068556435 -0.0013892202 -0.056477558 0.0851769 0.17295232 0.050851595
0.100021385 0.03887822 -0.059239097 -0.0346491 -0.025325775 -0.036711745 0.019713644 0.10926601
0.07010611 0.22571999 0.041766122 0.16574095 0.063067384 -0.092433706 0.19233084 -0.122171044
-0.057977743 0.080426164 0.06067953 0.066822186 -0.06591885 0.0075002955 0.08283463 0.097454384
-0.10705664 0.07768924 0.04957073 0.12773216 -0.078127414 -0.02717264 -0.09765173 0.11587365
-0.047487885 0.07876168 -0.08749627 0.13367397 0.14697418 0.09793994 0.0014178393 0.13655472
-0.14050746 -0.0044644647 -0.0021641247 0.049114093 0.08434295 0.14002956 -0.1587646 -0.21438918
00000000: e096 823c af07 583b 8cd9 aabd 2ed5 01be
00000010: 0770 36bd 8ac3 c03d ea09 1abe affe 36be
00000020: 7174 24be 3caa c23c e90c 183e a839 f13d
00000030: cf09 dabd 41f5 19bd 6215 1d3e 75a7 01ba
00000040: d1f6 cb3d 6f18 57bd bc63 a6bc 3777 d23c
00000050: dd48 4fbc 00d8 e43d ecf2 edbd 35df cfbd
00000060: f972 4bbe 0a36 f1bd 8c49 e73d 212b 983d
00000070: a5eb 41be e6a4 9f3d 8a6e 01bd b971 e83d
00000080: 9e2c a43d d9e0 363e bcde 01be 0354 ef3d
00000090: 4e7e da3d b8c7 31bd f154 0fbe f1ee cfbd
000000a0: 5f2d 1abe eafb 3f3e f203 203d 8792 013e
000000b0: cd09 4d3d e92c 31be 8b20 f0bd 9b2f 4ebb
000000c0: e9d6 15be b811 c3bc d23f cd3b b6a7 18bc
000000d0: 1e67 31be c944 873b c88f 4b3d 173f 013e
000000e0: 266e a23d c1a1 28be 2abe 613c 164c 35be
000000f0: c99a 1dbe c02b 9abd d3cf 973d 1ea1 e63d
00000100: abb2 a5bd 610c f8bd 8874 8838 22b7 1fbe
00000110: 2de0 93bd e318 83bd 8f45 2abe ab71 66bc
00000120: b5ee 17be 814d 1cbe 9929 393e ca9b cfbd
00000130: c0b4 9a3d 95f7 27be 5770 efbb f959 a5bd
00000140: 8327 273c e6e1 8c3c 60f9 96bd 71b4 b93d
00000150: d0fc 07be 21a1 fabd aa0e 25be 3bac 8ebd
00000160: 3f97 a73d c725 47be 706d 0abe 3567 163c
00000170: 44b3 43be 6e6d 7ebd 5d9f 8db8 5b95 bd3c
00000180: 4aa4 e9bd 1392 26be 4afe fb3d bb88 4cbd
00000190: 97fb 2cbe 9628 043e bc7d e03d 2118 19be
000001a0: 11ae 943d 6559 a73d 4ceb 1f3d 7499 ca3b
000001b0: 66e9 04bc 6c5a 9c3d 97c7 063e ddb0 d2bd
000001c0: ffda a6bc bd0c 5c3d 08a0 063e a971 9cbd
000001d0: 2ef9 e0bc a266 913c 6c48 03be ccd1 b73d
000001e0: eede 3c3e c83a 913d b026 683d 3419 7fbc
000001f0: 4ac6 24be 5f0d c3bd 5289 08be 1f8a 5d3c
00000200: 9e64 d33d 0f76 103e e50f 2bbd 115b 973d
00000210: 2532 fbbd 5888 103e 9861 be3d fc13 3b3d
00000220: 0bd6 26be d69e 79bd 1ad0 2dbe 43b1 12be
00000230: fd4a aabd 8f81 f9bd e320 05bd e1f0 dcbd
00000240: 73c5 333d 0b2d d33d 692a 8cbd 2a5e bc3c
00000250: 4447 0ebe 468d 2f3c 6bf3 183e 55e5 87bd
00000260: a2e0 013e 73c5 ab3d 81b5 16be 224c 7cbd
00000270: fadb ca3d 670d 0d3e 634e da3d 14a4 2b3d
00000280: 475f 8a3c b316 0f3e 0151 87bd be39 1cbe
00000290: 6a4f 2b3d 2b5b 363e c3ee d93c 2ed1 283c
000002a0: e830 05be 8e92 ff3d 1eb3 963d 9c2b a13a
000002b0: 6994 d9bd dcb7 1bbd c1f5 adbd dbd9 fc3b
000002c0: 730c 00be 01c0 72bc 27dc bcbd 78f3 9e3c
000002d0: 21a8 903d 03a2 b9bd 822d e23d 3fe1 343e
000002e0: ff36 093e de1b 46bd 13cd 1abe 3fdc 483e
000002f0: 91f5 f13d 6edb 1ebe 4cde 2fbd 9072 70bd
00000300: 2027 11be 0074 12be 8a63 15be b8aa 153e
00000310: d604 173d b06b 1a3e 0f1e 853d 42da 1cbe
00000320: 722d eb3d f59a acbd 5167 8cbd 7f16 b6ba
00000330: 0355 67bd 3a71 ae3d 6a1a 313e c349 503d
00000340: 03d8 cc3d c53e 1f3d b2a4 72bd 37ec 0dbd
00000350: 0078 cfbc 0e5f 16bd 827e a13c dcc6 df3d
00000360: cb93 8f3d 2423 673e f412 2b3d ffb7 293e
00000370: 7929 813d e24d bdbd 60f2 443e d034 fabd
00000380: 127a 6dbd 79b6 a43d 198b 783d 12da 883d
00000390: 7600 87bd 0ac5 f53b 34a5 a93d 2a96 c73d
000003a0: 8340 dbbd 891b 9f3d ae0a 4b3d 38cc 023e
000003b0: 4401 a0bd 2899 debc a1fd c7bd 2a4f ed3d
000003c0: a882 42bd ce4d a13d 3f31 b3bd d4e1 083e
000003d0: 6680 163e bc94 c83d cbd6 b93a 00d5 0b3e
000003e0: 30e1 0fbe a54a 92bb fdd3 0dbb dc2b 493d
000003f0: ffbb ac3d e963 0f3e 3093 22be d688 5bbe

extract_features.cnn_layers.0.0.bias f4 [16]
0.10352409 -0.09367444 0.07974556 0.1359499 -0.13040853 0.086821765 0.04952375 0.027714776
-0.0820958 -0.025070034 -0.20915449 0.053181075 0.008155135 -0.001931227 0.11876505 0.14377353
00000000: 7004 d43d 63d8 bfbd a451 a33d 7336 0b3e
00000010: d089 05be 9ccf b13d 6ad9 4a3d 190a e33c
00000020: d821 a8bd ac5f cdbc 982c 56be 66d4 593d
00000030: 1e9d 053c 3a21 fdba 173b f33d 5e39 133e

extract_features.cnn_layers.1.0.weight f4 [128, 16, 3, 3]
0.016178887 -0.018283926 -0.05825624 -0.08974192 -0.07353922 0.03222426 0.01635856 0.015885329
-0.07302794 0.10880478 0.10814741 0.11161888 0.023480449 0.113347284 0.0771819 0.043723896
0.11503353 0.086408675 0.07452119 0.04992531 -0.0049537024 0.06220269 0.09825327 0.051532812
0.008741552 0.085804276 0.060945276 0.04047687 0.12658536 -0.02685197 0.046049185 0.078070626
-0.009826635 0.059625328 0.10176357 0.017974872 -0.11903142 -0.101652 0.015779693 -0.07428642
-0.058027405 -0.023031674 -0.060603164 0.018053958 -0.093138546 -0.036203478 0.053258706 0.0706426
0.07629893 0.076774396 -0.0136753265 0.00559024 0.027310815 -0.030882213 0.010303478 0.036415365
0.025213975 0.08216037 0.09912973 0.06328193 0.083918005 0.044500038 0.046527836 -0.0006816254
0.10770707 -0.012404746 0.09144582 0.011548697 -0.04055704 -0.0076683066 0.015348565 0.043476988
0.038356 0.048647787 -0.032180093 0.069636434 -0.0151477335 0.032468528 0.0747678 0.025869485
0.046886787 -0.09826016 -0.07215013 0.018172434 0.021380585 -0.04857342 0.032273713 0.03502834
-0.10900623 -0.035860844 -0.038767297 -0.06401573 0.03279278 0.024543209 -0.0057484885 -0.006533054
-0.10671133 -0.092034586 -0.037397802 0.01836115 0.022466585 0.026757943 0.09364201 0.011088002
0.058565494 0.067475244 0.04889184 0.071054906 -0.056137647 -0.08604808 -0.05415567 -0.08177044
0.0036141973 -0.07170268 0.029523067 -0.06893084 -0.0030660208 0.0018697197 -0.027447127 -0.00759392
0.018139906 0.019135224 0.016001903 0.08617972 0.07439011 -0.019084537 -0.054887023 -0.09802223
-0.07471891 -0.08349315 0.018257862 -0.013070987 -0.02843902 -0.083983354 0.031797007 0.013247211
0.008813636 -0.049558073 -0.0067093503 -0.1107856 -0.054392688 -0.005970651 -0.018483153 0.031085579
0.0819786 -0.013916507 -0.008948179 0.059020467 0.03156769 0.08560384 -0.0132019585 0.045266133
0.04442462 0.08401175 0.029384408 0.004701894 -0.026438434 -0.04218015 -0.012245921 -0.021101976
0.09431067 -0.030294482 -0.006215026 0.02851622 0.017268764 0.040193085 0.053680524 -0.004277083
-0.019831657 0.06160943 0.021157535 0.060196836 -0.0057421257 -0.037661526 -0.025836749 -0.04044561
0.043324318 0.006380288 0.058649942 -0.014161433 -0.06778513 -0.017587518 0.048757005 0.0357036
-0.07123572 -0.047588635 -0.10411358 -0.043323442 0.041880794 0.085586384 0.019598778 -0.062288254
0.055477314 0.014710494 -0.011423628 0.0070287217 -0.05861812 -0.047512334 0.025111133 0.05766561
0.09778147 0.045730565 -0.039943974 0.043808073 0.04803308 0.047082666 0.10269276 0.08719053
-0.027458297 0.011888194 0.05253348 0.055629704 -0.03697594 -0.05416703 -0.054676704 0.09805545
-0.08020641 -0.08510862 -0.06608941 0.003697966 -0.044247877 -0.05615514 -0.04463666 -0.011845355
-0.060146566 0.03913809 0.03957018 -0.027929705 -0.08393142 -0.06631403 0.027733868 0.06404847
0.041045 0.06283938 0.026395485 -0.057620358 -0.08908764 -0.001657917 -0.08996332 -0.0048149046
-0.06297322 0.03552812 -0.010073449 0.07606394 0.08086749 0.09725584 0.07244247 0.0006383656
-0.020395475 0.06659233 0.070465565 0.05112349 0.016907271 0.06435083 -0.026158154 0.07531493
00000000: 9689 843c 2cc8 95bc 189e 6ebd 9dca b7bd
00000010: bb9b 96bd 96fd 033d 6302 863c f321 823c
00000020: ac8f 95bd 0ad5 de3d 647c dd3d 7098 e43d
00000030: 125a c03c 9f22 e83d 8b11 9e3d d417 333d
00000040: b396 eb3d 08f7 b03d 919e 983d 7b7e 4c3d
00000050: ab52 a2bb 3fc8 7e3d 0339 c93d 1214 533d
00000060: ba38 0f3c 27ba af3d c1a1 793d 13cb 253d
00000070: 989f 013e aaf8 dbbc 129e 3c3d 7ee3 9f3d
00000080: e5ff 20bc b039 743d 6b69 d03d 0a40 933c
00000090: bfc6 f3bd ec2e d0bd 6a44 813c 7b23 98bd
000000a0: 25ae 6dbd ecac bcbc 063b 78bd e5e5 933c
000000b0: 6cbf bebd 194a 14bd cd25 5a3d 11ad 903d
000000c0: 9d42 9c3d e53b 9d3d 7a0e 60bc 552e b73b
000000d0: eeba df3c b2fc fcbc ebcf 283c 4728 153d
000000e0: 8a8d ce3c b243 a83d 8704 cb3d f599 813d
000000f0: 34dd ab3d ac45 363d f993 3e3d 1baf 32ba
00000100: 8695 dc3d 473d 4bbc f247 bb3d bf36 3d3c
00000110: 241f 26bd 6b46 fbbb 8c78 7b3c ed14 323d
00000120: 2e1b 1d3d e742 473d 46cf 03bd 8c9d 8e3d
00000130: 332e 78bc b8fd 043d dc1f 993d 3eec d33c
00000140: 5c0c 403d 9f3c c9bd 73c3 93bd 5bde 943c
00000150: 5626 af3c ecf4 46bd 7131 043d e079 0f3d
00000160: a93e dfbd d2e2 12bd 75ca 1ebd ae1a 83bd
00000170: b951 063d d70e c93c d15d bcbb 3b13 d6bb
00000180: 788b dabd a17c bcbd 702e 19bd 1f6a 963c
00000190: d80b b83c 7933 db3c 62c7 bf3d 73aa 353c
000001a0: 5fe2 6f3d 7630 8a3d cf42 483d 3c85 913d
000001b0: 97f0 65bd fa39 b0bd 56d2 5dbd 4377 a7bd
000001c0: 2bdc 6c3b dbd8 92bd 5cda f13c 9d2b 8dbd
000001d0: 4bef 48bb 6211 f53a ccd8 e0bc 6bd6 f8bb
000001e0: 249a 943c 79c1 9c3c 6c16 833c fe7e b03d
000001f0: d859 983d 2d57 9cbc 37d1 60bd e1bf c8bd
00000200: 3a06 99bd 75fe aabd 8391 953c b127 56bc
00000210: f3f8 e8bc 77ff abbd 943d 023d d50a 593c
00000220: 1267 103c 68fd 4abd 1cda dbbb 90e3 e2bd
00000230: deca 5ebd 73a5 c3bb fb69 97bc 2fa7 fe3c
00000240: 65e4 a73d 1002 64bc 629b 12bc 72bf 713d
00000250: 1f4d 013d 1151 af3d 074d 58bc fb68 393d
00000260: 97f6 353d 5a0e ac3d 92b7 f03c 5812 9a3b
00000270: 6a95 d8bc 18c5 2cbd 1ea3 48bc 0dde acbc
00000280: f425 c13d 222c f8bc 6ba7 cbbb d99a e93c
00000290: 3977 8d3c 81a1 243d 1ce0 5b3d c626 8cbb
000002a0: 0076 a2bc 2b5a 7c3d 9152 ad3c f590 763d
000002b0: 7128 bcbb f942 1abd 97a7 d3bc 4caa 25bd
000002c0: d774 313d bc11 d13b ec3a 703d 5b05 68bc
000002d0: eed2 8abd b313 90bc 6db5 473d f03d 123d
000002e0: 08e4 91bd 4dec 42bd 8039 d5bd ec73 31bd
000002f0: 328b 2b3d ea47 af3d 9e8d a03c f821 7fbd
00000300: 2e3c 633d 4904 713c 2b2a 3bbc 3151 e63b
00000310: 8e19 70bd 4b9c 42bd ddb5 cd3c c632 6c3d
00000320: a741 c83d f94f 3b3d 4b9c 23bd 1870 333d
00000330: 56be 443d c1d9 403d 9550 d23d f390 b23d
00000340: 39f0 e0bc b3c6 423c 592d 573d f9db 633d
00000350: 1574 17bd 3fde 5dbd aef4 5fbd 4cd1 c83d
00000360: 4243 a4bd 6e4d aebd e259 87bd 9359 723b
00000370: 433d 35bd ef02 66bd eed4 36bd 0513 42bc
00000380: 3f5c 76bd 434f 203d 5714 223d d6cc e4bc
00000390: 3de4 abbd a6cf 87bd 2332 e33c d82b 833d
000003a0: cd1e 283d efb1 803d 583b d83c 5303 6cbd
000003b0: 9573 b6bd 774e d9ba b03e b8bd 59c6 9dbb
000003c0: 1bf8 80bd ef85 113d 1c0b 25bc 69c7 9b3d
000003d0: db9d a53d 122e c73d b85c 943d fd57 273a
000003e0: 6914 a7bc 8f61 883d 4050 903d dd66 513d
000003f0: 1e81 8a3c 5eca 833d a049 d6bc b73e 9a3d

extract_features.cnn_layers.1.0.bias f4 [128]
-0.122745015 0.0158587 -0.07890741 0.015190825 0.0077707022 -0.07245662 -0.010912856 -0.017408125
-0.080579765 -0.026380356 -0.08242904 0.02149499 -0.058709443 -0.043066733 0.029508049 -0.023385666
0.00055563723 -0.019058242 0.02735014 0.028862856 -0.011205958 -0.0338106 0.0201491 0.039639425
-0.016139006 0.042411223 0.0007193904 -0.01866191 -0.066959776 -0.043354083 -0.058653045 0.006618797
0.05380831 -0.07555254 -0.025148474 0.020655219 -0.025108531 -0.105232134 0.044380434 -0.01494661
-0.013887125 -0.013161991 -0.011325032 0.004337837 0.04279657 0.01663098 0.023318822 -0.010044482
-0.0087264 -0.07376577 -0.0012362177 -0.010858177 -0.0029489484 -0.02080633 -0.009887159 -0.0010245626
-0.023833035 0.010860592 -0.025274793 0.026722869 -0.0538177 0.00300907 -0.0006657177 -0.0024031668
-0.06170579 0.0014322615 -0.02285472 -0.0063262824 -0.015211741 0.014000752 -0.10382499 -0.0057621817
-0.0778542 -0.06424516 0.00937226 0.062036976 -0.00033991685 0.031925533 -0.040773425 -0.107825086
0.00024313842 0.048755597 -0.006621015 -0.0121390335 -0.013093191 -0.01792684 0.020099986 0.059097063
9.260255e-05 -0.036025792 -0.08396849 -0.014174223 -0.034041822 0.029419845 -0.04738592 -0.03411991
-0.027748784 -0.04686817 -0.03816606 -0.059508022 0.023435658 0.010091327 -0.032926317 0.009687984
-0.016932428 0.00019004702 -0.01669747 -0.034207746 -0.022603797 0.004431528 0.07275557 0.048782963
-0.06507647 -0.0049501 0.056556724 -0.10385564 -0.0074943504 0.017693559 -0.07626482 -0.0063588107
0.032441765 -0.070533015 -0.07452059 0.010486374 0.025785193 -0.01840878 -0.014668005 0.0018111372
00000000: bd61 fbbd 1bea 813c 359a a1bd f0e2 783c
00000010: 60a1 fe3b 2364 94bd d6cb 32bc 7c9b 8ebc
00000020: 0107 a5bd 9e1b d8bc 8ed0 a8bd 4316 b03c
00000030: 5079 70bd be66 30bd ddba f13c 4c93 bfbc
00000040: 2fa8 113a 0820 9cbc 670d e03c cc71 ec3c
00000050: 3299 37bc fc7c 0abd ba0f a53c f35c 223d
00000060: f335 84bc 64b7 2d3d 7995 3c3a dde0 98bc
00000070: 3522 89bd 0d94 31bd 2d3e 70bd 7ee2 d83b
00000080: 1a66 5c3d 4abb 9abd 2c04 cebc 2235 a93c
00000090: 68b0 cdbc f283 d7bd 42c8 353d a0e2 74bc
000000a0: d386 63bc 64a5 57bc a18c 39bc 6a24 8e3b
000000b0: 754b 2f3d b13d 883c 1d07 bf3c 9c91 24bc
000000c0: 2df9 0ebc 8212 97bd 9508 a2ba 7fe6 31bc
000000d0: 2543 41bb 0972 aabc c0fd 21bc 9e4a 86ba
000000e0: 7f3d c3bc a0f0 313c 150d cfbc ebe9 da3c
000000f0: f36f 5cbd d133 453b 8f83 2eba 737e 1dbb
00000100: 36bf 7cbd b9ba bb3a d239 bbbc b44c cfbb
00000110: ab3a 79bc 6963 653c 32a2 d4bd afd0 bcbb
00000120: 0672 9fbd f792 83bd 1c8e 193c 7c1a 7e3d
00000130: de36 b2b9 59c4 023d 0902 27bd 66d3 dcbd
00000140: f9f2 7e39 f3b3 473d 19f5 d8bb cce2 46bc
00000150: d384 56bc 4fdb 92bc baa8 a43c c30f 723d
00000160: 9e33 c238 c88f 13bd acf7 abbd 003b 68bc
00000170: 706f 0bbd e301 f13c bd17 42bd 52c1 0bbd
00000180: 6b51 e3bc d7f8 3fbd 0454 1cbd afbe 73bd
00000190: 23fc bf3c 1856 253c bfdd 06bd 5aba 1e3c
000001a0: e0b5 8abc 5c47 4739 22c9 88bc 6c1d 0cbd
000001b0: 992b b9bc 5a36 913b df00 953d a5d0 473d
000001c0: d046 85bd 7334 a2bb 06a8 673d 44b2 d4bd
000001d0: 2b93 f5bb 15f2 903c bb30 9cbd 925d d0bb
000001e0: a8e1 043d 9d73 90bd 409e 98bd 0acf 2b3c
000001f0: 783b d33c 03ce 96bc 1252 70bc ae63 ed3a

extract_features.cnn_layers.2.0.weight f4 [32, 128, 3, 3]
-0.048428264 -0.014585837 -0.04858179 -0.048257224 -0.04228122 -0.05526117 -0.027768625 -0.04621276
-0.05368547 -0.023647688 -0.045568734 -0.052221354 -0.012081285 -0.032987345 -0.026376804 -0.025014862
-0.043956786 -0.021301242 -0.021718396 -0.034203727 -0.052105546 -0.0023900915 -0.0065206476 -0.046722982
-0.032700036 -0.018206246 -0.016165022 -0.037656635 -0.056102432 -0.062751964 -0.025082314 -0.03068179
-0.05133362 -0.034399923 -0.008814273 -0.06007903 0.023223024 0.03556876 0.035349224 0.047494512
0.037013974 0.019576723 0.05138491 0.025897723 0.031200228 -0.03716146 -0.059692565 -0.044740696
-0.02759875 -0.057101358 -0.05087795 -0.01332817 -0.059181616 -0.055288672 0.04999393 0.03658805
0.02688749 0.015135352 0.041364092 0.030182568 0.05191276 0.04639457 0.042963073 0.033641517
0.038638946 0.028277507 0.05616387 0.052658454 0.013214679 0.017859181 0.048698153 0.01758609
-0.03024321 -0.04498608 -0.0666669 -0.06474309 -0.05446163 -0.021692172 -0.016711041 -0.016501045
-0.06452564 -0.04785707 -0.024199728 -0.0664331 -0.021615384 -0.022032723 -0.0238337 -0.025172887
-0.019388715 -0.071325205 -0.008581538 -0.010030317 -0.026429448 -0.035380423 -0.045366444 -0.0017381312
-0.003658806 -0.014296687 -0.020374477 -0.048087884 -0.021583572 -0.020354053 -0.050348848 -0.026594842
-0.031684432 -0.049081717 -0.028162962 -0.037124854 -0.029261008 -0.025241092 -0.010038061 -0.016486883
-0.025334377 -0.022091653 -0.01698575 -0.0005793076 -0.0369107 -0.02088874 -0.0023977621 -0.027030243
-0.03279304 -0.010050074 -0.028773824 0.029124374 0.02937824 0.033751212 -0.0067099086 -0.042573262
-0.05408506 -0.02845564 -0.020754805 -0.016507218 -0.03374812 -0.042997625 -0.0008993113 0.023190783
0.02990055 0.013020004 0.035072166 0.032240115 0.02512996 0.017319584 0.023714075 0.023243884
-0.058199793 -0.026935754 -0.0442156 -0.04914391 -0.049152292 -0.025212083 -0.0051281503 -0.022993196
-0.016708294 -0.010304989 -0.018972894 -0.014281133 -0.036780894 -0.027721066 -0.027130289 -0.026145812
-0.04944296 -0.028471721 0.05450434 0.011744979 0.025071878 0.048275985 0.014541396 0.031899422
0.018395597 0.03753859 0.042928144 -0.045953862 -0.05448498 -0.066841476 -0.061507978 -0.019847268
-0.04078 -0.06662435 -0.014003187 -0.07027385 -0.044588044 -0.03767284 -0.066941604 -0.059862398
-0.059208132 -0.06513277 -0.06782114 -0.043876715 -0.035650283 0.0045314445 0.0035306965 0.00080517324
-0.012617695 -0.015519897 -0.021490922 0.0013642608 -0.011524546 -0.009218696 -0.014541132 0.025493717
0.021132598 -0.020363236 -0.019313477 -0.016922327 0.010089378 -0.01379494 0.021782978 -0.01675921
-0.06054007 -0.067332365 -0.03360931 -0.02652754 -0.05705452 -0.032897193 -0.06191095 -0.04573556
0.031297877 0.06114359 0.025777653 0.022031903 0.037930913 0.02352877 0.013351987 0.022992639
0.016231176 0.009493064 0.015371073 0.044799913 0.018017914 0.0458708 0.02227509 0.022729171
0.0141845755 0.0068368874 0.04082072 0.02565833 0.021458792 0.025916185 0.025229795 0.030282063
0.026979458 0.04152149 0.020808171 0.037494387 0.03292313 0.02321599 0.027151173 0.009078516
0.013403865 0.024929147 0.012917172 -0.000904534 -0.0059667733 -0.020022655 -0.00038124755 -0.0515508
00000000: b75c 46bd 6ff9 6ebc b3fd 46bd 5ea9 45bd
00000010: 132f 2dbd 8959 62bd 077b e3bc 9749 3dbd
00000020: 4ce5 5bbd ccb8 c1bc 48a6 3abd 0fe6 55bd
00000030: 95f0 45bc bd1d 07bd 2b14 d8bc f8eb ccbc
00000040: 080c 34bd f17f aebc c7ea b1bc 3519 0cbd
00000050: a06c 55bd 15a3 1cbb 28ab d5bb 9960 3fbd
00000060: 79f0 05bd 4425 95bc 826c 84bc d83d 1abd
00000070: aacb 65bd 1a84 80bd 6d79 cdbc 6158 fbbc
00000080: 3443 52bd efe6 0cbd be69 10bc 6e15 76bd
00000090: 363e be3c 8cb0 113d 59ca 103d 9b89 423d
000000a0: f79b 173d 5d5f a03c fc78 523d 7627 d43c
000000b0: 9f97 ff3c 9d36 18bd 3180 74bd 0542 37bd
000000c0: c616 e2bc 1de3 69bd 6665 50bd 665e 5abc
000000d0: 6c68 72bd 6076 62bd 6fc6 4c3d 5add 153d
000000e0: 2743 dc3c 44fa 773c 656d 293d 6f41 f73c
000000f0: 79a2 543d 3c08 3e3d 0cfa 2f3d b0cb 093d
00000100: df43 1e3d 3ba6 e73c 160c 663d 64b0 573d
00000110: 6282 583c 6b4d 923c b777 473d b410 903c
00000120: 9cc0 f7bc 5343 38bd a888 88bd 0698 84bd
00000130: 2813 5fbd c8b3 b1bc 98e5 88bc 332d 87bc
00000140: 0526 84bd c605 44bd 823e c6bc 140e 88bd
00000150: bf12 b1bc f87d b4bc e43e c3bc 5f37 cebc
00000160: 15d5 9ebc f312 92bd 9499 0cbc 3356 24bc
00000170: 9282 d8bc 10eb 10bd 2ad2 39bd 01d2 e3ba
00000180: 94c8 6fbb a73c 6abc 60e8 a6bc cdf7 44bd
00000190: 08d0 b0bc 8bbd a6bc 983a 4ebd 6ddd d9bc
000001a0: 89c7 01bd e909 49bd 03b6 e6bc 3b10 18bd
000001b0: c8b4 efbc 68c6 cebc ae76 24bc 800f 87bc
000001c0: 0a8a cfbc 8ef9 b4bc b325 8bbc addc 17ba
000001d0: ad2f 17bd dd1e abbc c623 1dbb 876e ddbc
000001e0: ff51 06bd 11a9 24bc 15b7 ebbc 3d96 ee3c
000001f0: a3aa f03c b63e 0a3d cbde dbbb 4d61 2ebd
00000200: 4c88 5dbd cd1b e9bc fb05 aabc 253a 87bc
00000210: 783b 0abd 471e 30bd c2bf 6bba 99fa bd3c
00000220: 00f2 f43c db51 553c d5a7 0f3d 360e 043d
00000230: 59dd cd3c cde1 8d3c 0544 c23c f569 be3c
00000240: e862 6ebd 5fa8 dcbc 6b1b 35bd 204b 49bd
00000250: ea53 49bd 9289 cebc 0b0a a8bb 3a5c bcbc
00000260: d5df 88bc 42d6 28bc 0b6d 9bbc 6afb 69bc
00000270: 90a7 16bd 4a17 e3bc 5740 debc be2f d6bc
00000280: b484 4abd 873d e9bc f13f 5f3d 036e 403c
00000290: 8a63 cd3c 0abd 453d 093f 6e3c f8a8 023d
000002a0: 5db2 963c 11c2 193d 6cd5 2f3d 1e3a 3cbd
000002b0: a42b 5fbd 2fe4 88bd caef 7bbd bd96 a2bc
000002c0: ee08 27bd 5972 88bd a06d 65bc bceb 8fbd
000002d0: f4a1 36bd d64e 1abd ae18 89bd 4632 75bd
000002e0: 3a84 72bd 5464 85bd cfe5 8abd 12b8 33bd
000002f0: 0806 12bd 837c 943b 4263 673b 4312 533a
00000300: 73ba 4ebc 2b47 7ebc bb0d b0bc ffd0 b23a
00000310: 73d1 3cbc 030a 17bc ee3d 6ebc 33d8 d03c
00000320: 451e ad3c cdd0 a6bc 4c37 9ebc b1a0 8abc
00000330: eb4d 253c 2c04 62bc 3772 b23c 9c4a 89bc
00000340: ddf8 77bd 8de5 89bd eaa9 09bd 4950 d9bc
00000350: 00b2 69bd 35bf 06bd 5696 7dbd 3655 3bbd
00000360: 3432 003d b371 7a3d a82b d33c 407c b43c
00000370: 725d 1b3d 68bf c03c 4bc2 5a3c 0f5b bc3c
00000380: 3ef7 843c cc88 1b3c f4d6 7b3c 1d80 373d
00000390: 4e9a 933c 05e3 3b3d 407a b63c 8732 ba3c
000003a0: 6c66 683c f807 e03b a133 273d 6b31 d23c
000003b0: 59ca af3c 2e4e d43c b7ae ce3c 1712 f83c
000003c0: 0604 dd3c 7012 2a3d e675 aa3c b793 193d
000003d0: 67da 063d 762f be3c 236c de3c 0ebe 143c
000003e0: e29b 5b3c 3638 cc3c 8ca2 533c 401e 6dba
000003f0: ec84 c3bb 8d06 a4bc 2ee2 c7b9 ef26 53bd

extract_features.cnn_layers.2.0.bias f4 [32]
-0.020199897 -0.040800508 0.045025207 -0.029807407 0.03673066 -0.012676332 0.018905401 -0.040533625
-0.018182008 -0.0022224558 0.031807184 -0.03733372 0.010108261 0.024581447 -0.03190398 -0.015267699
0.043322153 -0.02719207 0.015087347 0.0017588435 -0.04298972 -0.028677756 -0.033387043 -0.04282052
0.00019913021 0.004735242 -0.053589016 -0.009119997 -0.014018035 0.013857243 -9.707471e-06 0.014152165
00000000: 417a a5bc 6f1e 27bd 5a6c 383d aa2e f4bc
00000010: e372 163d 64b0 4fbc 80df 9a3c 9606 26bd
00000020: 6ff2 94bc 9fa6 11bb 4048 023d 3eeb 18bd
00000030: 1f9d 253c 085f c93c bfad 02bd 5f25 7abc
00000040: 9272 313d e7c1 debc eb30 773c ff88 e63a
00000050: fd15 30bd 9ded eabc dac0 08bd 9264 2fbd
00000060: 9ccd 5039 172a 9b3b 2880 5bbd 0a6c 15bc
00000070: e6ab 65bc 7d09 633c 45dd 22b7 7bde 673c

extract_features.cnn_layers.3.0.weight f4 [8, 32, 3, 3]
-0.007654909 -0.026776122 -0.044401094 -0.07650707 -0.06800346 -0.02978089 -0.0012890853 -0.06740748
-0.018931521 -0.022535555 -0.061639927 -0.052287895 -0.02559635 -0.062192705 -0.023784712 -0.012968521
-0.050270807 0.0044726594 -0.04905399 -0.049071576 -0.052616175 -0.079525664 -0.083698004 -0.09533426
-0.11550717 -0.08880213 -0.0783817 -0.029972557 -0.042442106 -0.012900565 -0.01896049 -0.05654961
-0.024095051 -0.080542564 -0.010757458 -0.02634547 -0.042660758 -0.062142074 -0.068358436 -0.086051725
-0.014386328 -0.100374654 -0.029989323 -0.088387765 0.011102843 -0.05190848 0.0054534436 0.006301896
-0.003305642 -0.046454333 -0.029804073 -0.038090665 -0.091055185 -0.013762152 0.013568943 0.046825953
-0.013997075 0.06437762 0.050671082 0.07477759 0.015750531 -0.01486061 0.09719349 -0.0643714
-0.053349674 0.014356089 -0.02302981 -0.0061928635 0.008806658 -0.024872862 -0.0672231 0.024004903
-0.038096532 -0.07389558 0.007545267 -0.06681229 -0.080980845 -0.030859096 -0.059858453 -0.05957083
-0.072053686 0.031297382 -0.07616687 0.022883367 -0.00049681566 -0.056732096 -0.077155255 0.026996586
-0.07010589 0.010455533 -0.064087614 -0.041034337 -0.009715094 -0.0035819395 0.031150943 0.010121689
-0.035616886 -0.051965963 0.012275841 0.043824747 0.04124316 0.025722723 0.018982317 -0.024135355
-0.05869872 -0.04897229 0.04053641 -0.005998287 0.014793015 -0.014015198 -0.033693433 0.002391374
-0.046187427 -0.022195553 -0.016962532 -0.023470804 -0.06687131 -0.016329097 0.049233213 0.033372276
0.014528995 0.05180018 0.061414532 -0.02175691 -0.04921957 0.040578704 -0.0575045 0.018436868
0.011801949 0.024791209 -0.062313814 0.014256134 0.0365093 0.030340835 -0.01875973 0.025109967
0.03650853 -0.030023804 -0.030250417 -0.05521174 0.030144596 -0.07426785 -0.044335883 -0.056437522
-0.04064358 -0.07507177 -0.07302607 -0.05475046 -0.008369866 -0.033038195 -0.061357178 -0.018161448
-0.025012964 -0.07083454 -0.020460423 0.032592107 -0.022616645 -0.07704623 -0.08060566 0.008475235
-0.080017924 -0.019703977 -0.031033115 -0.08639211 0.007910814 -0.0795097 -0.09740234 0.0047667837
-0.0018453723 -0.010490723 -0.016771365 0.009067521 0.009660094 -0.082340725 -0.073739015 -0.023066731
-0.024463678 -0.026832411 -0.06711648 -0.04426761 -0.012423276 -0.016994162 -0.05025419 -0.08284946
-0.04126059 0.018201087 -0.0026641672 0.0045185084 -0.07564489 -0.07507458 0.016813084 -0.03615269
-0.086438216 -0.055869482 -0.0045088944 -0.0057228394 -0.049335573 -0.06849304 -0.007592317 -0.013457777
0.0056861416 -0.00699132 -0.05055061 -0.028657641 -0.031919334 -0.057724435 -0.040970277 -0.07466531
-0.066895105 0.0057697603 -0.06940112 -0.048156653 -0.08176532 0.016012114 0.020005975 -0.08082571
0.045051035 0.0047519724 0.03681399 -0.01885175 0.041858517 0.082508884 -0.0012007453 0.096774064
0.035645735 -0.035266835 0.034887854 0.029641122 -0.058780063 0.03624911 -0.07771676 -0.0073901815
-0.06597485 0.0034034802 -0.03408301 -0.03021779 0.015888881 -0.015108113 -0.0588196 0.018564718
-0.0010303189 -0.015959896 0.01785732 -0.09367185 0.009600449 -0.0919413 -0.07091797 -0.08322164
-0.0051063783 -0.08038197 -0.095574446 -0.089218125 0.04847883 0.09143725 0.07387898 0.048614934
00000000: 08d6 fabb 9959 dbbc ecdd 35bd bdaf 9cbd
00000010: 6645 8bbd 0ef7 f3bc 86f6 a8ba ef0c 8abd
00000020: 4716 9bbc 7c9c b8bc 267a 7cbd d52b 56bd
00000030: 70af d1bc c7bd 7ebd 28d8 c2bc eb79 54bc
00000040: c3e8 4dbd 638f 923b d6ec 48bd 47ff 48bd
00000050: 0f84 57bd 5ade a2bd dc69 abbd 9c3e c3bd
00000060: 068f ecbd e4dd b5bd 9686 a0bd 0289 f5bc
00000070: c6d7 2dbd e45c 53bc 0853 9bbc 90a0 67bd
00000080: fc62 c5bc 80f3 a4bd 0d40 30bc 75d2 d7bc
00000090: 0cbd 2ebd b088 7ebd 82ff 8bbd e33b b0bd
000000a0: a2b4 6bbc 3a91 cdbd 2bac f5bc a504 b5bd
000000b0: b3e8 353c fc9d 54bd cdb2 b23b 2380 ce3b
000000c0: 78a3 58bb e646 3ebd ac27 f4bc f504 1cbd
000000d0: 247b babd a67a 61bc 4650 5e3c 92cc 3f3d
000000e0: fd53 65bc 6ad8 833d 7b8c 4f3d fe24 993d
000000f0: 4207 813c ea79 73bc 610d c73d 27d5 83bd
00000100: 3085 5abd cd35 6b3c 03a9 bcbc 81ed cabb
00000110: cd49 103c 2cc2 cbbc 44ac 89bd eea5 c43c
00000120: 1c0b 1cbd 9156 97bd 4a3e f73b e2d4 88bd
00000130: 49d9 a5bd 37cc fcbc 232e 75bd 8b00 74bd
00000140: e290 93bd af31 003d 60fd 9bbd e675 bb3c
00000150: bc3c 02ba ea5f 68bd 9303 9ebd f227 dd3c
00000160: ad93 8fbd af4d 2b3c 5e40 83bd 9f13 28bd
00000170: 0f2c 1fbc f9be 6abb 4330 ff3c 71d5 253c
00000180: 03e3 11bd 43da 54bd 9c20 493c 9481 333d
00000190: 96ee 283d 76b8 d23c ce80 9b3c 82b7 c5bc
000001a0: 126e 70bd 2b97 48bd 8209 263d 478d c4bb
000001b0: 675e 723c 00a0 65bc 2002 0abd 99b8 1c3b
000001c0: 072f 3dbd 73d3 b5bc 02f5 8abc d845 c0bc
000001d0: d3f3 88bd 99c4 85bc c4a8 493d 5eb1 083d
000001e0: 060b 6e3c 6d2c 543d ce8d 7b3d 8c3b b2bc
000001f0: 769a 49bd db35 263d d789 6bbd ea08 973c
00000200: f65c 413c ef16 cb3c c53c 7fbd 8f92 693c
00000210: c78a 153d 588d f83c 01ae 99bc 6bb3 cd3c
00000220: f889 153d 7bf4 f5bc b9cf f7bc b525 62bd
00000230: cdf1 f63c be19 98bd 8b99 35bd 082b 67bd
00000240: e279 26bd 3abf 99bd b18e 95bd 0542 60bd
00000250: c321 09bc 0f53 07bd aa51 7bbd 51c7 94bc
00000260: fde7 ccbc b311 91bd 9e9c a7bc 4d7f 053d
00000270: 8b46 b9bc 6aca 9dbd 9514 a5bd b6db 0a3c
00000280: 70e0 a3bd 3c6a a1bc 2939 febc 59ee b0bd
00000290: 5c9c 013c fbd5 a2bd e17a c7bd ae32 9c3b
000002a0: 6be0 f1ba 48e1 2bbc 1a64 89bc f18f 143c
000002b0: 5f45 1e3c 41a2 a8bd 7b04 97bd 71f6 bcbc
000002c0: 0d68 c8bc a5cf dbbc 5d74 89bd f451 35bd
000002d0: ff8a 4bbc 5737 8bbc 56d7 4dbd faac a9bd
000002e0: dd00 29bd 721a 953c 4f99 2ebb ff0f 943b
000002f0: b5eb 9abd b4c0 99bd 98bb 893c d814 14bd
00000300: 8506 b1bd 66d7 64bd 59bf 93bb a886 bbbb
00000310: 1914 4abd 1446 8cbd f9c8 f8bb 027e 5cbc
00000320: d052 ba3b 7117 e5bb 280e 4fbd 6ec3 eabc
00000330: d9bd 02bd 7570 6cbd 73d0 27bd 20ea 98bd
00000340: 4d00 89bd 4210 bd3b 2d22 8ebd e93f 45bd
00000350: 9374 a7bd d62b 833c 92e3 a33c f387 a5bd
00000360: 6f87 383d 6fb6 9b3b 44ca 163d fc6e 9abc
00000370: d673 2b3d 6bfa a83d 5462 9dba 7b31 c63d
00000380: 4301 123d f573 10bd 91e6 0e3d f0d1 f23c
00000390: 5dc3 70bd f279 143d f729 9fbd 5629 f2bb
000003a0: d21d 87bd ec0c 5f3b a09a 0bbd 4c8b f7bc
000003b0: 6629 823c 0588 77bc d2ec 70bd 0915 983c
000003c0: c40b 87ba 54be 82bc 8449 923c 07d7 bfbd
000003d0: 344b 1d3c b84b bcbd 713d 91bd 1b70 aabd
000003e0: 6853 a7bb 4d9f a4bd 89bc c3bd feb7 b6bd
000003f0: bd91 463d 7443 bb3d dd4d 973d 7420 473d

extract_features.cnn_layers.3.0.bias f4 [8]
-0.008960475 -0.012073464 0.022664217 -0.01785075 -0.054952815 -0.026567373 -0.009427558 0.0399063
00000000: f5ce 12bc c7cf 45bc 4faa b93c bc3b 92bc
00000010: 3416 61bd d2a3 d9bc 0b76 1abc ca74 233d

extract_features.cnn_layers.4.0.weight f4 [4, 8, 3, 3]
-0.026409307 0.11001081 0.0816787 0.022782074 -0.031724323 -0.05303826 0.012792254 -0.028369822
-0.025859479 0.077856295 -0.06186967 0.00955227 -0.07103986 -0.093064375 0.14516604 0.05244833
-0.056864884 0.03742419 -0.009579619 -0.063603245 -0.08853357 -0.051611356 0.08374468 0.09567654
-0.003186935 0.089096904 -0.014442012 0.04898501 0.100017615 0.03548774 -0.06331717 0.026681984
-0.05464882 -0.06283136 0.09152646 0.011977634 -0.12229903 -0.10161008 0.08829826 -0.11536175
0.08805369 -0.04285951 -0.073784634 0.08539715 0.04434324 0.055379722 -0.019617395 0.05218617
0.07794971 -0.06512107 0.025535604 0.09687517 0.12274498 -0.06521708 0.060762744 0.08195762
0.08110454 -0.040482175 0.008200476 -0.069200344 -0.06501555 0.006992439 -0.094801106 -0.019938715
-0.080035694 0.13653392 -0.059995558 -0.08027426 0.13000776 -0.0324217 0.100824274 -0.040244423
-0.03930184 -0.0915983 -0.09547358 -0.015007538 0.06446542 -0.06838887 0.07166687 0.04932046
-0.006822853 -0.016100038 0.012271347 -0.043471284 0.078509964 0.15941323 -0.047461763 -0.026488729
0.14506394 -0.04521793 -0.08513641 0.040375657 0.08034848 -0.026537491 0.054399952 -0.1217924
-0.069377854 0.11601055 0.060574777 -0.10923496 -0.047793552 0.05295534 -0.04077464 0.069080494
0.10107978 -0.110573724 -0.04872567 0.022539292 -0.022869334 0.033257026 -0.07511871 0.08824265
-0.10739977 0.03279165 -0.027014215 0.02640643 -0.082727194 0.015353329 -0.080285326 0.06111261
-0.08918861 -0.12063237 0.022473883 0.08093334 -0.08744832 -0.038198113 0.056737307 0.13648723
0.098893926 0.043071482 0.06319133 0.040369093 -0.09697926 0.055655163 -0.013782803 -0.047329444
0.048781577 -0.062769726 -0.083715245 -0.1262 -0.11447417 0.015342751 -0.10985129 -0.036019977
-0.12777992 0.027729345 -0.060732525 0.06660913 -0.06826229 0.08298461 0.089387774 -0.12110937
-0.10676994 0.04139283 0.025671165 0.024316475 -0.034274906 -0.15164018 -0.043435283 -0.052723516
0.002106326 0.060952406 -0.07104116 0.017023109 -0.07163964 -0.07756933 -0.08558789 -0.07141163
-0.0001263847 0.13273804 0.070175506 0.102497995 -0.09806132 0.0808252 -0.0019216781 0.08159476
0.09194117 -0.0893749 0.09128675 0.0552747 0.070224576 0.08835315 -0.014721665 0.02885329
-0.01518006 -0.016424192 0.049759835 0.041371156 0.08158044 -0.0168946 0.043311756 0.033255015
-0.098422855 -0.04741048 -0.10824845 -0.036644585 -0.032392535 -0.085709356 -0.07755032 0.06912056
0.053683642 -0.08637923 0.04677058 -0.05145891 0.021608071 0.03249372 0.09707645 -0.082014084
-0.11857554 -0.12915398 -0.08619252 -0.0886964 0.001976004 -0.052107062 -0.009474658 0.08027829
0.04120112 0.006439868 -0.03534755 0.06118543 -0.063578956 0.1429096 0.13947617 -0.0026914787
0.082760215 0.13504802 -0.04123793 -0.0020412842 -0.026123634 0.058574844 0.056355387 0.0094460845
0.02849674 0.02195359 0.09737568 0.0828669 -0.033429224 0.008455279 0.028473236 -0.11122239
0.051601127 -0.07881831 -0.020388387 0.021440804 0.06681432 -0.051232457 -0.021884577 0.13048898
0.052594367 -0.0027034096 -0.04639281 0.099998176 0.09877137 -0.11570265 0.08357946 -0.08526378
00000000: 5558 d8bc 594d e13d 2a47 a73d 79a1 ba3c
00000010: 5df1 01bd a63e 59bd 9a96 513c d467 e8bc
00000020: 42d7 d3bc 1f73 9f3d 0d6b 7dbd 2081 1c3c
00000030: 597d 91bd 8998 bebd 68a6 143e 0fd4 563d
00000040: 27eb 68bd 1c4a 193d d6f3 1cbc 6b42 82bd
00000050: 1751 b5bd 6e66 53bd 5582 ab3d 10f2 c33d
00000060: e6db 50bb 7078 b63d 309e 6cbc 81a4 483d
00000070: 09d6 cc3d 985b 113d 6fac 81bd 2d94 da3c
00000080: 71d7 5fbd baad 80bd 3a72 bb3d d73d 443c
00000090: ea77 fabd f218 d0bd b8d5 b43d c842 ecbd
000000a0: 7e55 b43d 748d 2fbd 661c 97bd b3e4 ae3d
000000b0: 42a1 353d d9d5 623d a9b4 a0bc 2ac1 553d
000000c0: 19a4 9f3d 325e 85bd 0b30 d13c 7d66 c63d
000000d0: b861 fb3d 8890 85bd 5be2 783d 66d9 a73d
000000e0: 231a a63d a3d0 25bd 4a5b 063c e9b8 8dbd
000000f0: df26 85bd d420 e53b 1527 c2bd 8456 a3bc
00000100: c1e9 a3bd 8ccf 0b3e e7bd 75bd d566 a4bd
00000110: c120 053e 9ecc 04bd f57c ce3d 56d7 24bd
00000120: f7fa 20bd e497 bbbd a787 c3bd 2de2 75bc
00000130: 7206 843d 770f 8cbd 14c6 923d 4004 4a3d
00000140: 3d92 dfbb 3ae4 83bc c30d 493c f20e 32bd
00000150: d5c9 a03d 393d 233e 4467 42bd e4fe d8bc
00000160: a48b 143e 7036 39bd 005c aebd f260 253d
00000170: be8d a43d 2765 d9bc 7cd2 5e3d 4b6e f9bd
00000180: fa15 8ebd f096 ed3d 421d 783d 94b6 dfbd
00000190: 2cc3 43bd b3e7 583d 4f03 27bd 137a 8d3d
000001a0: ea02 cf3d 7a74 e2bd 9194 47bd 52a4 b83c
000001b0: 7858 bbbc 8538 083d d7d7 99bd 90b8 b43d
000001c0: 69f4 dbbd 8a50 063d ea4c ddbc 4c52 d83c
000001d0: e06c a9bd 878c 7b3c a26c a4bd 3751 7a3d
000001e0: 85a8 b6bd 1b0e f7bd 261b b83c 61c0 a53d
000001f0: 1b18 b3bd a075 1cbd 6165 683d 4fc3 0b3e
00000200: e688 ca3d b96b 303d 756a 813d 105a 253d
00000210: 109d c6bd abf6 633d 44d1 61bc 85dc 41bd
00000220: 31cf 473d 6a8d 80bd e672 abbd 933a 01be
00000230: 6f71 eabd 2960 7b3c b7f9 e0bd af89 13bd
00000240: bdd8 02be a728 e33c abc2 78bd 5e6a 883d
00000250: 19cd 8bbd d6f3 a93d f010 b73d 3008 f8bd
00000260: 33aa dabd 878b 293d 564c d23c 5833 c73c
00000270: d863 0cbd 9047 1bbe 32e9 31bd 9df4 57bd
00000280: 490a 0a3b 3ba9 793d 077e 91bd 0c74 8b3c
00000290: ceb7 92bd abdc 9ebd b448 afbd 4340 92bd
000002a0: 2286 04b9 7bec 073e 2db8 8f3d 78ea d13d
000002b0: 60d4 c8bd af87 a53d d1e0 fbba 271b a73d
000002c0: a74b bc3d 300a b7bd 8cf4 ba3d b967 623d
000002d0: e7d1 8f3d 7ff2 b43d 2333 71bc bc5d ec3c
000002e0: c9b5 78bc 078c 86bc f8d0 4b3d cd74 293d
000002f0: a513 a73d 8b66 8abc ab67 313d 6936 083d
00000300: ec91 c9bd 7e31 42bd 5db1 ddbd a218 16bd
00000310: 09ae 04bd 6388 afbd b4d2 9ebd 158f 8d3d
00000320: 61e3 5b3d 98e7 b0bd 8292 3f3d 94c6 52bd
00000330: 6903 b13c 2318 053d 05d0 c63d 00f7 a7bd
00000340: bcd7 f2bd f140 04be b485 b0bd 75a6 b5bd
00000350: d97f 013b 376e 55bd 993b 1bbc f268 a43d
00000360: 81c2 283d 8705 d33b 98c8 10bd 939d 7a3d
00000370: af35 82bd e556 123e d7d2 0e3e 8563 30bb
00000380: 307e a93d 074a 0a3e 1be9 28bd 11c7 05bb
00000390: 3b01 d6bc 2dec 6f3d e8d4 663d c0c3 1a3c
000003a0: ff71 e93c 04d8 b33c e76c c73d 1fb6 a93d
000003b0: 15ed 08bd 0388 0a3c b440 e93c 90c8 e3bd
000003c0: b45b 533d 7e6b a1bd 8c05 a7bc a0a4 af3c
000003d0: f2d5 883d 20d9 51bd 4947 b3bc e79e 053e
000003e0: 316d 573d b02b 31bb 6306 3ebd d8cb cc3d
000003f0: a548 ca3d 83f5 ecbd b52b ab3d c79e aebd

extract_features.cnn_layers.4.0.bias f4 [4]
0.04138683 0.06274498 -0.09648671 -0.015620661
00000000: 3d85 293d 7180 803d d39a c5bd cded 7fbc

extract_features.fc_layers.0.0.weight f4 [64, 32]
0.08881715 -0.0666137 -0.05051182 -0.05185875 0.09012567 -0.08798819 0.084300175 -0.09636468
0.0051165665 0.104262486 -0.018525306 0.0749993 0.18640606 -0.05876334 0.097049035 0.111926325
0.07446563 0.04280594 0.04281972 0.07063064 0.08116681 -0.085216165 0.06797217 -0.04493442
0.13017602 -0.13707857 0.08583519 0.06788034 0.01368065 -0.19954616 0.08920904 0.060557693
-0.1443487 0.08095937 -0.15968513 -0.0909598 -0.16189216 0.06654371 -0.06544479 0.13395359
0.0042934525 -0.057983942 0.055284575 0.0043263193 -0.14157893 -0.14845867 -0.13518894 -0.037108656
-0.061892025 -0.16015604 -0.042315565 -0.09642131 -0.17539 -0.038920205 -0.09060195 0.083626814
-0.13641502 0.10093419 0.14991553 0.15290835 0.084826685 -0.088662066 0.08390312 -0.01881717
0.14081272 0.07733644 -0.07687926 0.1823582 -0.071277484 -0.06148276 -0.071365006 -0.009051268
0.03306158 -0.07891638 -0.1212349 0.12997462 0.02429733 0.16130985 -0.09722297 0.08113706
-0.0927423 0.15975064 0.17384537 0.069057256 0.12899122 0.008256267 -0.039530035 0.15702033
0.14202234 -0.01982226 -0.07220605 -0.0257903 -0.016232777 0.04997884 -0.04000458 -0.15819862
-0.009434523 -0.07610622 -0.022777462 -0.08887773 -0.11589702 0.025443943 0.072668985 0.15213925
-0.10615635 -0.03335109 0.039248284 0.03206549 0.06162118 0.034625325 -0.0022107533 -0.04196456
0.13034807 0.14902595 -0.18331182 -0.019896228 0.11880632 -0.013721328 -0.11231527 -0.02088774
-0.031206926 -0.081948414 -0.052961543 0.10379647 0.034646783 -0.095177785 -0.020339198 0.0014832412
-0.016808948 -0.050293036 -0.103372045 -0.06397352 -0.036684774 -0.06837382 -0.031583652 0.072206154
-0.10021198 0.017745307 -0.028803134 0.020733917 0.017567143 -0.03375284 0.00808238 0.006547437
-0.06547458 -0.07952177 0.07167731 -0.130248 -0.11936232 -0.058056075 0.044756155 -0.044503152
-0.023069203 0.08173268 -0.07786331 -0.07582154 0.021131782 -0.04973311 -0.119598925 -0.06496002
0.0041935756 0.049787536 -0.039954912 0.15764706 -0.014656187 0.011078864 0.12769204 0.08706616
0.0905552 -0.10023726 -0.013339638 -0.015014946 0.022178315 0.07551672 -0.0795995 -0.1395123
-0.0859766 -0.11120215 0.075101346 -0.022700125 0.087387525 0.040693935 -0.028215049 0.18967877
0.19829652 0.046201736 0.19284856 0.19843264 0.14701925 -0.011898148 -0.09592699 0.16688573
0.16903488 0.011979894 -0.15951489 0.064372644 0.07223101 0.050330125 0.14814949 -0.10669851
0.026437717 0.17332421 0.08898402 -0.1247064 -0.06535318 -0.020425415 0.11418606 0.005004028
-0.014789815 0.0060558505 0.123722486 -0.046034675 -0.086906776 0.20350166 0.055661656 0.090996474
-0.0019736148 -0.15679148 -0.042668022 0.10616 0.13708253 0.05282419 0.096541874 -0.18119262
-0.01366961 0.06596105 -0.13831617 -0.07854819 0.015377697 -0.08519734 -0.13798636 0.042549595
-0.046667438 -0.08572062 -0.05479154 -0.07111097 -0.11400331 0.06671364 0.11655186 -0.023844868
-0.13211755 -0.025731608 -0.18100034 0.01946795 -0.04303975 -0.02525876 -0.13613826 -0.00041216778
0.10841424 -0.107384294 -0.11115123 0.10500109 0.13338631 0.18098009 -0.1307191 -0.0842628
00000000: c4e5 b53d c36c 88bd 7be5 4ebd d769 54bd
00000010: cf93 b83d 2733 b4bd 92a5 ac3d d85a c5bd
00000020: dfa8 a73b 9287 d53d 62c2 97bc 3c99 993d
00000030: 3be1 3e3e d4b1 70bd a5c1 c63d a139 e53d
00000040: 7081 983d 4855 2f3d bb63 2f3d cca6 903d
00000050: c93a a63d d085 aebd fe34 8b3d 280d 38bd
00000060: dd4c 053e 535e 0cbe 5cca af3d d904 8b3d
00000070: ce24 603c d455 4cbe 3bb3 b63d 580b 783d
00000080: 25d0 13be 07ce a53d 8084 23be 2249 babd
00000090: 0fc7 25be 1248 883d eb07 86bd 212b 093e
000000a0: 17b0 8c3b 9280 6dbd 1472 623d ccc3 8d3b
000000b0: 11fa 10be 8d05 18be f86e 0abe 3fff 17bd
000000c0: 7e82 7dbd f2ff 23be 1653 2dbd 8978 c5bd
000000d0: 7099 33be cb6a 1fbd 848d b9bd 8944 ab3d
000000e0: 61b0 0bbe 96b6 ce3d 7583 193e 0294 1c3e
000000f0: 9db9 ad3d 7594 b5bd 66d5 ab3d 7726 9abc
00000100: 3631 103e 9162 9e3d e072 9dbd 1cbc 3a3e
00000110: eef9 91bd 59d5 7bbd d127 92bd c54b 14bc
00000120: 946b 073d e99e a1bd 014a f8bd 1118 053e
00000130: 320b c73c 692e 253e d61c c7bd 302b a63d
00000140: adef bdbd ac95 233e 8504 323e e46d 8d3d
00000150: 4616 043e 4b45 073c 3fea 21bd f0c9 203e
00000160: 4e6e 113e 4b62 a2bc c4e0 93bd 2e46 d3bc
00000170: 9afa 84bc 9db6 4c3d d8db 23bd d2fe 21be
00000180: 4293 1abc 94dd 9bbd cd97 babc 8705 b6bd
00000190: 6b5b edbd d16f d03c 7ad3 943d 64ca 1b3e
000001a0: 8068 d9bd 279b 08bd cfc2 203d 1a57 033d
000001b0: 7e66 7c3d 49d3 0d3d 49e2 10bb 08e3 2bbd
000001c0: f779 053e 429a 183e 18b6 3bbe 6afd a2bc
000001d0: ba50 f33d 6ccf 60bc 8c05 e6bd c41c abbc
000001e0: aba5 ffbc 92d4 a7bd 34ee 58bd 3e93 d43d
000001f0: c9e9 0d3d 92ec c2bd 649e a6bc 5169 c23a
00000200: ebb2 89bc 1200 4ebd b9b4 d3bd 8d04 83bd
00000210: c642 16bd 9307 8cbd dc5d 01bd d2e0 933d
00000220: f03b cdbd 9b5e 913c 8df4 ebbc 2dda a93c
00000230: f8e8 8f3c 6b40 0abd f56b 043c e28b d63b
00000240: 8917 86bd 4fdc a2bd 8ecb 923d bb5f 05be
00000250: 3b74 f4bd 35cc 6dbd 3b52 373d f048 36bd
00000260: a0fb bcbc 7763 a73d cd76 9fbd 5348 9bbd
00000270: 8f1c ad3c f2b4 4bbd 48f0 f4bd c209 85bd
00000280: 436a 893b 04ee 4b3d c3a7 23bd 3b6e 213e
00000290: 8120 70bc 2084 353c b4c1 023e be4f b23d
000002a0: 0175 b93d 3149 cdbd 7f8e 5abc 4001 76bc
000002b0: 4caf b53c 83a8 9a3d 1005 a3bd 50dc 0ebe
000002c0: 8014 b0bd f4bd e3bd bcce 993d 9df5 b9bc
000002d0: 3bf8 b23d afae 263d 3f23 e7bc 273b 423e
000002e0: 3e0e 4b3e 083e 3d3d 187a 453e ed31 4b3e
000002f0: 378c 163e 73f0 42bc 5f75 c4bd 18e4 2a3e
00000300: 7b17 2d3e 5147 443c df57 23be ced5 833d
00000310: daed 933d f626 4e3d 80b4 173e c084 dabd
00000320: e993 d83c e77b 313e 413d b63d 1266 ffbd
00000330: e3d7 85bd 3353 a7bc 62da e93d d4f8 a33b
00000340: fb50 72bc 2870 c63b 3762 fd3d db8e 3cbd
00000350: 2efc b1bd bd62 503e 7afd 633d 5c5c ba3d
00000360: c357 01bb f28d 20be aac4 2ebd 6a6a d93d
00000370: 5d5f 0c3e 2e5e 583d bfb7 c53d 8f8a 39be
00000380: 80f6 5fbc 9616 873d c1a2 0dbe e0dd a0bd
00000390: bcf2 7b3c f17b aebd 4c4c 0dbe 7c48 2e3d
000003a0: 5b26 3fbd 4b8e afbd 186d 60bd a1a2 91bd
000003b0: 917a e9bd 29a1 883d beb2 ee3d 5056 c3bc
000003c0: d349 07be 18cb d2bc 2758 39be 407b 9f3c
000003d0: 734a 30bd 76eb cebc d467 0bbe 3918 d8b9
000003e0: 4908 de3d 4cec dbbd 42a3 e3bd d00a d73d
000003f0: 6c96 083e d852 393e 3adb 05be fa91 acbd

extract_features.fc_layers.0.0.bias f4 [64]
-0.17695792 -0.1345845 0.047343865 -0.0046605575 0.017488299 0.07908755 -0.0056202677 -0.040324114
-0.15491165 0.07473371 0.012629257 -0.010661495 0.10663709 -0.17795697 0.12448034 0.080544874
-0.032364488 0.050058525 -0.17766894 0.017155059 -0.15222016 0.009355805 0.22406155 0.1528711
-0.12176078 -0.0039721816 -0.16139944 -0.17523436 -0.023968892 -0.033227142 -0.1222274 -0.11540543
0.05425621 0.14352229 0.014011596 0.07304941 0.09643387 0.054063246 -0.009330524 -0.049174763
0.051193036 0.11197248 0.022129385 -0.078868344 -0.15271768 -0.004380694 -0.0850582 0.12200411
-0.06979459 -0.12677473 0.1408822 0.1706106 -0.07583164 0.18065286 0.0053319614 0.12114663
-0.023660878 -0.15342915 0.076149285 -0.10940101 0.14801252 -0.08879578 0.15392077 0.109362796
00000000: 7534 35be 85d0 09be a4eb 413d 97b7 98bb
00000010: 9f43 8f3c a7f8 a13d 392a b8bb e62a 25bd
00000020: 29a1 1ebe fd0d 993d f1ea 4e3c 8dad 2ebc
00000030: 8c64 da3d 5a3a 36be 8cef fe3d b6f4 a43d
00000040: a090 04bd 2b0a 4d3d d9ee 35be c488 8c3c
00000050: 9adf 1bbe 1749 193c 6470 653e 3e8a 1c3e
00000060: b75d f9bd 1329 82bb e545 25be a370 33be
00000070: 695a c4bc 2f19 08bd 5c52 fabd af59 ecbd
00000080: c23b 5e3d 82f7 123e e590 653c ee9a 953d
00000090: 1f7f c53d 6c71 5d3d 0edf 18bc 7a6b 49bd
000000a0: caaf 513d d451 e53d af48 b53c ba85 a1bd
000000b0: 0662 1cbe ed8b 8fbb fe32 aebd 4add f93d
000000c0: 77f0 8ebd 3cd1 01be 6c43 103e 8cb4 2e3e
000000d0: 9e4d 9bbd 10fd 383e bcb7 ae3b b91b f83d
000000e0: 75d4 c1bc 881c 1dbe 28f4 9b3d a30d e0bd
000000f0: 9890 173e 90da b5bd 689d 1d3e 9af9 df3d
