data/FeatModel_tmp.pth (torch_old, 419996 bytes, 353 tensors)

level1.conv.weight f4 [8, 3, 3, 3]
00000000: 50f5 09be 1163 1f3e f15b ccbd c1e7 a4be
00000010: 96af 2e3e 8c86 c93d bd5a e2bd d626 233d
00000020: a0d3 253d 3938 95be b4df 263e 4c3d 073d
00000030: 9da6 c2be f2d5 633d 0b1f 51bd dfc0 833e
00000040: 9a38 9a3d cf5e 48bd 4595 033e 5b46 92be
00000050: a8aa 28be 3600 debe 9203 d7bd 0ee2 8a3e
00000060: a8a4 083d f1e6 6a3c 3bd6 8c3e 5eb6 9abd
00000070: 353d 923e 954d 5e3d 4895 8cbe a7e0 aa3e
00000080: 9441 063d 93de a7be 6636 87bd 61d7 83be
00000090: b333 8cbd 65d5 463c b250 4e3e d044 c8be
000000a0: 7668 52bd 12ff b3bb c53b 15bc d5b5 66bd
000000b0: 3157 09be 646e b8bd 936a d73d 3e69 083e
000000c0: e4ce bdbe 9b0a 753d 70ff 763d 7d4d 93be
000000d0: 12c0 91be 4034 eabd 80ba 93be 90f0 d33d
000000e0: d099 77be 6222 28be 75fa 5d3e 4cbb 6c3e
000000f0: 06bf 3dbd fbfd 04bd d1f9 b53c 7854 09be
00000100: c7a0 c13e 5bdb aabb e0ba 1bbe c2b4 203e
00000110: 99fc 353e ca6b 38be 0d08 613c 9785 0f3d
00000120: b6af 213e 8502 ef3d 8d3a 8bbd af58 f4be
00000130: b54c 8abd 7e4f debd 46ea 2fbe 116c 70bd
00000140: 7d9d b8be 886c f5bc 08e6 863e b80e 24be
00000150: 12c7 f5bd c22c ee3c 0d8d 75be 7cd9 1e3e
00000160: 83e1 393e d7d3 2a3c 02c3 853e 5b8b b9bd
00000170: 3709 33be 7c57 b7bd 1566 b83e e781 58bc
00000180: 51dd 6fbe 1d06 62be d646 eebc 6b1f 183e
00000190: 7c23 083f 3cd6 c8bd 06e3 393c ed33 753e
000001a0: cff7 e53d 7186 79bc d67b 78be fd7e a93e
000001b0: 6eae 2cbe 426d 46b8 89a1 b63d 32a2 32bc
000001c0: 43b8 26bd 4d02 4a3e 7e6e 533d dd4e a53d
000001d0: 03a9 50bb e8da fcbd 71dd 08be 323b 2b3e
000001e0: 4db7 66be e59a 72be b506 7cbe c62e 9abc
000001f0: a176 db3d 3fc6 d8be 8061 bdbe e79d 91be
00000200: 5100 243e 6491 92be 443f 7c3e 920e 3e3d
00000210: c2aa ab3e fd0d bebc 5bad 07bd bb4d b33d
00000220: f379 be3d 1a99 c6be 49dc c03d ee3b 163d
00000230: 2cea 8fbe e99a fdbd 6b14 a23d d0af 7f3e
00000240: 5a09 2bbe 9195 d33d 150c 3abe de1c 933e
00000250: 5a5a 253e 65e8 933b 07cf 76be 36a9 c2bd
00000260: 17f8 a5bd 85c1 4fbe 017a 6abd 0738 9bbe
00000270: ed0c 413e 1267 093e bc60 87be 0bcc 083e
00000280: 1b0e 9dbd aea4 923e a268 a7bc 11b2 bbbd
00000290: 2a09 9a3e cf3d 0c3e cc18 403e 705b 573e
000002a0: 0167 aabd 4119 8c3e 8a23 c63e 5765 263d
000002b0: 3845 d23d dd98 69bd 021f b73a 6b90 8b3e
000002c0: 24fc e73e ff86 f33d 0ea7 0d3e dabd 023e
000002d0: 1327 203e 8a5d 3abd 493b 543e f4f1 8b3d
000002e0: 773c 133f 2e0b 3c3d d010 213e d81e 23be
000002f0: 6d7b 4dbd 324a 193e ccfc 333e 9d44 553e
00000300: fedf 2ebd 87c2 e33c a74d 5fbc 7fa7 40bd
00000310: c581 8abd 1d21 9d3e 76b3 273e 321a 703d
00000320: f374 9d3e 20f4 1e3d 5b67 8e3e 8f12 18be
00000330: ab73 cfbb 0ba1 05be 0740 223e c016 803e
00000340: 0d07 8c3d a190 2e3f 4273 6b3e 40d6 8c3e
00000350: 12d9 3bbe a87b 83be 78d6 903e 8017 d63e
-0.13472486 0.15565135 -0.09978474 -0.32208064 0.17059168 0.09840116 -0.11052463 0.03983196
0.040485024 -0.29144457 0.16296273 0.03301744 -0.3801774 0.055623956 -0.051054996 0.25733086
0.07530327 -0.04891854 0.1284991 -0.28569302 -0.1647135 -0.43359536 -0.10498728 0.2712559
0.033360153 0.014337287 0.27507195 -0.07554315 0.28562322 0.054273207 -0.27457643 0.3337452
0.032777384 -0.32786998 -0.066021726 -0.2575026 -0.06845798 0.012135838 0.2014797 -0.39115
-0.051369153 -0.0054930532 -0.009108488 -0.056325752 -0.13412167 -0.0900543 0.10518374 0.13321397
-0.37071908 0.059824567 0.060302198 -0.28770056 -0.2846685 -0.11435747 -0.28853226 0.10348618
-0.24179769 -0.16419366 0.21677573 0.23118323 -0.046324752 -0.032468777 0.022213848 -0.13411129
0.37817976 -0.0052141375 -0.15208006 0.15693954 0.1777214 -0.18009868 0.01373483 0.03503951
0.15789685 0.116704024 -0.06798277 -0.4772391 -0.06752912 -0.10855006 -0.17179212 -0.05869681
-0.36057654 -0.029958978 0.26347375 -0.1602124 -0.1200086 0.029074077 -0.23979588 0.15512651
0.18152432 0.010426483 0.26125342 -0.09059783 -0.17483984 -0.08952233 0.36015382 -0.013214565
-0.2342427 -0.22072645 -0.029086512 0.14855735 0.53179145 -0.09806487 0.0113456305 0.2394559
0.11228906 -0.015229807 -0.2426599 0.33104697 -0.16863415 -4.7308633e-05 0.08917529 -0.010902928
-0.04070307 0.1972744 0.051619045 0.080716826 -0.003183902 -0.123464406 -0.13365723 0.167218
-0.22530861 -0.236919 -0.24611934 -0.018821131 0.10715986 -0.4233875 -0.3698845 -0.28440782
0.16015746 -0.2862655 0.24633509 0.046400614 0.33528715 -0.02320003 -0.03312431 0.0875506
0.09300604 -0.38788682 0.09417016 0.036678247 -0.28108346 -0.123830624 0.07914051 0.24969411
-0.16702786 0.10331262 -0.18168671 0.2873296 0.16147748 0.0045137876 -0.24102412 -0.09504931
-0.0810396 -0.20288666 -0.05724526 -0.30316183 0.18852587 0.13418224 -0.2644099 0.13359086
-0.07668706 0.28641266 -0.020435635 -0.09164823 0.30085117 0.13695453 0.1875946 0.21030974
-0.08320428 0.27363017 0.3869899 0.04062399 0.10267109 -0.057030547 0.0013971033 0.2725862
0.45309556 0.11890983 0.13833258 0.12767735 0.15639906 -0.045499362 0.2072574 0.06833258
0.5751414 0.0459091 0.1572907 -0.15929735 -0.050166536 0.1496971 0.17576903 0.20826955
-0.042694084 0.027802719 -0.013629354 -0.047034737 -0.06763033 0.30689326 0.16377053 0.05861873
0.30753288 0.038807034 0.2781323 -0.1485083 -0.0063309274 -0.13049714 0.15844737 0.25017357
0.06837282 0.68189436 0.22993186 0.2750721 -0.18344525 -0.2568028 0.28288627 0.41814804

level1.bn.weight f4 [8]
00000000: 579c 5d3f abdd 5d3f e61d 753f 5573 813f
00000010: db38 893f d492 833f c713 6f3f 19ae 6d3f
0.8656668 0.86666363 0.95748746 1.0113322 1.0720476 1.0279183 0.9338955 0.92843777

level1.bn.bias f4 [8]
00000000: ae69 803d 4c1f c0bd 45fc 243c 232a b33d
00000010: 7033 9b3d fedf a63d 79fd 263c 9695 38bc
0.06270157 -0.093809694 0.010069911 0.08748271 0.0757817 0.08148192 0.0101922685 -0.011266133

level1.bn.running_mean f4 [8]
00000000: e173 b4bf b82a 69c0 39dc 09c0 b7cf ff3f
00000010: 2604 29c0 7c6e 98bf db42 ff40 fe9b ea40
-1.4097863 -3.6432323 -2.1540663 1.9985265 -2.6408782 -1.1908717 7.976911 7.331542

level1.bn.running_var f4 [8]
00000000: 5e13 803f 32d0 a640 7f56 f13f 2b6c b83f
00000010: 902c 2040 565c 263f 9b7d b341 8ca2 9641
1.000591 5.2129145 1.8854522 1.440801 2.5027199 0.64984643 22.43633 18.829369

level1.act.weight f4 [8]
00000000: cdb2 9c3e e0a6 323e cfc0 c03e cc10 703e
00000010: 9843 923e 5aa1 e33e c844 8b3e af0e 863e
0.30605164 0.1744647 0.376471 0.23443907 0.28567195 0.4445904 0.27200913 0.26183078

level2_0.eesp.proj_1x1.conv.weight f4 [4, 4, 1, 1]
00000000: cc67 87bf 630a 31be 5346 a6bf 002e 24bf
00000010: e3db 64be dc85 e6be 5ab7 1fbf a3e9 5bbe
00000020: f77b ac3e af54 90bf bcb5 65bf 4eda 5ebf
00000030: a946 313f cc6a 043f 77d6 0fbf e567 33bf
-1.0578551 -0.17289118 -1.2990211 -0.6413269 -0.22349505 -0.45024002 -0.6238915 -0.21475844
0.33688328 -1.1275843 -0.8973043 -0.87051857 0.69248444 0.5172546 -0.5618662 -0.70080405

level2_0.eesp.proj_1x1.bn.weight f4 [4]
00000000: 8f98 863f e101 943f 8d86 6f3f 7091 4b3f
1.0515307 1.1563073 0.93564683 0.79518795

level2_0.eesp.proj_1x1.bn.bias f4 [4]
00000000: e5ed 73bd 5177 debc b0ab 02be f568 6b3e
-0.059553046 -0.027156504 -0.12760806 0.22989257

level2_0.eesp.proj_1x1.bn.running_mean f4 [4]
00000000: c1b3 7fbf 1475 e9be 4467 46bf 71c9 243d
-0.9988366 -0.45597136 -0.7750132 0.040231172

level2_0.eesp.proj_1x1.bn.running_var f4 [4]
00000000: a144 f33f ab00 023f 8b8e f83e a4e0 2040
1.9005319 0.5078227 0.48546252 2.513711

level2_0.eesp.proj_1x1.act.weight f4 [4]
00000000: 5fdd 9b3e 53f6 803e 533a 883e 0166 ea3e
0.3044233 0.2518793 0.26606998 0.45780948

level2_0.eesp.spp_dw.0.conv.weight f4 [4, 1, 3, 3]
00000000: 4b89 bebe 8fe4 93be 8787 cabd 54e3 ae3e
00000010: 34c0 e6bd b630 103f 2d29 e7bd 3395 40bd
00000020: d01e 82bd 174b 0abe 2d07 b83d 2c12 983e
00000030: e54d fa3e 493d 05be 5947 6b3e 0c88 0cbe
00000040: d246 e63e f5df 08bf 3414 17be 0dfe 4c3e
00000050: cba1 d23e 5bd7 36be 7677 b23d ec01 c2bd
00000060: 1870 01bf af95 b33e 1734 05be 4a3e 20be
00000070: 3c7c 8bbc 5eab d53d d394 123e c6b9 bf3e
00000080: 6a72 98be ea06 0fbf 1c92 86be af1b a03c
-0.3721412 -0.28885314 -0.09889131 0.34157813 -0.112671286 0.56324327 -0.112871505 -0.047017287
-0.06353533 -0.13505207 0.08985744 0.29701364 0.48887554 -0.1301166 0.22976436 -0.13723773
0.44975907 -0.5346673 -0.147538 0.20018788 0.41139063 -0.17855589 0.087141916 -0.09473023
-0.50561666 0.35075137 -0.13008152 -0.15648761 -0.017027013 0.10433076 0.14314584 0.3744642
-0.2977479 -0.55869925 -0.26283348 0.01954445

level2_0.eesp.spp_dw.1.conv.weight f4 [4, 1, 3, 3]
00000000: 0dd5 d4bd 046b f83d ff73 7a3d 501b 933e
00000010: f81e 40be 538b 66be b910 a7bd 3e38 51be
00000020: da5f 603e 69af d33d f263 46be f317 403e
00000030: b80c 04bf a020 583e b48d 133e 7cb8 0c3c
00000040: 93ed c53e 2fcb 71be 6f3e e13e e9b7 f4be
00000050: 93ed 9fbe d38c f03c b7d8 89bd 5952 ae3e
00000060: 9df1 9fbd a996 063d 546e 4dbe a1cb 773d
00000070: e43e 9fbe b939 04bf 7b1a 023e 7a51 813c
00000080: 78ae 6bbe 56e6 79bd a2fd a43d f133 b03e
-0.10392199 0.121297866 0.06114578 0.28731775 -0.18761814 -0.22514085 -0.081574865 -0.20431611
0.21911564 0.10336191 -0.19374064 0.18759136 -0.5158191 0.21106195 0.14409524 0.008588906
0.38657817 -0.23612665 0.43992946 -0.47796562 -0.31235942 0.029364025 -0.06730788 0.340472
-0.07809756 0.032858524 -0.20061618 0.06049693 -0.3110267 -0.5165058 0.12705414 0.015785921
-0.23015773 -0.06101068 0.08056189 0.34414628

level2_0.eesp.conv_1x1_exp.conv.weight f4 [8, 4, 1, 1]
00000000: abfa 92bd d350 913e 30bc 983f b3ba dbbc
00000010: 9b96 cd3e a45a d13d 3362 34bf d099 f8be
00000020: 40cc 573d fa22 83be 2911 483f 46e6 13bf
00000030: c4da ea3d 94c7 223e 0220 12bf 35cb aebd
00000040: 4b8c 603e 95fa 13bf 409f ab3f 06ef 73be
00000050: 14e5 b73e 2d26 aa3e 20d7 413c ed92 bb3e
00000060: eafa 19be 21d8 373e 4c61 023e 254a aebe
00000070: e771 3dbf 5170 163f 6b82 70be 42d7 843e
-0.07176717 0.28381976 1.193243 -0.026822424 0.40153965 0.102223665 -0.7046234 -0.4855485
0.052685022 -0.25612622 0.78151184 -0.57773244 0.114675075 0.15896446 -0.5708009 -0.085348524
0.21928518 -0.5780423 1.3407974 -0.23821649 0.3591696 0.3323225 0.011831075 0.36635533
-0.15037122 0.1795354 0.12732428 -0.34040943 -0.74001926 0.5876513 -0.2348725 0.2594548

level2_0.eesp.conv_1x1_exp.bn.weight f4 [8]
00000000: 7968 923f ac3a 503f b694 923f e2f5 813f
00000010: 13a0 a13f 8ad5 813f 9ce2 673f 8e1d 4c3f
1.1438133 0.81339526 1.1451633 1.0153162 1.2626976 1.0143292 0.90580153 0.79732597

level2_0.eesp.conv_1x1_exp.bn.bias f4 [8]
00000000: 359d 6e3d 7dee 90be 7aae f33d 4bcf 4bbc
00000010: bc17 6ebc 33bd a7bd 0121 64bd 7979 32be
0.058255393 -0.28306952 0.11898513 -0.012439559 -0.014532026 -0.08190384 -0.055695537 -0.1742915

level2_0.eesp.conv_1x1_exp.bn.running_mean f4 [8]
00000000: 4805 323e 1446 d4bd 7963 fabd 1549 e4bc
00000010: 30aa 4b3e 24b3 9e3e 18c6 86bd abf0 4fbd
0.17384827 -0.10364929 -0.12226004 -0.02786688 0.1988914 0.30996048 -0.06580752 -0.05076663

level2_0.eesp.conv_1x1_exp.bn.running_var f4 [8]
00000000: 719c 9a3f 9a5b ce3e 94b1 323f 9bf4 8b3e
00000010: f907 7e3f 63f0 0f3e 77a8 283d c10d 643f
1.2078992 0.4030426 0.6980221 0.27335057 0.99230915 0.14056544 0.041176286 0.89083487

level2_0.eesp.br_after_cat.bn.weight f4 [8]
00000000: 466e 423f 4f05 523f 9290 a43f 73c2 5c3f
00000010: 07b9 823f b754 693f 2e81 913f 0fa5 783f
0.75949514 0.8203935 1.2856619 0.86234206 1.0212716 0.9114489 1.1367548 0.9712686

level2_0.eesp.br_after_cat.bn.bias f4 [8]
00000000: d3e6 933d 1911 4abe 053e cebd d6a7 0cbe
00000010: 7361 bc3d e48d 5cbd 8196 c9bd 0a42 2cbd
0.072217606 -0.19733085 -0.10070423 -0.137359 0.091982745 -0.053846255 -0.098431595 -0.042055167

level2_0.eesp.br_after_cat.bn.running_mean f4 [8]
00000000: b125 babc c691 433e 09df 6e3c 339a 6cbe
00000010: 5673 3dbd 1bc9 673e 4d8d 45bd 4ce1 d7be
-0.02272305 0.19098577 0.014579543 -0.23105697 -0.04625257 0.2263531 -0.048230458 -0.42164075

level2_0.eesp.br_after_cat.bn.running_var f4 [8]
00000000: 12bf 3a3d 4d27 063e 78b3 c33d 1d83 3d3e
00000010: c5a5 bb3d a84d 623e d897 203e 309c 083f
0.045592375 0.1310093 0.09555715 0.18507047 0.091624774 0.22099936 0.15682924 0.53363323

level2_0.eesp.br_after_cat.act.weight f4 [8]
00000000: 2dc1 1c3e d1ba 053e b551 af3e 5889 8d3d
00000010: ef8c 813e b5be 803e 3a58 35bc 042b 823e
0.15308066 0.13059546 0.34242025 0.06910962 0.25302836 0.25145498 -0.011068398 0.25423443

level2_0.eesp.module_act.weight f4 [8]
00000000: 0000 803e 0000 803e 0000 803e 0000 803e
00000010: 0000 803e 0000 803e 0000 803e 0000 803e
0.25 0.25 0.25 0.25 0.25 0.25 0.25 0.25

level2_0.inp_reinf.0.conv.weight f4 [3, 3, 3, 3]
00000000: 1055 24bd e13a 7f3f 161c 373e 0d02 053e
00000010: fce1 ca3e e30c 42be 8f82 c5be 34c4 03be
00000020: 691d 7bbe 34f7 f7be d901 b73c a253 dfbe
00000030: 0827 7d3d 9310 293d db4f 3b3e 087e 59be
00000040: b09d b93a 379d 03bd 1b41 6a3d 59af ae3c
00000050: 95bb 023f 04a1 c13e 0587 013f 05f9 3fbe
00000060: f9d2 d0bd f240 0e3f 0e30 0a3f 77eb a33e
00000070: ed88 73be dee4 abbe 825f f1bd 1584 273d
00000080: 9194 293e ae18 49be cecf 9bbe 441e 83be
00000090: 0a1c f8bc da71 32bf 3d0f 1cbe 07f9 3bbd
000000a0: 42a4 833c 687e 36be a427 03bc 8ab1 4cbf
000000b0: 29d7 f23d 31c2 6d3e 42b6 303d df8f 3a3e
000000c0: 5825 cc3e 90bd 273f e737 fe3d 7fd0 fa3d
000000d0: 8ba2 2e3f c4c6 e93e 2a55 953d b68a b1bd
000000e0: d408 30bf fa56 61be 0588 8cbd 034c 37bd
000000f0: 71a7 ec3c 5f4c 2dbc e79d 8ebd b515 013f
00000100: f231 333e 91d0 b53d 3e86 bbbd ce6d 65be
00000110: 9149 8b3e df8b 57bd b60c 4f3e a8e5 a63e
00000120: 3834 333e f29f b53e 3a5c c3bd a0af 8d3d
00000130: 75b3 4b38 a535 d8bc a292 06bf 0745 cbbc
00000140: 9c9f 93be
-0.040120184 0.9969922 0.17881808 0.12989064 0.39625537 -0.18950228 -0.3857617 -0.12867814
-0.24522938 -0.4843079 0.022339748 -0.43618494 0.0618048 0.041275572 0.18292181 -0.21239483
0.0014161374 -0.032132354 0.057190996 0.021323847 0.5106748 0.37818158 0.5059665 -0.18747337
-0.1019649 0.5556785 0.53979576 0.32015583 -0.23782702 -0.3357305 -0.11785795 0.040897448
0.1656058 -0.19638321 -0.3043198 -0.25609028 -0.030286808 -0.69704974 -0.15240188 -0.045891788
0.016069535 -0.17821658 -0.0080050565 -0.79958403 0.11857445 0.2321861 0.043142565 0.18218945
0.3987224 0.65523624 0.12413006 0.12246799 0.6821677 0.4565946 0.072916344 -0.08669035
-0.6876347 -0.22005835 -0.06861881 -0.044750225 0.028888436 -0.01057729 -0.06963711 0.5042375
0.17499521 0.088776715 -0.09156464 -0.22405168 0.27204564 -0.052623626 0.20219693 0.3259709
0.17500389 0.3547359 -0.09539075 0.069182634 4.8566104e-05 -0.026392767 -0.52567494 -0.024813188
-0.2883271

level2_0.inp_reinf.0.bn.weight f4 [3]
00000000: a37f 713f 6b71 7f3f ce3e 8d3f
0.94335383 0.9978244 1.1034791

level2_0.inp_reinf.0.bn.bias f4 [3]
00000000: 8ca9 45bd 321a 193e 9f33 edbd
-0.048257396 0.14951399 -0.115821116

level2_0.inp_reinf.0.bn.running_mean f4 [3]
00000000: 071a 9b40 9b8d da3e 5d67 0fbf
4.846927 0.4268616 -0.56017095

level2_0.inp_reinf.0.bn.running_var f4 [3]
00000000: 4d70 0041 6548 793e e9f1 a93e
8.027417 0.24344023 0.33192375

level2_0.inp_reinf.0.act.weight f4 [3]
00000000: 74df cc3e 740e db3e 1ea2 b03e
0.4001423 0.42784464 0.34498686

level2_0.inp_reinf.1.conv.weight f4 [16, 3, 1, 1]
00000000: 2733 bb3d 99fe cb3e 784d b03e 1506 543d
00000010: 2286 b6be c617 093f 27a1 70be b6c0 ce3e
00000020: eaf4 e53e b1b4 37bf d0f6 4c3f 210e 123e
00000030: 12f8 1dbd 5d86 493c 9414 37bf 7ef1 87be
00000040: d337 133e 7a16 953e 844a 85be dcfc 18be
00000050: 346d 17be bbd2 6ebe b564 b3be 64ad 363d
00000060: d918 e53b 1556 3dbf b571 143e 1d91 5ebe
00000070: 0954 233f 5164 33be faeb 873e 9eb0 79be
00000080: 0038 ef3e f220 2d3d 7608 b0bf 4c9a 16bd
00000090: c249 8f3c 120e 983c c961 983f a5d5 d63c
000000a0: 0790 8ebe 8ed4 173f 5484 5fbd 1171 cc3e
000000b0: e1d3 133e c0df b0be 1326 9abe a90a 05be
0.09140616 0.3984268 0.34434104 0.051763613 -0.3564921 0.535519 -0.23498975 0.40381402
0.44913417 -0.7176009 0.80064106 0.14263202 -0.038566656 0.012300101 -0.71515775 -0.2655143
0.14376764 0.2911871 -0.26033413 -0.14940208 -0.14787751 -0.23322575 -0.3503777 0.044598952
0.0069914875 -0.73959476 0.14496501 -0.21735044 0.638001 -0.17518736 0.26547223 -0.2438378
0.46722412 0.042267747 -1.3752582 -0.036768243 0.017491225 0.018561397 1.1904842 0.02622492
-0.2784426 0.5930871 -0.054569557 0.39930013 0.14436294 -0.34545708 -0.30107173 -0.12992348

level2_0.inp_reinf.1.bn.weight f4 [16]
00000000: 7157 8f3f fef5 7e3f d8ab 8e3f ba83 9a3f
00000010: 4ef7 473f fb1a 813f c0ea 853f 0287 803f
00000020: c7f6 853f 4a87 813f 18f7 783f e305 783f
00000030: 03a2 863f 8370 7b3f 5805 913f 2081 703f
1.119856 0.99594104 1.1146193 1.207145 0.7811173 1.0086359 1.0462265 1.0041201
1.0465935 1.0119412 0.97252035 0.9688398 1.0518192 0.98218554 1.1329756 0.9394703

level2_0.inp_reinf.1.bn.bias f4 [16]
00000000: cd28 8cbd d80c 8bbd 5eb4 12be e555 9e3d
00000010: 9076 393d 14f9 33be 6c50 9c3d 9003 92bc
00000020: 359d 6e3d 7dee 90be 7aae f33d 4bcf 4bbc
00000030: bc17 6ebc 33bd a7bd 0121 64bd 7979 32be
-0.0684372 -0.06789559 -0.14326617 0.07731227 0.045279086 -0.17575485 0.07632527 -0.017823964
0.058255393 -0.28306952 0.11898513 -0.012439559 -0.014532026 -0.08190384 -0.055695537 -0.1742915

level2_0.inp_reinf.1.bn.running_mean f4 [16]
00000000: 5b03 643e 09ad 8f3a a1f0 2e3e bfca 053e
00000010: e856 18be c9b9 3a3d 1b50 0ebe 9dc0 24be
00000020: fd41 5cbe 0d2e 023e d7d6 963d ecf9 e8be
00000030: c1fa 7f3e 4ca7 053d e5ec 183e a95b 52be
0.22266905 0.0010961603 0.1708398 0.13065623 -0.14876902 0.045587335 -0.13897745 -0.16089101
-0.21509548 0.1271288 0.07365196 -0.45503175 0.24997999 0.03263025 0.14934118 -0.20542778

level2_0.inp_reinf.1.bn.running_var f4 [16]
00000000: 98f6 0f3e 9450 8c3e e9b5 643e 405d db3e
00000010: b094 9f3e 47cc da3d ebc2 393d 602a 033e
00000020: c40c b23e b047 6f3e ad8d 163e c066 883f
00000030: 286b 603f 940b 943e 4b49 bb3d 3969 f03d
0.14058912 0.27405226 0.22335018 0.42844582 0.31168127 0.10683494 0.045351904 0.12809134
0.34775364 0.2336719 0.14702483 1.0656357 0.8766351 0.28915083 0.09144839 0.1173882

level2_0.act.weight f4 [16]
00000000: afa9 e03e 1811 263e b79f 6e3d 0bc2 433e
00000010: c877 8f3e a34e 193e 346f ae3d ad79 e43d
00000020: a45f 563e 57ee 323e 0f0c 9e3e 9ffd 9b3e
00000030: 6aaa 3f3e 7cc4 933e 832d 823e 04a5 203e
0.43879458 0.16217458 0.058257785 0.1911699 0.28021073 0.14971404 0.08517304 0.1115602
0.20934922 0.17473732 0.30868575 0.30466935 0.18717352 0.28860843 0.25425348 0.15687948

level3_0.eesp.proj_1x1.conv.weight f4 [8, 8, 1, 1]
00000000: e6d7 86bd f522 41bf b631 7d3e 102d 44bf
00000010: 86ed 13bf 2129 0fbf d6a1 37bf 1194 303e
00000020: 154e e33d ad48 41be aed5 6b3f 2da8 743f
00000030: b85a a5be f31b 10bf b51f 043f ae92 76be
00000040: 5fd7 31bc b6e9 573e 328a 7f3e f5d2 c03e
00000050: a5bd 1fbf ae9d 343f 9038 e63e 074a 143e
00000060: 5090 f73e 3587 073f cb65 a83e 3487 d7be
00000070: 678a 84bf b68b 423e e3aa 193e 6e25 c4be
00000080: 693d a9be cc48 523e 27f4 62bf ed87 253e
00000090: b544 0ebf f1ed a5be cce1 303f 1f2d b4be
000000a0: a82d 51be 6e96 1b3c cae0 33bf d67d 1e3f
000000b0: 0511 c6be cab6 fd3e dd0d 7ebd f509 79bf
000000c0: 58c1 3bbf 8dcd e73d 1b3e 92bf d825 39be
000000d0: ef99 d4be 48cd 31bf 4a0a 2bbf 5a4d 1fbf
000000e0: 62e4 06be 9937 e53e 37cb 003f 8d4c 4ebd
000000f0: 6140 f73e 5649 1abe 7411 6e3f de6a 9fbe
-0.06584148 -0.75443965 0.24725994 -0.7663126 -0.57784307 -0.5592213 -0.7173132 0.17243983
0.11098877 -0.1887538 0.92122924 0.95569116 -0.32295775 -0.5629265 0.5161088 -0.24079391
-0.010854571 0.21085247 0.24955061 0.37660947 -0.6239875 0.705531 0.4496503 0.14481364
0.4835229 0.52940685 0.32890162 -0.4209534 -1.0354737 0.18998608 0.15006594 -0.38309807
-0.33054665 0.20535582 -0.88653797 0.16165133 -0.5557359 -0.32408097 0.6909454 -0.35190675
-0.20427573 0.009496314 -0.70264876 0.6191076 -0.3868486 0.4955352 -0.06202494 -0.9728082
-0.73341894 0.113185026 -1.1425203 -0.18080842 -0.41523692 -0.6945386 -0.66812575 -0.62227404
-0.13173059 0.4476898 0.5031008 -0.050365973 0.48291305 -0.15067038 0.9299538 -0.3113622

level3_0.eesp.proj_1x1.bn.weight f4 [8]
00000000: 61b1 5d3f 7609 793f 7e91 803f c4b1 8f3f
00000010: 761a 863f a83f 683f b056 a13f 5816 723f
0.86598784 0.9728006 1.0044401 1.1226125 1.0476825 0.9072213 1.260458 0.94565344

level3_0.eesp.proj_1x1.bn.bias f4 [8]
00000000: 41db 23be f7c0 22be 4152 aabd b8c7 0fbd
00000010: 051c 66bd aa10 27be 7844 d83b c4cb ecbd
-0.16001607 -0.15893923 -0.0831647 -0.035102576 -0.056179065 -0.1631495 0.006599959 -0.11562303

level3_0.eesp.proj_1x1.bn.running_mean f4 [8]
00000000: a44f e0bf c1ed 353f 06a7 693f 9a70 c9bd
00000010: 6c38 38bf 313a dfbe 4593 b9bf 61c6 173f
-1.7524304 0.7106591 0.9127048 -0.0983593 -0.7196109 -0.43599084 -1.4498068 0.5928708

level3_0.eesp.proj_1x1.bn.running_var f4 [8]
00000000: d318 ee3f b2b2 e43f 7e57 de3f 0c23 f23f
00000010: 04ac bc40 2361 1740 0c6b 2a41 b97a 6940
1.8601326 1.7867033 1.737045 1.8916945 5.895998 2.3653038 10.6511345 3.6481154

level3_0.eesp.proj_1x1.act.weight f4 [8]
00000000: 5e56 af3e 209b 313e 9c56 643e d208 433e
00000010: c6f6 bc3e e57c 9e3e 701e b43e 8771 923e
0.3424558 0.17344332 0.22298664 0.19046333 0.36907023 0.30954662 0.35179472 0.2860224

level3_0.eesp.spp_dw.0.conv.weight f4 [8, 1, 3, 3]
00000000: 9466 e33d d319 a9bd 65f6 d5bd 0cce 973d
00000010: d25e 7abe e274 02bf 065d 5ebd 5683 6fbe
00000020: 0e42 ddbd bd34 623e 646f 6cbe 5ce8 94bd
00000030: 9e11 9e3e d2a5 5d3e 2a03 c1bd c48b 873e
00000040: e1e1 06bd 5ee5 083d e9e7 80be d1f4 23be
00000050: 18f3 7a3e 6801 4f3d 779a 823c 772c 00be
00000060: 2b8f 94bc 133a aabe 0888 823d 30da 2c3d
00000070: a73f bdbe 92ef f33e cfc8 163e 6d67 5b3e
00000080: d556 48be 2c1b 603d 1103 073a 1fa9 bbbe
00000090: 1bc2 a03e fd8f b83c 1a0f 983e 6c12 9c3c
000000a0: 08be cabe 7326 abbd 36d3 853e a249 943d
000000b0: d972 a43e 8c0c d13d d705 62be a8d2 5ebe
000000c0: 73eb b0bc f8a4 d43c 2d59 8ebb 8816 a0be
000000d0: 4f59 9f3e ef1f 9c3d 3304 b1bd c0d5 8a3e
000000e0: a4ed bfbe fd59 8cbe b659 3cbe f754 19be
000000f0: 6f7b 413d f1a8 ef3c 098b 893d bdc4 323e
00000100: f041 a5bc 6546 6fbc d013 2bbe eedc 63bd
00000110: bb8c 15bf a719 a3bd 28ad bd3d 55d3 f83c
0.111035496 -0.08256879 -0.10447387 0.07412347 -0.24450234 -0.509596 -0.054287933 -0.23389944
-0.108036146 0.2209043 -0.23089367 -0.072708815 0.30872816 0.21645287 -0.094244316 0.2647382
-0.03293026 0.033421867 -0.25176933 -0.16011359 0.24506795 0.05053845 0.015942795 -0.12516962
-0.018134674 -0.33247432 0.06373602 0.042200267 -0.36962625 0.47643715 0.1472504 0.21426173
-0.19564374 0.054713413 0.0005150298 -0.36652467 0.3139809 0.022529596 0.29699022 0.019051753
-0.39598107 -0.08356943 0.26137704 0.07240607 0.32118872 0.10207471 -0.2207254 -0.21760046
-0.021596646 0.02595757 -0.0043441267 -0.3126719 0.31122825 0.07623278 -0.08643379 0.27116203
-0.37485993 -0.27412406 -0.18393597 -0.14973818 0.047236856 0.029255362 0.06715972 0.17457862
-0.020173043 -0.014604186 -0.16706777 -0.055630617 -0.5841786 -0.07963877 0.092615426 0.030374208

level3_0.eesp.spp_dw.1.conv.weight f4 [8, 1, 3, 3]
00000000: d1b6 853e 3e09 983d 84b7 103e df45 5e3e
00000010: f574 2dbd 5ef0 03bd 4f6d d23d ecb0 923e
00000020: a345 1cbe 1177 f6bd 128c 9e3d 21cd 2bbd
00000030: ecbe 42be 3b03 9c3d 20bf b7be be48 5d3e
00000040: 534b 213e b640 223d 4048 c43d 5548 9d3e
00000050: 0400 17be 0482 513e 1687 ad3c c091 623d
00000060: fd80 aa3e 7b13 f3be aea1 683e 7b3b c5be
00000070: c41f 94bd 4519 2c3e b089 2abe 2e7f 8b3b
00000080: 66a2 4abe 1353 80be 3a3c cb3e 4bc1 a73e
00000090: 25d3 9ebc bac7 2dbe 26e3 f03c eb62 713e
000000a0: 8fb0 40bd dbad 9b3d 842f 9b3d 9e7e 82be
000000b0: ab20 493e 625f 0b3e 6588 2abd 6a90 1abe
000000c0: b1c4 7ebc d520 9bbe 2b48 c7bd 0dcf 2b3e
000000d0: fad8 393e 6922 073e 959c f2bd f68c 293e
000000e0: 1a0e e6ba 33fc f13e 144a 1cbc f410 ff3c
000000f0: 3c18 bfbd e194 ad3c 146a 57be e181 143e
00000100: 8af7 8a3e 54c7 bf3e 4a2e 0f3d a4a7 333e
00000110: 6d2f 3e3e 6002 e0bc 4577 abbd 795b 0e3f
0.2611604 0.07423638 0.14132506 0.21706341 -0.042347867 -0.032211654 0.10274755 0.28650606
-0.1526094 -0.12034429 0.0774156 -0.041943673 -0.19018143 0.07617804 -0.35888004 0.2160978
0.1575139 0.039612494 0.09584093 0.30719247 -0.147461 0.20459753 0.021182578 0.05531478
0.33301535 -0.474758 0.22717926 -0.38521942 -0.07232621 0.16806515 -0.16654086 0.0042571044
-0.19788513 -0.2506338 0.39694387 0.32764658 -0.019387791 -0.16970721 0.029405188 0.2357289
-0.04704338 0.0760152 0.07577422 -0.25487226 0.19641368 0.13610604 -0.041633982 -0.15094152
-0.015549825 -0.30298486 -0.09730562 0.16778202 0.18149176 0.1319672 -0.11846272 0.16557679
-0.001755181 0.47262725 -0.009539146 0.031136014 -0.09330794 0.021189155 -0.2103656 0.1450267
0.27141982 0.37456763 0.034956254 0.17544419 0.18572779 -0.027344882 -0.08372358 0.55608326

level3_0.eesp.conv_1x1_exp.conv.weight f4 [16, 8, 1, 1]
00000000: 7436 573a ecc3 8f3c 9ab1 3bbe 25f1 80be
00000010: 21a6 98bd cf21 eb3d c8eb 6ebf 3cb7 14bf
00000020: bee3 e7be 1319 413e a1c0 af3e eb12 6dbf
00000030: c7fa 2fbe 84fc 0f3f 1d08 ebbd fe08 d53e
00000040: ffc8 26be 809f 03be 9f7c f93e 2a65 1f3e
00000050: ffd7 96bc eaea 0e3f 1598 8bbd 0230 58bf
00000060: eb23 50bc 7ca7 423f 2ea8 a03e c132 e63c
00000070: 2c0e c53e f364 b73d 17ea bf3e 1a23 283f
00000080: c07f 07bf 1e45 f53e 46c8 e73e 9c24 02bf
00000090: 9af5 8dbe d37f a9be dda5 18bf 3f0c cd3e
000000a0: 03b8 4f3d e356 653e 67d2 5fbe 1acb e3be
000000b0: 7706 8abe f2f7 9ebd 0da5 2c3f aae9 8bbd
000000c0: c1ae e3bd 3087 863e 7e26 0f3f fc6b 0b3e
000000d0: a955 7f3d 45e3 dabe 5085 05be 7999 19bf
000000e0: 71cc 223d 214b 16bf 02c8 04bd 5bbb dc3e
000000f0: eab3 693e 054e ac3e 2606 873e 4aec 84be
00000100: 7a66 41bf 055d 483d 3a9d e03d 9f42 80bd
00000110: 7784 af3e 77b9 16be 050d 8a3f 222f 6bbe
00000120: e8b2 2abe 3b1d 45be 1714 e1bc 48c5 d8bd
00000130: d937 b83d 0392 4b3e 8a3d 173d b560 1abf
00000140: ab45 833e ee54 d3be e547 59bf b202 223d
00000150: e5f0 efbd 025a 063e 5dd5 87be ac76 683c
00000160: 544c 8cbe 70da 133f 44af f2be 2c43 523d
00000170: dd9a 08bf e2a0 55bc 32d0 d23c 2df3 0fbf
00000180: 37cc 8dbd 5d9e fe3d 05a1 b1be 741f 6c3e
00000190: 02ef e63e 6b64 e2be 6366 063e 6d76 1fbe
000001a0: 3a04 a13e 9692 fb3e cef3 b9bd af27 d4be
000001b0: 631b 083f d46d 4c3e 2d47 2d3e b21c 13bf
000001c0: 2562 39be f587 df3d fcc7 17bf a81c c03d
000001d0: 0e3c 91bd 02bd 003e 8ce0 683e b6e9 33be
000001e0: 562e d63e f9df 6c3e 2102 19bf 7411 9abe
000001f0: db5f 5c3d 1f04 e4be 2aef 833f 6156 493e
0.0008209713 0.017549478 -0.18329468 -0.2518398 -0.074535616 0.11481058 -0.93328524 -0.58092093
-0.4529094 0.18857221 0.34326652 -0.9260699 -0.17185508 0.56244683 -0.11476157 0.41608423
-0.16287611 -0.12853813 0.4872789 0.15565935 -0.018413542 0.558272 -0.06816117 -0.84448254
-0.012703876 0.7603681 0.3137831 0.028100373 0.38487375 0.089548014 0.37483284 0.6567856
-0.52929306 0.47904295 0.45269984 -0.5083711 -0.27726442 -0.33105335 -0.5962809 0.40048406
0.050712597 0.22396426 -0.21857606 -0.44490892 -0.26958057 -0.077621356 0.6743935 -0.06831677
-0.11117316 0.26275015 0.5591811 0.13615412 0.06233755 -0.42751518 -0.13039136 -0.59999806
0.03974575 -0.5870839 -0.032417305 0.4311169 0.22822538 0.33653274 0.26371878 -0.25961524
-0.7554699 0.048916835 0.109674886 -0.06262707 0.3428075 -0.14719187 1.0785223 -0.22967198
-0.1666981 -0.19249432 -0.0274754 -0.105845034 0.08995027 0.19879918 0.036923923 -0.60303813
0.2563909 -0.41275734 -0.8487533 0.03955335 -0.11715869 0.13120273 -0.2652997 0.01418845
-0.27401984 0.57755184 -0.47399342 0.05133359 -0.533613 -0.013038846 0.02573404 -0.5623043
-0.069237165 0.12432549 -0.3469316 0.23058873 0.45104223 -0.44217238 0.13124995 -0.1557252
0.31448537 0.49135274 -0.09079705 -0.41436526 0.5316679 0.19963771 0.16921683 -0.5746566
-0.18103845 0.109146036 -0.59289527 0.09380466 -0.07091533 0.12572101 0.22741908 -0.17569622
0.41832227 0.23132314 -0.59768873 -0.3009144 0.053802352 -0.44534394 1.0307362 0.19661857

level3_0.eesp.conv_1x1_exp.bn.weight f4 [16]
00000000: 8dd8 8d3f 6677 943f d396 883f 3fee 903f
00000010: aacd 6d3f 0dac 5c3f 22a3 493f d196 7f3f
00000020: a658 783f f7d4 853f 2927 863f cb9a 6f3f
00000030: 6ea0 8f3f 0d0d 923f 8457 903f c520 913f
1.1081711 1.1598938 1.0671028 1.1322707 0.92891943 0.8620003 0.78764546 0.998395
0.97010267 1.0455617 1.0480701 0.9359557 1.1220834 1.1410233 1.1276708 1.1338125

level3_0.eesp.conv_1x1_exp.bn.bias f4 [16]
00000000: 3977 2ebe b48d 89bd 5eb3 98bc 1830 88bc
00000010: 5f5e 03bd 9e64 0fbd 3f47 25be dd50 7abd
00000020: d377 66bd 76ec a03d eaf2 e13d f38f 8ebc
00000030: 5ef3 fc3d 8b57 debd 990e 213d 5111 803b
-0.17037667 -0.06716481 -0.018640216 -0.016624495 -0.03207242 -0.035008065 -0.1614046 -0.061112273
-0.056266617 0.07857601 0.1103266 -0.017402625 0.12351106 -0.10856541 0.039320562 0.0039083143

level3_0.eesp.conv_1x1_exp.bn.running_mean f4 [16]
00000000: 2a02 1abf 7a8c fbbd 5c2d 20be c52f 083f
00000010: dc8e 9dbe a3d1 a23d f1ea 48be ffc3 063e
00000020: 3748 b53d 20ac 0bbe 1449 8fbe 15a8 7dbe
00000030: b0d1 9abc 1ff0 3a3e 695d fcbd 17df 1e3e
-0.6015955 -0.12282653 -0.15642303 0.5319789 -0.30773056 0.07950141 -0.19620873 0.13160704
0.088516645 -0.13639879 -0.27985442 -0.2477115 -0.018898815 0.18255661 -0.12322504 0.1551479

level3_0.eesp.conv_1x1_exp.bn.running_var f4 [16]
00000000: f0d7 053f f0f6 703f 5809 be3e c12e 1a3f
00000010: 9099 b83f 113d fb3e d4a0 833e 1d8c 093f
00000020: 11a1 143f 93a2 cf3e 337c 303f 866b 493f
00000030: 964a ba3e 61f4 3b3f 8be4 9c3e 0d7e 853f
0.5228262 0.94126797 0.37116504 0.6022759 1.4421864 0.49070027 0.2570864 0.5372942
0.5805827 0.40553722 0.6893951 0.7867969 0.3638503 0.7341977 0.30643114 1.0429093

level3_0.eesp.br_after_cat.bn.weight f4 [16]
00000000: acb6 713f 136f 863f abfc 733f e0a1 8f3f
00000010: 8bfe 533f 2eaa 863f 4945 783f 78f8 783f
00000020: 0923 673f 66ab 843f 7750 893f 55b6 693f
00000030: 51a0 7e3f 6e64 893f 5db4 823f c304 853f
0.9441936 1.0502647 0.95307416 1.1221275 0.82810277 1.0520685 0.9698072 0.97254133
0.90287834 1.0364807 1.0727681 0.9129384 0.99463373 1.0733774 1.0211293 1.0392078

level3_0.eesp.br_after_cat.bn.bias f4 [16]
00000000: 2b09 16be 8556 bcbd 7647 68bd 9c34 303e
00000010: 8615 92be bb94 94bd 0a7d 613e 1a23 1f3e
00000020: d8b5 8cbd e915 9b3c 085d 193e 65c2 95bd
00000030: 9b01 82bd a765 ca3c 09c7 a6bd 6a84 74bd
-0.14651935 -0.0919619 -0.056708775 0.17207569 -0.28532046 -0.072549306 0.22020355 0.15540734
-0.068706214 0.018931346 0.14976895 -0.073124684 -0.063479625 0.024706675 -0.08143432 -0.059696592

level3_0.eesp.br_after_cat.bn.running_mean f4 [16]
00000000: b5e3 09be 9985 bd3d f489 bdbd b896 babc
00000010: 6e18 0f3e b897 19bc 2729 2ebe f299 81bd
00000020: a462 42bd a095 753d 4eae e03c 4054 6bbd
00000030: 1dbf 2a3e 1a57 4abc 361f ccbd 8c28 b13d
-0.1346577 0.09253997 -0.09254828 -0.022776946 0.13974163 -0.0093745515 -0.17007886 -0.06328191
-0.047457352 0.059957147 0.027426865 -0.057453394 0.16674466 -0.012349868 -0.099668905 0.08650312

level3_0.eesp.br_after_cat.bn.running_var f4 [16]
00000000: 7be7 833e a31d 803e b226 1d3e 63f6 183e
00000010: f38d 653e 6c26 c53c b7e1 0a3e 5b4b 7d3e
00000020: 885a e53d 6967 a33e 705e 593e f38b b13e
00000030: 1fd7 9e3e 1820 353d 8b24 e13d 31a6 033f
0.25762543 0.2502261 0.15346792 0.14937739 0.2241743 0.024066173 0.13562666 0.24735777
0.11198908 0.31914833 0.21227431 0.34677085 0.310235 0.04422006 0.10993298 0.5142546

level3_0.eesp.br_after_cat.act.weight f4 [16]
00000000: 84f4 5a3e 7917 c83e 60a1 dc3e 95a7 d13e
00000010: 0f71 623e 9329 823e 0924 fb3e cdd2 873e
00000020: 05b0 003e a318 813e ef4c e83e 7019 a53d
00000030: 478c a23e 0887 053f 3599 833e af41 c13e
0.21382338 0.39080408 0.4309187 0.40948167 0.22113441 0.25422344 0.4905093 0.26528016
0.12567146 0.2521411 0.45371196 0.080614924 0.31747648 0.52159166 0.25702825 0.37745425

level3_0.eesp.module_act.weight f4 [16]
00000000: 0000 803e 0000 803e 0000 803e 0000 803e
00000010: 0000 803e 0000 803e 0000 803e 0000 803e
00000020: 0000 803e 0000 803e 0000 803e 0000 803e
00000030: 0000 803e 0000 803e 0000 803e 0000 803e
0.25 0.25 0.25 0.25 0.25 0.25 0.25 0.25
0.25 0.25 0.25 0.25 0.25 0.25 0.25 0.25

level3_0.inp_reinf.0.conv.weight f4 [3, 3, 3, 3]
00000000: 11e0 2fbe d8d0 c23d 4e09 cc3e 25c1 86be
00000010: aa23 e1bd 78b0 3a3e 53e6 f0be e755 fbbd
00000020: f42f 0bbe 3316 cabe bf1d b83e 9c3d 633d
00000030: 506e b4be c75d c6be f823 273e adb1 c0be
00000040: e138 683d 99e2 283e 97d1 863e 39b0 223f
00000050: aee8 5f3d 3f24 943e ecb0 113e d2c0 243e
00000060: a4d6 6bbe c6ac 543c 51ae e53d 09be 023f
00000070: 8f2c 933e 5ef5 9dbe 44b7 67be b35a 053f
00000080: 3090 4dbe 95a8 69be 4a95 b7be 914c 63be
00000090: 80fc 9fbe ceb7 813d 65a3 15be dfdb 183d
000000a0: 95de 5abc 4451 00be 4ed0 8cbe f1db e6be
000000b0: 6d40 d3be dcaf fb3d 239e 893d b0c7 8a3e
000000c0: bbdf a2be e4ad b03d 2835 7abe 97ec d33d
000000d0: 9bee 68be e02d d83d aa01 073e ce40 4cbe
000000e0: 30ce a8be 7206 d83e 1633 a23d 2594 563d
000000f0: 09f3 553e a9e2 cdbe 3b0f 503e ced2 953d
00000100: 6206 c73e 0cab ccbe 55c6 483e 3220 513d
00000110: a2ac 4b3e dba8 683d d22d 86bc 4171 07bb
00000120: 9f98 f6bd fe30 11be 9a92 cc3e 74f8 0e3e
00000130: 8059 513d 13f0 8b3e 8cf4 4bbf 9481 183e
00000140: 7dae e13e
-0.17175318 0.0951249 0.3985085 -0.26319233 -0.109931305 0.1823138 -0.47050723 -0.12272244
-0.13592511 -0.39470062 0.35960194 0.055478677 -0.35240412 -0.3874342 0.16322315 -0.37635556
0.05669487 0.1649269 0.2633178 0.63550144 0.05466526 0.28933904 0.14227647 0.1608918
-0.23031098 0.0129806455 0.11214889 0.5107122 0.28744933 -0.30851263 -0.22628504 0.5209152
-0.20074534 -0.22818215 -0.35856086 -0.22197177 -0.3124733 0.06333886 -0.14613111 0.03731906
-0.013358732 -0.12531 -0.27502674 -0.45089677 -0.4126009 0.12289402 0.06719615 0.27105474
-0.31811318 0.08626917 -0.2443434 0.1034786 -0.22747271 0.10555625 0.13184229 -0.19946596
-0.3296981 0.42192417 0.079199 0.052387375 0.20893492 -0.4021199 0.2031831 0.073155984
0.38872057 -0.39974248 0.19606908 0.051056094 0.19890073 0.056801658 -0.01637927 -0.002066687
-0.12040829 -0.14178845 0.39955598 0.13961965 0.051110744 0.273316 -0.79670024 0.1489318
0.44078436

level3_0.inp_reinf.0.bn.weight f4 [3]
00000000: 9333 803f f579 803f 6690 823f
1.0015739 1.0037218 1.0200317

level3_0.inp_reinf.0.bn.bias f4 [3]
00000000: 3b45 34be 35ed 4c3d 945a 9b3d
-0.17604534 0.050030906 0.07585636

level3_0.inp_reinf.0.bn.running_mean f4 [3]
00000000: bf9a d43e cd76 80c0 6a92 1740
0.41524312 -4.014502 2.3683114

level3_0.inp_reinf.0.bn.running_var f4 [3]
00000000: 8bec 6c40 2ebb cb40 3340 0040
3.7019374 6.366599 2.0039184

level3_0.inp_reinf.0.act.weight f4 [3]
00000000: a531 943e 1c25 c13e 019e a83e
0.28944126 0.37723625 0.32933047

level3_0.inp_reinf.1.conv.weight f4 [32, 3, 1, 1]
00000000: 8ffd c03e 5cf3 0c3f 728c 3cbe acb1 50be
00000010: ba28 a93d 1434 ddbd f435 d4bd c14b f63e
00000020: 0713 6a3d a384 37bd 3dfa 9ebc 34f3 4f3e
00000030: 35e1 cfbc e58c ef3c 0d1e 28bf afa3 803e
00000040: bd30 083d c37c 8a3e 18f5 cf3e 0f42 81be
00000050: 5338 f1be 7f01 393f 33c4 aa3d d7f7 ca3d
00000060: 9b83 b8be c08e ea3e 03fb 1d3e 6ae1 2dbe
00000070: cb00 a5be e502 b03e 6bbb d1be 8fa6 d63d
00000080: 2ea2 763d 8a52 0dbf 96b3 7a3e c569 5bbd
00000090: 8f9d 483e 513d 92be 79c0 25be 5d04 2e3e
000000a0: d11f be3c 3091 c0be 5022 6f3d ba55 f5be
000000b0: 7e3e 9dbd 273d 113f 6bcc 84be 01f2 c23e
000000c0: a242 dbbd 7e68 e8bd 7787 86be 1592 583c
000000d0: c8fc 3c3f 7f04 04bc 4f3d c53d 157a 7a3e
000000e0: 742f 8ebe 4c04 31be 3a8d 41be 5893 753d
000000f0: 7d30 493d 08c5 03bf c368 013d 5277 26be
00000100: 452c 373e 0ac3 33be 687a bd3e b9b7 58bd
00000110: 47a1 613e 6fa5 283e 5c66 dabd 8756 c93e
00000120: 3498 4c3c f504 2c3e 082a 04bf 86b8 d73c
00000130: eba6 543e 569b 21bf 4ce9 c83d 7001 c23e
00000140: 287c 11be 1647 32bd 9739 853d 4816 89be
00000150: 140b 083f 7864 5e3e ccff 8bbd 960c febd
00000160: f344 0e3f 9e4c 8fbd b57c 8d3d 93f2 1e3e
00000170: 9358 7fbe 5d68 1f3c ea61 bc3e 7e08 91be
0.3769345 0.55058837 -0.1841295 -0.20380276 0.08259721 -0.10800949 -0.10361853 0.4810467
0.057147052 -0.044804227 -0.019406432 0.20307618 -0.025375942 0.029241988 -0.65670854 0.2512488
0.033249605 0.2704831 0.4061668 -0.2524571 -0.47113284 0.7226791 0.08338203 0.09910553
-0.36037907 0.45812035 0.15427785 -0.1698052 -0.32227167 0.34377208 -0.409633 0.10480987
0.06021326 -0.5520407 0.24482569 -0.053567667 0.19591354 -0.28562406 -0.16186704 0.16993852
0.02320853 -0.3761077 0.058382332 -0.47916967 -0.07677935 0.56733936 -0.2593721 0.3807526
-0.107060686 -0.11348055 -0.26275226 0.013218422 0.73823214 -0.008057713 0.09630834 0.24460633
-0.2777058 -0.17286795 -0.1890153 0.05995497 0.049118508 -0.5147252 0.03159405 -0.16256455
0.17887981 -0.1755487 0.3700745 -0.052909587 0.22034179 0.16469358 -0.10664055 0.39323828
0.01248746 0.16798766 -0.51626635 0.026333105 0.20766799 -0.6312765 0.09810123 0.37891722
-0.14207518 -0.043524824 0.06505125 -0.26774812 0.53141904 0.21718013 -0.06835899 -0.12404744
0.5557396 -0.069970354 0.069085516 0.15522222 -0.24936132 0.009729472 0.36793453 -0.28326792

level3_0.inp_reinf.1.bn.weight f4 [32]
00000000: 27f7 7c3f dad2 5e3f 44eb 6f3f 2bf9 763f
00000010: 589f 823f 82e1 773f f899 7a3f 1513 823f
00000020: f80c 873f 0f57 853f 2700 803f 50c0 8f3f
00000030: 65bf 783f e48f 7b3f 66d9 693f 4c4a 713f
00000040: 832b 573f 3578 803f 1a7c 843f e65b 793f
00000050: cc4b 8c3f 18b6 843f 1285 813f a2c8 633f
00000060: 3e16 823f 640e 873f 1d7c 853f 4b3e 803f
00000070: c541 773f d9da 683f 76fd 743f 3064 793f
0.98814625 0.87040484 0.9371836 0.9647395 1.0204878 0.9682847 0.9789119 1.0162073
1.0550833 1.0417193 1.0000046 1.1230564 0.97167045 0.98266435 0.9134735 0.94253993
0.8405077 1.0036684 1.0350373 0.9740585 1.0960631 1.0368071 1.0118735 0.88978016
1.0163038 1.0551267 1.0428501 1.001901 0.9658473 0.90958935 0.9569925 0.974185

level3_0.inp_reinf.1.bn.bias f4 [32]
00000000: d1ab 58bd 8685 143d 0fac e4bd bd45 793d
00000010: a359 4cbd 1c46 54be 3a67 13bd c780 253d
00000020: 5e62 31bc 8385 03be be59 08bd 32f9 523c
00000030: e1bd de3b 4625 823d 837f 01be 5c5b 75be
00000040: 3977 2ebe b48d 89bd 5eb3 98bc 1830 88bc
00000050: 5f5e 03bd 9e64 0fbd 3f47 25be dd50 7abd
00000060: d377 66bd 76ec a03d eaf2 e13d f38f 8ebc
00000070: 5ef3 fc3d 8b57 debd 990e 213d 5111 803b
-0.052898232 0.03626015 -0.1116563 0.060857523 -0.04989017 -0.2072987 -0.035987116 0.040406015
-0.010826675 -0.128439 -0.03328871 0.012876796 0.0067975377 0.063547656 -0.12646298 -0.23960632
-0.17037667 -0.06716481 -0.018640216 -0.016624495 -0.03207242 -0.035008065 -0.1614046 -0.061112273
-0.056266617 0.07857601 0.1103266 -0.017402625 0.12351106 -0.10856541 0.039320562 0.0039083143

level3_0.inp_reinf.1.bn.running_mean f4 [32]
00000000: ae97 223e acac 22bd 13f0 203e bc78 773d
00000010: d377 68be 7581 0f3e dd5a 43be d8fa 223e
00000020: 3421 193e 3f5a 0dbb 811f b6ba 13b7 8cbc
00000030: 8222 f6bd 208a d2bd 167a 2dbe ff7e 053e
00000040: 5885 12be 10c3 6b3e 9648 0bbc ade5 7bbd
00000050: bff4 12be ff80 e5bc 12a2 e43d e456 033e
00000060: ee00 03be 9d07 1ebe 0702 a73d 76ec a3bd
00000070: fa37 ed3d cc62 073e ce26 fbbc dfe9 843c
0.15878174 -0.039715454 0.15716581 0.060417876 -0.2270196 0.14014228 -0.1907763 0.15916002
0.14954072 -0.0021568683 -0.0013894887 -0.01717714 -0.120183006 -0.102802515 -0.16941103 0.13036726
-0.14308679 0.23023629 -0.008501193 -0.061498333 -0.14351176 -0.028015612 0.11163725 0.12826115
-0.12793323 -0.15432592 0.081546836 -0.08004086 0.11582942 0.13221282 -0.030658152 0.0162248

level3_0.inp_reinf.1.bn.running_var f4 [32]
00000000: 168d 9c3e a11b 223d 8b52 d03d 032d c33c
00000010: fc05 783e ded9 9c3d 495a c93d 0845 893e
00000020: 7708 e73d 5d0e 4a3e f507 9c3d 1fc2 3f3e
00000030: 664c 023d 7489 a53d e57c be3d c454 be3e
00000040: 52a8 063d 194f 903e 708c f33d f8f0 293d
00000050: 61b2 163e 6379 933d 7cd4 ed3d ca27 113e
00000060: 4ad6 5a3e 6fe7 a33e 3676 003e 5c42 613d
00000070: c46c 2c3e b26e 463e 9e7c 923d 7729 3d3e
0.3057639 0.03957713 0.10171994 0.023825174 0.24221033 0.07658742 0.09831674 0.2681048
0.112809114 0.19732042 0.07618705 0.18726395 0.03181114 0.08082858 0.093011655 0.37174046
0.032875367 0.28185347 0.11892021 0.04148957 0.14716484 0.07200887 0.11612794 0.14175335
0.21370807 0.32012507 0.12545094 0.054994926 0.16838366 0.19378164 0.07152675 0.18472849

level3_0.act.weight f4 [32]
00000000: 4726 1f3e 6c88 8d3e 834a c53d 63ba 9f3e
00000010: ebb1 423e 7fa5 b63e 89e0 cd3d 1cbb 833e
00000020: b6ea 993d 1b42 603e f30a 663e e618 a53d
00000030: 020c dc3e 3fc9 9e3e 2840 883e 76dd 133e
00000040: 4930 573e bffe 803e 0307 723e 8f7c 703e
00000050: 703a 8c3e 1ac5 093e 8aec 463e 1837 423e
00000060: e80d ed3e 110b b23e b953 d43e 10ac 8b3e
00000070: 87a2 d83e 9017 76bd f3bf b23e 1cf3 a73e
0.15541945 0.27643144 0.096333526 0.3119689 0.19013183 0.35673138 0.10052592 0.2572869
0.07515471 0.21900217 0.22465114 0.080613896 0.4297791 0.31012914 0.26611447 0.1443995
0.21014513 0.25194356 0.23635487 0.23485015 0.27388334 0.13454095 0.1942617 0.18966329
0.46299672 0.34774068 0.41470125 0.2727971 0.423115 -0.060081065 0.3491207 0.32802665

level3.0.proj_1x1.conv.weight f4 [16, 16, 1, 1]
00000000: a0a1 29be 458f 29be 0e9c 52be 2cc5 debd
00000010: c8d7 a93d 7281 ed3d f63c 983e 468f afbe
00000020: 3e17 7fbe 7474 d7bd 12f0 e5bd ab8c 573f
00000030: 7b5f f6bd 6024 b9bd 2d94 80be a911 ee3c
00000040: 9c34 e73e 6e84 833e 1864 f03e 5eaa 983e
00000050: 38ab 5cbf f461 8d3e 051c 41be 830d 77bf
00000060: 1cbc 5d3c 0c0d c7be 8cf7 0b3d c78a 1cbe
00000070: f248 2d3f 97b9 143e b5d8 3fbe 2392 ef3e
00000080: 7895 b9bd ec62 983e e4ae 4dbe e8bf 2f3f
00000090: 289d 7f3e 2d26 02be 932b 9abe de96 db3e
000000a0: f48b 883e d44e 793f d8d5 3fbe 3d90 72be
000000b0: 42de 86be 22c9 1a3e 74dc ad3e 70b8 98bd
000000c0: 8347 cebd 79dc a03e 2a55 b43d 01ad cebe
000000d0: 4448 29be 300f bebe 4b4d 943d b22e 6ebf
000000e0: e072 67be 5388 ecbd 9655 ce3e d912 e1bb
000000f0: ee92 1abe 0910 303f fa8d 31bf 777c e8be
00000100: 31d7 2cbd 87c3 573e 5188 be3d 0a39 eebd
00000110: 221d 68be 0c18 ed3e 1a45 efbc 3e2c 6dbe
00000120: 21b2 e73e 426c 99be 1b9c d33e 4894 e83e
00000130: cd48 333d b262 a0bc ea2d d7bd dd98 b4be
00000140: b99d 863e 3632 0bbe 4a4b 373f 5a8a ac3a
00000150: ae29 223e b5c2 9ebe 1927 87be 9d45 16bf
00000160: 375a 9cbe df67 ecbd 39be d83e 0d65 543e
00000170: 4ca4 e8be 9c70 80bd f816 a03e f11b 2d3f
00000180: bd04 9cbe d160 823e a344 a3be 6f5d b43d
00000190: 067d 2e3f 3e94 e33e 7d09 303f 4a66 483f
000001a0: ecc9 bbbe 9727 3dbe f769 3f3e b51e 88bd
000001b0: e30b 263f 58f4 963e 11bd 163e 10be 5e3e
000001c0: d3d3 76be 220c 3a3d 39a5 c33e ad64 433c
000001d0: 240d 00bf dc4b 31bf 26bd 78be e6f8 23bf
000001e0: e1c4 053f fe1a bd3e 04bc 0a3f 6db3 463e
000001f0: aa87 463e e868 473f 06d8 19be 73d8 7d3f
00000200: f1e7 513e 662e fdbd e61d 143e 3415 11bf
00000210: b0ed 233e 7989 c6be 3b4c 1f3e d87e ec3e
00000220: 76b0 7d3e ecfa af3d 6499 bc3d 09e1 593e
00000230: 5278 c6bd eae1 4c3e 90e5 c1bd 2896 473f
00000240: 6469 0b3f 2ee8 a23e 7507 01be 3d88 29be
00000250: e00d 893e 363b a53e 043c 9bbe c22d 063e
00000260: 0b5b 51bd c07f 2cbf 0545 533e 386e 28bd
00000270: 5dcf f13d 873a c73e 8627 92be dd56 44bc
00000280: 1e01 bdbc 238a 9d3e 1725 fabd 8bc0 ecbc
00000290: 0eb4 23bd b067 ed3d 90b4 16be b75c 5abe
000002a0: ca93 05bd 61c9 24bf 7594 8c3e 035f f6bd
000002b0: 48cd 2a3f de5b c2be 7e30 a03e 7243 b23e
000002c0: 984e 51be 7f6b 0fbe 68a2 d93e c1e2 6b3e
000002d0: c2d8 f7be e0ea aebe e630 ab3e a30a 10be
000002e0: 5e2f c33d 3e52 90be fdd1 4bbf 8e34 b0be
000002f0: aabf e1be fc7a 18bf 0f16 9a3d 8c9e 43be
00000300: 7477 603f 9112 213f 3626 583f e40e 483d
00000310: 583e 91bd 2e6f 50be 3e7c d23c 29de ad3e
00000320: c0b0 9c3e 930c 9c3e e4e2 a93c 83cc d2be
00000330: 6fde 71be 72b5 a7be 000d 34be cb42 0fbe
00000340: 6479 123f 4b32 aa3e 879d 33be 75ba 733e
00000350: bec6 193f 4af1 8f3e 94d3 08be 90ae 13be
00000360: adc7 96bc 2bd4 2e3f 8a23 e0be 658b 82bd
00000370: 1984 8cbe ca4b 93be 328b c6be 5ea5 b8be
00000380: 31c3 26be 851c 37bd 9aa9 df3d c12b e1bd
00000390: 675a b23d 956c 153e 544a 593e ab40 8dbe
000003a0: f526 203f b94a 0c3f 9b49 333e 2edc aebe
000003b0: 21f6 3f3f 16d2 f9be b1a1 f63e 6ad4 ee3e
000003c0: 0b8e 59be 6613 0abe 40c1 283e 5961 03be
000003d0: f261 123f 4dcf 4f3e 918d 67be 70cb 88bd
000003e0: b8c4 efbd 076a 7f3e 6b80 6a3f bd63 6cbd
000003f0: ed95 ac3e 848d 03be 0fd7 f53e 8183 f13e
-0.16565561 -0.16558559 -0.20567343 -0.10877451 0.0829311 0.11596955 0.2973401 -0.34288996
-0.2491121 -0.105202585 -0.112274304 0.8419902 -0.1202993 -0.09040141 -0.2511305 0.029061155
0.45157325 0.25686973 0.46951365 0.2981748 -0.8619876 0.27613795 -0.18858345 -0.9650499
0.013533618 -0.3887714 0.034171626 -0.15287314 0.6768943 0.14523922 -0.18735011 0.4679118
-0.09061712 0.2976297 -0.20086247 0.686522 0.24962294 -0.12709875 -0.3011137 0.4288854
0.26669276 0.9738591 -0.18733919 -0.23687835 -0.26341444 0.15115789 0.33957255 -0.07457054
-0.100722335 0.31418207 0.08805306 -0.40366367 -0.16531473 -0.37120962 0.07241305 -0.9304
-0.22602415 -0.11549439 0.40299672 -0.006868702 -0.15095112 0.6877447 -0.69357264 -0.4540746
-0.04219741 0.21070682 0.09303344 -0.11631973 -0.22667363 0.4630741 -0.029207755 -0.23161408
0.4525309 -0.29965407 0.41330037 0.4542563 0.0437706 -0.019578312 -0.10506804 -0.35272875
0.26292208 -0.13593373 0.71599257 0.001316379 0.15836212 -0.31007925 -0.26397017 -0.5869997
-0.30537578 -0.11543249 0.42332628 0.20741673 -0.4543785 -0.062714785 0.31267524 0.6762076
-0.30472365 0.2546449 -0.31888303 0.088068835 0.6815952 0.44449037 0.6876448 0.7828108
-0.36677492 -0.18472134 0.18692766 -0.06646482 0.6486189 0.29483294 0.1472056 0.2175219
-0.24104242 0.045421727 0.38211992 0.011925858 -0.5002005 -0.6925638 -0.24290904 -0.64051664
0.5225354 0.36934656 0.5419314 0.19404383 0.19387689 0.7789445 -0.15023813 0.991584
0.20498635 -0.123623654 0.1446453 -0.5667298 0.1600864 -0.38776758 0.15556423 0.46190524
0.24774346 0.085927814 0.092089444 0.2127725 -0.09690918 0.20008054 -0.09467614 0.77963495
0.5445769 0.31817764 -0.12600501 -0.16555877 0.26768398 0.32271737 -0.30319226 0.13103393
-0.051112216 -0.6738243 0.20631798 -0.041120738 0.118071295 0.3891184 -0.2854578 -0.0119836
-0.023071822 0.30769452 -0.122141056 -0.028900405 -0.039966635 0.115920424 -0.14717317 -0.2132443
-0.032611646 -0.6436978 0.27457014 -0.12029841 0.66719484 -0.37960714 0.31286997 0.34817082
-0.20440137 -0.1400585 0.4250672 0.23035719 -0.4840756 -0.3416357 0.33435744 -0.14066558
0.09530519 -0.28187746 -0.7961729 -0.34415096 -0.4409154 -0.5956266 0.075237386 -0.1910345
0.8768227 0.62918955 0.84433305 0.048842326 -0.07091969 -0.20354912 0.025694009 0.33958557
0.306036 0.30478343 0.020738073 -0.41171655 -0.23620008 -0.3275562 -0.17583084 -0.13990323
0.5721648 0.33241495 -0.1754056 0.23801596 0.6006888 0.28113776 -0.1336196 -0.14422059
-0.01840576 0.6829249 -0.43777114 -0.06374244 -0.27444533 -0.2876876 -0.38778073 -0.36063665
-0.16285397 -0.044704933 0.10921021 -0.109946735 0.08708649 0.14592202 0.2121976 -0.275884
0.62559444 0.5480152 0.17508547 -0.3415236 0.7498494 -0.48793095 0.48170236 0.46646434
-0.21245591 -0.13483962 0.16479969 -0.12830104 0.571807 0.20293923 -0.22612597 -0.066794276
-0.11707443 0.2494279 0.916022 -0.057712305 0.33708134 -0.12846953 0.4801564 0.47170642

level3.0.proj_1x1.bn.weight f4 [16]
00000000: 0b60 943f 43e6 623f 1827 3f3f d058 473f
00000010: 13d5 8a3f 7766 973f 32b5 6a3f 08cf 603f
00000020: 5fcb 8d3f 5601 713f 2d98 863f 7fcc 7c3f
00000030: ad67 a53f 4359 7f3f 5452 963f c4ef 6f3f
1.159181 0.886326 0.7466903 0.7786989 1.0846275 1.1828145 0.9168273 0.87815905
1.1077689 0.94142663 1.051519 0.98749536 1.2922264 0.9974558 1.1743875 0.9372523

level3.0.proj_1x1.bn.bias f4 [16]
00000000: 3c58 8dbd 0f01 22be 08bf 85be 2a71 613e
00000010: a1f9 2e3d d91e 463c be88 ae3d 3ef4 15be
00000020: ff88 053d aadc 0dbe 08e0 22bc 1400 b63d
00000030: 2b71 71bc a641 c53d c2a1 953d 1309 f6bd
-0.06901595 -0.15820716 -0.26122308 0.22015825 0.042718533 0.012092316 0.08522175 -0.14643952
0.032601353 -0.13853708 -0.0099411085 0.08886734 -0.014736454 0.09631662 0.073062435 -0.120134495

level3.0.proj_1x1.bn.running_mean f4 [16]
00000000: 54c6 9dbe 47bd 623e fdb9 883f d174 65bf
00000010: 4433 353f e941 993e eb47 ed3f 6fea 153f
00000020: 7ab4 dd3e 9daf 1b3e a236 113e 2bf6 a5bf
00000030: 4a02 763e 6548 1e3d 8e60 6c3f 5794 a23f
-0.30815375 0.22142516 1.0681759 -0.8963137 0.7078135 0.29933098 1.8537573 0.5856084
0.43301755 0.1520371 0.14180997 -1.296575 0.2402431 0.03864326 0.9233483 1.270152

level3.0.proj_1x1.bn.running_var f4 [16]
00000000: aab5 553f ce23 2c40 6fbf 2640 7ca6 7040
00000010: 8856 4140 cd65 0a40 8667 b240 d2e5 b83f
00000020: c8e5 c43f ec7c 253f 598a fb3f e717 2a40
00000030: 54a6 0d40 ad64 2b40 50f7 9140 4c7d 5b40
0.8348032 2.6896853 2.6054342 3.7601614 3.0209064 2.1624634 5.575137 1.4445136
1.5382624 0.6464374 1.9651595 2.657709 2.2132769 2.6780198 4.5614395 3.4295225

level3.0.proj_1x1.act.weight f4 [16]
00000000: 6875 823e 4997 7d3e d84c 1a3e 7e56 a93e
00000010: 5ede 7d3e c1a2 6e3e 09e6 9e3e 91d3 4f3e
00000020: 2707 723e 5257 b73e 0583 423e de3f be3e
00000030: 388d d63e d6bf 8c3e f56b 763e 8464 eabd
0.254802 0.24764742 0.15068376 0.330738 0.24791858 0.23304273 0.31034878 0.2029555
0.23635541 0.35808808 0.18995292 0.37158102 0.41904616 0.2749011 0.2406462 -0.11444953

level3.0.spp_dw.0.conv.weight f4 [16, 1, 3, 3]
00000000: e735 31be feb4 d9bd 0c57 99bb be0d 82bd
00000010: eb4a bb3e a1c1 61bb 74cf dc3d 7102 693e
00000020: cbdf e43b be4e 11be 8dc4 363e 12c0 5bbe
00000030: 06a5 613e 94e0 523e 62ff 803d 6911 ba3e
00000040: d214 00be c2b5 eabd 8917 95bd 74d8 0d3d
00000050: b34a a8bd 1cd7 66bd 3faa fd3c c3c4 623b
00000060: d20d b5bd b5d3 313e c430 733e 6943 12bd
00000070: 8603 183e 6eb6 a0bd f6a3 06be 4ff5 e73c
00000080: ce9d 07be de90 62be 69e8 0b3e 45b5 763d
00000090: bad3 19be df4e 92be e907 d7bd 7d33 0bbe
000000a0: 7007 8abd 5668 93bd ef42 6abe e908 bc3d
000000b0: 8277 d13c 4c8d 983d f371 96be d4dd 133e
000000c0: 08ec 623d 0741 a0be 40a5 433e 5acd d63d
000000d0: c7a6 db3d 7df4 173e 2fd7 10bc f014 043e
000000e0: 8683 9a3e 3fcf 393d d2c6 b43d 31aa e53c
000000f0: 4dcc c23d a009 793e 775c 0d3d c9ed 25bd
00000100: ba8f 10bd 79b7 62be af58 413c 94c0 833e
00000110: e60a d0bd 28aa 773e 0e0f c2bc 5b00 05be
00000120: 9859 8bbe b3a0 233d 8a3c d4bc 0527 fd3b
00000130: 49ad 05be 5163 6cbe 8fa3 093c 4a01 f0bd
00000140: e605 a73d 3671 0e3d 23f1 81bd d8d1 293e
00000150: ceac 69be d5e1 22be 2696 093e 69c3 1abe
00000160: f158 933e 68f6 143e a3f7 603e 8358 233d
00000170: c77b 91bd 6f4c 21be 9f19 ab3d b4e6 923e
00000180: 7e28 0abc 54d5 c7bc b7cc 2fbd 83e4 1e3e
00000190: 097f 85be 2749 1bbe 66a7 0bbc ce22 e6bd
000001a0: fc69 683e 3fa2 14be 639c 393e 36b6 e0bd
000001b0: fb37 c6bb d523 60be fc43 3abc 5be1 48be
000001c0: 03c6 f03d 98bb 443c 20a5 ccbd cb41 a43e
000001d0: 313d 2b3e 6a6e 59bd 5852 05bd a996 0a3e
000001e0: e238 29be 0415 93bd 1936 343e 6a23 ce3b
000001f0: 4f3d 633e 21cb babe d93e 143e a1dd b5bd
00000200: 0642 a6bd 8223 fc3c 5081 103d ce44 21bd
00000210: 7661 993c 0939 463e 3b0f 8abd 92a4 073e
00000220: 664e dcbd 130a 9fbd a2b5 c9bd 7b13 56bd
00000230: a243 583e 14e9 46bd d50d 3b3e 579d 783e
-0.17305718 -0.10630225 -0.0046795662 -0.06350277 0.36580595 -0.0034447687 0.10781756 0.22754838
0.006984686 -0.14190194 0.17848416 -0.21459988 0.22035608 0.20593482 0.062987104 0.36341408
-0.12507942 -0.11460449 -0.072798796 0.034630254 -0.08217373 -0.056357488 0.030964969 0.0034602142
-0.08840527 0.17365916 0.23749071 -0.03570882 0.14845094 -0.07847296 -0.13148484 0.028315214
-0.13243791 -0.22125575 0.13662876 0.060231466 -0.15022174 -0.285758 -0.104995556 -0.1359386
-0.067397 -0.07197635 -0.22877096 0.09181387 0.025569681 0.07448825 -0.2938381 0.1444009
0.05540088 -0.31299612 0.19106007 0.104883865 0.1072517 0.14839359 -0.008840366 0.12898612
0.3017847 0.04536366 0.088269845 0.028035255 0.095116235 0.24320078 0.03451201 -0.040509973
-0.03529332 -0.22140302 0.011800929 0.25732863 -0.10158329 0.24186003 -0.02368882 -0.12988417
-0.27216792 0.039948177 -0.025907774 0.0077255988 -0.13054384 -0.23084761 0.008400812 -0.11718996
0.08155422 0.034775935 -0.06344821 0.16583955 -0.22819826 -0.1590646 0.13436183 -0.15113606
0.28778794 0.14547122 0.21969466 0.039879333 -0.07103687 -0.15751813 0.08354496 0.28691638
-0.008432506 -0.024393715 -0.04291984 0.15516858 -0.26073483 -0.15164624 -0.008523798 -0.11237107
0.2269668 -0.14515017 0.18126063 -0.10972254 -0.006049154 -0.21888669 -0.011368748 -0.19617216
0.11756518 0.012007616 -0.099924326 0.32081446 0.16722561 -0.053083815 -0.032549232 0.13534035
-0.16525605 -0.07181743 0.17598762 0.006290843 0.22191356 -0.364831 0.144771 -0.08880163
-0.08118062 0.03077865 0.035279572 -0.039372258 0.01872323 0.19357695 -0.06741186 0.13246372
-0.10757141 -0.077655934 -0.09849097 -0.05226467 0.2111955 -0.048562124 0.18266995 0.2427877
