data/FeatModel_tmpp.pth (torch_old, 419996 bytes, 353 tensors)

level1.conv.weight f4 [8, 3, 3, 3]
-0.20390496 0.10765671 -0.121920146 -0.39328352 0.15808946 0.09466864 -0.09958541 0.004522325
0.022411356 -0.31014735 0.13943335 0.0133036785 -0.4198628 0.07366374 -0.03207173 0.26838085
0.06407428 -0.022852521 0.09805077 -0.31192935 -0.181248 -0.44307354 -0.08412607 0.2715912
0.05934337 -0.009857005 0.27501303 -0.051386748 0.33589533 0.082191706 -0.20888223 0.39361605
0.06620428 -0.3872316 -0.036994535 -0.23444831 -0.033950552 0.061700385 0.23728685 -0.30929312
0.0090149855 0.029582404 -0.059805118 -0.0187682 -0.09498572 -0.08881087 0.14211774 0.17080538
-0.30517703 0.10161438 0.08591641 -0.3561962 -0.2828253 -0.09871637 -0.31151262 0.09667037
-0.26568204 -0.21147895 0.23672232 0.24207509 -0.030847115 -0.029890472 0.010666221 -0.14527261
0.37018874 -0.045194972 -0.20962542 0.1919194 0.18829116 -0.18509968 0.017498711 0.045053434
0.14421728 0.11972885 -0.096649304 -0.4894463 -0.030281307 -0.10712783 -0.15012702 -0.06425612
-0.37093222 -0.013623487 0.26996672 -0.16364433 -0.086943634 0.06408149 -0.20192593 0.17666501
0.17441757 0.05445416 0.29308277 -0.07437913 -0.18215454 -0.058302432 0.41383243 0.021807617
-0.2138024 -0.22632906 0.019785445 0.17081921 0.534006 -0.101812385 0.053656697 0.28489712
0.13438058 0.008898672 -0.2512486 0.3623916 -0.18703309 -0.005670043 0.124133974 -0.029127246
-0.051842723 0.22840798 0.042900123 0.0916404 0.025766809 -0.14613613 -0.17586577 0.174875
-0.23469687 -0.28612587 -0.2381819 0.014457442 0.119263485 -0.41605344 -0.3782781 -0.29595387
0.18621182 -0.2982316 0.20268482 0.038609147 0.34498492 -0.0028332523 -0.026435222 0.09024542
0.09734334 -0.41346532 0.08085344 0.028778091 -0.31862435 -0.12160038 0.08204936 0.24861579
-0.15597902 0.15020262 -0.16939789 0.26996404 0.20111646 -0.0026909213 -0.27795878 -0.083489954
-0.050980672 -0.19731231 -0.04574709 -0.3348014 0.17474315 0.16380242 -0.25567317 0.1194342
-0.080021136 0.31455228 -0.01657422 -0.07043742 0.32750332 0.13060771 0.1584126 0.19617364
-0.056037992 0.28556165 0.4173932 0.039217565 0.15139103 -0.00015983342 -0.013839679 0.29756713
0.47302654 0.11008078 0.14291424 0.19548477 0.15724479 -0.02022093 0.24332143 0.05642042
0.59854573 0.09335044 0.16165747 -0.16189332 0.026904408 0.1598514 0.19927427 0.24488017
-0.06651996 -0.009482421 -0.053993683 -0.02825664 -0.091179274 0.30187717 0.16922145 0.109329924
0.38227504 0.007269928 0.26978645 -0.16451052 -0.019873496 -0.16050632 0.18329377 0.2590323
0.0942162 0.7270022 0.20074907 0.26999485 -0.17727838 -0.2569651 0.24766466 0.45434186
00000000: 76cc 50be 1f7b dc3d 45b1 f9bd 755c c9be
00000010: 34e2 213e a2e1 c13d 6ff3 cbbd 0330 943b
00000020: 0598 b73c a2cb 9ebe 9ec7 0e3e acf7 593c
00000030: 42f8 d6be 04dd 963d a55d 03bd 3769 893e
00000040: 6039 833d 3635 bbbc d8ce c83d 34b5 9fbe
00000050: 1399 39be 89da e2be 4a4a acbd 000e 8b3e
00000060: 0912 733d 477f 21bc 82ce 8c3e e97a 52bd
00000070: 79fa ab3e 2054 a83d 39e5 55be 0b88 c93e
00000080: 1c96 873d 3843 c6be 9587 17bd 3813 70be
00000090: bc0f 0bbd 8bb9 7c3d 53fb 723e ab5b 9ebe
000000a0: 97b3 133c cc56 f23c 36f6 74bd c5bf 99bc
000000b0: e087 c2bd 79e2 b5bd 5087 113e 9be7 2e3e
000000c0: 2a40 9cbe 331b d03d f1f4 af3d 595f b6be
000000d0: 7ace 90be cf2b cabd 957e 9fbe 1dfb c53d
000000e0: 7a07 88be f08d 58be 5667 723e 88e2 773e
000000f0: 17b3 fcbc dddc f4bc 60c1 2e3c 58c2 14be
00000100: 6189 bd3e 5d1e 39bd 0ca8 56be 8586 443e
00000110: 66cf 403e c58a 3dbe 7559 8f3c f389 383d
00000120: b2ad 133e 6634 f53d 12f0 c5bd b598 fabe
00000130: 8110 f8bc d665 dbbd e6ba 19be b698 83bd
00000140: d4ea bdbe 0c35 5fbc 1439 8a3e 6192 27be
00000150: 810f b2bd 283d 833d acc5 4ebe ace7 343e
00000160: 859a 323e 530b 5f3d f20e 963e 1654 98bd
00000170: b886 3abe 88ce 6ebd d8e1 d33e e3a5 b23c
00000180: 04ef 5abe cec2 67be 1615 a23c 3beb 2e3e
00000190: 9eb4 083f 0383 d0bd 20c7 5b3d 09de 913e
000001a0: 109b 093e bccb 113c a8a3 80be 648b b93e
000001b0: 9a85 3fbe c5cb b9bb f439 fe3d 439c eebc
000001c0: 0959 54bd c8e3 693e 0ab8 2f3d f6ad bb3d
000001d0: ea14 d33c b6a4 15be 2816 34be 6f12 333e
000001e0: 6054 70be 177f 92be f5e5 73be e8de 6c3c
000001f0: 6a40 f43d f504 d5be abad c1be 4487 97be
00000200: 50ae 3e3e d0b1 98be 9c8c 4f3e a024 1e3d
00000210: dda1 b03e 16ae 39bb ae8e d8bc 97d2 b83d
00000220: f25b c73d bab1 d3be 7d96 a53d 08c0 eb3c
00000230: bb22 a3be 9f09 f9bd 7f09 a83d 2395 7e3e
00000240: f7b8 1fbe b7ce 193e a476 2dbe ba38 8a3e
00000250: 79f1 4d3e 2b5a 30bb 9d50 8ebe c8fc aabd
00000260: 1cd1 50bd 3d0c 4abe 4d61 3bbd 176b abbe
00000270: deef 323e d2bb 273e 98e7 82be eb99 f43d
00000280: 1fe2 a3bd ff0c a13e a9c6 87bc 7e41 90bd
00000290: 84ae a73e 07be 053e ea36 223e bee1 483e
000002a0: 1888 65bd 2335 923e 90b4 d53e 99a2 203d
000002b0: 4006 1b3e f598 27b9 d2bf 62bc b85a 983e
000002c0: 8930 f23e 0872 e13d 1c58 123e 292d 483e
000002d0: c704 213e 5da6 a5bc 4129 793e 1919 673d
000002e0: 4b3a 193f 842e bf3d 8989 253e 5dc7 25be
000002f0: a266 dc3c 16b0 233e 8e0e 4c3e dec1 7a3e
00000300: 9e3b 88bd 285c 1bbc 7b28 5dbd 787a e7bc
00000310: 33bc babd a58f 9a3e 6348 2d3e 5ee8 df3d
00000320: 8eb9 c33e 9438 ee3b 7321 8a3e 7275 28be
00000330: becd a2bc c55b 24be 5db1 3b3e e29f 843e
00000340: 6cf4 c03d d11c 3a3f 2a91 4d3e c43c 8a3e
00000350: 7788 35be ee90 83be ce9b 7d3e 7f9f e83e

level1.bn.weight f4 [8]
0.8574293 0.85496724 0.95142835 1.0300614 1.0859299 1.0180085 0.93050116 0.9350146
00000000: 7d80 5b3f 22df 5a3f cf90 733f 0dd9 833f
00000010: c0ff 8a3f 1a4e 823f 5335 6e3f 1e5d 6f3f

level1.bn.bias f4 [8]
0.039400686 -0.101231016 -0.0057444293 0.08674139 0.10221272 0.08762846 -0.016220719 0.0090322625
00000000: 9d62 213d 3552 cfbd c43b bcbb 78a5 b13d
00000010: e754 d13d 8d76 b33d 50e1 84bc 0efc 133c

level1.bn.running_mean f4 [8]
-2.2241073 -2.0298152 -2.5096543 3.3780282 -2.6918693 -1.1615667 9.017092 7.4203196
00000000: c657 0ec0 7ee8 01c0 2d9e 20c0 9d31 5840
00000010: 9647 2cc0 38ae 94bf 0246 1041 4273 ed40

level1.bn.running_var f4 [8]
2.1678848 2.1586275 2.5158637 4.044072 2.640118 0.6354077 28.830477 19.470278
00000000: a0be 0a40 f426 0a40 e903 2140 0a69 8140
00000010: b1f7 2840 14aa 223f d1a4 e641 21c3 9b41

level1.act.weight f4 [8]
0.25692374 0.110267796 0.33390424 0.27083376 0.27611265 0.4399164 0.30051082 0.27905014
00000000: 828b 833e 15d4 e13d 7ff5 aa3e b9aa 8a3e
00000010: a35e 8d3e b93c e13e 8edc 993e a9df 8e3e

level2_0.eesp.proj_1x1.conv.weight f4 [4, 4, 1, 1]
-1.0706381 -0.15790425 -1.2249238 -0.70084536 -0.22181314 -0.46642083 -0.60806966 -0.23099121
0.35268763 -1.1260638 -0.8924555 -0.8705114 0.69239205 0.5107148 -0.57149184 -0.72781044
00000000: ab0a 89bf a7b1 21be 4eca 9cbf 9a6a 33bf
00000010: fc22 63be b6ce eebe 74aa 1bbf f688 6cbe
00000020: 7993 b43e dc22 90bf f777 64bf d6d9 5ebf
00000030: 9b40 313f 35be 023f 4a4d 12bf c951 3abf

level2_0.eesp.proj_1x1.bn.weight f4 [4]
1.0634903 1.2568483 0.9128181 0.7203236
00000000: 7320 883f 68e0 a03f 72ae 693f 2167 383f

level2_0.eesp.proj_1x1.bn.bias f4 [4]
-0.06492898 -0.014607585 -0.15914248 0.3084319
00000000: 7cf9 84bd a754 6fbc 3ff6 22be c9ea 9d3e

level2_0.eesp.proj_1x1.bn.running_mean f4 [4]
-1.0096651 -0.4620633 -0.7371787 0.059493896
00000000: b53c 81bf 9093 ecbe beb7 3cbf dfaf 733d

level2_0.eesp.proj_1x1.bn.running_var f4 [4]
1.415316 0.43880144 0.51515394 2.6155057
00000000: 1329 b53f 95aa e03e 21e1 033f 7264 2740

level2_0.eesp.proj_1x1.act.weight f4 [4]
0.3536437 0.25736037 0.27548715 0.48521352
00000000: c910 b53e bdc4 833e a70c 8d3e e86d f83e

level2_0.eesp.spp_dw.0.conv.weight f4 [4, 1, 3, 3]
-0.3396493 -0.25026718 -0.09338004 0.36918706 -0.096842244 0.5926699 -0.12103627 -0.114307016
-0.08219255 -0.15565892 0.14126684 0.34219578 0.46026072 -0.16097368 0.2696565 -0.11952326
0.4633916 -0.5250657 -0.11622837 0.19722098 0.43250468 -0.19265682 0.102064826 -0.08469163
-0.5053097 0.32686687 -0.12800378 -0.12518013 0.03592658 0.088117786 0.1844706 0.39621505
-0.3312815 -0.5682195 -0.2155757 -0.023695087
00000000: 83e6 adbe 0523 80be 093e bfbd 1606 bd3e
00000010: 3a55 c6bd 37b9 173f dde1 f7bd cc19 eabd
00000020: 9154 a8bd 0d65 1fbe 41a8 103e 4934 af3e
00000030: 4ba7 eb3e 49d6 24be 6b10 8a3e 9cc8 f4bd
00000040: aa41 ed3e b56a 06bf 2409 eebd 4cf4 493e
00000050: 4171 dd3e d447 45be 5d07 d13d ce72 adbd
00000060: fa5b 01bf 185b a73e 6c13 03be 382f 00be
00000070: c027 133d 1977 b43d dce5 3c3e b3dc ca3e
00000080: bb9d a9be d576 11bf e0bf 5cbe 331c c2bc

level2_0.eesp.spp_dw.1.conv.weight f4 [4, 1, 3, 3]
-0.113528214 0.09668232 0.0663739 0.2684043 -0.20324332 -0.24336134 -0.1165681 -0.26329058
0.22266804 0.12599859 -0.19552337 0.17520781 -0.52973175 0.19082041 0.10193212 0.028209196
0.43653393 -0.20055738 0.4394542 -0.53935486 -0.36904714 0.051633745 -0.07656772 0.3534526
-0.02823281 0.03746677 -0.22614701 0.076166496 -0.3669152 -0.53669393 0.09354368 0.026643125
-0.18977433 -0.085889295 0.12567149 0.34792122
00000000: 7b81 e8bd 6101 c63d 0aef 873d 4a6c 893e
00000010: 041f 50be b733 79be 42bb eebd 06ce 86be
00000020: 1703 643e c605 013e 4737 48be ad69 333e
00000030: 809c 07bf 6d66 433e cac1 d03d f916 e73c
00000040: 6081 df3e ea5e 4dbe 2400 e13e 2913 0abf
00000050: bff3 bcbe e87d 533d 89cf 9cbd bdf7 b43e
00000060: 7e48 e7bc c176 193d 1593 67be 2efd 9b3d
00000070: 4fdc bbbe c664 09bf d493 bf3d af42 da3c
00000080: 3454 42be bae6 afbd 07b0 003e bb22 b23e

level2_0.eesp.conv_1x1_exp.conv.weight f4 [8, 4, 1, 1]
-0.10966041 0.21419756 1.2484303 -0.045039274 0.43914822 0.094074465 -0.6943038 -0.45889142
0.024306998 -0.22585224 0.8250228 -0.5500922 0.14524418 0.17714266 -0.5383908 -0.14351997
0.1803899 -0.56794965 1.3747152 -0.19858904 0.3680604 0.35770965 -0.016904516 0.35567284
-0.14892492 0.20525561 0.1456509 -0.3390918 -0.76196057 0.58421904 -0.19034693 0.29400775
00000000: a395 e0bd 9b56 5b3e 90cc 9f3f 1a7b 38bd
00000010: 09d8 e03e 1daa c03d e5bd 31bf d1f3 eabe
00000020: 781f c73c cf45 67be b234 533f d8d2 0cbf
00000030: e4ba 143e e364 353e fbd3 09bf e6f6 12be
00000040: 21b8 383e 2665 11bf abf6 af3f ed5a 4bbe
00000050: 6a72 bc3e b825 b73e 577b 8abc c01a b63e
00000060: c67f 18be 872e 523e 8225 153e 719d adbe
00000070: d90f 43bf 618f 153f 4eea 42be 2f88 963e

level2_0.eesp.conv_1x1_exp.bn.weight f4 [8]
1.1412743 0.8112137 1.2256846 1.006634 1.313325 1.0301567 0.89828646 0.77000505
00000000: 4715 923f b3ab 4f3f 3ce3 9c3f 62d9 803f
00000010: 091b a83f 2ddc 833f 1af6 653f 0d1f 453f

level2_0.eesp.conv_1x1_exp.bn.bias f4 [8]
0.118936 -0.2650983 0.14617085 0.012001243 0.009265808 -0.08982137 -0.15271658 -0.1791631
00000000: b894 f33d f7ba 87be d0ad 153e dda0 443c
00000010: 9ecf 173c 44f4 b7bd bc61 1cbe 8876 37be

level2_0.eesp.conv_1x1_exp.bn.running_mean f4 [8]
0.17273562 -0.09032732 -0.06938102 -0.04192353 0.2573297 0.2805675 -0.047093052 -0.06501164
00000000: 9be1 303e 88fd b8bd a317 8ebd 02b8 2bbd
00000010: b8c0 833e 8ba6 8f3e a5e4 40bd d324 85bd

level2_0.eesp.conv_1x1_exp.bn.running_var f4 [8]
1.458661 0.47681186 0.7648292 0.27337438 1.0139701 0.12775321 0.044574715 0.8836204
00000000: 67b5 ba3f af20 f43e d9cb 433f baf7 8b3e
00000010: c6c9 813f bdd1 023e fa93 363d f234 623f

level2_0.eesp.br_after_cat.bn.weight f4 [8]
0.7992753 0.7692838 1.328606 0.8312588 1.0148766 0.927704 1.1609726 0.9526492
00000000: 4e9d 4c3f c8ef 443f c30f aa3f 60cd 543f
00000010: 7ae7 813f 027e 6d3f c09a 943f d1e0 733f

level2_0.eesp.br_after_cat.bn.bias f4 [8]
0.092459895 -0.24157579 -0.056727037 -0.1833098 0.043635264 -0.11989762 -0.11803236 -0.09115963
00000000: 9d5b bd3d a55f 77be 9c5a 68bd 90b5 3bbe
00000010: e4ba 323d e28c f5bd f3ba f1bd e6b1 babd

level2_0.eesp.br_after_cat.bn.running_mean f4 [8]
-0.0052442066 0.23277965 0.015484741 -0.21388283 -0.05436103 0.2787459 -0.049051255 -0.4310683
00000000: 98d7 abbb ca5d 6e3e b6b3 7d3c 1a04 5bbe
00000010: aca9 5ebd c8b7 8e3e f8e9 48bd fcb4 dcbe

level2_0.eesp.br_after_cat.bn.running_var f4 [8]
0.04551154 0.18555747 0.08761212 0.12650193 0.1360739 0.32353455 0.1661238 0.43018928
00000000: 4f6a 3a3d c702 3e3e fc6d b33d b989 013e
00000010: f556 0b3e 52a6 a53e 5c1c 2a3e c541 dc3e

level2_0.eesp.br_after_cat.act.weight f4 [8]
0.0930879 0.07867198 0.36006874 0.051386192 0.21050483 0.2513352 -0.06408569 0.24586353
00000000: dea4 be3d c61e a13d ee5a b83e 547a 523d
00000010: 948e 573e 02af 803e 5c3f 83bd a6c3 7b3e

level2_0.eesp.module_act.weight f4 [8]
0.25 0.25 0.25 0.25 0.25 0.25 0.25 0.25
00000000: 0000 803e 0000 803e 0000 803e 0000 803e
00000010: 0000 803e 0000 803e 0000 803e 0000 803e

level2_0.inp_reinf.0.conv.weight f4 [3, 3, 3, 3]
-0.027508153 1.0197254 0.1676544 0.13541065 0.3731189 -0.24366173 -0.3684846 -0.09175487
-0.2353022 -0.4891976 0.013662511 -0.46553296 0.06636669 0.018490553 0.14224623 -0.19098619
0.036601584 -0.023547903 0.083642825 0.053887017 0.49104562 0.39461753 0.51120824 -0.23041263
-0.07297234 0.6071958 0.5418695 0.3309831 -0.24515568 -0.35253197 -0.10814148 0.061338313
0.15478884 -0.20563594 -0.30640927 -0.2648437 -0.022621823 -0.7014549 -0.14976972 -0.0332866
0.041302893 -0.17642169 -0.010115477 -0.79690766 0.11639861 0.23466773 0.03444113 0.17621928
0.41119522 0.6761659 0.12843731 0.11893909 0.685619 0.46881926 0.0872927 -0.07753524
-0.7073578 -0.23748536 -0.08174952 -0.050690528 0.023795262 -0.02438682 -0.08412683 0.5182077
0.19530776 0.09561374 -0.09960171 -0.2213299 0.28859034 -0.058958396 0.19364358 0.32682693
0.17027967 0.36021733 -0.08722726 0.05333502 -0.010653792 -0.01069763 -0.5280342 -0.04278489
-0.28868243
00000000: c758 e1bc 5d86 823f 98ad 2b3e 17a9 0a3e
00000010: 7109 bf3e 7682 79be 03aa bcbe fae9 bbbd
00000020: 0ff3 70be 1c78 fabe b9d8 5f3c 565a eebe
00000030: 42eb 873d 8079 973c ffa8 113e e291 43be
00000040: 8beb 153d 88e7 c0bc ee4c ab3d a2b8 5c3d
00000050: 556a fb3e 4f0b ca3e 8bde 023f 4af1 6bbe
00000060: 8672 95bd 2f71 1b3f f6b7 0a3f 9e76 a93e
00000070: 170a 7bbe 127f b4be 4879 ddbd e23d 7b3d
00000080: f780 1e3e 3a92 52be ade1 9cbe 9899 87be
00000090: 6751 b9bc 8c92 33bf 3c5d 19be 8857 08bd
000000a0: 392d 293d e3a7 34be 63bb 25bc 2402 4cbf
000000b0: 6562 ee3d bd4c 703e 2412 0d3d d472 343e
000000c0: 2e88 d23e 3519 2d3f 1285 033e 5696 f33d
000000d0: ba84 2f3f 1409 f03e 84c6 b23d ccca 9ebd
000000e0: 6715 35bf 5d2f 73be 4b6c a7bd dfa0 4fbd
000000f0: 48ee c23c dec6 c7bc b04a acbd 43a9 043f
00000100: c2fe 473e 23d1 c33d fbfb cbbd 4ea4 62be
00000110: 1dc2 933e 5c7e 71bd 814a 463e dc55 a73e
00000120: cb5d 2e3e 686e b83e 35a4 b2bd d275 5a3d
00000130: 3e8d 2ebc 1d45 2fbc 402d 07bf 353f 2fbd
00000140: 2fce 93be

level2_0.inp_reinf.0.bn.weight f4 [3]
0.93890214 0.98998976 1.129638
00000000: e45b 703f f86f 7d3f fa97 903f

level2_0.inp_reinf.0.bn.bias f4 [3]
-0.058158267 0.14444266 -0.13262953
00000000: 5d37 6ebd c7e8 133e 09d0 07be

level2_0.inp_reinf.0.bn.running_mean f4 [3]
5.060997 0.55408865 -0.68700206
00000000: b0f3 a140 c1d8 0d3f 5edf 2fbf

level2_0.inp_reinf.0.bn.running_var f4 [3]
8.660102 0.30394584 0.4148188
00000000: c78f 0a41 ca9e 9b3e 2163 d43e

level2_0.inp_reinf.0.act.weight f4 [3]
0.3921023 0.46907383 0.38421682
00000000: a2c1 c83e 722a f03e 11b8 c43e

level2_0.inp_reinf.1.conv.weight f4 [16, 3, 1, 1]
0.095734075 0.37942886 0.37057972 0.098140545 -0.30788183 0.58544564 -0.24867849 0.40862507
0.4499529 -0.74046946 0.7922887 0.13522188 -0.049108133 0.013824397 -0.7778512 -0.28237766
0.11102055 0.32309973 -0.24429463 -0.1593005 -0.18165192 -0.17043695 -0.4257917 0.038552698
-0.048617247 -0.7363605 0.16105145 -0.26092175 0.6356231 -0.15229458 0.25469774 -0.27481136
0.4643174 0.003338881 -1.4830801 -0.01521883 0.024129773 -0.033304784 1.2659115 0.045070723
-0.29035404 0.58799887 -0.057664577 0.42410678 0.13210246 -0.33565095 -0.2965327 -0.17324859
00000000: 3a10 c43d 8044 c23e a0bc bd3e e9fd c83d
00000010: b0a2 9dbe c4df 153f 93a5 7ebe 4e37 d13e
00000020: 3a60 e63e 688f 3dbf 6fd3 4a3f 9b77 0a3e
00000030: 9c25 49bd b97f 623c 4221 47bf ce93 90be
00000040: be5e e33d 546d a53e 5f28 7abe ac1f 23be
00000050: f602 3abe 0687 2ebe 5f01 dabe 6fe9 1d3d
00000060: e122 47bd 1f82 3cbf acea 243e 8997 85be
00000070: 32b8 223f 1cf3 1bbe be67 823e 13b4 8cbe
00000080: 03bb ed3e 21d1 5a3b 92d5 bdbf 6658 79bc
00000090: cdab c53c 996a 08bd 6309 a23f 149c 383d
000000a0: 49a9 94be 1887 163f b131 6cbd 8624 d93e
000000b0: de45 073e 71da abbe 22d3 97be 1468 31be

level2_0.inp_reinf.1.bn.weight f4 [16]
1.1179943 1.0289944 1.1259204 1.2209101 0.79021233 1.0310874 1.0522072 1.0492607
1.0620652 1.0174193 0.9144604 0.93921536 1.0285143 0.9901516 1.1447556 0.9544661
00000000: 701a 8f3f 17b6 833f 291e 903f c846 9c3f
00000010: 5b4b 4a3f acfa 833f baae 863f 2d4e 863f
00000020: c1f1 873f cc3a 823f 141a 6a3f 6b70 703f
00000030: 5ba6 833f 937a 7d3f 5a87 923f e457 743f

level2_0.inp_reinf.1.bn.bias f4 [16]
-0.05930163 -0.073366575 -0.123285346 0.070520796 0.068821564 -0.10456972 0.0506426 0.0017717135
0.118936 -0.2650983 0.14617085 0.012001243 0.009265808 -0.08982137 -0.15271658 -0.1791631
00000000: 44e6 72bd 3741 96bd 077d fcbd 356d 903d
00000010: 52f2 8c3d a628 d6bd 9d6e 4f3d d738 e83a
00000020: b894 f33d f7ba 87be d0ad 153e dda0 443c
00000030: 9ecf 173c 44f4 b7bd bc61 1cbe 8876 37be

level2_0.inp_reinf.1.bn.running_mean f4 [16]
0.210591 0.032671336 0.15784042 0.10971631 -0.15091215 0.03189491 -0.13968585 -0.16706502
-0.21667616 0.115375504 0.05509598 -0.47549245 0.22864126 0.02730803 0.14669418 -0.20243387
00000000: 2ba5 573e 61d2 053d eba0 213e f2b2 e03d
00000010: b788 1abe 3da4 023d cf09 0fbe 1813 2bbe
00000020: 5be0 5dbe fe49 ec3d 53ac 613d bf73 f3be
00000030: ef20 6a3e 17b5 df3c 0037 163e d34a 4fbe

level2_0.inp_reinf.1.bn.running_var f4 [16]
0.13656989 0.29569227 0.21821234 0.37485823 0.38409516 0.13039088 0.046627797 0.15685597
0.387924 0.2172294 0.16023742 1.2781347 1.0535221 0.30878344 0.09570348 0.11484492
00000000: fad8 0b3e fa64 973e 0e73 5f3e 6bed bf3e
00000010: 1fa8 c43e 3085 053e cafc 3e3d da9e 203e
00000020: f99d c63e 6271 5e3e 4715 243e eb99 a33f
00000030: d0d9 863f dd18 9e3e 3000 c43d d033 eb3d

level2_0.act.weight f4 [16]
0.41454378 0.080469124 0.053584505 0.20675203 0.2444625 0.19639516 0.031050913 0.102424294
0.15491834 0.15107282 0.24590114 0.34190804 0.21973103 0.3153292 0.22825515 0.17729834
00000000: 153f d43e ffcc a43d 6d7b 5b3d ceb6 533e
00000010: 6154 7a3e d01b 493e 7c5e fe3c d4c3 d13d
00000020: eaa2 1e3e d5b2 1a3e 82cd 7b3e 920e af3e
00000030: 2c01 613e d472 a13e b8bb 693e b28d 353e

level3_0.eesp.proj_1x1.conv.weight f4 [8, 8, 1, 1]
-0.11096692 -0.739932 0.21750258 -0.8122142 -0.60033965 -0.5597791 -0.6865212 0.1993564
0.103563756 -0.1941211 0.9207859 1.0070219 -0.31897262 -0.55008054 0.5070676 -0.21784906
0.009373337 0.25033963 0.2818665 0.39323965 -0.63547784 0.6650404 0.42690596 0.16119029
0.4691896 0.5221013 0.30145988 -0.41710323 -1.0690821 0.20449838 0.12917039 -0.42772502
-0.35467026 0.23307645 -0.85559845 0.15006262 -0.4714921 -0.3001629 0.7703939 -0.35815552
-0.22496007 -0.013404599 -0.68927157 0.6015466 -0.37915266 0.5624513 -0.063026674 -0.98275495
-0.7916582 0.10858095 -1.2273321 -0.13484246 -0.40479264 -0.5959985 -0.6641882 -0.62989444
-0.12687382 0.47740474 0.48793384 0.0038459087 0.49456677 -0.10296005 0.96001405 -0.26830634
00000000: a042 e3bd 2f6c 3dbf ffb8 5e3e 45ed 4fbf
00000010: dcaf 19bf af4d 0fbf dabf 2fbf 1624 4c3e
00000020: 3c19 d43d aec7 46be a0b8 6b3f 18e6 803f
00000030: 6150 a3be 14d2 0cbf 2fcf 013f d313 5fbe
00000040: a092 193c 842c 803e ce50 903e b556 c93e
00000050: adae 22bf 1640 2a3f 6b93 da3e 110f 253e
00000060: 9f39 f03e 6ea8 053f f358 9a3e 8e8e d5be
00000070: afd7 88bf 0668 513e 3e45 043e c6fe dabe
00000080: 5797 b5be 98ab 6e3e 8008 5bbf 04aa 193e
00000090: 6a67 f1be f4ae 99be 8938 453f 2960 b7be
000000a0: ef5b 66be f79e 5bbc 1a74 30bf f5fe 193f
000000b0: 4c20 c2be cffc 0f3f 2114 81bd d495 7bbf
000000c0: 1daa 4abf b05f de3d 3819 9dbf 2414 0abe
000000d0: fb40 cfbe 5c93 18bf 3d08 2abf c340 21bf
000000e0: 36eb 01be 656e f43e 77d2 f93e a40b 7c3b
000000f0: db37 fd3e b8dc d2bd 7bc3 753f 735f 89be

level3_0.eesp.proj_1x1.bn.weight f4 [8]
0.8632053 0.9638161 1.0738815 1.0893323 1.024746 0.98519015 1.295207 0.8817525
00000000: 06fb 5c3f a7bc 763f f374 893f 3e6f 8b3f
00000010: e02a 833f 6c35 7c3f 58c9 a53f 88ba 613f

level3_0.eesp.proj_1x1.bn.bias f4 [8]
-0.16899665 -0.17464103 -0.028668834 -0.085803986 -0.092572875 -0.094462685 0.020112563 -0.18634501
00000000: 750d 2dbe 19d5 32be e7da eabc 00ba afbd
00000010: d996 bdbd a775 c1bd 1ac3 a43c 3ad1 3ebe

level3_0.eesp.proj_1x1.bn.running_mean f4 [8]
-1.8260212 0.71363306 0.9314916 -0.18486585 -0.8245917 -0.49872348 -1.6426276 0.59146065
00000000: 10bb e9bf a8b0 363f 3c76 6e3f 794d 3dbe
00000010: 7118 53bf af58 ffbe 9f41 d2bf f769 173f

level3_0.eesp.proj_1x1.bn.running_var f4 [8]
2.0156338 2.0289733 1.9492165 2.1610754 5.690028 2.9217215 11.609756 3.6656868
00000000: 2500 0140 b3da 0140 ed7f f93f 0f4f 0a40
00000010: b614 b640 7cfd 3a40 90c1 3941 9d9a 6a40

level3_0.eesp.proj_1x1.act.weight f4 [8]
0.3441738 0.21757185 0.24269605 0.10824845 0.41827935 0.32878995 0.35205334 0.28941134
00000000: 8c37 b03e 28cb 5e3e 5085 783e 5db1 dd3d
00000010: b628 d63e 2857 a83e 5640 b43e b92d 943e

level3_0.eesp.spp_dw.0.conv.weight f4 [8, 1, 3, 3]
0.050119605 -0.11852753 -0.13512176 0.07992949 -0.24870692 -0.548969 -0.09191072 -0.2534886
-0.13827486 0.21485679 -0.27358583 -0.059195142 0.38535273 0.23519722 -0.10548863 0.25384235
0.0012156839 -0.029257614 -0.2521293 -0.1578188 0.24642248 0.053537793 0.043609582 -0.120164
-0.04055286 -0.31963104 0.059697013 0.065492146 -0.36475322 0.49225166 0.15033852 0.22808178
-0.17748554 0.021040788 0.0092890365 -0.37672177 0.34812957 0.037240162 0.35956186 0.005340044
-0.3877299 -0.035316747 0.24509525 0.061350215 0.3444978 0.093518324 -0.2693114 -0.2198117
-0.030796466 0.041108873 0.016391069 -0.333773 0.29023457 0.06031224 -0.08548617 0.27265567
-0.40564445 -0.3106282 -0.18188302 -0.12100037 0.072508045 0.06117703 0.087262884 0.19302367
-0.0009600392 -0.019343724 -0.17900378 -0.020704191 -0.604935 -0.0939672 0.10387411 0.004486832
00000000: 374a 4d3d 90be f2bd 5c5d 0abe 13b2 a33d
00000010: 07ad 7ebe 3b89 0cbf b03b bcbd 42c9 81be
00000020: ed97 0dbe 6b03 5c3e 7113 8cbe 9b76 72bd
00000030: f44c c53e 8ad7 703e 6c0a d8bd a0f7 813e
00000040: 9557 9f3a aaad efbc 1717 81be 409b 21be
00000050: 2d56 7c3e 724a 5b3d f69f 323d 8b18 f6bd
00000060: c11a 26bd aea6 a3be db84 743d bf20 863d
00000070: efc0 babe 6908 fc3e 57f2 193e 458e 693e
00000080: c5be 35be bb5d ac3c 0b31 183c ade1 c0be
00000090: 0a3e b23e 2489 183d 7e18 b83e 89fb ae3b
000000a0: 8984 c6be 4ba8 10bd 40fa 7a3e 5d4a 7b3d
000000b0: 0462 b03e 8986 bf3d 2fe3 89be 5116 61be
000000c0: df48 fcbc c761 283d 9046 863c 4be4 aabe
000000d0: a099 943e f809 773d 6013 afbd 8699 8b3e
000000e0: a1b0 cfbe a90a 9fbe 8b3f 3abe 0bcf f7bd
000000f0: 197f 943d c494 7a3d e2b6 b23d ffa7 453e
00000100: 24ab 7bba bb76 9ebc c44c 37be d69b a9bc
00000110: 05dd 1abf e071 c0bd f3bb d43d 4606 933b

level3_0.eesp.spp_dw.1.conv.weight f4 [8, 1, 3, 3]
0.25992435 -0.018880868 0.09204525 0.22812629 -0.05328777 -0.057288256 0.09877707 0.30894348
-0.12702894 -0.100700356 0.057721596 -0.029115925 -0.18871756 0.117943004 -0.310868 0.2519694
0.13285325 0.023679445 0.08739227 0.3232263 -0.2028045 0.21173982 0.0014297038 0.10481622
0.36103386 -0.50083256 0.21947914 -0.36152995 -0.14608063 0.22272502 -0.15641348 -0.019342383
-0.24336638 -0.269771 0.4188437 0.34492752 0.011708609 -0.2127311 -0.008395724 0.13126701
-0.0732335 0.014652956 -0.010340037 -0.3038384 0.16894874 0.14584433 -0.044262238 -0.11900651
-0.059926774 -0.35867426 -0.086865135 0.1654099 0.19122304 0.17344205 -0.124262884 0.2030088
-0.0053721797 0.4592024 0.005222612 0.08282127 -0.102704756 0.029912556 -0.19604711 0.12505578
0.34399194 0.4005228 -0.0049338024 0.19395283 0.15536344 -0.022330105 -0.11520057 0.5322127
00000000: ce14 853e 0dac 9abc 3882 bc3d f099 693e
00000010: 4744 5abd 17a7 6abd a24b ca3d d72d 9e3e
00000020: e013 02be fd3b cebd 7b6d 6c3d 8584 eebc
00000030: 2d3f 41be 1a8c f13d 172a 9fbe 2202 813e
00000040: af0a 083e 65fb c13c b8fa b23d eb7d a53e
00000050: fcab 4fbe 53d2 583e e664 bb3a e3a9 d63d
00000060: 6ed9 b83e 9036 00bf 24bf 603e 741a b9be
00000070: 2996 15be 0712 643e db2a 20be eb73 9ebc
00000080: 0935 79be 6d1f 8abe ae72 d63e 579a b03e
00000090: 77d5 3f3c 2ed6 59be 388e 09bc dc6a 063e
000000a0: 72fb 95bd f412 703c 4269 29bc b590 9bbe
000000b0: e600 2d3e 3758 153e 524c 35bd afb9 f3bd
000000c0: c775 75bd 27a4 b7be 59e6 b1bd 3661 293e
000000d0: f9cf 433e cb9a 313e 8a7d febd 8ae1 4f3e
000000e0: 1c09 b0bb 941c eb3e 7222 ab3b 339e a93d
000000f0: df56 d2bd 2d0b f53c 93c0 48be 9f0e 003e
00000100: b61f b03e 5311 cd3e bcab a1bb 929b 463e
00000110: 9817 1f3e a0ed b6bc 47ee ebbd 173f 083f

level3_0.eesp.conv_1x1_exp.conv.weight f4 [16, 8, 1, 1]
-0.01899336 -0.047639176 -0.18165497 -0.3134997 -0.015513865 0.08347137 -0.92964363 -0.58549964
-0.44279048 0.18554634 0.37937292 -0.9532136 -0.12031165 0.57761997 -0.09486344 0.30882084
-0.17673273 -0.088212825 0.51755583 0.16281617 0.0900737 0.5549278 -0.080891244 -0.8436545
-0.047948107 0.78214514 0.30022055 -0.0018746281 0.32119805 0.026026802 0.37120092 0.71072286
-0.53326017 0.52809846 0.39148885 -0.53657424 -0.15533164 -0.2980906 -0.6498977 0.31488907
0.07912468 0.22931997 -0.22942 -0.45240262 -0.18867858 -0.054314207 0.6812463 -0.12870874
-0.062286828 0.31571805 0.51964027 0.14314508 0.09120359 -0.41213527 -0.13289139 -0.6485885
0.025493804 -0.56448764 -0.04489474 0.404214 0.30234855 0.37104267 0.31129417 -0.28947186
-0.77679753 0.041178357 0.14860429 -0.07474061 0.36801526 -0.09754652 1.0751098 -0.24462603
-0.1741397 -0.20037343 -0.023391228 -0.14946187 0.112560846 0.2232413 0.05027494 -0.60583425
0.22770086 -0.44415927 -0.8820059 -0.020197723 -0.15271486 0.07173857 -0.25249887 -0.0077985195
-0.27202323 0.62004244 -0.39418823 0.050150946 -0.52208036 0.016213644 0.043482155 -0.5983289
-0.10652565 0.084329836 -0.38187173 0.20850216 0.50329995 -0.45312414 0.051703118 -0.13431144
0.35887378 0.4829285 -0.11308791 -0.45990598 0.49556798 0.21794301 0.18558806 -0.57974285
-0.15678112 0.055046637 -0.6069413 0.14382409 -0.15075889 0.12676631 0.2444004 -0.19033341
0.4317904 0.23087071 -0.5807847 -0.30213886 0.0663778 -0.4462359 1.0688767 0.17162713
00000000: f797 9bbc 4c21 43bd c303 3abe 0883 a0be
00000010: de2d 7ebc 0af3 aa3d 20fd 6dbf 4ee3 15bf
00000020: 6fb5 e2be dcff 3d3e 2b3d c23e ce05 74bf
00000030: f465 f6bd e7de 133f c347 c2bd c41d 9e3e
00000040: 6df9 34be eda8 b4bd 8a7e 043f 48b9 263e
00000050: 8f78 b83d c00f 0e3f 4faa a5bd bef9 57bf
00000060: 3c65 44bd aa3a 483f 82b6 993e 15b6 f5ba
00000070: 1274 a43e 2936 d53c 0c0e be3e eff1 353f
00000080: bd83 08bf 7631 073f 3a71 c83e ee5c 09bf
00000090: 420f 1fbe 559f 98be b25f 26bf 2439 a13e
000000a0: 1f0c a23d dbd2 6a3e 14ed 6abe 51a1 e7be
000000b0: f534 41be 9378 5ebd 2866 2e3f 39cc 03be
000000c0: 7920 7fbd cca5 a13e 2507 053f a094 123e
000000d0: f3c8 ba3d 6503 d3be ae14 08be e509 26bf
000000e0: 62d8 d03c 4382 10bf 8ce3 37bd 23f5 ce3e
000000f0: 6ecd 9a3e 4ef9 bd3e f361 9f3e a835 94be
00000100: 34dc 46bf a3aa 283d b92b 183e 9b11 99bd
00000110: 7f6c bc3e 78c6 c7bd 339d 893f 3f7f 7abe
00000120: ad51 32be b12e 4dbe f69e bfbc 880c 19be
00000130: 4d86 e63d 5e99 643e 18ed 4d3d f417 1bbf
00000140: 6a2a 693e d868 e3be 23cb 61bf b275 a5bc
00000150: 4961 1cbe aceb 923d 8847 81be b98a ffbb
00000160: a146 8bbe 1abb 1e3f 0ad3 c9be 146b 4d3d
00000170: 0fa7 05bf 7ad2 843c 581a 323d 152c 19bf
00000180: 1f2a dabd 1fb5 ac3d b184 c3be 9781 553e
00000190: 44d8 003f e3ff e7be a6c6 533d f088 09be
000001a0: 4ebe b73e 6842 f73e a29a e7bd cc78 ebbe
000001b0: 16bb fd3e 742c 5f3e cc0a 3e3e 076a 14bf
000001c0: 3b8b 20be 9578 613d 8160 1bbf 9f46 133e
000001d0: 8a60 1abe 07cf 013e 1944 7a3e c3e6 42be
000001e0: a213 dd3e 5f69 6c3e 4eae 14bf f2b1 9abe
000001f0: 16f1 873d 0879 e4be f4d0 883f 06bf 2f3e

level3_0.eesp.conv_1x1_exp.bn.weight f4 [16]
1.0885808 1.1655328 1.083547 1.1771108 0.8811803 0.88860184 0.76598245 1.0136048
0.98982006 1.0589855 1.0427498 0.957945 1.1442884 1.1449001 1.141983 1.1381042
00000000: 9e56 8b3f 2e30 953f abb1 8a3f 91ab 963f
00000010: 0895 613f 697b 633f 6d17 443f cdbd 813f
00000020: d964 7d3f d68c 873f d378 853f e23b 753f
00000030: 0b78 923f 168c 923f 802c 923f 66ad 913f

level3_0.eesp.conv_1x1_exp.bn.bias f4 [16]
-0.22297846 -0.058541324 0.02849799 0.0024532066 -0.07017078 0.024404347 -0.13548592 -0.10260005
-0.007892621 0.0873679 0.10896123 -0.0130135 0.080990575 -0.10326166 0.054282412 0.020960242
00000000: 7754 64be 07c9 6fbd 9e74 e93c fac5 203b
00000010: b3b5 8fbd a0eb c73c d2bc 0abe fa1f d2bd
00000020: 0d50 01bc f1ed b23d 1127 df3d 9336 55bc
00000030: 63de a53d d97a d3bd 3c57 5e3d d0b4 ab3c

level3_0.eesp.conv_1x1_exp.bn.running_mean f4 [16]
-0.66787475 -0.15256475 -0.06898739 0.5149415 -0.4235515 0.059922565 -0.20153254 0.22641411
-0.016764736 -0.14686252 -0.26983598 -0.22517271 -0.05060393 0.16144666 -0.12512808 0.122001715
00000000: d7f9 2abf ef39 1cbe 4349 8dbd 35d3 033f
00000010: bedb d8be 5d71 753d 8c5e 4ebe 1ad9 673e
00000020: 3356 89bc 2163 16be f127 8abe ad93 66be
00000030: 1146 4fbd 4652 253e 9321 00be 09dc f93d

level3_0.eesp.conv_1x1_exp.bn.running_var f4 [16]
0.66898274 1.1141415 0.3622822 0.5678514 1.599996 0.51532316 0.2893135 0.59486926
0.7165839 0.43517813 0.7686684 0.8084967 0.47067183 0.7659896 0.35103667 1.1203754
00000000: 7442 2b3f 309c 8e3f 0d7d b93e b65e 113f
00000010: abcc cc3f 38ec 033f e620 943e 5a49 183f
00000020: 0b72 373f abcf de3e 74c7 443f a4f9 4e3f
00000030: e6fb f03e e517 443f 14bb b33e 7668 8f3f

level3_0.eesp.br_after_cat.bn.weight f4 [16]
0.92867875 1.04837 0.9687896 1.1369381 0.75791025 1.0390885 0.97084194 0.9820749
0.9235839 1.0321015 1.0719732 0.9364578 1.0128788 1.0595385 1.0252672 1.0446516
00000000: e4bd 6d3f fd30 863f 9802 783f 3087 913f
00000010: 6806 423f da00 853f 1989 783f 4369 7b3f
00000020: ff6f 6c3f e71b 843f 6b36 893f b3bb 6f3f
00000030: 03a6 813f f59e 873f f53b 833f 25b7 853f

level3_0.eesp.br_after_cat.bn.bias f4 [16]
-0.18631966 -0.10926058 -0.045869958 0.24147916 -0.22913438 0.002999098 0.2810258 0.14850971
-0.0067487373 -0.0023825713 0.12007416 0.04010019 -0.0052974196 0.049494117 -0.09651072 -0.07920793
00000000: 95ca 3ebe 03c4 dfbd 23e2 3bbd 5046 773e
00000010: 34a2 6abe 848c 443b 9de2 8f3e ee12 183e
00000020: 8324 ddbb ea24 1cbb 71e9 f53d 1940 243d
00000030: fa95 adbb 58ba 4a3d 6aa7 c5bd c437 a2bd

level3_0.eesp.br_after_cat.bn.running_mean f4 [16]
-0.13454698 0.07384564 -0.11152661 -0.0066348575 0.118561074 -0.017555317 -0.15971604 -0.03281839
-0.07644029 0.055030715 0.023966145 -0.051422283 0.09361742 -0.016337603 -0.0533907 0.047821425
00000000: afc6 09be 623c 973d 1068 e4bd 3869 d9bb
00000010: 26d0 f23d 2bd0 8fbc 9a8c 23be 936c 06bd
00000020: ba8c 9cbd e367 613d a654 c43c 2ca0 52bd
00000030: 7dba bf3d 70d6 85bc 35b0 5abd 66e0 433d

level3_0.eesp.br_after_cat.bn.running_var f4 [16]
0.31628838 0.27837902 0.16815683 0.1418651 0.32174897 0.03642921 0.15477407 0.21749249
0.1755142 0.3595795 0.25361645 0.32743743 0.33449513 0.06779939 0.10828804 0.44521204
00000000: 8df0 a13e b287 8e3e 4e31 2c3e 1645 113e
00000010: 48bc a43e cc36 153d 187d 1e3e 5ab6 5e3e
00000020: ffb9 333e ce1a b83e 04da 813e e1a5 a73e
00000030: f242 ab3e 68da 8a3d 1fc6 dd3d d5f2 e33e

level3_0.eesp.br_after_cat.act.weight f4 [16]
0.21402217 0.42302907 0.44921866 0.45221278 0.17776011 0.22700699 0.52928036 0.29188326
0.11558206 0.27942032 0.46940184 0.038341694 0.3838513 0.50460535 0.30651864 0.3537431
00000000: a128 5b3e 4497 d83e fdff e53e 6f88 e73e
00000010: bf06 363e 8574 683e eb7e 073f b971 953e
00000020: 49b6 ec3d 2e10 8f3e 7055 f03e 2e0c 1d3d
00000030: 2888 c43e d12d 013f 03f0 9c3e d11d b53e

level3_0.eesp.module_act.weight f4 [16]
0.25 0.25 0.25 0.25 0.25 0.25 0.25 0.25
0.25 0.25 0.25 0.25 0.25 0.25 0.25 0.25
00000000: 0000 803e 0000 803e 0000 803e 0000 803e
00000010: 0000 803e 0000 803e 0000 803e 0000 803e
00000020: 0000 803e 0000 803e 0000 803e 0000 803e
00000030: 0000 803e 0000 803e 0000 803e 0000 803e

level3_0.inp_reinf.0.conv.weight f4 [3, 3, 3, 3]
-0.18831894 0.08130267 0.3831446 -0.2737216 -0.08699462 0.21686538 -0.507115 -0.111585945
-0.10303957 -0.41285896 0.34548047 0.038078636 -0.36903352 -0.3737574 0.18281081 -0.42906076
0.048521455 0.17422542 0.24016225 0.62114453 0.037050594 0.27220237 0.15522492 0.1817156
-0.2876381 0.0074111163 0.12444412 0.53587544 0.2846767 -0.32125664 -0.23287524 0.49689293
-0.20180494 -0.22688039 -0.41770178 -0.22884385 -0.30833185 0.042528067 -0.16377902 0.026328284
-0.04296435 -0.11510975 -0.26718456 -0.50009197 -0.386836 0.13951096 0.055918064 0.26314485
-0.31938162 0.06546435 -0.22782186 0.12577772 -0.26368454 0.1314823 0.14567126 -0.18384492
-0.33055755 0.4102069 0.08640576 0.06125541 0.18188845 -0.40970927 0.19036977 0.07832611
0.40896934 -0.3859738 0.19115026 0.07369785 0.23901907 0.03249764 -0.0134576 0.004281766
-0.11097693 -0.11270662 0.42297384 0.13594122 0.08431844 0.33430493 -0.8237194 0.14982569
0.4516395
00000000: aed6 40be 0482 a63d 872b c43e 3d25 8cbe
00000010: 3c2a b2bd f511 5e3e 4ad2 01bf 2c87 e4bd
00000020: 6906 d3bd 4062 d3be d1e2 b03e 58f8 1b3d
00000030: f6f1 bcbe 215d bfbe c232 3b3e daad dbbe
00000040: 6fbe 463d 2668 323e 18ed 753e 5403 1f3f
00000050: 5dc2 173d 1c5e 8b3e 48f3 1e3e a713 3a3e
00000060: 4d45 93be f3d8 f23b 8fdc fe3d 222f 093f
00000070: 25c1 913e c07b a4be d976 6ebe c068 fe3e
00000080: f4a5 4ebe 5553 68be 02dd d5be 0b56 6abe
00000090: acdd 9dbe e931 2e3d b0b5 27be 6aae d73c
000000a0: 63fb 2fbd a9be ebbd 6acc 88be 0706 00bf
000000b0: 5e0f c6be f6db 0e3e 570a 653d ecba 863e
000000c0: fd85 a3be 2c12 863d 224a 69be e0cb 003e
000000d0: a901 87be 4ca3 063e d92a 153e d841 3cbe
000000e0: d73e a9be a406 d23e 81f5 b03d f4e6 7a3d
000000f0: f740 3a3e 6ac5 d1be 4bf0 423e 7169 a03d
00000100: 6e64 d13e 5c9e c5be e5bc 433e e6ee 963d
00000110: 6ac1 743e 3f1c 053d 447d 5cbc 0e4e 8c3b
00000120: df47 e3bd bad2 e6bd 0790 d83e 2d34 0b3e
00000130: 25af ac3d 042a ab3e 46df 52bf e86b 193e
00000140: 4b3d e73e

level3_0.inp_reinf.0.bn.weight f4 [3]
0.9821403 1.0296211 1.0116113
00000000: 8c6d 7b3f a0ca 833f 7b7c 813f

level3_0.inp_reinf.0.bn.bias f4 [3]
-0.17165457 0.09385693 0.10232391
00000000: 37c6 2fbe 1038 c03d 338f d13d

level3_0.inp_reinf.0.bn.running_mean f4 [3]
0.0073796767 -4.305856 2.7405245
00000000: 37d1 f13b 93c9 89c0 c164 2f40

level3_0.inp_reinf.0.bn.running_var f4 [3]
4.2666454 7.013226 2.6919415
00000000: 5c88 8840 596c e040 c548 2c40

level3_0.inp_reinf.0.act.weight f4 [3]
0.32406873 0.37804458 0.29345936
00000000: 56ec a53e 0f8f c13e 4e40 963e

level3_0.inp_reinf.1.conv.weight f4 [32, 3, 1, 1]
0.37734365 0.5631743 -0.18505763 -0.20984805 0.09664773 -0.119421005 -0.07982323 0.5216358
0.08317686 -0.025745818 -0.022843573 0.2675168 -0.046113726 0.007526473 -0.79182 0.2722085
0.05129712 0.2638213 0.38075933 -0.2807697 -0.48083588 0.80437374 0.064544424 0.09967738
-0.3887359 0.44939137 0.10741987 -0.18323421 -0.30896202 0.3603293 -0.44859695 0.097368784
0.0417824 -0.51753795 0.27428693 -0.14330637 0.21358542 -0.29393625 -0.14262159 0.17229481
0.022152081 -0.40028688 0.06928914 -0.52407324 -0.044347983 0.5365162 -0.28519434 0.41940144
-0.062090993 -0.14739643 -0.253839 -0.0034761473 0.9266333 -0.016448935 0.10657478 0.28826708
-0.2555553 -0.24131148 -0.14088115 0.055047013 0.030731017 -0.6264276 0.0041925986 -0.14325264
0.17685968 -0.23002344 0.39753354 -0.058094326 0.2039871 0.14018455 -0.13675289 0.41915768
0.0399552 0.204299 -0.49713778 0.055409797 0.22610222 -0.62507236 0.10125937 0.39151785
-0.1669693 -0.0076789735 0.05874566 -0.33031484 0.5310987 0.23328406 -0.058049038 -0.18059474
0.5049918 -0.11467237 0.06454545 0.2063971 -0.23147537 -0.05462261 0.3420522 -0.32467836
00000000: 3033 c13e 312c 103f bf7f 3dbe 68e2 56be
00000010: 3fef c53d 0093 f4bd 5d7a a3bd ec89 053f
00000020: a158 aa3d e5e8 d2bc 7222 bbbc f6f7 883e
00000030: bfe1 3cbd a2a0 f63b b7b4 4abf ea5e 8b3e
00000040: ee1c 523d 9613 873e e3f2 c23e 0cc1 8fbe
00000050: 1f30 f6be 70eb 4d3f de2f 843d a723 cc3d
00000060: 6408 c7be a016 e63e f3fe db3d c0a1 3bbe
00000070: 4530 9ebe 157d b83e 80ae e5be 4969 c73d
00000080: 0624 2b3d 5e7d 04bf 566f 8c3e e8be 12be
00000090: 23b6 5a3e d07e 96be 650b 12be 0d6e 303e
000000a0: 4878 b53c 67f2 ccbe 77e7 8d3d aa29 06bf
000000b0: 3ba6 35bd 2059 093f fe04 92be c9bb d63e
000000c0: 2053 7ebd 17ef 16be 2ff7 81be 13d0 63bb
000000d0: d737 6d3f ebbf 86bc e143 da3d be97 933e
000000e0: 25d8 82be 5b1a 77be 2643 10be fa78 613d
000000f0: 9dbf fb3c 8f5d 20bf 1162 893b d2b0 12be
00000100: b41a 353e 448b 6bbe 8489 cb3e 51f4 6dbd
00000110: ffe1 503e 8a8c 0f3e f308 0cbe d69b d63e
00000120: 10a8 233d c233 513e d888 febe 62f5 623d
00000130: 5787 673e be04 20bf 1361 cf3d 0775 c83e
00000140: 00fa 2abe e69f fbbb 4a9f 703d 071f a9be
00000150: 16f6 073f 04e2 6e3e d4c4 6dbd d4ed 38be
00000160: 2547 013f 59d9 eabd 6830 843d c359 533e
00000170: e107 6dbe f5bb 5fbd 7721 af3e 3e3c a6be

level3_0.inp_reinf.1.bn.weight f4 [32]
0.9803611 0.8648896 0.96745914 0.97723055 0.98306525 0.9248134 1.0188946 1.0264498
1.0736997 1.0400919 1.0300106 1.1047878 0.9220257 0.9636103 0.9217652 0.9161427
0.821735 1.0397825 1.0658139 0.930661 1.0808474 1.0638466 1.0216892 0.879583
1.0656288 1.0602008 1.0493002 0.9870817 0.9244758 0.873503 0.97490317 0.95679796
00000000: f2f8 7a3f 6869 5d3f 67ab 773f c82b 7a3f
00000010: 2aaa 7b3f 92c0 6c3f 236b 823f b562 833f
00000020: fe6e 893f bb21 853f 63d7 833f b069 8d3f
00000030: e009 6c3f 2aaf 763f cef8 6b3f 5488 6a3f
00000040: 3a5d 523f 9817 853f 976c 883f cd3f 6e3f
00000050: 3559 8a3f 202c 883f b6c6 823f 5a2c 613f
00000060: 8666 883f a9b4 873f 784f 863f 63b1 7c3f
00000070: 72aa 6c3f e59d 5f3f 4193 793f b6f0 743f

level3_0.inp_reinf.1.bn.bias f4 [32]
-0.045840204 0.06065712 -0.05624845 0.055396933 -0.060345132 -0.21926644 -0.04053925 0.06463128
0.019113375 -0.17867881 -0.014607404 0.02538947 0.054476738 0.11301176 -0.17532565 -0.25947046
-0.22297846 -0.058541324 0.02849799 0.0024532066 -0.07017078 0.024404347 -0.13548592 -0.10260005
-0.007892621 0.0873679 0.10896123 -0.0130135 0.080990575 -0.10326166 0.054282412 0.020960242
00000000: f0c2 3bbd 9a73 783d c664 66bd e5e7 623d
00000010: 752c 77bd 6287 60be 7c0c 26bd 685d 843d
00000020: a793 9c3c 94f7 36be e553 6fbc 94fd cf3c
00000030: 0023 5f3d b672 e73d 9188 33be 50d9 84be
00000040: 7754 64be 07c9 6fbd 9e74 e93c fac5 203b
00000050: b3b5 8fbd a0eb c73c d2bc 0abe fa1f d2bd
00000060: 0d50 01bc f1ed b23d 1127 df3d 9336 55bc
00000070: 63de a53d d97a d3bd 3c57 5e3d d0b4 ab3c

level3_0.inp_reinf.1.bn.running_mean f4 [32]
0.17389755 -0.036596607 0.20499825 0.090378724 -0.3069939 0.15292859 -0.23582132 0.15932427
0.15086463 0.0059293862 -0.004097449 -0.021043805 -0.13245508 -0.12539229 -0.19296391 0.1262523
-0.15694831 0.31947997 0.015444741 -0.057815976 -0.21587048 -0.042852633 0.10657114 0.1298024
-0.11427265 -0.153759 0.08584644 -0.10735869 0.12428263 0.111975 -0.008500435 -0.010621695
00000000: 3312 323e 53e6 15bd 10eb 513e 7b18 b93d
00000010: 4e2e 9dbe 5099 1c3e 257b 71be e725 233e
00000020: 427c 1a3e 4c4b c23b e543 86bb 0f64 acbc
00000030: 4ea2 07be d666 00be 5598 45be 4848 013e
00000040: 0fb7 20be e192 a33e f00b 7d3c 72d0 6cbd
00000050: 270d 5dbe 3e86 2fbd f841 da3d ecea 043e
00000060: c707 eabd 0073 1dbe 42d0 af3d dfde dbbd
00000070: e487 fe3d 2653 e53d 6945 0bbc 9e06 2ebc

level3_0.inp_reinf.1.bn.running_var f4 [32]
0.33494407 0.04607132 0.1203486 0.03959775 0.33204937 0.080050685 0.08557921 0.3378103
0.13397318 0.20378336 0.09313074 0.21660179 0.039161496 0.087562464 0.13325748 0.40011215
0.023939122 0.48396358 0.1333814 0.04554406 0.21730943 0.08886615 0.12481585 0.16091977
0.21828096 0.32188272 0.14897628 0.071692385 0.17935692 0.20306465 0.08436896 0.20172027
00000000: ca7d ab3e 48b5 3c3d 5479 f63d 4031 223d
00000010: 6002 aa3e 9df1 a33d 2744 af3d 79f5 ac3e
00000020: 4430 093e 96ac 503e 54bb be3d dccc 5d3e
00000030: ce67 203d f353 b33d a674 083e 80db cc3e
00000040: fa1b c43c 13ca f73e 2295 083e 698c 3a3d
00000050: 5d86 5e3e 75ff b53d 749f ff3d 27c8 243e
00000060: 0b85 5f3e d0cd a43e 3d8d 183e 75d3 923d
00000070: 57a9 373e 2ef0 4f3e a2c9 ac3d c28f 4e3e

level3_0.act.weight f4 [32]
0.19156428 0.2874639 0.11380208 0.3479263 0.13529459 0.3282735 0.019763354 0.23183729
0.08918537 0.23394473 0.18503208 0.07351492 0.47460306 0.2914047 0.16923226 0.14751983
0.25444576 0.32270133 0.28758445 0.22550598 0.27844986 0.20772542 0.14960185 0.24098569
0.5424567 0.30342713 0.41624415 0.301175 0.43278876 -0.051590335 0.348823 0.41350552
00000000: 6d29 443e 782e 933e 1111 e93d 6523 b23e
00000010: aa8a 0a3e 7713 a83e c2e6 a13c c166 6d3e
00000020: d2a6 b63d 358f 6f3e 0d79 3d3e fe8e 963d
00000030: 2cff f23e ff32 953e 394b 2d3e 700f 173e
00000040: b746 823e 1c39 a53e 453e 933e 0aeb 663e
00000050: fb90 8e3e f9b5 543e 3a31 193e f4c4 763e
00000060: 71de 0a3f cd5a 9b3e f41d d53e 9c33 9a3e
00000070: 7d96 dd3e 6350 53bd ee98 b23e ffb6 d33e

level3.0.proj_1x1.conv.weight f4 [16, 16, 1, 1]
-0.16830394 -0.16257343 -0.215198 -0.12230569 0.13219473 0.12055896 0.34721988 -0.33044884
-0.24733321 -0.13499112 -0.15975969 0.8364433 -0.10276287 -0.10558567 -0.2430992 0.032813028
0.42887804 0.28511778 0.47612298 0.261762 -0.89362025 0.22745366 -0.26081002 -1.0006295
-0.040581614 -0.39648876 -0.027939534 -0.09006766 0.6374312 0.18148044 -0.26139906 0.4535763
-0.11927368 0.29845488 -0.21344073 0.7186397 0.24117951 -0.15590724 -0.31582755 0.3728414
0.25739083 1.0098144 -0.17415822 -0.19639488 -0.23546149 0.13407503 0.358622 -0.060918067
-0.09336349 0.3676327 0.121838994 -0.30960503 -0.10301016 -0.37677598 0.019908983 -1.0801861
-0.20706205 -0.053540375 0.48619676 0.1368471 -0.14291441 0.6022173 -0.5329443 -0.54831964
-0.030540597 0.21934786 0.11426069 -0.11704326 -0.24399272 0.48834175 -0.053715788 -0.20845184
0.44781637 -0.3327293 0.34406 0.46990174 0.05451367 -0.042994574 -0.115416385 -0.35899538
0.30785042 -0.1559803 0.75702834 0.07963207 0.19216116 -0.25464642 -0.27263403 -0.528996
-0.29207423 -0.06272449 0.38502052 0.16754663 -0.4440095 -0.101508535 0.38059232 0.69687283
-0.28650048 0.28555197 -0.3042939 0.07666121 0.66456664 0.46343845 0.6975816 0.8050773
-0.32812306 -0.19941835 0.23879671 -0.070303395 0.66335577 0.3106885 0.1560529 0.20997532
-0.20732515 0.0262477 0.39899364 0.047616836 -0.5420856 -0.6823517 -0.26341844 -0.6061879
0.55864716 0.39610678 0.5402245 0.18701355 0.20632917 0.7371295 -0.14634779 1.0278504
0.22219911 -0.17142768 0.23486401 -0.5549333 0.09945743 -0.36707944 0.18134493 0.5573241
0.2290132 0.12396141 0.088881165 0.19855914 -0.16715081 0.20258398 -0.08913818 0.734023
0.57782674 0.3030137 -0.103971384 -0.16246425 0.23761378 0.29859275 -0.2977868 0.15343338
-0.11546455 -0.663524 0.21765967 -0.038881868 0.09745554 0.4454683 -0.32359788 -0.075858496
0.054536533 0.34877512 -0.11104881 0.0118111465 -0.021915441 0.11836045 -0.06745073 -0.2220254
-0.025936639 -0.6749261 0.27561447 -0.12984264 0.6705233 -0.3693932 0.2862516 0.3623534
-0.12399622 -0.11270523 0.42786962 0.16943538 -0.43518636 -0.41859654 0.31939766 -0.1438886
0.035024993 -0.31968287 -0.8341696 -0.32621014 -0.42646423 -0.6299809 0.032414984 -0.20383589
0.8119349 0.6397502 0.90993875 0.04800608 -0.106603935 -0.15184699 0.059600662 0.31389222
0.35505825 0.32325986 -0.011628601 -0.45310172 -0.24798284 -0.24226977 -0.21475032 -0.08499289
0.6068487 0.3667639 -0.18549852 0.26726565 0.54985857 0.31384608 -0.13263263 -0.26510543
-0.014450056 0.68246555 -0.41834226 0.003626292 -0.2791004 -0.25514722 -0.37831244 -0.34959146
-0.16145796 -0.03425098 0.13349144 -0.10531848 0.08971699 0.16094902 0.22961202 -0.31295297
0.6259329 0.5642264 0.21712518 -0.35838756 0.75058055 -0.45979717 0.48306623 0.45672956
-0.23965512 -0.14389704 0.21709076 -0.114502035 0.54327554 0.22132449 -0.24618514 -0.027060827
-0.11784508 0.259797 0.9079582 -0.042987477 0.3249764 -0.123256594 0.46568304 0.50969374
00000000: de57 2cbe a679 26be dd5c 5cbe 687b fabd
00000010: 0e5e 073e 9ee7 f63d cec6 b13e 9730 a9be
00000020: eb44 7dbe 1d3b 0abe 0b98 23be 2621 563f
00000030: 5775 d2bd 4d3d d8bd ffee 78be f466 063d
00000040: e795 db3e f5fa 913e 64c6 f33e ab05 863e
00000050: 4cc4 64bf 9de9 683e e488 85be a114 80bf
00000060: e838 26bd 9300 cbbe 73e1 e4bc 6575 b8bd
00000070: b12e 233f 02d6 393e 19d6 85be 273b e83e
00000080: c245 f4bd 14cf 983e 3590 5abe c5f8 373f
00000090: c3f7 763e 26a6 1fbe 26b4 a1be 11e5 be3e
000000a0: bbc8 833e 9941 813f 8856 32be bd1b 49be
000000b0: d11c 71be f74a 093e 4e9d b73e 3985 79bd
000000c0: 5c35 bfbd 5a3a bc3e b986 f93d 8d84 9ebe
000000d0: fef6 d2bd c8e8 c0be 2a18 a33c 8a43 8abf
000000e0: 1308 54be 274d 5bbd c8ee f83e a521 0c3e
000000f0: 2858 12be ea2a 1a3f 0a6f 08bf ad5e 0cbf
00000100: 4630 fabc ba9c 603e 8201 ea3d 60b4 efbd
00000110: 3ad9 79be ee07 fa3e 1605 5cbd 6674 55be
00000120: 3048 e53e 7f5b aabe a228 b03e f696 f03e
00000130: ba49 5f3d 141b 30bd 6d5f ecbd 3ece b7be
00000140: 929e 9d3e 4db9 1fbe 9ccc 413f 2416 a33d
00000150: e5c5 443e 0461 82be b096 8bbe 486c 07bf
00000160: c18a 95be b375 80bd 6921 c53e 5891 2b3e
00000170: 3755 e3be b5e3 cfbd ffdc c23e 4266 323f
00000180: 31b0 92be de33 923e 69cc 9bbe 8d00 9d3d
00000190: 0a21 2a3f ce47 ed3e b594 323f 8c19 4e3f
000001a0: bfff a7be 5334 4cbe 2087 743e 3afb 8fbd
000001b0: afd1 293f 9012 9f3e 55cc 1f3e c503 573e
000001c0: 0b4d 54be 6b05 d73c e548 cc3e df09 433d
000001d0: 1fc6 0abf 9aae 2ebf c8de 86be 212f 1bbf
000001e0: 8003 0f3f 82ce ca3e 274c 0a3f 7b80 3f3e
000001f0: f447 533e 85b4 3c3f 32dc 15be 9a90 833f
00000200: 2a88 633e bd8a 2fbe 3180 703e 1c10 0ebf
00000210: 56b0 cb3d d6f1 bbbe 7cb2 393e cbac 0e3f
00000220: 7082 6a3e 7bdf fd3d 5407 b63d 1653 4b3e
00000230: 9529 2bbe 2d72 4f3e 148e b6bd eee8 3b3f
00000240: 74ec 133f 9d24 9b3e f3ee d4bd 075d 26be
00000250: 0751 733e 26e1 983e 8377 98be a41d 1d3e
00000260: ae78 ecbd b5dc 29bf 2de2 5e3e 9842 1fbd
00000270: c596 c73d 6c14 e43e 9fae a5be b35b 9bbd
00000280: b361 5f3d a792 b23e 8f6d e3bd 8a83 413c
00000290: 0388 b3bc f766 f23d 9c23 8abd a05a 63be
000002a0: 1379 d4bc f5c7 2cbf 571d 8d3e 78f5 04be
000002b0: 6aa7 2b3f 1b21 bdbe 928f 923e 6386 b93e
000002c0: bbf1 fdbd 00d2 e6bd ba11 db3e 7880 2d3e
000002d0: bfd0 debe 4952 d6be 1788 a33e 8857 13be
000002e0: 5e76 0f3d 79ad a3be 248c 55bf 0405 a7be
000002f0: 8559 dabe 6e46 21bf 93c5 043d 5bba 50be
00000300: f7da 4f3f abc6 233f bff1 683f 06a2 443d
00000310: 2a53 dabd c77d 1bbe d31f 743d 7bb6 a03e
00000320: 32ca b53e 5182 a53e e385 3ebc f3fc e7be
00000330: 37ef 7dbe 9115 78be 82e7 5bbe c110 aebd
00000340: 705a 1b3f 7ac8 bb3e 53f3 3dbe 0bd7 883e
00000350: 88c3 0c3f 6fb0 a03e d9d0 07be e6bb 87be
00000360: edbf 6cbc 10b6 2e3f f530 d6be 16a7 6d3b
00000370: 3fe6 8ebe a8a2 82be 2bb2 c1be a7fd b2be
00000380: 3c55 25be c14a 0cbd fbb1 083e 37b1 d7bd
00000390: 8bbd b73d d2cf 243e 6a1f 6b3e 5f3b a0be
000003a0: 233d 203f 2471 103f 1056 5e3e 937e b7be
000003b0: 0c26 403f 896a ebbe 7554 f73e 75d8 e93e
000003c0: 2768 75be bf59 13be 0a4d 5e3e 0b80 eabd
000003d0: 1b14 0b3f e3a2 623e f517 7cbe abae ddbc
000003e0: c358 f1bd 1d04 853e f36f 683f a313 30bd
000003f0: 4f63 a63e f46d fcbd 026e ee3e 4a7b 023f

level3.0.proj_1x1.bn.weight f4 [16]
1.1192955 0.8864915 0.7428886 0.8181692 1.1074417 1.295066 0.9715835 0.8650748
1.1044685 0.9462158 1.0526026 0.9999155 1.3254069 0.85519594 1.1544384 0.9463748
00000000: 1345 8f3f 1bf1 623f f32d 3e3f 8973 513f
00000010: a6c0 8d3f b9c4 a53f b2b9 783f 8b75 5d3f
00000020: 395f 8d3f 333b 723f afbb 863f 76fa 7f3f
00000030: efa6 a93f 1fee 5a3f a3c4 933f 9e45 723f

level3.0.proj_1x1.bn.bias f4 [16]
-0.102909975 -0.16558196 -0.27161092 0.18731517 0.0459042 -0.0019720318 0.04387713 -0.16283296
0.06333837 -0.13808562 -0.047948755 0.08884846 0.055680256 0.23848303 0.102939524 -0.12026157
00000000: 77c2 d2bd 518e 29be 9610 8bbe 8ccf 3f3e
00000010: 0b06 3c3d 343d 01bb 81b8 333d afbd 26be
00000020: 8cb7 813d 5166 0dbe ea65 44bd 2ef6 b53d
00000030: fb10 643d e534 743e f5d1 d23d b34b f6bd

level3.0.proj_1x1.bn.running_mean f4 [16]
-0.3228484 -0.017315658 1.0355079 -0.633748 0.85155237 0.4540069 2.0508397 0.7590677
0.339219 -0.010920171 0.13092187 -1.30758 0.26881313 0.05015661 0.99229145 1.279744
00000000: 634c a5be 91d9 8dbc 868b 843f 4f3d 22bf
00000010: 56ff 593f 9873 e83e f540 0340 4352 423f
00000020: 1dae ad3e 84ea 32bc 6210 063e c85e a7bf
00000030: e0a1 893e 0471 4d3d d006 7e3f a7ce a33f

level3.0.proj_1x1.bn.running_var f4 [16]
0.88557744 3.2273328 2.936868 4.8102913 3.8661335 2.3055713 6.179063 1.5563915
1.6212248 0.6827011 1.944575 3.2398353 2.442955 2.4691863 4.6507764 3.7655303
00000000: 34b5 623f 9f8c 4e40 a5f5 3b40 e8ed 9940
00000010: bb6e 7740 7b8e 1340 e2ba c540 d637 c73f
00000020: 4b84 cf3f 80c5 2e3f d5e7 f83f 7659 4f40
00000030: 6059 1c40 2607 1e40 29d3 9440 73fe 7040

level3.0.proj_1x1.act.weight f4 [16]
0.17414957 0.27160397 0.14248984 0.32845783 0.23344646 0.22087122 0.21247764 0.1461514
0.27434525 0.30954283 0.20714828 0.36885142 0.4403285 0.2419371 0.24010812 -0.15360121
00000000: 4454 323e ad0f 8b3e dbe8 113e a02b a83e
00000010: 970c 6f3e 112c 623e bd93 593e b6a8 153e
00000020: fb76 8c3e 667c 9e3e ae1e 543e 18da bc3e
00000030: bd72 e13e 5cbe 773e e7de 753e a349 1dbe

level3.0.spp_dw.0.conv.weight f4 [16, 1, 3, 3]
-0.17465189 -0.12003399 0.00029275764 -0.08219222 0.35713804 0.028065415 0.16817749 0.28120387
0.009859803 -0.19498976 0.15581998 -0.23564343 0.29301015 0.19987246 0.0550009 0.33953172
-0.12391863 -0.14673415 -0.07658486 0.04610855 -0.11402772 -0.038176727 0.025674826 0.009555938
-0.09598042 0.13393608 0.2863613 -0.119432524 0.18386498 -0.04717612 -0.22284818 0.053724777
-0.13455561 -0.29157937 0.13580468 -0.009059115 -0.19450727 -0.23452412 -0.109519355 -0.22805454
-0.04380874 -0.035012323 -0.25972524 0.1266149 0.07269468 0.11203447 -0.31369984 0.123967096
0.0651082 -0.27478215 0.25953546 0.14164561 0.06889814 0.20812674 -0.02605082 0.13644724
0.31720576 -0.010858948 0.07303724 0.018434342 0.09285049 0.30081314 0.074715175 0.013609323
-0.04620647 -0.26760828 -0.05852011 0.24917014 -0.13992408 0.24428208 -0.05775435 -0.15310742
-0.3608824 0.07519637 -0.07495617 -0.042067274 -0.12376394 -0.23299348 0.059831742 -0.13368593
0.062217366 0.044814546 -0.06507571 0.1677585 -0.22649774 -0.18152282 0.15628034 -0.13389422
0.3138549 0.13911945 0.27493203 -0.002343092 -0.055917498 -0.1402376 0.112541616 0.32441065
-0.018381327 -0.04248484 -0.03621877 0.13133195 -0.284256 -0.21405156 -0.04030274 -0.104561456
0.30998248 -0.12620421 0.1570235 -0.08121898 0.010247775 -0.20623206 -0.024813633 -0.22559781
0.11892508 0.00040173015 -0.118463084 0.30341318 0.19256768 -0.050397053 -0.062992945 0.17216116
-0.19946215 -0.023692267 0.19043401 0.0074813943 0.22040369 -0.3561236 0.1664203 -0.08372921
-0.07047997 0.018751621 -0.022186369 -0.05327004 0.00721024 0.2168711 -0.061578553 0.10319456
-0.10097185 -0.06383288 -0.14682321 -0.046249535 0.20949173 -0.06717668 0.2062169 0.24737418
00000000: f2d7 32be 61d4 f5bd 447d 9939 6554 a8bd
00000010: ccda b63e 71e9 e53c b836 2c3e f4f9 8f3e
00000020: 038b 213c 65ab 47be 468f 1f3e 834c 71be
00000030: 6d05 963e 5eab 4c3e a048 613d 1ad7 ad3e
00000040: 0dc9 fdbd 7a41 16be 86d8 9cbd 52dc 3c3d
00000050: 5e87 e9bd 335f 1cbd 0354 d23c 8290 1c3c
00000060: 6291 c4bd 8a26 093e f39d 923e 0a99 f4bd
00000070: 1a47 3c3e bf3b 41bd 5032 64be 830e 5c3d
00000080: f2c8 09be e449 95be 6210 0b3e af6c 14bc
00000090: ea2c 47be 1727 70be af4b e0bd 2187 69be
000000a0: cb70 33bd 1569 0fbd b5fa 84be 56a7 013e
000000b0: f3e0 943d 5472 e53d 449d a0be 76e2 fd3d
000000c0: 7357 853d 3fb0 8cbe d5e1 843e 8c0b 113e
000000d0: 781a 8d3d 2d1f 553e 8768 d5bc d3b8 0b3e
000000e0: cb68 a23e bbe9 31bc 8c94 953d 9e03 973c
000000f0: 6628 be3d 2e04 9a3e 4504 993d a3f9 5e3c
00000100: ff42 3dbd f403 89be c8b2 6fbd 7526 7f3e
00000110: 4248 0fbe 1525 7a3e d38f 6cbd 31c8 1cbe
00000120: 94c5 b8be 8e00 9a3d 9f82 99bd bc4e 2cbd
00000130: f377 fdbd d895 6ebe 2112 753d f7e4 08be
00000140: a3d7 7e3d 758f 373d 6a46 85bd e2c8 2b3e
00000150: 06ef 67be 1ee1 39be f407 203e 911b 09be
00000160: 97b1 a03e 5475 0e3e e4c3 8c3e 908e 19bb
00000170: bf09 65bd 729a 0fbe 387c e63d 2719 a63e
00000180: 7094 96bc 9504 2ebd 225a 14bd e27b 063e
00000190: 018a 91be 5530 5bbe 7c14 25bd 5124 d6bd
000001a0: 06b6 9e3e ad3b 01be c5ca 203e 2356 a6bd
000001b0: 49e6 273c 7f2e 53be f645 cbbc 1d03 67be
000001c0: fe8e f33d 4f9f d239 c69c f2bd f958 9b3e
000001d0: 7630 453e 246d 4ebd 7202 81bd 044b 303e
000001e0: ce3f 4cbe 4916 c2bc 2201 433e 7c26 f53b
000001f0: 81b1 613e d555 b6be 156a 2a3e 387a abbd
00000200: cd57 90bd 009d 993c 30c0 b5bc af31 5abd
00000210: e043 ec3b 7513 5e3e cb39 7cbd ab57 d33d
00000220: 54ca cebd d0ba 82bd d358 16be 2770 3dbd
00000230: 0085 563e ed93 89bd 862a 533e a84f 7d3e
