data/FeatModel.pth (torch_old, 419996 bytes, 353 tensors)

level1.conv.weight f4 [8, 3, 3, 3]
000000 8f 02 2e be 11 7d d6 3d c9 55 db bd 18 2e ba be
       -0.16993164 0.10473073 -0.107097216 -0.36363292
000010 c7 d8 33 3e 78 c5 e2 3d 4a fe cc bd e0 e5 1e 3c
       0.17563163 0.110728204 -0.10009439 0.009698361
000020 67 61 0a 3d 60 da 95 be f2 9f f7 3d 44 71 b4 3c
       0.033784296 -0.2926817 0.12091054 0.022026666
000030 e4 d2 cd be b9 00 a7 3d 19 cc b2 bc 37 19 89 3e
       -0.4019996 0.08154435 -0.021825837 0.2677705
000040 dc 21 88 3d b5 5e 9f bc 19 82 02 3e 56 8e a4 be
       0.06647083 -0.01945434 0.12744941 -0.32139844
000050 b6 36 30 be 5c de da be e2 3f 9b bd 5c 3f 94 3e
       -0.1720837 -0.42747772 -0.07580544 0.2895459
000060 54 77 74 3d dd 0b 75 bb 7e e4 92 3e 31 93 7b bd
       0.059684113 -0.0037391104 0.2868995 -0.06141967
000070 e9 2f 9f 3e 41 de 81 3d 41 fc 6e be bf 2a b9 3e
       0.3109124 0.0634122 -0.23338415 0.36165425
000080 cc 45 38 3d 2a e3 d2 be a8 8c 5d bd 11 83 76 be
       0.04498844 -0.41188937 -0.05408922 -0.24073435
000090 6e ed 3e bd 67 bd 0b 3d 15 af 5a 3e 3d 9b ab be
       -0.04661315 0.034116175 0.21355851 -0.33516875
0000a0 69 30 c1 bc d7 54 e0 3b ed 4a bb bd 94 e1 19 bd
       -0.023582654 0.006846051 -0.0914515 -0.037568644
0000b0 10 49 da bd d9 f3 cc bd cf 57 e7 3d 91 28 15 3e
       -0.10658467 -0.10007448 0.11296045 0.14566256
0000c0 5f 9c aa be 4a d3 8f 3d aa c2 80 3d bc ea c3 be
       -0.33322427 0.07022722 0.06287129 -0.38265026
0000d0 52 c8 95 be be 4e e4 bd e5 87 98 be 4d ea be 3d
       -0.29254395 -0.111478314 -0.2979118 0.09322033
0000e0 47 0c 80 be ef 37 40 be 65 a0 80 3e 05 cc 81 3e
       -0.25009367 -0.18771337 0.2512237 0.25350967
0000f0 26 13 3d bd ce e7 24 bd 81 9b 42 3c 95 ee 0c be
       -0.04616084 -0.04026013 0.011877895 -0.13762887
000100 7c 53 ba 3e 1b 3c ba bc 59 40 37 be fb df 4d 3e
       0.3639182 -0.022733739 -0.1789564 0.20104973
000110 ec 6c 50 3e b5 71 43 be 6d e8 42 3c df 6e 4f 3d
       0.2035405 -0.19086345 0.011896235 0.050642844
000120 c9 f4 22 3e 28 41 e1 3d 47 96 a8 bd 84 f8 ef be
       0.1591369 0.10998756 -0.08231788 -0.4686929
000130 54 45 ab bc d7 36 bf bd 65 c3 1f be 27 3a 84 bd
       -0.020907082 -0.09336632 -0.15601881 -0.06456404
000140 06 50 bb be d9 df 89 bc e9 b6 81 3e 54 e8 22 be
       -0.3658449 -0.016830372 0.25334862 -0.15908939
000150 a4 a5 a3 bd 78 c1 94 3d 80 3d 4c be 2a cc 24 3e
       -0.07990578 0.07263464 -0.19945335 0.16093507
000160 9f ca 23 3e b0 d9 5a 3d c7 31 8d 3e 25 84 e4 bd
       0.15995263 0.05343026 0.2757704 -0.11158017
000170 5d c0 38 be bb 74 66 bd cf c3 d0 3e 7c 0e ba 3c
       -0.18042131 -0.056263667 0.4077439 0.022711985
000180 7f 76 6f be 95 81 7b be c9 10 9a 3c a9 7b 1e 3e
       -0.23385046 -0.2456115 0.018806832 0.1547686
000190 7b 2d 00 3f c8 73 d0 bd 13 68 49 3d ba 64 8e 3e
       0.500694 -0.101783335 0.04917152 0.27811223
0001a0 ab db 0e 3e 35 14 f9 bb 2b cc 88 be 88 52 bc 3e
       0.13950984 -0.007601286 -0.26718268 0.36781716
0001b0 50 55 36 be 11 33 e4 3b 10 de ee 3d f6 b7 e6 bb
       -0.17805982 0.0069640954 0.11663449 -0.007040973
0001c0 5c 83 40 bd a1 bb 61 3e b2 47 59 3d 3d b3 c1 3d
       -0.047000274 0.22044231 0.05304689 0.09458015
0001d0 43 12 87 3c 04 bd 1f be a8 0a 1d be 4e 66 2a 3e
       0.0164882 -0.15599447 -0.15336096 0.16640589
0001e0 ca 06 65 be ee 43 8c be e7 2d 75 be 8e 5c 03 3c
       -0.22365871 -0.27395576 -0.23943292 0.008017672
0001f0 10 92 ea 3d 52 87 d8 be 85 c4 c7 be 07 e1 93 be
       0.114536405 -0.4229074 -0.3901712 -0.2888262
000200 9c ac 34 3e c7 fe 93 be 73 b5 54 3e a7 40 26 3d
       0.1764397 -0.28905317 0.20772342 0.040589
000210 88 d6 af 3e 2e 06 e7 bb 5d 44 ec bc a6 c0 b1 3d
       0.34343362 -0.007050297 -0.028841192 0.08679323
000220 4f 98 cc 3d b6 62 d2 be f6 e1 98 3d 24 80 f6 3c
       0.09989988 -0.41090935 0.07464974 0.0300904
000230 01 2d 9d be 9b bd 03 be 83 fa a0 3d 47 e6 7d 3e
       -0.30698398 -0.12865297 0.07860281 0.24794875
000240 3d 32 1e be 79 d1 08 3e 4d bc 37 be 08 bf 8a 3e
       -0.15448852 0.13361157 -0.17942925 0.2709887
000250 5a ec 3d 3e 27 1b be bb 35 a0 8a be e1 b0 ae bd
       0.18547192 -0.0058015767 -0.27075353 -0.08529831
000260 ce 52 79 bd 0c 50 41 be 27 44 2c bd 30 05 ab be
       -0.060869984 -0.18878192 -0.042057183 -0.33402395
000270 98 01 36 3e 38 bb 26 3e 6d 5d 83 be eb a6 f9 3d
       0.17774045 0.16282356 -0.25657216 0.1219004
000280 8c 36 9a bd bd af 9b 3e 55 cf 30 bc 82 d7 bb bd
       -0.07529935 0.30407515 -0.010791619 -0.09171964
000290 f9 87 a3 3e be fe 07 3e 98 e7 22 3e 7c ce 4c 3e
       0.31939676 0.1328077 0.15908659 0.20000643
0002a0 b4 29 6a bd 8b 6d 8e 3e af 28 d7 3e 0f 3c 42 3d
       -0.057168677 0.2781795 0.42023227 0.047420558
0002b0 e7 a8 eb 3d 8c 30 6b bc c2 6f da bb a4 64 8d 3e
       0.11506825 -0.014354836 -0.0066661546 0.27615845
0002c0 80 1d e9 3e 95 b7 f7 3d 8f a4 11 3e a9 d5 3e 3e
       0.4553032 0.12095562 0.1422293 0.18636192
0002d0 d7 56 2b 3e d8 11 37 bd 93 7a 71 3e 8c f5 85 3d
       0.16732346 -0.04469475 0.23581915 0.06540975
0002e0 af ba 17 3f d3 75 99 3d 74 ad 2c 3e 80 42 24 be
       0.5926923 0.07493176 0.16863042 -0.16040993
0002f0 b5 bc 5d 3c 29 4c 28 3e 2f 4e 36 3e a0 2b 66 3e
       0.013533761 0.16435303 0.17803262 0.22477579
000300 3c 6d 69 bd f3 63 d5 bb 75 4c 46 bd 2a 93 aa bc
       -0.05698894 -0.006512159 -0.04841276 -0.020822126
000310 b4 6e af bd 88 72 9f 3e 2c 3b 35 3e 8a c5 97 3d
       -0.08566037 0.31142068 0.17698354 0.074107245
000320 61 6e b4 3e 8e 4a b6 3c 68 d3 86 3e db 14 30 be
       0.35240462 0.022252347 0.26333165 -0.17195456
000330 7e d3 fd b9 4e ed 16 be 41 e4 3d 3e 03 b7 89 3e
       -0.00048413494 -0.14738962 0.18544103 0.2689744
000340 b7 15 98 3d 35 20 35 3f 93 e3 5e 3e 45 0a 8b 3e
       0.07426017 0.7075227 0.217665 0.27156273
000350 02 63 3e be 74 7e 77 be bb 44 85 3e 05 c7 e7 3e
       -0.18592456 -0.24169332 0.26029 0.45269027

level1.bn.weight f4 [8]
000000 13 5d 5b 3f a4 f9 5a 3f bc bb 71 3f 0d 4c 82 3f
       0.85688895 0.8553717 0.94427085 1.0179459
000010 be 5f 8b 3f 3d 29 81 3f 5b cd 70 3f d5 43 72 3f
       1.0888593 1.009071 0.9406335 0.94634753

level1.bn.bias f4 [8]
000000 0c 74 43 3d 8e 57 b6 bd 7e 94 96 bc 25 04 94 3d
       0.047718093 -0.089034185 -0.018381353 0.07227353
000010 5e 90 d9 3d 41 08 a4 3d ea 4b 42 ba 87 e8 8c 3c
       0.10623239 0.08009387 -0.0007411825 0.017200721

level1.bn.running_mean f4 [8]
000000 27 d7 c6 bf 92 c9 4b c0 ed d9 f7 bf 1e 2f 36 40
       -1.5534409 -3.1841779 -1.9363381 2.8466258
000010 ee 5e 2a c0 10 e6 8d bf 31 ad 0b 41 ae 16 ef 40
       -2.662044 -1.1085835 8.729783 7.4715185

level1.bn.running_var f4 [8]
000000 50 5f 9b 3f 30 02 88 40 56 19 ce 3f ad ad 37 40
       1.2138462 4.250267 1.6101482 2.8699753
000010 9b 0f 24 40 60 08 17 3f 83 5e d7 41 9e db 9c 41
       2.5634525 0.58997154 26.921148 19.607235

level1.act.weight f4 [8]
000000 61 87 87 3e 3e f6 14 3e 74 5b ad 3e c7 07 8c 3e
       0.26470473 0.14547059 0.33858836 0.27349684
000010 37 d5 9e 3e 23 8e e7 3e 7c 75 9a 3e 13 f6 8f 3e
       0.31022045 0.4522563 0.30167758 0.28117427

level2_0.eesp.proj_1x1.conv.weight f4 [4, 4, 1, 1]
000000 db 68 8b bf f3 36 2b be 81 fb 9b bf a5 87 2f bf
       -1.0891374 -0.1672018 -1.2186128 -0.6856635
000010 df 46 53 be 19 f9 ef be 8f 9f 1f bf 66 4b 60 be
       -0.20632504 -0.46869734 -0.6235284 -0.21903762
000020 6e 55 b5 3e f6 d6 8e bf a3 c3 67 bf 25 ed 61 bf
       0.3541674 -1.1159351 -0.9053289 -0.8825248
000030 22 ff 26 3f d8 e3 07 3f e3 05 17 bf 06 56 3c bf
       0.6523305 0.53082037 -0.5899336 -0.7356876

level2_0.eesp.proj_1x1.bn.weight f4 [4]
000000 c9 1a 8b 3f bf 21 9e 3f 4d 8a 6e 3f 39 db 3c 3f
       1.0867549 1.2354048 0.9317978 0.7377201

level2_0.eesp.proj_1x1.bn.bias f4 [4]
000000 1e c4 11 bd f0 67 a1 ba 9c 6a 0d be 6a af 94 3e
       -0.035587423 -0.0012314301 -0.138102 0.2904008

level2_0.eesp.proj_1x1.bn.running_mean f4 [4]
000000 e0 1e 79 bf 0c 7d e4 be a7 77 3e bf c5 9e 55 3c
       -0.97312737 -0.44626653 -0.74401325 0.013038342

level2_0.eesp.proj_1x1.bn.running_var f4 [4]
000000 08 85 c7 3f 70 6b eb 3e 47 b0 19 3f 34 e4 2c 40
       1.5587473 0.45980406 0.600346 2.7014284

level2_0.eesp.proj_1x1.act.weight f4 [4]
000000 07 d4 a3 3e 65 1a 70 3e 45 23 89 3e 28 d3 02 3f
       0.31997702 0.23447569 0.2678472 0.5110345

level2_0.eesp.spp_dw.0.conv.weight f4 [4, 1, 3, 3]
000000 dd 9f ab be ee 30 8d be d1 5c d8 bd 02 6b b3 3e
       -0.33520404 -0.27576393 -0.10564578 0.35042578
000010 e3 4b d4 bd be f3 15 3f 65 2b e4 bd 9d ac db bd
       -0.10366037 0.58575046 -0.11141089 -0.10726283
000020 1d a4 8d bd c9 ff 11 be 4a 74 0b 3e 56 c0 9e 3e
       -0.06916068 -0.1425773 0.1361858 0.31006116
000030 6c 19 ea 3e e3 54 0e be f0 9a 8e 3e 57 7a db bd
       0.4572252 -0.13899569 0.27852583 -0.10716694
000040 27 8a f6 3e fb 40 04 bf b9 89 ec bd 70 17 3d 3e
       0.48152277 -0.5166165 -0.11549706 0.18465972
000050 fb 9f da 3e 19 0c 3e be b9 d7 a7 3d e9 e6 ab bd
       0.4270018 -0.18559302 0.08195443 -0.08393652
000060 2f d3 01 bf df 84 ae 3e 2f 69 04 be 73 48 1d be
       -0.50712866 0.34085748 -0.1293075 -0.15359668
000070 c7 24 c3 3b 76 0b ce 3d 09 67 17 3e e2 0f c9 3e
       0.005955312 0.1006078 0.14785399 0.3926993
000080 ce a0 98 be a6 8c 16 bf f2 3e 86 be ad b7 95 bc
       -0.29810184 -0.5880836 -0.26219898 -0.01827606

level2_0.eesp.spp_dw.1.conv.weight f4 [4, 1, 3, 3]
000000 87 d7 fa bd c0 13 bd 3d a9 75 8f 3d e5 33 86 3e
       -0.1224814 0.09232283 0.07004864 0.26211467
000010 cc 7e 54 be 6c e4 6a be 70 4c 05 be 3f 5e 79 be
       -0.20751494 -0.22938699 -0.1301744 -0.24352358
000020 dd 15 73 3e 91 6b f5 3d 0d 10 51 be 84 a8 3e 3e
       0.23738809 0.11983407 -0.20416279 0.18618971
000030 74 4e 07 bf 9a f6 4b 3e d4 18 05 3e d1 64 e7 3c
       -0.52854085 0.1991829 0.12997752 0.028246315
000040 a0 7f e1 3e e9 cb 3f be 62 e5 e6 3e 50 55 05 bf
       0.44042683 -0.1873013 0.4509688 -0.520833
000050 a2 88 a9 be 56 93 8e 3d 68 b2 cd bd 58 07 b7 3e
       -0.33112055 0.06961696 -0.10043794 0.3574779
000060 2f 0e e0 bc d1 49 84 3d f0 d4 68 be 20 3d 4c 3d
       -0.027350513 0.06459392 -0.22737479 0.04986298
000070 5b 0d b8 be bc 18 08 bf e6 92 aa 3d ff b7 03 3c
       -0.3594769 -0.5316274 0.083288 0.008039474
000080 f2 0f 5b be 05 20 c7 bd 9d 4d ae 3d 9d d0 a4 3e
       -0.21392801 -0.09722904 0.08510897 0.3219041

level2_0.eesp.conv_1x1_exp.conv.weight f4 [8, 4, 1, 1]
000000 92 99 bb bd 0a 3e 5c 3e bf 2b a1 3f 6e 73 3a bd
       -0.091601506 0.21508041 1.2591475 -0.04552024
000010 52 18 dd 3e f2 a5 e4 3d 98 13 30 bf fc dd f4 be
       0.43182617 0.11164464 -0.687799 -0.4782561
000020 d2 a5 1a 3d bc 85 6d be 83 70 50 3f 5b 9d 0d bf
       0.037755795 -0.23195547 0.8142168 -0.5531823
000030 67 a2 ef 3d 7f e9 10 3e 9b b1 14 bf cd 29 01 be
       0.11700898 0.14151572 -0.58083504 -0.12613602
000040 78 80 3b 3e a1 b2 0f bf df bb af 3f f0 ad 55 be
       0.18310726 -0.5613194 1.3729209 -0.20867133
000050 fa 56 b8 3e a2 90 b4 3e 1d 9c 03 bd 05 95 b8 3e
       0.36003858 0.35266596 -0.032131303 0.36051193
000060 9c 82 02 be 43 0e 40 3e 83 a9 19 3e c3 8a b1 be
       -0.12745136 0.1875544 0.1500607 -0.3467618
000070 69 be 3e bf 6e 55 18 3f be 1d 3c be f2 d9 9d 3e
       -0.7450929 0.59505355 -0.1837072 0.30830342

level2_0.eesp.conv_1x1_exp.bn.weight f4 [8]
000000 dc ee 91 3f 78 60 54 3f 6b 9b 99 3f fc 71 81 3f
       1.1401019 0.829597 1.2000555 1.011291
000010 d7 f7 a6 3f e1 59 83 3f 87 21 6a 3f 12 1e 48 3f
       1.3044385 1.0261804 0.9145741 0.78170884

level2_0.eesp.conv_1x1_exp.bn.bias f4 [8]
000000 32 cb fc 3d 9f 41 89 be 5e 52 fd 3d c4 ab bf 3c
       0.12343444 -0.26807877 0.12369226 0.023397334
000010 18 71 95 ba 24 54 cf bd a2 f5 e3 bd 6f 29 5b be
       -0.0011401502 -0.101234704 -0.11130835 -0.21402524

level2_0.eesp.conv_1x1_exp.bn.running_mean f4 [8]
000000 eb 9f 31 3e d1 fd c6 bd 08 be 95 bd c2 2c 5d bd
       0.1734616 -0.097163804 -0.07311636 -0.053997763
000010 66 62 5f 3e 7f fe 8e 3e 9e 9f 52 bd a6 d0 9c bc
       0.2181488 0.2792854 -0.051421754 -0.01914246

level2_0.eesp.conv_1x1_exp.bn.running_var f4 [8]
000000 07 07 c0 3f d5 da e6 3e 86 c4 44 3f ae 35 a1 3e
       1.5002145 0.4508883 0.7686237 0.31486267
000010 c9 64 92 3f 3f 4e 0f 3e 43 b4 2e 3d 0c bd 63 3f
       1.1437007 0.13994692 0.04265238 0.8896034

level2_0.eesp.br_after_cat.bn.weight f4 [8]
000000 33 6d 46 3f 22 21 42 3f 17 cc aa 3f bd 80 55 3f
       0.77510375 0.75831807 1.3343533 0.83399564
000010 ab cf 7f 3f f1 39 6b 3f cd 2e 95 3f f2 0c 78 3f
       0.9992625 0.91885287 1.1654907 0.9689475

level2_0.eesp.br_after_cat.bn.bias f4 [8]
000000 fa f4 89 3d 0e 9c 80 be 42 42 a5 bd 11 21 3e be
       0.06736179 -0.2511906 -0.08069278 -0.18567301
000010 f7 4c 41 3d 18 df d8 bd 51 4a c7 bd 51 f9 7e bd
       0.04719254 -0.10589427 -0.097309716 -0.062249485

level2_0.eesp.br_after_cat.bn.running_mean f4 [8]
000000 04 60 73 bc fa b0 84 3e b3 de 97 3c 80 74 82 be
       -0.014854435 0.25916272 0.018538808 -0.25479507
000010 5d f9 85 bd 70 a3 a7 3e 82 e4 10 bd b1 6b 06 bf
       -0.06541703 0.3274188 -0.035374172 -0.52508074

level2_0.eesp.br_after_cat.bn.running_var f4 [8]
000000 cd 6e 60 3d d6 7e 4a 3e 14 88 aa 3d dc ec 44 3e
       0.054793168 0.19774947 0.08326736 0.1923098
000010 c1 6e 18 3e 3d 33 b8 3e 6d d8 18 3e e5 dc 2f 3f
       0.14886 0.35976592 0.1492631 0.68696433

level2_0.eesp.br_after_cat.act.weight f4 [8]
000000 a6 5e 9f 3d 77 d6 b1 3d 9f 49 b5 3e 48 58 7d 3d
       0.07781725 0.08683484 0.3540773 0.06185177
000010 2e 1c 73 3e e3 45 7d 3e 6d ff 6e bd cb 97 7c 3e
       0.23741218 0.24733691 -0.05834906 0.2466728

level2_0.eesp.module_act.weight f4 [8]
000000 00 00 80 3e 00 00 80 3e 00 00 80 3e 00 00 80 3e
       0.25 0.25 0.25 0.25
000010 00 00 80 3e 00 00 80 3e 00 00 80 3e 00 00 80 3e
       0.25 0.25 0.25 0.25

level2_0.inp_reinf.0.conv.weight f4 [3, 3, 3, 3]
000000 9f 6d 25 bd 8a 00 82 3f 7e fe 3d 3e d0 f9 fd 3d
       -0.040387746 1.0156415 0.18554112 0.124011636
000010 fa b5 b4 3e 54 34 6e be 22 0d c3 be c7 0c f4 bd
       0.35295087 -0.23262149 -0.38095957 -0.119164996
000020 9d 8c 76 be de 2e fb be b0 8f e7 3c 7d 59 e0 be
       -0.24077077 -0.49059194 0.028266758 -0.43818274
000030 db 31 6c 3d a0 3e 2c 3c dd 78 22 3e 38 7d 4f be
       0.057664733 0.010512978 0.15866418 -0.20262611
000040 c8 4a 81 3c f3 96 b1 bc 60 5d a2 3d 84 38 68 3d
       0.015782729 -0.021678424 0.07927966 0.056694523
000050 1d 20 03 3f 66 16 c5 3e 7e 01 00 3f fa 97 5c be
       0.51220876 0.3849365 0.50002277 -0.2154235
000060 17 57 b2 bd 84 2f 15 3f 1a 17 0b 3f 84 98 ab 3e
       -0.08708017 0.5827563 0.54332125 0.33514798
000070 68 78 75 be d6 b1 b1 be ce 61 d6 bd cf fb 71 3d
       -0.23971713 -0.3470599 -0.104678735 0.059078034
000080 81 b0 21 3e 4c 0b 4b be 79 fe 98 be 28 3d 87 be
       0.15789987 -0.19828528 -0.29881647 -0.26413846
000090 fd 2e a7 bc 82 ea 32 bf 91 37 19 be 41 bc 0c bd
       -0.020408148 -0.6988908 -0.14962603 -0.03435922
0000a0 99 a7 16 3d b9 ea 35 be 07 69 02 bc 93 f9 4a bf
       0.036780927 -0.17765321 -0.007959611 -0.7928707
0000b0 2c 48 e7 3d 0f d7 72 3e de 63 24 3d 57 9e 38 3e
       0.112930626 0.23714851 0.040134303 0.18029152
0000c0 59 6c d1 3e 1c 3c 2c 3f 4a 9f 02 3e 59 71 f6 3d
       0.40902975 0.6727922 0.12756076 0.12033338
0000d0 df 7a 30 3f b7 ca ed 3e 88 54 b3 3d 17 ad af bd
       0.68937486 0.46443722 0.087563574 -0.08577936
0000e0 c9 78 34 bf 57 a8 70 be cb 71 a0 bd d3 da 3a bd
       -0.70496804 -0.23501717 -0.07834204 -0.045618843
0000f0 89 c9 f9 3c 46 ed db bb ec 3b 8f bd 96 aa 04 3f
       0.030491607 -0.006711635 -0.06993851 0.51822793
000100 3d cf 3a 3e 6c d6 ab 3d b8 8d cb bd 0f 6c 66 be
       0.18243118 0.08390507 -0.0993914 -0.22502159
000110 01 36 8e 3e 52 4a 62 bd fc db 4e 3e e9 88 a6 3e
       0.27775577 -0.05524666 0.20201105 0.3252633
000120 66 f3 2e 3e c9 9f b3 3e 62 42 c5 bd e1 9b 58 3d
       0.17085037 0.35082844 -0.09631802 0.052883033
000130 f7 b6 5a bc 98 19 a9 bc 02 4b 06 bf 2b 63 04 bd
       -0.013349286 -0.020642087 -0.524582 -0.032321136
000140 e4 6b 92 be
       -0.2859794

level2_0.inp_reinf.0.bn.weight f4 [3]
000000 14 d2 70 3f 90 a5 80 3f 32 22 8d 3f
       0.94070554 1.0050526 1.102606

level2_0.inp_reinf.0.bn.bias f4 [3]
000000 9d f8 7b bd 2d 4b 1d 3e 2d e8 02 be
       -0.061516393 0.15360709 -0.1278388

level2_0.inp_reinf.0.bn.running_mean f4 [3]
000000 0d 33 9a 40 bb 82 19 3f 7f 32 29 bf
       4.818732 0.59965104 -0.66092676

level2_0.inp_reinf.0.bn.running_var f4 [3]
000000 ac 86 fc 40 37 e4 a1 3e 96 c8 c4 3e
       7.8914394 0.31619427 0.38434285

level2_0.inp_reinf.0.act.weight f4 [3]
000000 87 8d c6 3e a8 46 e2 3e c8 15 c1 3e
       0.38779852 0.4419453 0.3771193

level2_0.inp_reinf.1.conv.weight f4 [16, 3, 1, 1]
000000 63 0d c7 3d 1f 26 ca 3e 7a 59 b5 3e 0d bd 99 3d
       0.0971935 0.3948221 0.35419828 0.07506762
000010 06 87 af be de 57 0d 3f 3e 9c 6a be b1 50 d8 3e
       -0.34282702 0.552122 -0.22911164 0.42249063
000020 74 91 e0 3e 37 1f 39 bf 42 53 4e 3f dd d7 03 3e
       0.43860972 -0.72313255 0.8059579 0.12875314
000030 30 a3 75 bd 75 de af 3c 6e cf 3e bf 8e d5 97 be
       -0.05997008 0.02146838 -0.7453526 -0.29655117
000040 1d 04 04 3e 8c 89 96 3e e8 b7 86 be 4f 84 15 be
       0.12892194 0.29401815 -0.26312184 -0.14601253
000050 96 d7 24 be d3 44 37 be 76 8c d4 be ad d2 a9 3c
       -0.16097865 -0.17897348 -0.41513413 0.02073034
000060 5a 2b 92 bd 2c 86 40 bf 5f 3e 0a 3e b2 c3 75 be
       -0.07137175 -0.7520473 0.13500355 -0.24000433
000070 f9 42 24 3f 3c ac 28 be 72 d4 82 3e 28 4f 82 be
       0.6416469 -0.16471952 0.25552708 -0.25451016
000080 b5 14 f4 3e e1 3b 93 3c b8 02 b9 bf ad e0 c2 bc
       0.47672048 0.017972888 -1.4453955 -0.023788774
000090 ef 52 67 3b b0 01 0a bd e6 ed 9f 3f 06 74 16 3d
       0.0035297235 -0.033693016 1.2494476 0.036731742
0000a0 82 20 8a be 8a 4d 1b 3f 1c 2a a5 bd 33 40 d4 3e
       -0.26977926 0.6066519 -0.08064672 0.4145523
0000b0 7c b7 06 3e 8d 3a a8 be d1 e2 9b be 33 df 2d be
       0.13155931 -0.3285717 -0.30446485 -0.16979675

level2_0.inp_reinf.1.bn.weight f4 [16]
000000 0b 13 90 3f 93 9d 81 3f f7 6e 90 3f c4 44 9f 3f
       1.1255811 1.0126213 1.1283864 1.2442861
000010 7f b0 4a 3f 4d e5 81 3f 3d 20 86 3f 26 82 84 3f
       0.7917556 1.0148102 1.0478588 1.0352218
000020 e1 03 86 3f 1d 0c 82 3f 51 23 6c 3f 90 72 75 3f
       1.0469934 1.0159947 0.9224139 0.95877934
000030 30 96 82 3f d9 43 7c 3f 36 65 92 3f 46 92 6f 3f
       1.0202084 0.9854103 1.1437137 0.9358257

level2_0.inp_reinf.1.bn.bias f4 [16]
000000 ea fb 87 bd 14 0c 8b bd 28 1a 13 be 93 01 64 3d
       -0.06639846 -0.06789413 -0.14365447 0.055665564
000010 25 8f 7c 3d d7 62 e4 bd d5 43 74 3d 0b 04 7c bb
       0.06165995 -0.11151665 0.059635002 -0.0038454558
000020 32 cb fc 3d 9f 41 89 be 5e 52 fd 3d c4 ab bf 3c
       0.12343444 -0.26807877 0.12369226 0.023397334
000030 18 71 95 ba 24 54 cf bd a2 f5 e3 bd 6f 29 5b be
       -0.0011401502 -0.101234704 -0.11130835 -0.21402524

level2_0.inp_reinf.1.bn.running_mean f4 [16]
000000 71 be 64 3e fc 6e 91 3b 96 f7 33 3e 53 a4 0c 3e
       0.22338273 0.004438279 0.17574915 0.1373456
000010 f1 63 15 be 59 6f 08 3d 9d 9c 0e be 67 5b 36 be
       -0.14588906 0.033309314 -0.1392693 -0.17808305
000020 c6 27 7e be a1 4e 0a 3e e2 7e 76 3d 23 16 fd be
       -0.2481986 0.13506557 0.0601796 -0.4943095
000030 73 d9 63 3e 62 c5 e7 3c d7 8e 18 3e 7a da 56 be
       0.22250919 0.028292362 0.14898239 -0.2098178

level2_0.inp_reinf.1.bn.running_var f4 [16]
000000 90 40 0a 3e 91 a0 93 3e 0b f4 4c 3e 5a 5f b9 3e
       0.13501191 0.2883344 0.2001497 0.3620556
000010 10 8f ab 3e 8d ba e8 3d 16 16 3a 3d 93 2c 1b 3e
       0.33507586 0.11363707 0.04543122 0.15153722
000020 ae 81 cf 3e ce 08 6a 3e b2 79 20 3e 4b 8d 9a 3f
       0.40528625 0.22854921 0.15671423 1.2074369
000030 2f 51 7f 3f 7c a1 9d 3e 4b b3 b9 3d ad 86 f0 3d
       0.9973325 0.30787265 0.090674005 0.11744437

level2_0.act.weight f4 [16]
000000 7a 34 d3 3e 16 2f ca 3d 46 ff 4c 3d a1 ad 53 3e
       0.41250974 0.09872262 0.050048135 0.20671703
000010 37 b5 83 3e ba 34 3b 3e 2b b7 3b 3d 6d 6c a3 3d
       0.25724193 0.18281832 0.04582898 0.07979665
000020 38 b9 2c 3e b9 ca 12 3e a1 90 88 3e ac 57 ba 3e
       0.1686753 0.14335145 0.26672843 0.36395013
000030 e3 1c 5b 3e 4b 36 92 3e ad 45 7d 3e db ca 29 3e
       0.21397738 0.28557047 0.2473361 0.1658129

level3_0.eesp.proj_1x1.conv.weight f4 [8, 8, 1, 1]
000000 81 21 c3 bd 02 10 3b bf 77 e5 74 3e 2b df 4b bf
       -0.09527875 -0.730713 0.23915659 -0.796374
000010 a3 99 1b bf 95 b1 0c bf a6 d2 35 bf b8 b4 4f 3e
       -0.60781306 -0.5495847 -0.7102455 0.20283782
000020 71 a1 e5 3d 6e 9d 3f be 77 28 6d 3f 5c 19 7d 3f
       0.11212433 -0.18712398 0.9263987 0.9886682
000030 ff 9d ab be e9 bc 0b bf a7 4d f9 3e 68 4c 64 be
       -0.3351898 -0.5458513 0.48692057 -0.22294772
000040 35 b9 d9 3c d2 00 6f 3e 90 d8 99 3e 49 12 d0 3e
       0.026577571 0.23340157 0.30048037 0.4063895
000050 9c 9b 21 bf a3 c3 28 3f f2 15 db 3e db f5 18 3e
       -0.63128066 0.6592352 0.4279018 0.14937536
000060 95 92 e7 3e 58 e2 08 3f 02 30 94 3e e7 c0 dc be
       0.4522902 0.53470373 0.28942877 -0.43115923
000070 fa a5 88 bf 62 9f 3f 3e c8 a8 0f 3e 88 ec d2 be
       -1.0675652 0.18713143 0.14029229 -0.41196084
000080 e3 64 b9 be e8 8a 68 3e c0 ca 62 bf 4f 80 36 3e
       -0.36209783 0.22709239 -0.8859062 0.17822383
000090 bd e8 fb be ab 30 a5 be 5a 8d 3a 3f 5a 1d a3 be
       -0.49201003 -0.32263693 0.72871935 -0.3185833
0000a0 7a 87 53 be cc 28 33 ba 20 19 2e bf 80 44 1c 3f
       -0.20657149 -0.00068343873 -0.6800709 0.6104202
0000b0 07 60 c5 be 49 48 0e 3f 16 3b 92 bd df 32 7a bf
       -0.38549826 0.5557905 -0.07140176 -0.97733873
0000c0 b0 27 46 bf e0 94 d9 3d 54 47 9a bf 28 d7 f7 bd
       -0.7740431 0.10624099 -1.2053018 -0.12101585
0000d0 bd f0 cf be d1 68 1c bf 40 52 2c bf 19 8b 1e bf
       -0.40613356 -0.6109744 -0.67313004 -0.61930996
0000e0 b1 33 f7 bd e8 96 ef 3e aa 4f fe 3e 6e 40 4b bc
       -0.12070406 0.4679482 0.49670154 -0.012405498
0000f0 7e a8 fb 3e 0e e0 e9 bd 27 cf 73 3f f9 bd 82 be
       0.49151987 -0.11419688 0.95237964 -0.25535563

level3_0.eesp.proj_1x1.bn.weight f4 [8]
000000 5d 53 5c 3f 59 cb 7d 3f be f1 85 3f 4a f5 8a 3f
       0.860647 0.9913841 1.0464399 1.0856106
000010 59 bb 82 3f ea 73 79 3f b9 d9 a2 3f 26 b1 66 3f
       1.0213424 0.97442496 1.2722694 0.9011406

level3_0.eesp.proj_1x1.bn.bias f4 [8]
000000 8b 5d 2d be 93 da 14 be 10 18 50 bd 2a 18 ad bd
       -0.16930215 -0.14536504 -0.050804198 -0.084518746
000010 3d 99 be bd 82 a9 cf bd c7 41 e6 3c ca 80 29 be
       -0.09306572 -0.10139753 0.028107537 -0.16553035

level3_0.eesp.proj_1x1.bn.running_mean f4 [8]
000000 f2 20 e7 bf 16 2a 26 3f f0 6e 6d 3f 58 61 53 be
       -1.8056929 0.6490797 0.927474 -0.20642602
000010 a7 d2 48 bf c4 8b d9 be 21 56 c8 bf 72 8b 1b 3f
       -0.7844643 -0.42489445 -1.5651284 0.6075965

level3_0.eesp.proj_1x1.bn.running_var f4 [8]
000000 7f 8c f2 3f a2 9b 0d 40 04 5e f1 3f 7f 48 f2 3f
       1.8949126 2.212624 1.8856816 1.8928374
000010 a0 c9 b4 40 c9 2f 2e 40 46 b0 34 41 eb b6 6f 40
       5.6496124 2.7216666 11.2930355 3.7455394

level3_0.eesp.proj_1x1.act.weight f4 [8]
000000 c9 e0 a8 3e b6 37 5f 3e 34 81 87 3e 4c 35 d2 3d
       0.32983997 0.21798596 0.26465762 0.10264072
000010 2e d6 d8 3e 75 93 a2 3e 28 a3 ae 3e 6d 14 88 3e
       0.42350906 0.31753126 0.34108853 0.26578084

level3_0.eesp.spp_dw.0.conv.weight f4 [8, 1, 3, 3]
000000 7e 71 76 3d ff 26 e0 bd af 27 06 be e0 a7 ae 3d
       0.06016683 -0.10944938 -0.13101076 0.08528113
000010 e8 0f 7c be f3 6a 09 bf 33 82 96 bd 2a d8 86 be
       -0.24615443 -0.53678817 -0.07349052 -0.26336795
000020 bd ab 17 be f9 83 52 3e 8c 2b 81 be 1e 42 82 bd
       -0.14811607 0.20558156 -0.25228536 -0.06360267
000030 86 41 c0 3e c4 d3 72 3e ab 98 c3 bd 0d 2e 81 3e
       0.3754999 0.23713595 -0.095506035 0.25230446
000040 08 bc 95 bc f9 80 e2 bc cf ed 7d be 71 27 12 be
       -0.018278137 -0.02764939 -0.24797748 -0.14272858
000050 8a b6 84 3e de 1d 77 3d 94 eb 52 3d 92 7e ea bd
       0.25920516 0.060331218 0.051494196 -0.114499226
000060 49 c9 0b bd 84 8c a7 be 5b de 8b 3d dc 49 95 3d
       -0.034127507 -0.32724392 0.0682952 0.07289478
000070 81 80 bb be c6 7e f3 3e 6f 85 21 3e ad 3e 7a 3e
       -0.36621478 0.47557658 0.15773557 0.24437971
000080 46 03 34 be d1 45 0b 3d f5 0b 12 3b 12 36 c0 be
       -0.17579374 0.03400213 0.002228496 -0.37541252
000090 ec ea b0 3e 0c cd 2e 3d 3a 39 a5 3e 7f 23 11 3c
       0.3455423 0.042676017 0.32270223 0.008858561
0000a0 0a 59 c9 be 44 8e 66 bd e1 dd 91 3e ac 9d 95 3d
       -0.39325744 -0.05628802 0.28489593 0.07305464
0000b0 c3 57 ac 3e a7 83 d6 3d 7b 08 84 be 0c 7f 5e be
       0.33660707 0.104743294 -0.2578772 -0.21728152
0000c0 90 89 cc bc 14 e6 1e 3d c0 4b 92 3c f4 fa a0 be
       -0.024967939 0.03879364 0.017858386 -0.31441462
0000d0 db 3b 9b 3e c4 60 98 3d 72 3e 94 bd 71 62 87 3e
       0.30319104 0.074403316 -0.07238473 0.26442292
0000e0 8f 18 cc be 64 e9 98 be ca 83 3d be 66 ac 0e be
       -0.39862487 -0.29865563 -0.18507305 -0.13932952
0000f0 1f d7 88 3d c5 b9 83 3d 0d 3a b1 3d 47 09 43 3e
       0.06681656 0.06431917 0.086536504 0.19046508
000100 11 59 ac bb 17 23 bd bc 2e c0 41 be 2f cd 0f bd
       -0.005259641 -0.023088021 -0.18920967 -0.035107788
000110 08 5e 16 bf 0b cb de bd 79 86 a2 3d fc b6 86 bc
       -0.5873723 -0.10878571 0.07935805 -0.016444676

level3_0.eesp.spp_dw.1.conv.weight f4 [8, 1, 3, 3]
000000 72 5e 81 3e 61 28 db ba 1b 36 d4 3d 85 9a 67 3e
       0.2526737 -0.0016720408 0.10361882 0.22617538
000010 bd cf 47 bd e8 eb 29 bd 0d 66 9f 3d a6 ee 97 3e
       -0.0487821 -0.041484743 0.077831365 0.29674262
000020 a4 48 26 be 00 3d d1 bd 65 fb 60 3d 74 92 41 bd
       -0.16238648 -0.10216713 0.05492725 -0.04725881
000030 4a 5d 41 be 53 1b e0 3d 5f b2 ab be f4 68 7e 3e
       -0.18883243 0.10942712 -0.33534524 0.24844724
000040 68 29 0a 3e 58 6e 8a 3c 98 c6 b7 3d f4 0a a2 3e
       0.13492358 0.01689832 0.089734256 0.31648982
000050 1e 9b 41 be 34 e4 4c 3e 62 a5 8b 3b 13 9f c7 3d
       -0.18906829 0.20008928 0.0042616585 0.09747138
000060 bb 20 b4 3e 9a e2 fa be e3 8a 5a 3e db 0c b5 be
       0.3518122 -0.49001008 0.21342044 -0.3536137
000070 b0 e8 0e be 6c f6 63 3e 2c 5e 23 be b4 c5 58 3b
       -0.1395595 0.22261971 -0.15953892 0.0033076825
000080 f8 98 64 be f5 23 87 be 69 69 d9 3e 04 b1 a4 3e
       -0.22323978 -0.2639462 0.42463234 0.32166302
000090 4a 2d 2c 3b 2b 0c 44 be a5 4f 6b bc 1d a4 32 3e
       0.0026272112 -0.19145267 -0.01436225 0.17445417
0000a0 d0 96 89 bd 0b ad 01 3d 5e 5e b4 3c ea ec 90 be
       -0.06718218 0.031659167 0.022017654 -0.2830575
0000b0 cb 81 1e 3e 85 68 2a 3e d5 b6 5b bd 57 7f fc bd
       0.154792 0.16641434 -0.05364116 -0.12328976
0000c0 3e d1 eb bc 7b 11 a6 be 14 22 94 bd 0a 4d 35 3e
       -0.028786298 -0.32435212 -0.072330624 0.1770517
0000d0 f4 e0 38 3e 65 77 35 3e 79 01 06 be fd 29 47 3e
       0.18054563 0.17721327 -0.130865 0.19449611
0000e0 3c 83 9e 3c 4f 82 e9 3e 5c 8b b0 bb a8 15 48 3d
       0.019349687 0.4560723 -0.0053877067 0.048848778
0000f0 da f9 c8 bd ef 8f 19 3d 70 79 58 be 94 f4 0f 3e
       -0.098132804 0.03749078 -0.21140075 0.14058143
000100 06 eb a8 3e fd c6 c8 3e b2 61 b4 3c 08 09 50 3e
       0.3299181 0.39214316 0.022019241 0.20315945
000110 86 fa 43 3e b1 ec 85 bb 77 a8 d2 bd ea 1f 04 3f
       0.19138536 -0.0040870537 -0.10286038 0.51611197

level3_0.eesp.conv_1x1_exp.conv.weight f4 [16, 8, 1, 1]
000000 9b f6 98 bc 2a ee 08 bd 8d 06 3b be 19 a2 a9 be
       -0.018672278 -0.033430256 -0.18264218 -0.33131483
000010 eb 02 28 bd 2b 4e bc 3d 98 1c 68 bf 40 e1 17 bf
       -0.041018408 0.09194597 -0.9066863 -0.5932808
000020 0d c8 df be 32 ce 33 3e 38 de c2 3e e7 0f 75 bf
       -0.43707314 0.17559126 0.38060164 -0.9572739
000030 95 65 eb bd 16 1e 12 3f 97 50 c6 bd f9 07 a6 3e
       -0.114939846 0.5707716 -0.0968334 0.32427958
000040 c8 25 2c be 19 d1 99 bd ab a1 04 3f bf 65 35 3e
       -0.16811287 -0.07510585 0.51809186 0.17714594
000050 14 e7 9a 3d 1e 9e 0b 3f 5d ec ab bd b0 46 58 bf
       0.07563606 0.5453814 -0.08394692 -0.8448286
000060 4a 14 dc bc 43 4a 42 3f a8 cd 9d 3e 61 44 96 3c
       -0.026865143 0.75894564 0.30820966 0.018343152
000070 d2 22 ae 3e 3c 8c cc 3c 2d 2a d2 3e 1e 79 30 3f
       0.3401094 0.024969213 0.41047803 0.6893481
000080 db 30 06 bf 1e 41 0a 3f 58 54 ce 3e 5d 71 08 bf
       -0.524183 0.5400561 0.40298724 -0.5329798
000090 c6 7b 64 be 64 eb 9e be 93 9f 17 bf b6 97 a2 3e
       -0.22312841 -0.31038964 -0.59227866 0.3175637
0000a0 95 a3 8e 3d d9 0a 5c 3e 84 aa 53 be d2 5a ec be
       0.069647945 0.21488513 -0.20670515 -0.4616304
0000b0 8e 77 65 be 6a 18 08 bd b6 0c 2e 3f 95 f2 00 be
       -0.22408888 -0.033226408 0.67988145 -0.12592538
0000c0 4a c0 8e bd 55 25 9b 3e 7b fb 07 3f 06 24 09 3e
       -0.0697027 0.3030192 0.53118104 0.13392648
0000d0 ac 81 c7 3d c1 e7 d9 be 68 cc 04 be 0e a4 20 bf
       0.0974153 -0.42559627 -0.129686 -0.6275033
0000e0 67 5d ea 3c 05 a0 12 bf 8f b1 db bc 70 16 ce 3e
       0.02860899 -0.5727542 -0.026818065 0.40251493
0000f0 fd 69 98 3e 77 d4 b7 3e ca 6f 9a 3e 55 3d 91 be
       0.29768363 0.35904285 0.30163413 -0.28367105
000100 18 4e 45 bf a7 bc 03 3d 7a dc 10 3e db d3 ac bd
       -0.77072287 0.032162335 0.14146605 -0.08438846
000110 81 ca c0 3e 4a 3f f4 bd 6c e5 87 3f 49 a0 80 be
       0.37654498 -0.11926134 1.0616889 -0.25122288
000120 4e 99 25 be 6a 11 54 be 5a b3 ad bc c0 be 07 be
       -0.16171762 -0.20709768 -0.021203686 -0.13256359
000130 50 6f 0f 3e 54 02 67 3e a2 1d 5a 3d 56 b9 15 bf
       0.14007306 0.22559482 0.053250916 -0.58485925
000140 ce a4 74 3e 06 e7 dd be 2a d2 60 bf 50 22 6e bc
       0.23890993 -0.4334032 -0.87820685 -0.014534548
000150 3d b9 1b be 18 f5 d5 3d c3 9d 79 be 7d 1b 8f bb
       -0.15207382 0.104471385 -0.24376588 -0.0043672905
000160 7c 75 89 be 8f 27 16 3f 7a 07 d4 be fe f4 8f 3c
       -0.26847446 0.5865411 -0.41411954 0.017572876
000170 56 68 04 bf b2 bf 81 3c 25 74 11 3d e1 fa 1f bf
       -0.51721704 0.015838478 0.035511155 -0.62492186
000180 c9 60 aa bd 3c f7 e3 3d ef e7 c1 be 82 47 5b 3e
       -0.083192416 0.111311406 -0.37872264 0.21413997
000190 a1 e9 00 3f 43 ca db be ca 88 bb 3d 20 dc 19 be
       0.5035649 -0.4292775 0.0915695 -0.15025377
0001a0 60 f7 a5 3e 77 25 00 3f 69 b7 ce bd 7b e8 e8 be
       0.32415295 0.50057167 -0.100935765 -0.4548987
0001b0 7a 3f fc 3e 6a 5c 50 3e 52 3c 43 3e d7 67 14 bf
       0.4926718 0.20347753 0.19065979 -0.5797095
0001c0 d3 e7 1c be 53 d3 98 3d 9f d7 1e bf bf fc 05 3e
       -0.15322809 0.07462182 -0.6204776 0.13084696
0001d0 34 e7 17 be d4 10 07 3e be 03 68 3e ab 07 2a be
       -0.1483429 0.13190013 0.22657678 -0.16604488
0001e0 9c e0 e3 3e 0b 08 7d 3e a8 b0 14 bf b2 73 9c be
       0.445073 0.247101 -0.58082056 -0.3055702
0001f0 96 48 70 3d 27 34 e3 be 58 a1 86 3f 43 6b 38 3e
       0.058662973 -0.44375727 1.0517988 0.18009667

level3_0.eesp.conv_1x1_exp.bn.weight f4 [16]
000000 4d f2 8b 3f 5d 10 96 3f 54 19 8a 3f 4b 90 96 3f
       1.0933319 1.1723744 1.078898 1.1762785
000010 38 2c 68 3f b5 17 67 3f 6a fc 44 3f 53 dc 83 3f
       0.9069247 0.9027055 0.76947653 1.0301613
000020 ce 1c 75 3f fe b2 87 3f 89 28 85 3f 98 c8 72 3f
       0.9574708 1.0601499 1.0402995 0.9483733
000030 1c fd 8f 3f 39 3f 8f 3f 8d fb 90 3f c3 9d 90 3f
       1.1249118 1.1191169 1.1326767 1.1298145

level3_0.eesp.conv_1x1_exp.bn.bias f4 [16]
000000 5b 08 6e be 83 3b 93 bd 42 77 86 bb 50 87 99 3b
       -0.23245375 -0.07189085 -0.004103572 0.00468532
000010 46 f7 7e bd b2 a5 b1 3c e2 9d f8 bd 9c 40 c5 bd
       -0.062247537 0.021685455 -0.12139489 -0.09631464
000020 99 1b 82 bd 60 f9 a7 3d ce 1d 01 3e a5 38 cd bb
       -0.0635292 0.082018614 0.12609026 -0.006262856
000030 e9 22 c7 3d b2 d6 cd bd 6e d0 2f 3d a6 b6 81 3c
       0.097234555 -0.100507155 0.042923383 0.015834164

level3_0.eesp.conv_1x1_exp.bn.running_mean f4 [16]
000000 47 cb 27 bf f8 d2 24 be 8d ee aa bd df cb 06 3f
       -0.6554455 -0.16096103 -0.08346281 0.5265483
000010 22 ad c9 be 72 0f 5e 3d 7a 15 4c be de d7 57 3e
       -0.39389902 0.05421395 -0.19930068 0.2107844
000020 b5 15 94 3c be 33 fa bd ec e6 8b be 17 69 7c be
       0.018076757 -0.122169 -0.27324617 -0.24649464
000030 10 2e b1 bc 6f 6f 2a 3e 01 b5 06 be 18 83 19 3e
       -0.02162841 0.16644071 -0.13154985 0.14991415

level3_0.eesp.conv_1x1_exp.bn.running_var f4 [16]
000000 86 cb 22 3f 3f 93 90 3f 18 c3 c1 3e 18 34 05 3f
       0.635918 1.1294936 0.37844157 0.52032614
000010 c2 d1 ba 3f df fe 01 3f 44 a5 8f 3e b9 83 13 3f
       1.4595263 0.5077953 0.28055775 0.5762287
000020 f8 e5 24 3f da 78 d2 3e ee 4e 49 3f bd 02 59 3f
       0.64413404 0.41107827 0.7863606 0.84769803
000030 4c 28 e2 3e ce 0b 4b 3f e0 59 bc 3e 05 02 89 3f
       0.4417137 0.7931489 0.3678732 1.0703741

level3_0.eesp.br_after_cat.bn.weight f4 [16]
000000 b8 6d 6c 3f e9 36 84 3f 39 30 79 3f a7 2f 93 3f
       0.9235492 1.0329257 0.97339207 1.1498917
000010 32 e8 49 3f 46 46 84 3f f8 89 76 3f 1f bd 79 3f
       0.78869927 1.0333946 0.96304274 0.975542
000020 54 07 69 3f 3f cb 84 3f 1b 1b 8a 3f cb 67 6f 3f
       0.91026807 1.0374526 1.0789522 0.9351775
000030 1e 26 83 3f 77 b7 86 3f b5 f3 81 3f 04 54 86 3f
       1.0246007 1.0524739 1.0152498 1.049439

level3_0.eesp.br_after_cat.bn.bias f4 [16]
000000 70 b5 3c be 78 09 ea bd b5 ff 4f bd 28 4b 78 3e
       -0.18428588 -0.11427587 -0.05078097 0.2424742
000010 d1 94 70 be a9 9e 11 bc cb 95 8c 3e 8a 78 13 3e
       -0.23494269 -0.008887925 0.27458033 0.14401451
000020 12 37 c2 bb f3 45 2a 3c 3e b7 0d 3e 6f 78 88 3c
       -0.005926975 0.010392654 0.13839433 0.01665899
000030 a8 1a ed bc 39 53 01 3d ec fc b1 bd ae 71 b9 bd
       -0.028943375 0.031573508 -0.08690819 -0.09054886

level3_0.eesp.br_after_cat.bn.running_mean f4 [16]
000000 e7 3e 0c be 05 6c 99 3d be 26 a6 bd 77 e6 a1 bb
       -0.1369587 0.07491306 -0.08112858 -0.0049408036
000010 80 ac f9 3d fc 3f 85 bc 1a ee 28 be 3f a1 80 bd
       0.12191105 -0.016265862 -0.16497079 -0.06280755
000020 57 d1 9d bd e6 df 45 3d 20 23 14 3d a9 73 2f bd
       -0.07705944 0.04830923 0.03616631 -0.04283491
000030 89 f0 e1 3d 48 a8 06 bc 29 63 94 bd 2b 03 81 3d
       0.110322066 -0.008218832 -0.07245476 0.06299432

level3_0.eesp.br_after_cat.bn.running_var f4 [16]
000000 6d 85 97 3e b9 0f 8b 3e 66 95 0e 3e 61 2a 12 3e
       0.29593983 0.27160433 0.13924178 0.14273979
000010 99 aa 9c 3e 31 97 fc 3c 02 d7 0e 3e 57 c8 82 3e
       0.30598906 0.030833812 0.13949206 0.25543472
000020 5a 5e 28 3e 1b 19 b5 3e eb 22 85 3e 73 ca a1 3e
       0.16442242 0.35370716 0.26003203 0.3159977
000030 01 d8 ae 3e d6 0d 64 3d 42 75 d7 3d eb b3 f8 3e
       0.34149173 0.055677257 0.10520412 0.48574767

level3_0.eesp.br_after_cat.act.weight f4 [16]
000000 c3 06 59 3e bf f9 d4 3e 80 91 e8 3e 6c dc f4 3e
       0.21193986 0.4159679 0.45423508 0.4782442
000010 83 b1 3e 3e ec 4b 64 3e 2f 50 0b 3f 70 3a 91 3e
       0.18622403 0.22294587 0.54419225 0.28364897
000020 69 03 0c 3e fb 6e 95 3e cc 96 f6 3e bc f2 2e 3d
       0.13673176 0.29186234 0.48161924 0.04271196
000030 b6 41 b9 3e 83 cf fe 3e 8d 8a 8f 3e 0f 6a bd 3e
       0.36182946 0.49767694 0.28035393 0.3699498

level3_0.eesp.module_act.weight f4 [16]
000000 00 00 80 3e 00 00 80 3e 00 00 80 3e 00 00 80 3e
       0.25 0.25 0.25 0.25
000010 00 00 80 3e 00 00 80 3e 00 00 80 3e 00 00 80 3e
       0.25 0.25 0.25 0.25
000020 00 00 80 3e 00 00 80 3e 00 00 80 3e 00 00 80 3e
       0.25 0.25 0.25 0.25
000030 00 00 80 3e 00 00 80 3e 00 00 80 3e 00 00 80 3e
       0.25 0.25 0.25 0.25

level3_0.inp_reinf.0.conv.weight f4 [3, 3, 3, 3]
000000 f2 08 39 be 54 02 c0 3d 6f be c6 3e a7 f7 88 be
       -0.18069819 0.09375444 0.38817164 -0.26751444
000010 c4 bd c1 bd 1e 90 52 3e 5d 99 fe be 3c 15 ef bd
       -0.09460023 0.20562789 -0.49726382 -0.11673972
000020 4a 8d e0 bd 0e 20 cf be 1b 02 b5 3e c4 3e 26 3d
       -0.10964449 -0.40454143 0.3535317 0.0405872
000030 2e 76 b9 be ff 95 c3 be c4 6f 30 3e b2 59 d5 be
       -0.36222976 -0.38200375 0.17230135 -0.41669995
000040 c1 b2 33 3d 32 6e 2e 3e 83 30 7d 3e 80 69 20 3f
       0.043871645 0.17034224 0.24725537 0.6266098
000050 8a 9a 19 3d 2a af 8e 3e b2 9a 16 3e c4 dd 30 3e
       0.037500896 0.27868015 0.14707449 0.17272097
000060 67 5d 8b be 93 0b ab 3b bf 0e fb 3d 57 80 09 3f
       -0.27219698 0.0052198856 0.12258672 0.53711456
000070 cf 94 92 3e b4 18 aa be 58 67 6e be 61 c3 01 3f
       0.28629157 -0.33221972 -0.2328161 0.5068875
000080 19 cf 44 be 6e 17 5f be 14 95 ca be 8d 86 63 be
       -0.19219626 -0.21786281 -0.39566863 -0.22219296
000090 6e d7 9c be 91 c7 46 3d b6 2d 32 be 25 9f d5 3c
       -0.3063311 0.048530165 -0.1740025 0.026076863
0000a0 d7 3c f0 bc 9b b3 df bd d7 a3 83 be fe b2 f4 be
       -0.029325886 -0.10922929 -0.25710937 -0.4779281
0000b0 e0 c4 c9 be 4c f2 0f 3e 0c 27 81 3d 3e 25 82 3e
       -0.39408016 0.14057273 0.06306276 0.2541904
0000c0 be aa a3 be d7 f2 a1 3d e4 10 62 be 46 09 0a 3e
       -0.31966203 0.07907646 -0.22076756 0.134801
0000d0 9a 28 77 be ce 48 0a 3e b2 85 05 3e 32 72 51 be
       -0.24136582 0.13504335 0.13039282 -0.20453718
0000e0 ef 97 a8 be e4 e9 cb 3e ba a9 95 3d bf 1c a1 3d
       -0.32928416 0.39826882 0.073077634 0.07866811
0000f0 2d 33 3c 3e 72 5f d2 be f6 29 42 3e 7f d8 8a 3d
       0.18378897 -0.41088444 0.1896132 0.067795746
000100 37 49 c8 3e da f1 c4 be ba 2e 3a 3e cc a7 78 3d
       0.39118358 -0.38465768 0.18181887 0.0607069
000110 02 9e 80 3e 01 b6 04 3d b9 c5 94 bc c8 95 d1 ba
       0.2512055 0.032400135 -0.018160688 -0.0015990073
000120 d4 7c f8 bd ea bf 05 be ef 3c d9 3e ca 8a 02 3e
       -0.12133184 -0.1306149 0.424293 0.12748256
000130 65 8c 8f 3d a3 93 ae 3e cf ec 52 bf 60 d1 13 3e
       0.070092 0.34097013 -0.8239259 0.14435339
000140 a8 64 e3 3e
       0.44412732

level3_0.inp_reinf.0.bn.weight f4 [3]
000000 e9 fd 79 3f bb 83 86 3f c8 18 7f 3f
       0.9765306 1.0508951 0.9964719

level3_0.inp_reinf.0.bn.bias f4 [3]
000000 95 db 39 be 98 3e b8 3d e3 31 a1 3d
       -0.1815017 0.08996314 0.07870843

level3_0.inp_reinf.0.bn.running_mean f4 [3]
000000 ee 00 b2 3b 6f 03 80 c0 36 63 21 40
       0.0054322397 -4.000419 2.5216804

level3_0.inp_reinf.0.bn.running_var f4 [3]
000000 ec d3 82 40 72 fd c6 40 f1 9d 19 40
       4.0883694 6.218438 2.400265

level3_0.inp_reinf.0.act.weight f4 [3]
000000 1a 1c 98 3e 93 49 c1 3e 64 d8 91 3e
       0.2970894 0.37751445 0.28485405

level3_0.inp_reinf.1.conv.weight f4 [32, 3, 1, 1]
000000 df bf be 3e 99 c7 0f 3f 57 87 45 be 4a 91 56 be
       0.3725576 0.56163937 -0.1928991 -0.20953861
000010 0b 96 c3 3d 50 c1 d3 bd 75 9f ec bd ee f7 f8 3e
       0.09550103 -0.10339606 -0.115538515 0.48626655
000020 20 e4 88 3d e2 5c 5a bd bc 93 26 bd e6 f6 6d 3e
       0.066841364 -0.053311236 -0.040668234 0.23238716
000030 84 30 12 bd 7d 54 80 bb 6b e4 46 bf ec fd 7c 3e
       -0.0356908 -0.003916322 -0.7769229 0.24706239
000040 fd 73 1d 3d 8c 1a 90 3e 55 45 c7 3e 98 3d 93 be
       0.038440693 0.28145254 0.38920084 -0.2875793
000050 80 7b ed be b6 ed 45 3f 88 a0 a9 3d 87 ec b3 3d
       -0.46383286 0.77315843 0.08282572 0.087853484
000060 52 f1 c7 be c1 2b e1 3e 8a 04 0c 3e 70 84 42 be
       -0.390513 0.43978694 0.13673607 -0.18995833
000070 14 20 a7 be 4c db af 3e 9d 3b df be 82 08 b9 3d
       -0.3264166 0.34346998 -0.4360017 0.09034826
000080 c7 c8 8f 3d e1 06 03 bf f9 91 8e 3e 66 11 0d be
       0.07020717 -0.5118237 0.27845743 -0.13776168
000090 0c b6 45 3e d3 33 9b be e0 ab 1a be 55 06 2c 3e
       0.19307727 -0.30312976 -0.15104628 0.1679929
0000a0 4f 84 ed 3c 6f d7 ca be 64 20 8e 3d d2 ea 00 bf
       0.028993754 -0.39617488 0.06939772 -0.5035831
0000b0 aa d6 7f bd fb 98 0d 3f e8 76 8e be 70 6b cc 3e
       -0.06246058 0.55311555 -0.27825093 0.39925718
0000c0 1b 7d 81 bd 52 bb 1d be f7 a8 77 be b0 78 66 ba
       -0.0632269 -0.15403488 -0.24185549 -0.00087917875
0000d0 5a 9f 61 3f 8e 77 8c bc 31 62 c5 3d 7c f5 8c 3e
       0.88133776 -0.017146852 0.09637869 0.2753104
0000e0 ec a3 87 be 4f e1 67 be 2f 3d 22 be 8f 86 db 3c
       -0.2649225 -0.22644542 -0.15843652 0.026797561
0000f0 83 ae b9 3c 6d 16 1b bf 5f 97 f7 3b 4c 02 0c be
       0.022666221 -0.60581094 0.0075558866 -0.13672751
000100 cc 8d 44 3e d7 d5 53 be 39 a9 d5 3e 79 14 f7 bc
       0.19194716 -0.20687042 0.4173067 -0.03016113
000110 4b 81 3b 3e 7b b0 17 3e 1a 61 e0 bd 55 ce d7 3e
       0.1831104 0.14813416 -0.10956021 0.42149606
000120 d0 20 de 3c 90 13 49 3e c2 a1 00 bf 80 5d 2b 3d
       0.027115256 0.19636369 -0.5024682 0.041837215
000130 4c fa 57 3e bd 50 23 bf 6a 26 e6 3d 81 92 c9 3e
       0.21091574 -0.6379507 0.11237796 0.39369586
000140 c0 22 18 be 69 2b 8a bc e5 52 61 3d b5 4d a4 be
       -0.14857006 -0.016866403 0.055010695 -0.32090536
000150 cc 1e 04 3f a2 d4 7a 3e 2c 32 83 bd 1c b0 1b be
       0.5160949 0.24495175 -0.06406054 -0.15203899
000160 a0 b1 04 3f 4b 02 fb bd 65 0f 19 3d 46 cf 54 3e
       0.51833534 -0.12256297 0.037368197 0.20782194
000170 db 83 6e be fe e6 1c bd aa 4e bf 3e 76 3d 94 be
       -0.23292486 -0.03830623 0.37364703 -0.2895314

level3_0.inp_reinf.1.bn.weight f4 [32]
000000 fb e5 76 3f e0 8d 5f 3f 20 3f 72 3f d0 e0 79 3f
       0.9644467 0.8732586 0.9462757 0.9760866
000010 d9 70 7a 3f a8 fa 6a 3f 90 32 82 3f 07 56 84 3f
       0.9782844 0.9178872 1.017168 1.0338753
000020 3d 46 89 3f 8b a1 84 3f 26 a3 80 3f 2e 23 8d 3f
       1.072456 1.0361799 1.0049789 1.1026361
000030 da 3a 6f 3f c4 6d 78 3f 1f 57 6a 3f 2e 7a 68 3f
       0.93449175 0.9704249 0.91539186 0.9081143
000040 0b 90 53 3f ff f2 83 3f 3a 69 86 3f 81 8c 75 3f
       0.8264167 1.0308532 1.0500863 0.95917517
000050 5e b3 8a 3f ab eb 87 3f 86 bc 83 3f d7 2a 60 3f
       1.0835989 1.0618795 1.0291908 0.8756537
000060 00 63 83 3f 3b 84 87 3f 9c 47 87 3f 29 3e 7e 3f
       1.0264587 1.0587229 1.0568728 0.993136
000070 90 95 6e 3f fe 4c 63 3f a2 ee 78 3f 9b 33 78 3f
       0.93196964 0.88789356 0.97239125 0.96953744

level3_0.inp_reinf.1.bn.bias f4 [32]
000000 99 bf 5d bd fe a3 39 3d 30 59 b1 bd 21 c3 5f 3d
       -0.0541378 0.04532241 -0.08659589 0.05462945
000010 52 e5 9c bd f6 92 5a be ea b3 26 bd c3 77 9b 3d
       -0.07660927 -0.21345124 -0.040698923 0.07591202
000020 2d 2d 88 3c 4e 0b 24 be dc ed 23 bd a0 08 d5 3c
       0.016623104 -0.16019937 -0.040021762 0.02600509
000030 b8 04 15 3d 10 a9 c0 3d 03 80 22 be dc 98 81 be
       0.036381453 0.09407246 -0.15869145 -0.25311935
000040 5b 08 6e be 83 3b 93 bd 42 77 86 bb 50 87 99 3b
       -0.23245375 -0.07189085 -0.004103572 0.00468532
000050 46 f7 7e bd b2 a5 b1 3c e2 9d f8 bd 9c 40 c5 bd
       -0.062247537 0.021685455 -0.12139489 -0.09631464
000060 99 1b 82 bd 60 f9 a7 3d ce 1d 01 3e a5 38 cd bb
       -0.0635292 0.082018614 0.12609026 -0.006262856
000070 e9 22 c7 3d b2 d6 cd bd 6e d0 2f 3d a6 b6 81 3c
       0.097234555 -0.100507155 0.042923383 0.015834164

level3_0.inp_reinf.1.bn.running_mean f4 [32]
000000 e1 0b 33 3e d3 fb fb bc 86 85 3a 3e 1d ca 82 3d
       0.17485 -0.030759728 0.18214998 0.06386206
000010 b3 a5 95 be 65 5c 18 3e 92 06 64 be 01 d8 25 3e
       -0.2922798 0.14878996 -0.22268131 0.1619568
000020 b9 4b 20 3e cf 14 60 bc d3 83 e9 3a f8 f4 92 bc
       0.15653886 -0.013676836 0.0017815776 -0.017939076
000030 80 63 0d be 4f 6c e8 bd db 71 44 be b5 dd f5 3d
       -0.13807487 -0.11348783 -0.19184057 0.12005178
000040 67 80 1b be 36 07 9d 3e 8b 1b 61 3c ba 64 9b bd
       -0.151857 0.30669564 0.013739477 -0.075875714
000050 6b d1 55 be f2 4d da bc fe fd e2 3d 0a 8b 0c 3e
       -0.20880668 -0.026648495 0.110836014 0.13724914
000060 ef e7 e0 bd 83 7d 1d be 35 d5 cf 3d ba 01 d0 bd
       -0.10981738 -0.1537991 0.10148088 -0.10156579
000070 a7 ff 05 3e b8 2f f2 3d c8 a2 bb bb df a0 c5 3c
       0.13085805 0.11825508 -0.005726192 0.02412456

level3_0.inp_reinf.1.bn.running_var f4 [32]
000000 32 0c ab 3e 89 cd 28 3d 01 8c eb 3d ee cc 01 3d
       0.33407742 0.04121164 0.11501313 0.031689577
000010 00 d9 94 3e dc dd 9d 3d c6 d6 96 3d d5 79 9a 3e
       0.29071808 0.07708332 0.073651835 0.30171075
000020 22 26 f9 3d 40 c2 4b 3e 79 75 a3 3d 6a fe 54 3e
       0.121654764 0.19898319 0.079813905 0.20800176
000030 52 b9 17 3d 6d cc a2 3d 17 db fa 3d 34 1b c3 3e
       0.03704197 0.079491474 0.12248819 0.38106692
000040 06 8f b1 3c 35 c7 e7 3e 0d b6 01 3e 2c c9 2d 3d
       0.021674644 0.4526917 0.12667103 0.04242818
000050 3d d6 55 3e 60 0a a9 3d 15 0d f3 3d 3a a4 16 3e
       0.20882507 0.08253932 0.118677296 0.14711085
000060 60 ed 53 3e 86 8c 9c 3e d7 3e 14 3e 5c f1 82 3d
       0.2069602 0.3057596 0.14477096 0.06393692
000070 47 ee 2e 3e 2f e6 5a 3e eb c1 a9 3d 4c ac 49 3e
       0.17083083 0.2137687 0.0828894 0.19694632

level3_0.act.weight f4 [32]
000000 4a 66 2f 3e 0a 40 98 3e 32 1b d5 3d 0b 80 af 3e
       0.17128864 0.29736358 0.10405578 0.34277377
000010 90 e2 23 3e 38 06 ab 3e d2 bf 7f 3d 4d 75 85 3e
       0.16004395 0.33403182 0.062438793 0.26066056
000020 42 18 d0 3d 1f ea 70 3e ad d0 4f 3e 46 72 a6 3d
       0.10160877 0.2352681 0.20294447 0.08127265
000030 55 b6 f4 3e f5 6a 92 3e fe 7b 5a 3e 61 99 1d 3e
       0.47795358 0.28597227 0.21336362 0.1539054
000040 8b 9c 6c 3e 0d 2c 97 3e ee bf 8b 3e b9 3f 82 3e
       0.23106591 0.29525796 0.27294868 0.25439242
000050 f2 a7 97 3e e2 44 3f 3e 03 68 3e 3e eb 74 59 3e
       0.2962032 0.1867862 0.18594365 0.21236007
000060 06 00 f2 3e 3f a1 a5 3e e5 39 cf 3e 89 a5 8e 3e
       0.47265643 0.32349584 0.40473858 0.27860668
000070 65 d5 d0 3e 35 ce 22 bd 97 e1 ac 3e 03 6f c7 3e
       0.40787807 -0.039747436 0.3376586 0.38951883

level3.0.proj_1x1.conv.weight f4 [16, 16, 1, 1]
000000 4c 96 24 be d8 d0 15 be 3d 98 52 be 44 0b 15 be
       -0.16072959 -0.14630449 -0.20565887 -0.14555079
000010 ca 63 09 3e d7 05 fa 3d 51 08 af 3e 67 8a a8 be
       0.13416973 0.12208145 0.34186032 -0.32918093
000020 d4 9e 71 be b1 b9 19 be 65 c8 07 be e7 98 57 3f
       -0.23595744 -0.15012242 -0.13260038 0.84217685
000030 59 aa ca bd eb 14 b9 bd 07 ff 7f be 30 bc 88 3c
       -0.098957725 -0.09037193 -0.24999629 0.016691297
000040 99 24 da 3e dc 11 8e 3e dd f0 f0 3e 65 76 95 3e
       0.42606047 0.27748 0.47058764 0.2919189
000050 96 ba 64 bf fe 7b 70 3e 6d 42 85 be 1b 64 80 bf
       -0.8934721 0.234848 -0.2602724 -1.003055
000060 9a dd 0e bd 2c f6 be be 5b ff 2f 39 76 5b d2 bd
       -0.034879304 -0.3729719 0.00016784428 -0.10271351
000070 9f 34 23 3f 28 8c 2c 3e 19 31 62 be b7 44 ed 3e
       0.6375217 0.1685034 -0.22089042 0.46341488
000080 20 cd ce bd ab bc 9b 3e 5f 51 4e be 5c 31 35 3f
       -0.10097718 0.3041738 -0.20148228 0.7077844
000090 e8 49 85 3e 95 1d 0f be da 17 96 be 11 a7 d0 3e
       0.26032948 -0.13976128 -0.29315072 0.40752462
0000a0 f7 a0 84 3e 8d 91 7e 3f 16 47 38 be f9 14 45 be
       0.25904056 0.9944084 -0.17995867 -0.19246282
0000b0 e0 c5 7a be 0a 13 12 3e 19 aa b6 3e 38 62 87 bd
       -0.24489546 0.14265075 0.3567665 -0.066105306
0000c0 b0 4d af bd f3 8e b8 3e 3b 28 f9 3d 01 c5 b2 be
       -0.085597396 0.36046562 0.121658765 -0.34915927
0000d0 fc ad eb bd c8 ca bb be 99 6b 00 3d ac 12 84 bf
       -0.11507794 -0.36678147 0.031352613 -1.0318198
0000e0 d8 1a 52 be ae a0 b1 bd a8 23 f0 3e 2e 95 c5 3d
       -0.20518053 -0.08673225 0.46902204 0.096475944
0000f0 dd 02 14 be 7a 29 22 3f 39 c9 14 bf e4 0d 06 bf
       -0.14454217 0.6334454 -0.5811954 -0.52364945
000100 d6 55 a8 bc 7a d4 75 3e a3 fd f5 3d 8c 38 d6 bd
       -0.020548742 0.24006835 0.12011268 -0.10460004
000110 63 b4 80 be a5 07 fc 3e 7f 65 88 bd d5 a8 5a be
       -0.25137624 0.49224582 -0.06659984 -0.21353467
000120 df b7 dd 3e fb 9b a1 be 72 08 b4 3e 26 eb ea 3e
       0.43304345 -0.31564316 0.35162693 0.4588253
000130 e3 d4 38 3d 82 bc 0b bd 88 60 e4 bd 85 cf b5 be
       0.0451249 -0.034115322 -0.111512244 -0.35509887
000140 97 df 99 3e a9 ec 29 be 50 1a 3e 3f b2 48 85 3d
       0.30053398 -0.16594185 0.742589 0.06508006
000150 06 b6 54 3e bf 2a 8e be 8b 6a 7f be 52 81 0f bf
       0.20772561 -0.27766988 -0.24942987 -0.560567
000160 20 93 9d be be 0d 85 bd e6 47 c9 3e 5e e5 2c 3e
       -0.3077631 -0.06496762 0.39312667 0.16884372
000170 72 c1 d6 be 6a 8e a4 bd 00 76 c7 3e ce 98 2c 3f
       -0.41944462 -0.08034976 0.38957214 0.6742066
000180 dc 0a 95 be 68 ae 8d 3e c5 74 9e be 12 c8 73 3d
       -0.29109848 0.27672124 -0.30948463 0.059516974
000190 9e 8f 2c 3f 6e 96 e8 3e f4 f9 35 3f 71 83 4c 3f
       0.6740664 0.4542727 0.71084523 0.79888064
0001a0 2d 49 af be 32 b1 5c be 7b 68 5d 3e c8 a2 64 bd
       -0.34235516 -0.2155197 0.21621887 -0.055819303
0001b0 01 cb 26 3f 91 b8 9c 3e 5a b1 1d 3e a6 72 57 3e
       0.6515351 0.30609563 0.15399686 0.21039829
0001c0 ab dc 74 be 34 63 3f 3d de ce c1 3e 96 9c af 3a
       -0.23912303 0.046725467 0.3785314 0.0013398107
0001d0 55 68 03 bf b2 66 32 bf dd 23 79 be b3 4a 1b bf
       -0.51331073 -0.6968795 -0.24330087 -0.60660857
0001e0 fc 34 13 3f 43 e4 bb 3e 44 d1 0c 3f 30 89 66 3e
       0.5750272 0.36697587 0.55006814 0.2251327
0001f0 de 20 46 3e 6d 23 3a 3f d0 70 38 be 49 af 80 3f
       0.19348475 0.72710305 -0.18011785 1.0053493
000200 80 e1 61 3e 11 60 21 be 33 ee 4d 3e ac 6f 10 bf
       0.22058678 -0.15759303 0.20110397 -0.564204
000210 08 24 0d 3e e6 7a c1 be 9a a3 30 3e f0 7d 08 3f
       0.13783276 -0.37789077 0.17249909 0.53317165
000220 a9 6f 7b 3e 09 81 12 3e c6 07 ac 3d be f5 5f 3e
       0.24554314 0.14307036 0.0839992 0.21871087
000230 8c 77 15 be ce 44 5f 3e 5c 90 ae bd 31 bd 3b 3f
       -0.14596385 0.2180359 -0.08523628 0.7333556
000240 24 9f 0d 3f d9 0e 9f 3e f9 80 cb bd b1 39 30 be
       0.55320954 0.31066015 -0.09936709 -0.17209508
000250 9e 20 82 3e 32 be a5 3e 5b aa 90 be f3 c9 23 3e
       0.2541551 0.3237167 -0.2825497 0.15995006
000260 7b b6 ae bd 6e 7c 2b bf f9 af 53 3e dc 80 0d bd
       -0.08530899 -0.6698674 0.20672597 -0.034546718
000270 77 41 c5 3d af 98 d7 3e 36 2e a1 be 3f a3 61 bd
       0.09631627 0.42108676 -0.3148057 -0.055087324
000280 97 8f 4c 3d 11 c9 b4 3e 95 cd f9 bd d4 44 91 3c
       0.049941625 0.35309651 -0.12197415 0.017733015
000290 0b 19 e3 bc e0 b0 09 3e 52 5f 98 bd 03 23 6c be
       -0.027721902 0.13446379 -0.07440056 -0.23060231
0002a0 71 7c 6d bc 4f c1 24 bf f7 97 93 3e 07 af f3 bd
       -0.014495001 -0.64357466 0.28826877 -0.11898618
0002b0 2d bc 2b 3f 67 ed b3 be f6 e3 a0 3e 7a 77 b8 3e
       0.6708401 -0.3514206 0.3142392 0.36028653
0002c0 62 0c 08 be b3 60 00 be 6f 65 d7 3e 5d 5c 34 3e
       -0.13285974 -0.12536888 0.42069575 0.17613359
0002d0 ef 16 e1 be 7b f7 d4 be 03 b3 ab 3e 2b e1 07 be
       -0.4396281 -0.41595063 0.33535013 -0.13269489
0002e0 07 05 26 3d b1 a4 a4 be a7 a1 54 bf b3 af 9e be
       0.04053214 -0.321569 -0.8305916 -0.30993423
0002f0 60 72 d5 be 13 48 1e bf f2 73 1c 3d 7b f7 57 be
       -0.41688824 -0.61828727 0.03819651 -0.210905
000300 3a 77 57 3f fd 9e 22 3f 55 f8 66 3f 4c 88 2e 3d
       0.841663 0.63523847 0.90222675 0.04261045
000310 4e 39 e0 bd 51 95 2c be b2 a8 82 3d 49 2b a7 3e
       -0.1094843 -0.16853835 0.06379832 0.3265021
000320 78 da aa 3e fc c1 9d 3e 7d a8 1b 3d c7 4c e5 be
       0.33369803 0.3081206 0.03800248 -0.4478514
000330 66 7e 5c be 68 2a 89 be 2e b5 3f be 49 88 b3 bd
       -0.21532592 -0.26790166 -0.18721458 -0.08766229
000340 27 e5 1b 3f 04 c0 b6 3e f1 9f 58 be 84 30 66 3e
       0.60896534 0.3569337 -0.21154763 0.22479445
000350 be a4 11 3f f0 5c 97 3e bb 75 01 be 1a 2e 8a be
       0.56892 0.29563093 -0.12642567 -0.26988298
000360 56 a3 cf ba ea 1a 2c 3f 3c e8 d0 be 2e b5 06 bd
       -0.0015841525 0.6722857 -0.4080218 -0.03288763
000370 37 bc 89 be bb bc 95 be 58 ef c4 be 11 2a b2 be
       -0.2690141 -0.29245552 -0.38463855 -0.3479772
000380 91 8b 25 be 7b 50 ef bc 8e a8 1e 3e 7f a9 eb bd
       -0.16166522 -0.02921318 0.15493986 -0.11506938
000390 eb f9 93 3d 38 07 13 3e 34 52 79 3e 9f 14 96 be
       0.072254024 0.14358222 0.24347764 -0.29312608
0003a0 a5 da 21 3f 34 e2 10 3f 17 23 5a 3e 7d d0 b5 be
       0.6322425 0.5659516 0.21302448 -0.35510626
0003b0 fe e9 3b 3f 56 4f ed be 46 6b f6 3e 16 23 eb 3e
       0.7340392 -0.4634959 0.48128718 0.45925206
0003c0 52 24 6c be f9 6a 0e be 1d 75 50 3e 14 25 d6 bd
       -0.2306073 -0.13907994 0.20357175 -0.10456291
0003d0 ea 13 0c 3f 47 3a 47 3e 26 08 85 be 06 9a 45 bd
       0.54717886 0.19455825 -0.2598278 -0.04824259
0003e0 f4 f8 1c be 6f ea 5b 3e 35 10 6e 3f 91 4c 53 bd
       -0.15329343 0.21476148 0.9299348 -0.05158669
0003f0 1d ea a2 3e f1 88 08 be b4 49 f4 3e 30 fb fb 3e
       0.3181924 -0.13333489 0.4771248 0.49215078

level3.0.proj_1x1.bn.weight f4 [16]
000000 a2 a3 92 3f 06 e7 66 3f b7 95 3c 3f 86 8f 4e 3f
       1.1456187 0.90196264 0.73665947 0.8068775
000010 28 83 8d 3f 2c 0f 9f 3f c5 df 6f 3f f5 e3 61 3f
       1.1055651 1.2426505 0.9370082 0.8823846
000020 64 18 91 3f 98 f6 6b 3f 39 34 85 3f 76 93 7d 3f
       1.1335568 0.9217315 1.0406562 0.9905313
000030 fd ed a9 3f a9 c6 65 3f 77 38 94 3f 15 a1 70 3f
       1.3275753 0.89756256 1.1579732 0.9399579
