data/FeatModel_tmp.pth (torch_old, 419928 bytes, 353 tensors)

level1.conv.weight f4 [8, 3, 3, 3]
00000000: 5765 a2be 4cc1 73bd 1627 823d 1a8f 753e
00000010: cd04 16be 2033 5d3d d5f3 56bd 6ad4 a0bd
00000020: 9a86 7fbe e76e 59be 2ee8 603e 0f6a 0fbe
00000030: 5502 c93e bd69 1bbe 1bcd 6b3b d371 543e
00000040: 7e84 08be 6557 e13d 8ef0 853d 3b51 ad3d
00000050: 456d 2abd 4b60 a7bd 176c 223d 0b95 c5bd
00000060: 7636 8b3c 87b0 63bc cee8 3b3c adfe 03be
00000070: a8a4 73be 0a2f 913d c5e4 eabd 8a77 0d3e
00000080: 256b 4abe 2261 3bb9 a17b a9bd 81c3 353d
00000090: 3885 41be af9a 3dbd 6b47 873c 48d2 f93d
000000a0: d2e4 ef3d 850f e4bd bf3c fcbc fd8b c83c
000000b0: a7bc 3f3e f45c 8bbd af8c 0f3e 923f 2c3e
000000c0: dae3 b33d 8f5f 083d 0009 97bc ca6e 63be
000000d0: cd69 5c3e 373a 39bd eb3c bbbe 7ecf 873e
000000e0: dae7 a3bd 954f 17bb f72d 53bd 5c34 433d
000000f0: 9d2e 913d af94 e6bd a7ae 323e 2ac7 31bd
00000100: 14a6 fd3d 845c 1fbc 80df c93e 0582 d43d
00000110: 57f7 ac3e ca4a 5bbe c56d 60be 763b 063e
00000120: 004a 1c3d 8cec 8fbd c85e cd3d aca4 4fbc
00000130: 7583 583e 6cd2 c2bd cd3b 363e 653a 153d
00000140: 7a12 5abd 7990 813e 2509 e53c bc2c 5cbd
00000150: 98d5 83bd 727d 673d 80c3 493e a248 04be
00000160: 6407 5fbe 1c7a 3fbe 5017 8ebd 3432 9fbd
00000170: 0f53 b3be 10fc 603d 6bf9 abbe daa1 e4bd
00000180: 45ba 993d 7619 473e a1a8 433e 9ce7 76be
00000190: d5df 9cba d6a9 1abe ea13 11be a9d1 3c3e
000001a0: 9cad 2fbd d03b 8ebd 8b6f a9bd b618 f33d
000001b0: a596 f73d 88d3 89be fde0 f3bc 5e0f f0bd
000001c0: 7b95 023e 792f a03d 6481 ffbd 6a38 153d
000001d0: f192 b83d 3a64 633d e03a cebd c118 c9bd
000001e0: 02a8 7e3e e2e7 623d fcbd 7d3c 5f68 533e
000001f0: d960 99be 803d b9bd a22b 12be 6250 4dbd
00000200: 3f5a 92be 9c1a 86be dc45 f1ba 2dc5 a63d
00000210: 0809 27be 3de4 28bd 5479 6ebe a98e 0b3d
00000220: c828 e93d 594f 3b3e b193 303d 7b6c fabc
00000230: 0ad1 46bd 3609 bf3d fb64 68bd 7932 83be
00000240: 15a8 f63d bb9b 513d 9bef 853d de03 65bd
00000250: dc33 f53d c003 273c 66f0 ffbe bae6 9d3c
00000260: f526 b0be 58dc e13c 5cc2 123e 1ae1 4cbd
00000270: 207c 35be 3829 80be ff35 bcbd 3016 b43e
00000280: f5e6 8ebe 5ba6 053d 9c18 40be 5dc6 4dbd
00000290: 1712 9e3d 98c0 21be 1279 8a3e 5283 743e
000002a0: 9978 673d 62a7 39be c5c9 8fbd b29f 1fbd
000002b0: fb97 623d 61ac 743c 922f 863d 2547 f03c
000002c0: 5346 abbe 82ff 0e3e 3966 95be 7c2f 97be
000002d0: 5516 babc 3019 3b3d 3e8d 943e 6ba3 b0bd
000002e0: 0a2e 563d aab3 a0be 30cd d13d 91ab cd3e
000002f0: 854f cc3d a0b6 cc3d 05c1 e4bc 24d1 a63e
00000300: aa32 85bd 9c02 e03c 2b69 91be 779b f4bd
00000310: 47df b0bd 31ac 19be 2294 a4be ccd4 c5bd
00000320: 6754 71be 7650 083e 4227 30be 033f 2abe
00000330: 05fd ec3d d3e3 3ebe 9947 7e3e 017c 0d3e
00000340: 75d6 6a3e 6957 23be 0ffb 6f3d 657c 183e
00000350: a77f 3b3e 979c 003e c234 763e a137 923e
-0.3171794 -0.059510514 0.06355111 0.2398037 -0.14650269 0.054003835 -0.05247863 -0.07853015
-0.2495369 -0.21233712 0.2196357 -0.14005302 0.39259592 -0.15177055 0.0035980407 0.20746545
-0.13331792 0.11002997 0.06540023 0.08462759 -0.041608114 -0.08172663 0.039653864 -0.09647568
0.016993742 -0.013897068 0.011469079 -0.1289012 -0.2379328 0.0708905 -0.114694156 0.13815132
-0.19767435 -0.00017869895 -0.082755335 0.0443759 -0.18898475 -0.046290096 0.016513547 0.12198311
0.11713566 -0.111357726 -0.030790685 0.024480814 0.18724309 -0.06804839 0.1401851 0.16821125
0.087836936 0.033294257 -0.018436909 -0.22210231 0.21524735 -0.045221534 -0.36569914 0.2652549
-0.080032066 -0.0023088206 -0.051557507 0.047657356 0.07088969 -0.11258828 0.17449437 -0.04340283
0.123851925 -0.009726647 0.3942833 0.10376362 0.33782455 -0.21415249 -0.21916874 0.1310862
0.03815651 -0.070275396 0.10027844 -0.012673538 0.21143897 -0.09512791 0.1779625 0.036432642
-0.053240277 0.25305536 0.027958462 -0.0537536 -0.06437224 0.05651612 0.19703484 -0.12918332
-0.21780163 -0.18698925 -0.0693804 -0.07773247 -0.35024306 0.054927886 -0.33588728 -0.11163683
0.07506231 0.19443306 0.19107296 -0.2411179 -0.0011968563 -0.1510385 -0.14167753 0.18439354
-0.042890176 -0.06945002 -0.08273228 0.118699476 0.1208928 -0.26919198 -0.029770369 -0.11721681
0.12752335 0.07821555 -0.12475851 0.036430754 0.09012402 0.055515505 -0.10069823 -0.098191746
0.24868777 0.055396922 0.01548719 0.20645283 -0.299567 -0.09044933 -0.14274457 -0.050125487
-0.28584477 -0.26192176 -0.001840766 0.08143077 -0.16312039 -0.04123329 -0.2328847 0.0340716
0.113847315 0.18291987 0.0431096 -0.030569306 -0.0485392 0.09327929 -0.056736927 -0.25624445
0.12043778 0.051173907 0.06539842 -0.05591189 0.11972782 0.010193765 -0.49988097 0.019275058
-0.34404722 0.027570888 0.14331955 -0.05001936 -0.17723131 -0.25031447 -0.091899864 0.35173178
-0.2791058 0.032629352 -0.18759388 -0.050238002 0.07718294 -0.15796125 0.27045494 0.2387822
0.056511495 -0.18130258 -0.07020906 -0.038970657 0.05532072 0.014933676 0.06552042 0.0293308
-0.3345209 0.13964656 -0.29179552 -0.29528415 -0.022715727 0.045678318 0.2901401 -0.086249195
0.05229 -0.31387073 0.102442145 0.40169957 0.09976105 0.099957705 -0.02792407 0.32581437
-0.06503804 0.027344994 -0.2840055 -0.11943715 -0.08636337 -0.15007092 -0.32144266 -0.096597284
-0.23567353 0.13311943 -0.17202476 -0.166256 0.11571697 -0.18641596 0.24832 0.13816835
0.22933371 -0.15951313 0.058589038 0.14891203 0.18310414 0.12559734 0.24043563 0.28558066

level1.bn.weight f4 [8]
00000000: bca8 7b3f 8cf0 823f a5c7 7c3f 3f60 813f
00000010: 10d5 803f 353b 823f e6c5 7b3f 2392 803f
0.98304343 1.0229659 0.98742133 1.0107497 1.0065022 1.0174319 0.98348844 1.0044597

level1.bn.bias f4 [8]
00000000: df94 f5bc 37db e8ba cd6d 11bc 687b 9b3b
00000010: 7f0f 6f3c 1a8d cc3c bf76 cbbc 22a5 af3a
-0.029978214 -0.0017765526 -0.008876276 0.004744936 0.014591097 0.024969626 -0.024836896 0.0013400654

level1.bn.running_mean f4 [8]
00000000: 01b2 46bf 12fb a6be ae1a 1d40 0b4b 2dc0
00000010: 16c2 52c0 20a7 02c0 6b64 83be a18d 503f
-0.7761536 -0.32613426 2.4547534 -2.7077053 -3.293096 -2.0414505 -0.2566255 0.8146611

level1.bn.running_var f4 [8]
00000000: b7d5 433e fe2c c03d f9f9 b03f c5d6 da3f
00000010: 66aa 2040 05cb 853f a0c7 0a3d 0c4a 223e
0.19124494 0.093835816 1.3826286 1.7096792 2.5104003 1.0452582 0.033881783 0.15848559

level1.act.weight f4 [8]
00000000: fa7c 523e 505a 5f3e 7467 7d3e 538a 863e
00000010: 4688 7e3e d778 833e 21b6 883e 1ec5 783e
0.20555487 0.21811795 0.24746495 0.26277408 0.24856672 0.2567813 0.26701453 0.24293944

level2_0.eesp.proj_1x1.conv.weight f4 [4, 4, 1, 1]
00000000: de04 843f e648 103f 6e45 a23c 5af2 f2be
00000010: 91e5 86be da3f 0c3f 8483 163f ec5a 0b3e
00000020: 54c9 fe3e f88c fc3e ac05 febe 684f 693e
00000030: 3afb 24be 0dbe 9a3e a015 dc3e 0ec9 6ebe
1.0313985 0.56361234 0.019808497 -0.47450525 -0.2634702 0.5478493 0.58794427 0.13608903
0.49762976 0.493263 -0.49613702 0.22784197 -0.1611146 0.30223122 0.4298525 -0.23318884

level2_0.eesp.proj_1x1.bn.weight f4 [4]
00000000: 6373 7e3f cc44 7e3f d791 833f 7986 893f
0.99394816 0.99323726 1.0278882 1.0744163

level2_0.eesp.proj_1x1.bn.bias f4 [4]
00000000: e3d2 a3bc 7232 a2bc 0fd2 593b 0dd0 423c
-0.01999802 -0.019799445 0.0033236777 0.0118904235

level2_0.eesp.proj_1x1.bn.running_mean f4 [4]
00000000: 1511 9e3e bb98 953e 1c55 973e bc8b 813d
0.30872408 0.29218087 0.2955712 0.0632548

level2_0.eesp.proj_1x1.bn.running_var f4 [4]
00000000: ce3e 1e3f 7501 4d3e bf11 853e 6445 8e3e
0.6181458 0.20020087 0.25990102 0.27787316

level2_0.eesp.proj_1x1.act.weight f4 [4]
00000000: f2ef 943e 76dd 693e 3a6b 6f3e 208b 783e
0.29089314 0.22838387 0.23380747 0.24271822

level2_0.eesp.spp_dw.0.conv.weight f4 [4, 1, 3, 3]
00000000: 266a 293d de42 1ebe 5e35 67bd c18c f4bd
00000010: cfe3 833e 54fe 16be 5808 c7bb fbe0 9ebe
00000020: 64a7 e43e f88d 8ebe 71c0 3ebe 9924 adbe
00000030: ae45 afbd fc4a 573e 2c39 853e 7b82 f7be
00000040: 40a3 cc3e 4e40 23bd fee9 883e 5ee5 95be
00000050: 03a0 b0bd 8253 79bd 6c56 ee3d cc20 033c
00000060: bdc4 a9bd cd40 afbe 2ea0 02bf aba5 8ebd
00000070: ebdf 64bb 6073 373e 4534 f4be cbf4 a9bd
00000080: 2726 9a3d 2607 943e e802 243f 1235 873e
0.041360997 -0.15455195 -0.05644738 -0.11940909 0.25759742 -0.14745456 -0.0060739927 -0.3103102
0.4465896 -0.2784269 -0.18628098 -0.33816984 -0.08558212 0.21024698 0.2602018 -0.48341736
0.399683 -0.039856248 0.26741022 -0.29276556 -0.0862427 -0.060870655 0.116375774 0.008003425
-0.08289478 -0.34229127 -0.51025665 -0.069651924 -0.0034923505 0.17915106 -0.47696128 -0.08298644
0.07526808 0.28911704 0.64066935 0.26407677

level2_0.eesp.spp_dw.1.conv.weight f4 [4, 1, 3, 3]
00000000: 7eaf 963e df34 d7bd 55cc 1f3e b96d c6bd
00000010: 7812 cc3e d15b 6ebd 1e5c 3c3e cd33 293e
00000020: edc0 943d 7fcd fd3d 008d 883d 01aa 4abe
00000030: 385a bbbe 28df 8ebe 3289 853d 3064 65bd
00000040: 7211 bf3c 6cec af3d e085 dc3d 3e1e 373e
00000050: 5c6c 15be 1f45 0cbe 3bef 00be a1fc f4bd
00000060: ffbe 18bd 9a50 923e d493 16be 09aa 4cb9
00000070: 5b7a c33c d172 66bd 2145 69be 91c2 d1be
00000080: 7344 5bbe 4e91 ddbe a40d 96be ddc6 b03e
0.29430765 -0.10508131 0.1560529 -0.09688897 0.3985784 -0.05819303 0.18394515 0.16523667
0.0726336 0.12392711 0.066675186 -0.19791414 -0.3659227 -0.2790463 0.065203086 -0.05600375
0.023323748 0.08590016 0.10767722 0.1788263 -0.14592117 -0.13698243 -0.12591259 -0.11962248
-0.037291523 0.2857712 -0.1470483 -0.00019518299 0.023862055 -0.05626184 -0.22780277 -0.40968755
-0.2141283 -0.4327492 -0.29307282 0.3452672

level2_0.eesp.conv_1x1_exp.conv.weight f4 [8, 4, 1, 1]
00000000: 1604 9abe f003 cbbe fa87 f13c d292 a43e
00000010: f3aa d83e 703b 01bf 54ba 32be 76f0 e13d
00000020: 5c06 33be 89cb 18bd 7f20 99bd 982c 33bf
00000030: 32c0 573c d4d7 9ebe fe57 923e 70c7 b1be
00000040: aca8 6dbf b41c a2bd 1977 61be fbf4 28bf
00000050: c45b c03e 3349 6e3f 34f5 423e 3bae 033e
00000060: 5219 fc3d d11c 333e 6c21 823e 3759 d03c
00000070: c3d9 dc3d 13a6 f83e 0891 fb3d d940 efbe
-0.30081242 -0.39651442 0.029483784 0.32143265 0.42317924 -0.5048132 -0.17453891 0.110321924
-0.17482895 -0.03730348 -0.07476901 -0.6998992 0.0131683815 -0.3102404 0.28582758 -0.3472247
-0.928355 -0.07915631 -0.22018088 -0.6599881 0.37570012 0.93080443 0.1903885 0.12859432
0.12309517 0.17491461 0.25416124 0.025433166 0.10783722 0.48564205 0.12283522 -0.46729162

level2_0.eesp.conv_1x1_exp.bn.weight f4 [8]
00000000: 2f5a 823f daa4 803f 11ed 793f 9c28 793f
00000010: d60b 7a3f cc0f 813f f138 813f 4c67 833f
1.0183772 1.0050309 0.9762736 0.9732759 0.9767431 1.0082946 1.0095502 1.0265899

level2_0.eesp.conv_1x1_exp.bn.bias f4 [8]
00000000: 2860 b83c 4be0 873c 481d d4bc 6983 61bb
00000010: 2efb a7bc 4588 773c 7545 fbbb db96 ebbb
0.022506788 0.016586443 -0.025892869 -0.0034410602 -0.020505514 0.015108173 -0.007668192 -0.007189614

level2_0.eesp.conv_1x1_exp.bn.running_mean f4 [8]
00000000: 7f0f 243b bdc4 8abc 6424 81be 75ba 62bd
00000010: ccde e9be 5b5d a03e 0a95 0b3e 1a0a 2e3d
0.002503365 -0.016939515 -0.25223076 -0.0553536 -0.45677793 0.31321225 0.13631073 0.042490102

level2_0.eesp.conv_1x1_exp.bn.running_var f4 [8]
00000000: b49c 323e 641c ae3e da85 bf3e a8b6 673e
00000010: 97a6 1a3f 66f2 b43e ca1c 933c a258 203e
0.1744259 0.34006035 0.37406808 0.22628272 0.60410446 0.35341185 0.017958064 0.1565881

level2_0.eesp.br_after_cat.bn.weight f4 [8]
00000000: f1e7 7c3f 8da8 803f 8366 803f 2719 813f
00000010: 2ae5 803f 6875 7c3f 5a42 803f 43f8 803f
0.98791414 1.0051438 1.0031284 1.0085801 1.0069935 0.9861665 1.0020249 1.0075763

level2_0.eesp.br_after_cat.bn.bias f4 [8]
00000000: a937 bb3c 5f0e 2d3c 0710 b6bb b023 023d
00000010: 28d9 3c3b 2178 a7bb 04fa 88bb ddc0 93bc
0.02285369 0.010562508 -0.00555611 0.031772316 0.0028815959 -0.005110756 -0.004180195 -0.0180363

level2_0.eesp.br_after_cat.bn.running_mean f4 [8]
00000000: 8937 b7bc 20de 843d 3b08 95be 77fd 833e
00000010: e8e3 7a3e 8e65 26bd 845d aebe b820 32be
-0.022365348 0.064876795 -0.29107842 0.25779316 0.24501002 -0.040624194 -0.34055722 -0.17395294

level2_0.eesp.br_after_cat.bn.running_var f4 [8]
00000000: 4f83 833d ddef bd3e 9ee1 103f 33cc 113f
00000010: 4fea 0d3f 6da6 b13e 69a7 3c3f 179e 173f
0.064215295 0.37097064 0.56594265 0.5695221 0.5543565 0.34697285 0.7369295 0.592256

level2_0.eesp.br_after_cat.act.weight f4 [8]
00000000: d6d1 873e fbf9 883e ee5b 863e 7b2b 7a3e
00000010: ff89 703e b52c 723e 4bd0 813e 4788 823e
0.2652728 0.2675322 0.26242012 0.24430649 0.23490141 0.23649867 0.25354227 0.25494596

level2_0.eesp.module_act.weight f4 [8]
00000000: 0000 803e 0000 803e 0000 803e 0000 803e
00000010: 0000 803e 0000 803e 0000 803e 0000 803e
0.25 0.25 0.25 0.25 0.25 0.25 0.25 0.25

level2_0.inp_reinf.0.conv.weight f4 [3, 3, 3, 3]
00000000: db18 373e bc92 a0be e6ca 08bd a011 59be
00000010: ec3d 713d 5db5 20be 53d5 6f3d f5ca 41bd
00000020: 189a 87be 61f9 e6bc 6bd2 b03c 5c14 5a3e
00000030: 5dbe a93d c720 41bd 8a13 22be a8ef b03e
00000040: f6be a63e 52ec 813e 79df 063e ab0f 2a3e
00000050: 9bec 173d 7754 49be d52e 8f3e bd56 e63d
00000060: 985e bd3d 9577 c83d fc42 57be 7049 7ebe
00000070: abbf 90bd 1371 623e 50a8 21be 0788 1abf
00000080: 15d6 61be 6758 e23e a491 d93e ebda 263e
00000090: b73a 293d 4ae7 35be 2609 dbbc 64ff 2e3e
000000a0: 630d 733e 3058 933e 6084 f0bd c9c4 6bbe
000000b0: 823f 93be 711d 69ba 6757 813e 89b5 153f
000000c0: e658 f23e 9be5 b33e 660b 24be 84b6 d3be
000000d0: 236b 4b3e e79a 1f3d eabb 3a3e 59d3 01bf
000000e0: 9b9a cc3d f6d5 133e 34bc dbbd 2852 3d3c
000000f0: 3be8 a63e 618c 1e3e 4c2b 17bf c92a b73d
00000100: 77f6 383e 8e45 7c3d a449 a6be 5345 bebb
00000110: ffd0 55bf 673b 0dbd 76f0 f73d 60dc 5e3e
00000120: 1588 c6bd a88c fbbd 45d6 48be c8d0 233e
00000130: 65d1 65bc 8df7 31bd 98bd 863e c812 a5be
00000140: c366 033d
0.17880575 -0.3136195 -0.033396624 -0.2119813 0.058896944 -0.15694185 0.05855305 -0.047312696
-0.26484752 -0.028195085 0.02158471 0.21296829 0.08288262 -0.0471504 -0.15827766 0.34557843
0.32567567 0.2537561 0.13171186 0.1660754 0.03709088 -0.19661127 0.27965418 0.11247013
0.09246558 0.097884335 -0.21021646 -0.24832702 -0.07067808 0.22113447 -0.15786862 -0.6036381
-0.22054322 0.4420807 0.42493927 0.16294448 0.04131576 -0.17764011 -0.02673776 0.17089611
0.23735575 0.2877822 -0.117439985 -0.23024286 -0.2875939 -0.0008892632 0.25261995 0.58480126
0.4733345 0.35136113 -0.16019973 -0.41350186 0.19865088 0.038966086 0.18235746 -0.50713116
0.09990426 0.14437088 -0.10729256 0.011555232 0.32599053 0.15483238 -0.5905044 0.089437075
0.18062769 0.06158977 -0.32478058 -0.005806604 -0.8352203 -0.03448048 0.12106411 0.21763754
-0.09693924 -0.122826874 -0.19612987 0.15997612 -0.014026974 -0.043448973 0.26316524 -0.3224089
0.032080423

level2_0.inp_reinf.0.bn.weight f4 [3]
00000000: ecea 803f 0970 7e3f 5e1f 803f
1.0071692 0.993897 1.0009573

level2_0.inp_reinf.0.bn.bias f4 [3]
00000000: 0b85 753a 759c 2dbc 0454 b93c
0.0009365833 -0.010596384 0.02262307

level2_0.inp_reinf.0.bn.running_mean f4 [3]
00000000: 3a5a 0940 d97e 4a40 baba 4bc0
2.146132 3.1639922 -3.183272

level2_0.inp_reinf.0.bn.running_var f4 [3]
00000000: 42a9 8c3f aa50 1040 3bee 3a40
1.0989153 2.2549233 2.9207904

level2_0.inp_reinf.0.act.weight f4 [3]
00000000: 1c6e 793e 0e90 833e 2ce3 863e
0.2435841 0.25695843 0.26345193

level2_0.inp_reinf.1.conv.weight f4 [16, 3, 1, 1]
00000000: 9638 9cbe 2d92 913b a15a 0a3f 774e 14bd
00000010: c741 573d 2ee6 033f 490d 303f 76a8 91bd
00000020: 14c5 b83d 7cf1 25bf 2a69 df3e 7312 db3e
00000030: bea7 613f 4a86 00be 32cd 1c3f aac5 773e
00000040: 14fa 68be 5ba4 6c3f 90ec 7ebe 34ae 003e
00000050: f29c 353e dad9 de3d 1636 90bc 16ff e43e
00000060: e834 0a3e c84f a1be 7993 253e b006 95be
00000070: 4227 f63e 0e41 73bd 7049 1e3e 86fa 8f3d
00000080: a4a0 153c ecaa 91bd fbaf 0f3e 9618 c23d
00000090: a137 ce3e fe55 cabd 86b4 fabe 32ac 64be
000000a0: 8f54 a1be 8f58 043f 6421 4a3e 6f1e 133e
000000b0: 0095 073e d6fc 77be d29d 10bf ea5d 17bf
-0.30511922 0.0044424743 0.5404454 -0.036207642 0.052552965 0.515231 0.6877027 -0.071122095
0.09021965 -0.648216 0.4363492 0.42787513 0.8814658 -0.12551227 0.61250603 0.24196497
-0.22751647 0.92438287 -0.24894929 0.12566453 0.17735651 0.10881396 -0.017603915 0.44725865
0.13496745 -0.3150618 0.16169538 -0.29106665 0.48076826 -0.059388213 0.15457702 0.070302054
0.009132538 -0.07112679 0.14031975 0.09477346 0.40276816 -0.09879683 -0.48965853 -0.22331312
-0.31509826 0.5169763 0.197393 0.14367078 0.13240433 -0.24217543 -0.56490815 -0.59127676

level2_0.inp_reinf.1.bn.weight f4 [16]
00000000: 3e46 7b3f 03b3 803f c1bf 813f 4fb2 7e3f
00000010: 0431 7c3f 0524 803f d106 7d3f 468d 7e3f
00000020: 757a 7d3f 2410 7e3f 5af1 813f 12b1 7f3f
00000030: 92b0 7b3f 43a6 823f 5252 7c3f c67d 753f
0.98154056 1.005463 1.0136644 0.9949083 0.9851229 1.0010992 0.98838526 0.99434316
0.9901498 0.9924338 1.015178 0.9987956 0.983163 1.0206989 0.9856311 0.9589504

level2_0.inp_reinf.1.bn.bias f4 [16]
00000000: 69b5 0bbd 1b81 943b ed0f 3fba 4d90 a5bb
00000010: 40f7 983c d098 113c ddb9 6ebc 6efa f1ba
00000020: 2860 b83c 4be0 873c 481d d4bc 6983 61bb
00000030: 2efb a7bc 4588 773c 7545 fbbb db96 ebbb
-0.034108553 0.004531992 -0.0007288445 -0.0050526024 0.018672585 0.008886531 -0.01457068 -0.0018461475
0.022506788 0.016586443 -0.025892869 -0.0034410602 -0.020505514 0.015108173 -0.007668192 -0.007189614

level2_0.inp_reinf.1.bn.running_mean f4 [16]
00000000: 7838 9d3d 5482 333e 74ec 753e 6da9 7d3d
00000010: 149d ec3e a5cc a13e 458a 6b3c a3f8 373e
00000020: e17c f7ba a7b6 0f3d 5d3f 9f3d b83d 563d
00000030: 733c 6cbd 2163 b1bb ab52 203e aad1 eabe
0.07676786 0.17530185 0.24015981 0.061929155 0.4621359 0.31601444 0.014376228 0.17965941
-0.0018881821 0.0350863 0.077757575 0.052304953 -0.057674836 -0.0054134284 0.15656535 -0.45863086

level2_0.inp_reinf.1.bn.running_var f4 [16]
00000000: 9e88 8f3e e2ae 1d3e 2ba3 a83d 6061 1a3e
00000010: 6e19 3c3e fd65 113f 73d0 013d 4e92 dc3d
00000020: 5a0c 523d 60c8 013d 63b8 353c 77f2 bd3a
00000030: 1488 713e 3e44 cc3e 28bc 4f3c 4db2 923d
0.28033918 0.15398744 0.08234247 0.15076208 0.18369076 0.56796247 0.031692933 0.10770093
0.05128131 0.031685233 0.0110913245 0.0014491816 0.23587066 0.39895815 0.012679137 0.071629144

level2_0.act.weight f4 [16]
00000000: 2e0b 743e bd4e 803e 387b 863e daeb 8d3e
00000010: cfaf 8c3e fd6d 8a3e 5cf1 813e 34ba 833e
00000020: d48d 793e 574a 873e 1c44 823e 1bf1 803e
00000030: 55e1 6e3e db46 873e b6c1 5a3e bab4 9f3e
0.2383239 0.25060073 0.26265883 0.27719003 0.2747788 0.2703704 0.25379455 0.25728
0.2437051 0.26423904 0.25442588 0.2518395 0.23328145 0.26421246 0.21362957 0.3119257

level3_0.eesp.proj_1x1.conv.weight f4 [8, 8, 1, 1]
00000000: 3fc3 973f da9b 9abe e3b6 80be d15d bebe
00000010: 0e9f ce3a a645 533e 4d72 10bf ea50 93be
00000020: 51f9 debe 25fc f3bb b96e ca3e 57a5 a8be
00000030: 4aed 573c 61d8 72be 8a3d e93e f4ad e4bd
00000040: daa1 e23d 440e d93e a194 1f3f ed62 2d3f
00000050: 418e 343e 9a11 7cbe 618b 513e 861e 8ebd
00000060: a9a8 783d 122f 3ebe cdfe 3fbe 4e98 4cbe
00000070: 1fe0 a6be 81a7 aabc 2225 4c3f e8ad 8abd
00000080: 7374 5d3f 4390 2c3d dd9e 64be 5579 97be
00000090: e63f 8fbd 0d77 3abe 3e6c 053e 3c2b 54bf
000000a0: cb27 0d3f bb12 0e3e 89f1 273f ef9d 3cbf
000000b0: 2ba7 2b3e e2e3 0f3f c175 c3be 51ba 59bc
000000c0: 52c2 b5be 35a7 31bf 808c aebe 4e35 b0be
000000d0: adfe 3f3e bdf8 6a3e 3894 a9be ac2a a33e
000000e0: 862b 07bd 7b4d e2bd fb77 263f 9139 1a3f
000000f0: c9ac 843e 3279 dbbe 9e62 153f e201 29bf
1.1856459 -0.3019703 -0.25139531 -0.3718095 0.0015763955 0.20632038 -0.5642441 -0.2877267
-0.43549588 -0.0074458295 0.395376 -0.32938644 0.013179133 -0.23715355 0.45554763 -0.111659914
0.11066027 0.42393696 0.62336165 0.67729074 0.1763239 -0.2461609 0.20463325 -0.06939416
0.06070772 -0.18572643 -0.18749543 -0.19979975 -0.32592866 -0.020831825 0.7974416 -0.06771451
0.8650581 0.042129766 -0.22326227 -0.29584756 -0.069946095 -0.18209477 0.13029572 -0.8287847
0.55138844 0.13874333 0.6560293 -0.7367849 0.16762988 0.56207097 -0.38175777 -0.01328905
-0.35499817 -0.6939576 -0.34091568 -0.34415668 0.18749495 0.22946449 -0.33120894 0.31868494
-0.03300049 -0.110499345 0.65026826 0.6024409 0.25913075 -0.42865902 0.583536 -0.660185

level3_0.eesp.proj_1x1.bn.weight f4 [8]
00000000: c4f9 7f3f 1c2b 853f d196 863f a41f 813f
00000010: e98e 843f b4ab 813f 9592 863f 5078 783f
0.9999049 1.0403781 1.0514776 1.0087781 1.0356113 1.0130525 1.0513483 0.9705858

level3_0.eesp.proj_1x1.bn.bias f4 [8]
00000000: e2c8 8fbc 3e2f 2c3c 596b 203c b566 6b3c
00000010: 9f5c 8b3b ab2a 5a3c 4d40 04bc 87cc c73c
-0.017551843 0.01050931 0.009791219 0.014367749 0.0042529847 0.013315837 -0.008071971 0.024389518

level3_0.eesp.proj_1x1.bn.running_mean f4 [8]
00000000: 15e6 d6bd 6726 48be 68aa 9e3f daf4 c4bd
00000010: 39cc 08bd a350 423f b54d f4be 4c07 9a3e
-0.104931034 -0.195459 1.2395754 -0.09617014 -0.033397887 0.7590429 -0.47715536 0.30083692

level3_0.eesp.proj_1x1.bn.running_var f4 [8]
00000000: dc77 4d3e 0334 b23f 4c95 0040 1add aa3e
00000010: 457c 2a40 2062 da3e 5272 863f 5cfe 5c40
0.20065254 1.3922123 2.0091124 0.33371812 2.6638348 0.42652988 1.0503638 3.4530249

level3_0.eesp.proj_1x1.act.weight f4 [8]
00000000: 14f6 793e 0148 803e c6f3 883e 5f03 903e
00000010: 1b86 673e f5ce 9f3e d3be 863e 3af7 843e
0.24410278 0.25054935 0.26748484 0.28127572 0.22609751 0.31212583 0.26317462 0.2596987

level3_0.eesp.spp_dw.0.conv.weight f4 [8, 1, 3, 3]
00000000: 29e3 30be 1727 a0bd 3443 1b3e 7040 3cbd
00000010: a90f b2bd 4eb8 863d 7a95 ce3d a3e6 87be
00000020: 0e46 583c 9359 853e 9cbf 763e 404c d9bd
00000030: f5ad 0dbc 1e69 80be dbf3 8abb 4c39 5a3e
00000040: 8b0c a23c c752 833d e239 853e 1c78 563e
00000050: f2ef 21bd 9736 963e 455c b3bd d13e ecbd
00000060: d4a2 f53b b451 30bd 3f1c 8dbe c1ce a93e
00000070: ebe5 72bc c299 8bbd 1d33 5e3e b55c ccbd
00000080: ede4 51be fdb0 bc3e 08b8 913e fb48 203b
00000090: d885 843d a826 b8bd a4ba db3d b79d 943e
000000a0: 6dbc ae3c 1d11 3cbe 3ba2 36be 25b9 3cbe
000000b0: d795 bd3d 5e63 b0bc 78db fd3d 082a 2d3e
000000c0: ac81 6f3c 70ac a4be 3430 0dbe 51ad 31be
000000d0: 35a5 3abd a3a4 5abd 5f77 953d d694 8e3d
000000e0: 5bb4 463e 46b6 1cbe 3f47 55bd a1cd 033e
000000f0: e17d f93d 6085 bb3d 83f3 10be 9bca d6bd
00000100: 57e4 8bbd d457 5ebd 04fa 2a3e 1d63 cebd
00000110: 4950 1d3e f00c e5bc 1259 0abd f2f6 063e
-0.17274155 -0.07819956 0.15162355 -0.04595989 -0.08694393 0.06578122 0.10087104 -0.2654315
0.013200296 0.26044902 0.2409653 -0.10610247 -0.008647432 -0.25080198 -0.0042404956 0.2131092
0.019781372 0.06412273 0.26020724 0.20944256 -0.03953547 0.29338524 -0.087578334 -0.11535419
0.0074962173 -0.04304667 -0.27560613 0.33165553 -0.0148253245 -0.06816436 0.21699186 -0.0997862
-0.20497485 0.3685378 0.28460717 0.0024457562 0.06470841 -0.08991748 0.10728958 0.29026577
0.021330083 -0.18365903 -0.17835324 -0.18430002 0.09257095 -0.021531757 0.12395376 0.16910565
0.0146183185 -0.3216281 -0.1378792 -0.17351271 -0.04556771 -0.053379666 0.07298159 0.06961982
0.19404738 -0.15303907 -0.0520699 0.1287141 0.121822126 0.09156299 -0.14155392 -0.10487863
-0.06830662 -0.05428298 0.16696936 -0.10077498 0.15362658 -0.02796027 -0.03377635 0.1318014

level3_0.eesp.spp_dw.1.conv.weight f4 [8, 1, 3, 3]
00000000: 7c28 063e 7095 423b f52f 23bd 51c8 4abe
00000010: 8b9a 933d 1606 613d 0532 c9bd 5864 32be
00000020: d6bb 45be 19e6 ef3d 22fc 4c3e 803d 6dbd
00000030: 83f8 413e 1af7 f8bd 6117 993d 6b30 adbd
00000040: 7702 333d 77af 823c aad5 d03b 5a82 e73e
00000050: f04f 9839 acf3 afbd cc95 203e 51c2 f73c
00000060: b149 3ebc 348e 3f3d 53f7 62bd 0b61 89be
00000070: cb33 c93d 4cde a2be 5d5a 8d3d 98bc ce3c
00000080: df57 013e ddc9 e1bd ca1d 4c3d fca7 f03c
00000090: 1076 0b3e 82d2 7abe 104e 4b3e 5944 26be
000000a0: 2fab 46be c0d4 c3bd 25e7 923d 5db7 4a3d
000000b0: 4498 a8be c568 0fbe 0ea3 813e ae38 63be
000000c0: 2411 e7bb b990 283e 47d4 853e 3c1c acbd
000000d0: ff3c 76bd 50dc d63d f9eb 483e f166 9c3e
000000e0: 0bb9 a5ba 5934 c33c 367f dc3d 4817 a03e
000000f0: 7f38 be3e 0b79 74be 2215 9cbd 11e8 6d3e
00000100: e792 193d 33f9 7f3d 36f1 313e 16e1 1a3e
00000110: 6e83 653e 5110 d0bb c633 5b3e 0100 363e
0.13101381 0.0029691122 -0.039840657 -0.19802977 0.07207211 0.054937445 -0.098239936 -0.1742109
-0.19309935 0.117138095 0.20018056 -0.05791998 0.18942456 -0.12156506 0.07475162 -0.084565006
0.043703523 0.015952809 0.006373127 0.45216638 0.00029051257 -0.085913986 0.15682143 0.030244024
-0.011614249 0.046766475 -0.055411648 -0.2683185 0.09824332 -0.31810224 0.06902001 0.025236413
0.12631176 -0.110248305 0.049833097 0.029376976 0.13619256 -0.24494365 0.19853997 -0.1623701
-0.19401239 -0.09562063 0.071729936 0.049491275 -0.3292867 -0.1400481 0.25319713 -0.2218959
-0.007051604 0.16461457 0.26138517 -0.08403823 -0.060116764 0.1049124 0.19621266 0.30547288
-0.0012643648 0.023828672 0.10766451 0.31267762 0.37152478 -0.23874299 -0.07621218 0.23233058
0.037493613 0.062493514 0.17377171 0.15124926 0.22413418 -0.0063496013 0.21406469 0.17773439

level3_0.eesp.conv_1x1_exp.conv.weight f4 [16, 8, 1, 1]
00000000: 850c 3e3e 2696 febe af7a 383f 8f0d 0ebf
00000010: 8c8a 8a3e beb8 4a3e 0d8a 023f 9db5 503d
00000020: 3807 8f3e c728 ba3e 3a55 703e 8268 9c3d
00000030: b5e0 0e3f e2bd a33e 0cd8 773e 615e af3e
00000040: 722b 6e3f 2cba 393d 82f3 15bf 497b a0bd
00000050: 070a 2e3f f2ac b0bc 56a0 243e 8794 efbd
00000060: 9202 c73e b5c2 cabe 1ad4 a23e baef c5be
00000070: f45f fa3d a84c cbbe 3084 1b3e 97ef 1f3e
00000080: 93c5 c1bd a04d 04be 2cf8 b63d 7e10 aebd
00000090: 7c99 2b3e 440d ca3e 259d 7e3e 7b86 333d
000000a0: a681 04be 8d7b a63d 8c0b 14bf 9c3b 183f
000000b0: 4c60 a8bd 3fd3 99bd 6e4d 633e 4a17 513d
000000c0: e7b3 193d c28c 9e3e ee5f 7d3d 35af 93be
000000d0: 3669 0f3d 4fdf 2bbe 639d 09bf 8af3 103e
000000e0: 11f2 c0be 0a48 49bf 28d0 013e 1d08 f03e
000000f0: 77e3 e8be f9fc 423f f9da 983e 1c0d ad3d
00000100: e5ca 3cbe 97eb f93d da92 85be 560c 52be
00000110: b249 1e3e 058b 013f 589e 46be ee6a b73e
00000120: ec3b 7cbf 060c 8dbd a560 8abe 68c7 5d3e
00000130: 0ae4 993c b9f8 f0bc 8118 0c3f 9cbd a3bd
00000140: 5d48 8abe 086d 59be 952d 013d 1716 31be
00000150: 6439 dabe 0e1a b6be 3d69 823e f96e f83d
00000160: 02bb 98be 20db b2bd 5395 f93e 45e0 3e3f
00000170: 046d 0b3f a12a 6fbe 5462 76be 5a67 14be
00000180: d966 b2be 6d4f 973e c073 823e 1516 cdbd
00000190: cdea 063f e91c 343d 77f7 50bd 2d0a c23e
000001a0: fb38 8bbe 91a4 b1bd 637c 04bf dc36 2bbe
000001b0: 486a 8c3e cfce 923d 75d7 84be 7ee5 b33e
000001c0: c5fe 02be ab41 163f f36b 0a3e d641 fcbe
000001d0: 9522 bd3c cd9d af3e e7fe d33d de64 083f
000001e0: d4b4 a93d c54b b33e 0338 9abe 464a 493e
000001f0: deca cc3c 4bb7 90bc 76aa 263f 96b0 3ebe
0.18559463 -0.4972393 0.720622 -0.5548944 0.27058828 0.19797036 0.509919 0.05095445
0.27935195 0.36359236 0.23470011 0.07637121 0.55811626 0.31980807 0.24203509 0.34251693
0.9303504 0.045343563 -0.5857469 -0.07836015 0.6798405 -0.021566842 0.16076788 -0.11698251
0.38869148 -0.39601675 0.31802446 -0.3865946 0.12225333 -0.39706922 0.15187144 0.1561874
-0.094615124 -0.12920237 0.08934054 -0.084992394 0.16757768 0.39463246 0.24864633 0.043829422
-0.12940082 0.08129034 -0.5783012 0.59465957 -0.08221492 -0.07510995 0.22197506 0.0510476
0.037525084 0.30966765 0.061859064 -0.2884461 0.035012446 -0.16784404 -0.5375578 0.14155403
-0.37684682 -0.7862555 0.12677062 0.4688119 -0.45486042 0.76167256 0.29854563 0.08449766
-0.18436773 0.12203138 -0.260886 -0.20512518 0.154578 0.5060275 -0.19396341 0.35823768
-0.98528934 -0.06887059 -0.2702686 0.21658099 0.018785495 -0.029415475 0.5472489 -0.079951495
-0.27008334 -0.21232998 0.03153761 -0.17293583 -0.4262191 -0.35566753 0.25470915 0.12130541
-0.29830176 -0.08733201 0.48746738 0.7456096 0.5446322 -0.23356105 -0.24060947 -0.1449255
-0.34844092 0.29552785 0.25478935 -0.100139774 0.5270203 0.043972883 -0.05101725 0.37898389
-0.2719191 -0.08673967 -0.517523 -0.16720146 0.27424836 0.07168352 -0.2594563 0.35136026
-0.127925 0.5869395 0.13517742 -0.4926898 0.023087779 0.3430008 0.10351353 0.5327891
0.08286443 0.35018745 -0.3012086 0.1965724 0.024999078 -0.017665526 0.6510385 -0.1862205

level3_0.eesp.conv_1x1_exp.bn.weight f4 [16]
00000000: d5da 773f cf38 833f 9092 813f 974c 7f3f
00000010: 8c32 763f bd3f 7f3f ff25 823f 5822 7c3f
00000020: 344b 813f b844 7e3f 09f4 7d3f 4df2 7c3f
00000030: 8984 813f 820b 803f a36f 833f 873c 7d3f
0.96818286 1.0251712 1.0122852 0.9972624 0.9617088 0.9970663 1.0167845 0.98489904
1.0101075 0.99323606 0.99200493 0.9880722 1.0118572 1.0003512 1.0268444 0.9892048

level3_0.eesp.conv_1x1_exp.bn.bias f4 [16]
00000000: d8a0 40bc 841e 21bd 33e8 843a 4e2a b1bb
00000010: 11c4 663a e5f0 e43c a133 543a 0fad a4bc
00000020: d3a1 65bb 9b4f debb 42f4 01bd c8a8 4dbc
00000030: f355 a9bb d2b3 a43c 0fcf 03bd 8563 9abb
-0.011757098 -0.039335743 0.0010140002 -0.0054066544 0.000880302 0.027946899 0.00080948515 -0.020102052
-0.0035039082 -0.006784392 -0.031727083 -0.012552448 -0.0051677166 0.020105276 -0.03217989 -0.0047115707

level3_0.eesp.conv_1x1_exp.bn.running_mean f4 [16]
00000000: 9ae7 0b3e e1dc 113f 7c48 513e 8106 acbd
00000010: f23b 093e 7fa1 803d ef90 e6bd 501b cc3c
00000020: 2e01 313d b3a4 3fbe 1f8e 6abe b566 2b3e
00000030: eaca 783e 794d 4bbe bc9d a43e 28d1 823e
0.13662568 0.5697766 0.20437807 -0.08399678 0.13401774 0.06280803 -0.11258113 0.024915367
0.043214016 -0.18715172 -0.22905777 0.16738398 0.24296156 -0.19853772 0.32151592 0.255502

level3_0.eesp.conv_1x1_exp.bn.running_var f4 [16]
00000000: f31a 4e3f 37e5 ba3e d42b 373f bf2a 743e
00000010: d5b9 d33d 0e5f 9e3e 94bc cc3e f7f7 313f
00000020: e106 cd3e e01f 253f 32c7 3e3e 0f85 803f
00000030: bde7 f73d 3826 c83e c577 1a3f 91a0 cf3e
0.8050987 0.36503002 0.7155125 0.23844431 0.10338179 0.30931896 0.39987624 0.6951899
0.4004431 0.6450176 0.18630674 1.0040606 0.121047474 0.3909166 0.60339004 0.4055219

level3_0.eesp.br_after_cat.bn.weight f4 [16]
00000000: 0580 7e3f e5ad 833f 2859 843f be22 773f
00000010: 243f 823f 106e 813f 67f7 7e3f 52d6 6f3f
00000020: 071c 843f 3154 7d3f b2d5 7f3f 8f2c 823f
00000030: 49e5 7e3f 06d1 7c3f 0a18 813f 1cb6 773f
0.9941409 1.0287443 1.0339708 0.9653739 1.0175519 1.0111713 0.99596256 0.936864
1.0321053 0.9895659 0.9993545 1.0169848 0.9956861 0.98756444 1.0085461 0.9676225

level3_0.eesp.br_after_cat.bn.bias f4 [16]
00000000: 427a fbbc 3b68 cb3b d9f3 413d f02b 94bc
00000010: dc2b a8bc 3d50 1ebb 68a6 b23c c9bd 11bd
00000020: f462 5f3c fb73 20bb d08d 1a3d 2027 1b3d
00000030: 2b7b 5dbd 75b6 8dbc 274d 0b3d fdca ddbc
-0.030697946 0.0062074936 0.047351692 -0.018087357 -0.020528726 -0.0024156712 0.021807864 -0.035581384
0.013634432 -0.0024483192 0.0377329 0.03787911 -0.05407254 -0.017298916 0.034009125 -0.027074331

level3_0.eesp.br_after_cat.bn.running_mean f4 [16]
00000000: 55fe b8bd a1a8 073e e441 0f3d d3ae 7d3e
00000010: 9f19 f2b9 7368 e9bd 2707 8a3d f989 183d
00000020: 44ab 5cbe de3e 813e 83aa 413e 49fc 2f3e
00000030: 11e7 d9bd 1bfc 33bd 03c5 bb3e c220 cf3e
-0.09032885 0.1324792 0.034974948 0.24773721 -0.00046176926 -0.11396875 0.067396455 0.037240956
-0.21549708 0.25243276 0.18912701 0.17186083 -0.106397755 -0.0439416 0.36673746 0.4045468

level3_0.eesp.br_after_cat.bn.running_var f4 [16]
00000000: 5af8 8e3d f4e3 2b3d 301e da3d 09ce 6f3e
00000010: cbc9 2e3d 0ce2 133e 201c 1e3d c91c eb3b
00000020: 9a26 9b3e c7d6 113e 3cbb 013f d7bf 313e
00000030: abc8 543e 4d85 cd3d ac73 233f 8ac5 883e
0.06980963 0.04196544 0.10650289 0.2341844 0.042672914 0.14441699 0.03860104 0.0071750623
0.30302888 0.14242087 0.5067632 0.17358337 0.20779674 0.10035191 0.63848376 0.2671321

level3_0.eesp.br_after_cat.act.weight f4 [16]
00000000: 2758 883e e434 8c3e a017 8c3e 021b 7a3e
00000010: bf81 3f3e d559 8d3e da20 9b3e fac3 7c3e
00000020: add4 9a3e 7e11 823e df22 913e 421c 833e
00000030: e879 873e b70a 5b3e fcf7 8f3e 59db 7d3e
0.26629755 0.27384102 0.27361774 0.24424365 0.18701838 0.276076 0.302985 0.24684134
0.30240384 0.2540397 0.28346917 0.25607497 0.26460195 0.21390806 0.28118885 0.24790706

level3_0.eesp.module_act.weight f4 [16]
00000000: 0000 803e 0000 803e 0000 803e 0000 803e
00000010: 0000 803e 0000 803e 0000 803e 0000 803e
00000020: 0000 803e 0000 803e 0000 803e 0000 803e
00000030: 0000 803e 0000 803e 0000 803e 0000 803e
0.25 0.25 0.25 0.25 0.25 0.25 0.25 0.25
0.25 0.25 0.25 0.25 0.25 0.25 0.25 0.25

level3_0.inp_reinf.0.conv.weight f4 [3, 3, 3, 3]
00000000: 95a0 b03d a841 b1bd a94b dabe 0a8f 473f
00000010: 50f5 853e ea34 a73d e40f 5e3e bc89 ea3e
00000020: 4b14 9ebe af59 2bbe 6b57 edbd 43c0 b6bd
00000030: d356 a9be febd a13c aae7 50bd 2f02 f03e
00000040: 1504 cfbe 337c af3d 40a6 3bbc 9448 5c3e
00000050: 47ed 043f d844 dbbe d564 1fbe ec91 38be
00000060: 8db6 543e b55b 213e 6493 423d 6b29 4ebd
00000070: a0ec aebe d99a 353e db35 8d3d b27f 4f3d
00000080: 7290 11bd 66c7 8bbe aa8b e2bd 7c08 2abe
00000090: dda8 303d ecc7 253d 38c1 42be 28e5 813d
000000a0: 1591 343e 8c99 9f3e c7f9 a93e ebc2 c5bd
000000b0: 0ffa ea3e 60a9 013d 366b b33e 2df3 f2bd
000000c0: d977 a03e a27a fb3d e347 efbd 2611 383e
000000d0: a049 d2bc 911b 91be 1d9a 88be e5e2 0fbc
000000e0: 256d f13d 93ba 623e d103 b1bb b3ef f5bd
000000f0: e64e b0bd a1dc e43c c6c4 033f 2299 eb3e
00000100: c218 cb3e 6830 d83d 9096 15be 8785 02bf
00000110: ca01 6a3e e18d 5ebe 1ee7 cebd 482d dd3d
00000120: 3244 20be 3663 57bf 84e6 4dbe c5c9 3c3e
00000130: 3d05 043c eac0 0d3e 8e18 0b3c 3380 153f
00000140: 82ec 0b3f
0.086243786 -0.08655101 -0.4263585 0.77952635 0.2616372 0.081643894 0.2168575 0.45808208
-0.30874857 -0.1673343 -0.11588939 -0.0892339 -0.33074054 0.019743916 -0.051002182 0.46876666
-0.40432802 0.08568611 -0.011453211 0.21512061 0.51924556 -0.4282596 -0.15565808 -0.18024415
0.20772763 0.1575764 0.047503844 -0.050332468 -0.34164906 0.17734851 0.06895038 0.05065889
-0.035538144 -0.27300566 -0.11061795 -0.16604799 0.04312979 0.040473863 -0.1901902 0.06342536
0.1763347 0.31171834 0.33198377 -0.09656318 0.45893905 0.03165567 0.35042733 -0.11862788
0.31341437 0.1227925 -0.11683633 0.17975292 -0.025669873 -0.28341344 -0.2668008 -0.008782123
0.11788396 0.22141485 -0.0054020663 -0.120086096 -0.08608799 0.027937235 0.5147213 0.4601527
0.39667326 0.10556108 -0.14608216 -0.50984997 0.22852245 -0.2173381 -0.10102676 0.10799652
-0.15651014 -0.8413576 -0.20107466 0.18436344 0.0080578895 0.13843122 0.008489741 0.5839874
0.5465776

level3_0.inp_reinf.0.bn.weight f4 [3]
00000000: 3ec2 7f3f e4e8 813f a086 783f
0.99905765 1.0149198 0.9708042

level3_0.inp_reinf.0.bn.bias f4 [3]
00000000: 9c57 3fbb 76fe c43c 5406 ddba
-0.0029196506 0.024047118 -0.0016862848

level3_0.inp_reinf.0.bn.running_mean f4 [3]
00000000: 23f5 0a40 6433 1940 cbed 2440
2.171212 2.3937616 2.5770137

level3_0.inp_reinf.0.bn.running_var f4 [3]
00000000: 4b68 f23f c1a9 b43f 9c61 4940
1.8938078 1.4114305 3.1465826

level3_0.inp_reinf.0.act.weight f4 [3]
00000000: 8fb1 8d3e aae4 833e 3d34 693e
0.2767453 0.25760394 0.22773834

level3_0.inp_reinf.1.conv.weight f4 [32, 3, 1, 1]
00000000: 1667 ae3e d0cd 893e 6ba6 56bd cfeb a6be
00000010: 2d0e 0abf 27f3 9abd 1048 ba3e dd85 c9be
00000020: 858a ee3d 7f31 5bbd 0f22 84bd e20d e43e
00000030: d11a 373e 08ad 59be 42e4 abbd 5787 533e
00000040: 74e1 dfbe bcda 3b3d 25c8 3b3e 5fc2 103f
00000050: e969 84be bdd4 c2be 5ad5 4ebe ac24 21bd
00000060: 5273 8e3e ad72 d6be f704 37be b776 f6bc
00000070: 72a3 0abf 485e 6fbd 72b1 6e3d 54a8 4fbd
00000080: a505 733e c5fe 00be 0670 1d3d ceab a5bd
00000090: e623 0d3f ef7a 46be 8cae ae3d dad4 063f
000000a0: c5ba b0bd 439f 01be 876f 843e 37c2 28bf
000000b0: 327a be3e 71d9 cebd dc5c 3ebe efe7 373e
000000c0: 7157 cfbe c987 1ebe e7dd 0fbf f150 72be
000000d0: 1fcb 43be cc4c 87bd 4421 8ebe 80f4 3fbe
000000e0: 1e6a aa3d c9bd 14be 3013 ec3d 9821 713e
000000f0: be5a a2be 68d1 c53d 4bad 02be 1089 6d3e
00000100: 3c92 c5be 1eba 2d3e c7b0 00bd 1942 97be
00000110: 9d8b 833e bc5c 0d3f baf4 62bd 61f6 06bc
00000120: f15e e4bd a359 babe 22c2 28be 87dc e3bd
00000130: a586 863d 5b25 023f cfa6 9ebe c5b2 b23e
00000140: a510 8d3e 5bf1 2a3e 8f51 d13d fcfb 75bd
00000150: d5ff 94be 1da3 ca3d f505 b6be 7cca 4f3f
00000160: 58dc cd3e 4683 90bc 6701 35bd e328 79be
00000170: d7eb 48be df8c 033e ad8b cdbe af41 17be
0.34063023 0.26914835 -0.052404802 -0.32601783 -0.5392788 -0.07565909 0.36383104 -0.39359942
0.11647514 -0.053514 -0.06451809 0.44541842 0.17881323 -0.21257412 -0.08393146 0.20657097
-0.43726695 0.0458629 0.18338068 0.56546587 -0.25862053 -0.3805293 -0.20198575 -0.039341614
0.27822357 -0.41884366 -0.17872988 -0.030085905 -0.5415565 -0.058439523 0.058274694 -0.05069764
0.23732622 -0.12597187 0.038436912 -0.0808941 0.551329 -0.19382833 0.08529386 0.52668536
-0.086293735 -0.1265841 0.2586634 -0.6592135 0.37202603 -0.101000674 -0.1859011 0.1795957
-0.404964 -0.15481485 -0.5619797 -0.23663689 -0.19120453 -0.06606445 -0.27759755 -0.18745613
0.083210215 -0.14525522 0.11527097 0.23547971 -0.31709856 0.09659082 -0.12761419 0.23196816
-0.3858813 0.1696553 -0.031418588 -0.29542616 0.25692454 0.55219626 -0.05540917 -0.008237452
-0.11150921 -0.36396512 -0.16480306 -0.11126047 0.0656865 0.5083825 -0.3098664 0.34902015
0.2755176 0.16693632 0.10220634 -0.060054764 -0.29101434 0.09894393 -0.3555142 0.8116834
0.4020717 -0.017640721 -0.04419079 -0.24332003 -0.19621216 0.12846707 -0.40145627 -0.1477115

level3_0.inp_reinf.1.bn.weight f4 [32]
00000000: 1d09 813f dd90 803f fa20 813f df3a 803f
00000010: 7203 7e3f 1161 813f d8ca 823f 881c 7e3f
00000020: b3f5 813f 9be4 793f eb83 7d3f 17e4 7f3f
00000030: 54b4 7d3f 205f 7f3f b046 823f 4c9c 7b3f
00000040: b32b 7e3f b9f2 7c3f 899d 803f a635 773f
00000050: 3b33 803f 42c4 7e3f 12a5 803f d61e 7d3f
00000060: 6810 7f3f 3fe0 7d3f 86d6 823f faa5 823f
00000070: 57ff 813f 8f5a 7e3f 7f95 783f 6ad6 7d3f
1.0080906 1.0044209 1.0088189 1.0017966 0.9922401 1.0107747 1.0218153 0.99262285
1.0153106 0.9761445 0.99029416 0.9995741 0.99103284 0.99754524 1.0177822 0.98285365
0.9928543 0.98807865 1.0048076 0.96566236 1.0015634 0.99518216 1.0050375 0.98875177
0.9963441 0.991703 1.0221717 1.0206902 1.0156049 0.9935693 0.9710311 0.99155295

level3_0.inp_reinf.1.bn.bias f4 [32]
00000000: 537e 97bc 156f 203b c563 923b ef8f f7bc
00000010: 0f09 a73c 5bce ae3b 6fda 30ba 5ea8 18bc
00000020: 788c c23c 1849 c3bc 87f3 a5bc 64c8 613c
00000030: 2415 d4bc c672 043c e448 653c 3918 aabb
00000040: d8a0 40bc 841e 21bd 33e8 843a 4e2a b1bb
00000050: 11c4 663a e5f0 e43c a133 543a 0fad a4bc
00000060: d3a1 65bb 9b4f debb 42f4 01bd c8a8 4dbc
00000070: f355 a9bb d2b3 a43c 0fcf 03bd 8563 9abb
-0.018492853 0.0024480273 0.00446746 -0.03022 0.020390062 0.005334658 -0.00067464163 -0.009317486
0.023748621 -0.023838565 -0.020257724 0.013780687 -0.025888987 0.008084005 0.013994429 -0.005190876
-0.011757098 -0.039335743 0.0010140002 -0.0054066544 0.000880302 0.027946899 0.00080948515 -0.020102052
-0.0035039082 -0.006784392 -0.031727083 -0.012552448 -0.0051677166 0.020105276 -0.03217989 -0.0047115707

level3_0.inp_reinf.1.bn.running_mean f4 [32]
00000000: c604 403e ba63 a4be 597f 443c 8119 d63d
00000010: d04b 3cbd 7731 9cbd 6eda 353e 4f9e 52be
00000020: f4f0 f5bd aae9 63be 76d7 9d3d 576c 56bd
00000030: 4062 083e 8a09 c23d 5007 0dbd 09c3 25bd
00000040: 4b33 bbbe 56cd 28be 6fb0 03be 7e7c 923d
00000050: fb3f dcbd 439a 20bc ba1f 05bd a11a 1c3e
00000060: 0859 60be 1719 1c3e 247a ed3d c54c 8f3d
00000070: 2dfb 2fbe 2696 ca3e 3377 28be 10d4 1abe
0.18751821 -0.32107335 0.011993253 0.10454083 -0.045970738 -0.07626622 0.17759106 -0.20568202
-0.12008849 -0.22257105 0.077071115 -0.052349415 0.1331873 0.09474476 -0.034430802 -0.040469203
-0.3656257 -0.1648458 -0.12860273 0.07152651 -0.10754391 -0.009802404 -0.03250096 0.15244533
-0.21908963 0.15243946 0.11595562 0.069970645 -0.1718566 0.3956768 -0.16451721 -0.15119958

level3_0.inp_reinf.1.bn.running_var f4 [32]
00000000: 9cba c33d 3f54 603e 8cf6 923c 9aee 203d
00000010: b8e2 df3b e7c7 c33c 20f8 073e f2eb c83d
00000020: 9ec2 023d 40b5 d33d a1ad 5e3c 9998 ba3b
00000030: 9706 6d3d fa77 663d 31d9 883d 8ed6 a03c
00000040: d75b 633e e752 673d 32b7 593d f63f 633c
00000050: 24df de3c 77db 903c 7523 ed3c 5f25 9d3d
00000060: a8a6 ae3d 6597 693d e9c3 073d 19c5 8e3c
00000070: 0ad9 663d bb91 cd3e 1762 333d ac4a 2a3d
0.09557077 0.21907137 0.017939828 0.03929005 0.006832447 0.023899032 0.13278246 0.09810628
0.031923883 0.10337305 0.013591201 0.0056944606 0.057867613 0.056266762 0.06682051 0.019633558
0.22203003 0.056475546 0.053153224 0.01387023 0.027206011 0.017682774 0.028947571 0.076731436
0.08527881 0.057029147 0.03314582 0.017427968 0.05635933 0.40150246 0.043794718 0.04157512

level3_0.act.weight f4 [32]
00000000: a9d1 5c3e e78d 843e 7272 6b3e c91c 7f3e
00000010: b15d 8a3e 1bb9 8a3e 5fc2 833e 3a12 723e
00000020: 815a 8b3e 5fcb 653e 4373 883e 6aa9 863e
00000030: f69a 833e 41a7 5a3e 4925 843e 3c5e 633e
00000040: d3c5 863e f8f6 613e 3d63 833e 1714 6f3e
00000050: 0dcc 7b3e a9b9 7b3e d5a5 883e f6ed 703e
00000060: 1198 633e f837 573e 7c7a 873e d825 4b3e
00000070: e292 883e 7243 623e 9fb8 663e ae0c 883e
0.21564354 0.25889513 0.22992876 0.24913324 0.27024606 0.2709435 0.2573423 0.23639765
0.27217487 0.22440861 0.26650438 0.26301128 0.25704163 0.21352865 0.25809696 0.22203916
0.26322803 0.22066867 0.2566165 0.23347507 0.24589558 0.24582542 0.2668902 0.23528275
0.22225977 0.21017444 0.26460636 0.19838655 0.26674563 0.22096041 0.22531365 0.26572174

level3.0.proj_1x1.conv.weight f4 [16, 16, 1, 1]
00000000: 08c5 d0bd 79fb 33bd e2c6 9bbd f30e 73bd
00000010: 2223 a43e 3f52 d03e 155b c93e 5f11 14bc
00000020: 8da2 74be 74b0 a8bc ee2e f9be e29a 41be
00000030: acc6 1e3e 603a 5cbd e1e5 153f 7fe1 e73d
00000040: b9b8 19bf 3b07 293e a043 883e ec83 6f3c
00000050: fbac 8bbe 7160 a7bd 085c eebc de22 f23d
00000060: b4d6 b33d feeb 0dbc dc9f 2fbf 6491 9cbe
00000070: fa80 20bf 475b af3e 1e15 c3bd e7aa 8b3e
00000080: 54c4 00bf 5ca1 773e 1ce4 9b3e ae22 d43e
00000090: 6d88 3e3e 931b 953d 376f a23e 09b9 003f
000000a0: bb74 a9bd 1b4b 78bc 9994 43bc 8813 1abd
000000b0: 1dc8 26be 73f2 93be 9b11 243d 3b62 a63d
000000c0: d5d2 253e 0285 a63e 045f cabe c876 653d
000000d0: a9e9 783e 2877 66be e68a 593e ddb4 803e
000000e0: 2dd4 8e3e 12ce d4bc 280f f6bc 3015 acbd
000000f0: eb38 d53d 373a 81be 9046 51bd 2258 263e
00000100: 9e8a 233e c525 9a3e cffc b53e bede 333d
00000110: 1286 4dbf edd1 773e 111f 69be cffe 113f
00000120: 1b8f d23e 115d 0ebe 5356 19be 44b5 cebd
00000130: 0d4e 1a3f 548b 46be 9a03 283e 2ad5 133e
00000140: 246c 32be 8b7d 8dbe b920 103f c41b bf3e
00000150: 7578 8f3e 4866 203f 2aab 8bbe e686 46bf
00000160: 6c79 30be 6e8e ab3c d2cd 2cbe 084a 233f
00000170: 8bfc 4cbe bad1 f0bc 3d1f 673e 7d3c e3be
00000180: 9bd6 9c3e 086d 2c3f 0862 babd 40a8 b03e
00000190: b0f6 22bf 08ba 03bf beb8 063e 0884 723e
000001a0: 2f6b 77bd 1728 2e3e 8156 cabd 5f0e 51bf
000001b0: c938 b6be a549 183f b2a5 a43e 09e1 a0be
000001c0: 7b85 ac3d 0e0a dcbc 61a4 a63e e506 163f
000001d0: 5317 ed3e 0f52 c63b bcdb 473e b5c6 a63d
000001e0: 2a74 e2be b4b6 16be d232 1abd ea25 353e
000001f0: 3b78 4b3f a239 973e 5c6a ccbe efc3 fbbd
00000200: 1fe4 0d3e dc7a 2e3d 9a28 2f3e cd54 b1bd
00000210: 69f5 f63e 4dcd c03d 8e3e 32be 6aa9 b8bc
00000220: ddc1 00bf 5377 f8be b906 c13d 5531 643d
00000230: 582e 0cbf 78d0 bebe d083 2bbd a35a 073f
00000240: 6ace a9bc 3066 123f 2ef6 013e e7f4 e83d
00000250: 4c39 34be 6eb4 80be 891f a23e ad48 e53d
00000260: 783e 8fbd 12f1 86be ba2b b9be 1f6e 70bf
00000270: 75e3 0c3e 84c4 c63e 812d 68be c792 343e
00000280: 3345 3e3f 8f06 023f 8837 bbbc 834e 143e
00000290: 66aa cdbe a708 75be fbaf 243f 5fca c53d
000002a0: c8df 9b3e 3954 05be ce6b 3fbe a4f5 93be
000002b0: 3559 913e 580e 88be 456d 8b3d 2149 ee3e
000002c0: 087c 56be 574f f33e 2bad a8bc 7b00 2c3e
000002d0: 1d26 cabe 09db 49bc f8e3 c3be 5712 9bbe
000002e0: 3b61 993e 915e 3d3d f95f c0bd 01b4 87bc
000002f0: 61f4 1e3e eddc 01be f9c8 f43e b21b 37be
00000300: 4c28 2b3f f6fb ca3e 2c57 913e 04b3 d7be
00000310: 8ed6 c1bd 7efb 063f 2b3a 0c3e 8b60 4cbe
00000320: f661 1f3f 9016 4f3e 6d43 2dbf 7524 1abf
00000330: 3877 3abf 7330 7c3e 3a82 68be a224 b43e
00000340: 19da b43e 3f42 bf3c 2019 873c a3b5 d6be
00000350: 515b 9b3e fcaa 14bd ff2b 9ebe 50b0 fc3e
00000360: 0d02 6abe 0f7e d33c 2af5 cfbe 0f51 98be
00000370: 7015 db3c a5fe 023f b374 1ebe e868 043e
00000380: 331b b03e 1a19 2c3e a375 9c3d 33dc bdbe
00000390: 286e e3bc ee38 5d3e 8d1b c23e d78d 723e
000003a0: 67c7 70be 4829 0ebf f90f 1ebf c6c6 e43e
000003b0: b0e5 1a3d 1545 fabe 9f7c 9f3e 40ae 96be
000003c0: 10d9 0cbe 97a1 583f ca4f 9abe cea0 b43e
000003d0: 64ae 2d3e 725d c8bd 1616 d9be 41cf 4cbc
000003e0: 34a4 20be b868 aebe 8403 f33e 1c4b 34bd
000003f0: 91e7 f0be 0383 7e3d f78e 423f 1537 03be
-0.10193831 -0.043940995 -0.07606293 -0.05934043 0.32058054 0.4068775 0.39327303 -0.009037345
-0.23890133 -0.020591952 -0.48668617 -0.1890674 0.15505475 -0.05376661 0.5855389 0.11322307
-0.6004749 0.16506664 0.26614094 0.014618855 -0.2728041 -0.081726916 -0.029096618 0.11823057
0.08781186 -0.008662222 -0.686033 -0.30579674 -0.626968 0.34249327 -0.09525512 0.27278826
-0.5029957 0.24182647 0.3044747 0.41432709 0.1860673 0.0728065 0.31725475 0.5028234
-0.08274218 -0.015154625 -0.011937284 -0.037616283 -0.16287275 -0.28895912 0.040055852 0.08124205
0.16193707 0.32523352 -0.39525616 0.05602148 0.24307884 -0.22506392 0.21244392 0.25137988
0.27896252 -0.025977168 -0.030036524 -0.08402479 0.10411247 -0.25239727 -0.051092684 0.16244557
0.15970847 0.3010694 0.3554444 0.043913595 -0.802827 0.24201174 -0.22765757 0.5702943
0.41124806 -0.1390269 -0.14974336 -0.100931674 0.60275346 -0.19389087 0.16407624 0.14436784
-0.17424065 -0.27634844 0.5629993 0.3732587 0.2802159 0.6265607 -0.27279025 -0.7754959
-0.17233819 0.02094194 -0.16875389 0.6378484 -0.20018212 -0.02939688 0.2257051 -0.44382086
0.3063248 0.6735387 -0.09100729 0.34503365 -0.63657665 -0.51455736 0.13156411 0.23683178
-0.060404953 0.1700748 -0.098797806 -0.81662554 -0.355902 0.5948737 0.32157665 -0.31421688
0.08423897 -0.026860263 0.32547286 0.5860427 0.46306857 0.0060522626 0.19517416 0.08143369
-0.4422925 -0.14718133 -0.037646122 0.17690244 0.7948033 0.29536158 -0.39924896 -0.12293231
0.13856553 0.042597637 0.17105332 -0.086587526 0.48234108 0.09414158 -0.17406675 -0.02254172
-0.5029581 -0.48528537 0.0942511 0.05571111 -0.54758215 -0.37268424 -0.041873753 0.52872676
-0.020728309 0.57187176 0.12691566 0.113748364 -0.17599982 -0.25137657 0.31664684 0.111955024
-0.06994337 -0.26355797 -0.36166173 -0.9391803 0.13758643 0.38821805 -0.22673608 0.17634116
0.7432434 0.5079126 -0.022853628 0.14483075 -0.40169066 -0.23929082 0.64331025 0.0965774
0.3044417 -0.1302041 -0.18693468 -0.28898346 0.28388372 -0.26573443 0.06807951 0.46540168
-0.20945752 0.4752147 -0.020590385 0.16797058 -0.39482203 -0.012320288 -0.38259864 -0.3028743
0.29956993 0.046232764 -0.09393305 -0.016565325 0.1552291 -0.12681933 0.4780958 -0.17881659
0.66858363 0.39645356 0.2838682 -0.42128766 -0.09464751 0.52727497 0.13694064 -0.19958703
0.6225885 0.2022345 -0.6768101 -0.6021188 -0.72838163 0.24627857 -0.22705927 0.351842
0.35322645 0.023347018 0.016491473 -0.41935453 0.30343106 -0.036295876 -0.3089294 0.49353266
-0.22852345 0.025816945 -0.40616733 -0.29749343 0.02674362 0.51169807 -0.15474205 0.12930644
0.3439575 0.1680645 0.07639625 -0.3708206 -0.027762488 0.21603748 0.37911645 0.2368692
-0.23513566 -0.5553174 -0.6174312 0.44682902 0.037816703 -0.4888083 0.31149766 -0.29429817
-0.13754678 0.84621567 -0.30139 0.35278934 0.16961056 -0.09783448 -0.42399663 -0.012500585
-0.15687639 -0.3406427 0.4746362 -0.044016942 -0.4705167 0.06213666 0.759994 -0.12813981

level3.0.proj_1x1.bn.weight f4 [16]
00000000: c33e 863f a590 813f 836f 7e3f a2ee 743f
00000010: 64d8 7b3f a135 823f 05b1 703f 957d 803f
00000020: b98e 843f e734 823f dba9 813f dc30 783f
00000030: 28f5 7d3f fc97 883f da56 7e3f 6345 803f
1.0487903 1.0122267 0.99388903 0.95676625 0.9837706 1.0172616 0.9402011 1.0038325
1.0356055 1.0172395 1.0129961 0.96949553 0.99202204 1.0671382 0.99351275 1.0021175

level3.0.proj_1x1.bn.bias f4 [16]
00000000: 5e36 a73a 2865 cd3c f0ec b33c bd78 4c3d
00000010: aa08 dd3c a220 393c 21b4 98bd 6b62 8dbc
00000020: 6893 b1bc 994f bd3a b0da e73b 93c8 1cbd
00000030: 6f37 d43c 4e77 c33b fb9c d8bc 5ecf 723c
0.0012757292 0.02507265 0.021963567 0.049919832 0.02698167 0.011299284 -0.07456232 -0.017258843
-0.021676734 0.0014443278 0.00707563 -0.03827722 0.025905339 0.00596515 -0.026442042 0.014819948

level3.0.proj_1x1.bn.running_mean f4 [16]
00000000: 9edd eb3e 3c6a 93bf d634 5f3f c623 1d3f
00000010: bea7 923f eb72 8f3e da2e 5ebe fba8 c03f
00000020: 0801 aebb df4e 163e afa3 de3e 000a 90be
00000030: 09c6 203f a733 db3e baff a6be d0b5 b13d
0.46067518 -1.1516795 0.87189996 0.6138271 1.1457441 0.28017363 -0.2169756 1.5051569
-0.0053101815 0.14678524 0.43484256 -0.2813263 0.6280218 0.42812845 -0.3261698 0.08677256

level3.0.proj_1x1.bn.running_var f4 [16]
00000000: 21d0 bb3f 6a51 9f3f 0c85 0840 49e7 0540
00000010: 87ec 173f 7b13 7d3f 7d92 cd3e 7e62 c13f
00000020: 1e33 bd3f 6378 0c3f d75e 2540 cccb 8b3e
00000030: f1a1 2e40 d395 0b3f bb01 b03f b45b 1f3f
1.4672891 1.2446721 2.1331205 2.0922415 0.5934529 0.9885785 0.40150824 1.5108182
1.4781225 0.54871196 2.5839136 0.27303922 2.728634 0.5452549 1.3750528 0.622493

level3.0.proj_1x1.act.weight f4 [16]
00000000: 8709 803e 0301 773e f601 703e 6c5a 873e
00000010: 0239 973e 1a88 7c3e 347c 5f3e daba 7e3e
00000020: c90a 753e acb9 7f3e 4db1 8a3e 24e7 6d3e
00000030: 86d2 863e 6ec4 5d3e b050 763e 2d41 873e
0.2500727 0.2412148 0.23438248 0.26436174 0.2953568 0.24661294 0.21824723 0.24875966
0.23929895 0.24973172 0.27088395 0.23232704 0.26332492 0.21656963 0.24054217 0.26416913

level3.0.spp_dw.0.conv.weight f4 [16, 1, 3, 3]
00000000: ed95 8ebb a15c 17be 5a1c fbbd f9f1 62be
00000010: 2c69 883b 0260 6cbd 87ec fcbd 63c9 7bbd
00000020: 1106 d4ba 35b5 23bc ae2c 1bbe fa2c 0d3d
00000030: 8aac 013d 8727 3ebd 7538 6fbe 6a91 c73d
00000040: 93ef 803a b77e 23be 1735 6a3d d394 b63d
00000050: 52e6 4a3d 9024 dabd 9c34 00be 721e b13d
00000060: cd99 02be 53c3 0abe cf81 69bc 9726 dc3d
00000070: 5124 713c f426 c43c c1d3 9e3d f10a cdbc
00000080: f88b 70be 747d 213e 6a46 013e 165b 9c3c
00000090: f515 a6bd 4da4 373e bcba 1c3e 985c 99bd
000000a0: 0c6d 1cbe e097 14be ae87 cc3d 1277 fabb
000000b0: da60 7a3b 4dcb a8bd 5c06 32bc 0bd4 c5bd
000000c0: 2ae1 87bd fe50 e13d 0456 e13d 62df 97bc
000000d0: cc17 0ebe fa41 903d e104 edbd 2dff d93c
000000e0: a4e2 05bd 816c 833c 9391 143e 9575 613d
000000f0: a7da 163d 7c90 bebc 3151 20bd 0ba5 87be
00000100: 0f8f a03d 3a75 bd3d 2f58 713e f09a f0bc
00000110: d1c5 883e d13f 943d 30d8 7a3d dfd4 a9bd
00000120: 2cc5 9abe 7af7 833c 7d87 573a 3702 e13d
00000130: 47b1 d9bc 6cab 80bd e976 84bd 3e53 fe3c
00000140: 71e1 84bd 9e07 733c 86ff d9bd bbb9 2dbe
00000150: 20b7 443d 68e6 3dbd 13dd 353d 42ac 26be
00000160: 6c0a e33d c4f1 00be 7c66 363e 5ae9 dbbc
00000170: 5da5 9cbc 269b e03d 2464 30bd a159 92bd
00000180: d576 623d 3c21 1dbe 3836 40bd e31a d1bc
00000190: aecc 00bd 977b 26bd b005 d23d a6e1 2f3e
000001a0: e98b 103d b509 90bd 2c5c a23c 29f4 b0bc
000001b0: 9480 203e e283 83bd b520 0c3c 2cf8 5d3d
000001c0: 0b14 aabd a7fb 863d 6521 c3bd f2d8 99bd
000001d0: 287e 3ebe 4b87 82bb 22ed c8bd b591 edbd
000001e0: dd5a 01be 474f 133e 4614 493d b6f3 113d
000001f0: 8b3d 053e 406d eb3d a1b3 b7bc cfd1 073e
00000200: db52 ba3d 2579 303e 74fc 0abd df13 febd
00000210: ec2b a83e 10fb 15be 07c7 ea3b 9384 863b
00000220: 6e5c d23d c3bb 1f3c 6779 73bd 09ee b93d
00000230: 726c 04be 6555 a93b 4e20 acbd 3120 8cbd
-0.0043513686 -0.14781429 -0.12261267 -0.22162618 0.004162928 -0.057708748 -0.123498015 -0.061471354
-0.0016176124 -0.009991934 -0.15153763 0.03446672 0.031658687 -0.046424415 -0.2336138 0.097445324
0.0009837024 -0.15966307 0.057179537 0.08915105 0.049536057 -0.10651505 -0.12520069 0.08648385
-0.12753983 -0.13551073 -0.01425214 0.10749548 0.014718131 0.023944356 0.077552326 -0.025029631
-0.23490894 0.15770513 0.12624517 0.019086402 -0.08109657 0.1793377 0.15305609 -0.07488364
-0.15275973 -0.1451106 0.09986816 -0.007643589 0.00382047 -0.082419015 -0.010865774 -0.096595846
-0.066347435 0.11001776 0.11002734 -0.018539134 -0.13876265 0.07043834 -0.11573196 0.026610935
-0.032686844 0.01604295 0.14508657 0.055043776 0.036829617 -0.023262255 -0.03913993 -0.26493105
0.07839786 0.09250875 0.23568796 -0.029370755 0.26713422 0.072387345 0.06124133 -0.08292555
-0.30228555 0.016109217 0.00082217884 0.109867506 -0.02657379 -0.06282696 -0.06467993 0.031045552
-0.06488312 0.014833359 -0.1064444 -0.16965382 0.048026204 -0.04636231 0.044400286 -0.16276649
0.11085972 -0.12592226 0.17812532 -0.02684467 -0.01912182 0.10967092 -0.04306425 -0.071460016
0.05528911 -0.15344709 -0.046926707 -0.025525516 -0.031445198 -0.04064521 0.10254991 0.17175922
0.03528968 -0.070331015 0.019819342 -0.0216008 0.15674049 -0.06421639 0.00855272 0.054191753
-0.08304604 0.065909676 -0.09527854 -0.07512082 -0.18602812 -0.0039834133 -0.098108545 -0.11600057
-0.12632318 0.1438571 0.0490916 0.03563281 0.13011758 0.11495447 -0.02242452 0.1326363
0.09097835 0.17233713 -0.033932164 -0.12406134 0.3284601 -0.14646554 0.007164839 0.0041051595
0.10271536 0.009749356 -0.05944195 0.09078605 -0.12931994 0.0051676505 -0.08404599 -0.068420775
