data/PredModel_tmpp.pth (torch_old, 3832 bytes, 8 tensors)

cnn_layers.0.0.weight f4 [8, 16, 3]
000000 0a 5d c6 3e 1d 6c 13 be 6e c6 50 be 9c d3 db 3d
       0.38742858 -0.1439671 -0.20388195 0.10733721
000010 10 22 40 bd a2 a6 73 be 0f 21 01 3f 9d 4b 8d bd
       -0.046907485 -0.23794034 0.5044107 -0.06899188
000020 ac cf 35 3d 09 26 13 3f e0 36 52 3c 36 14 55 be
       0.044387504 0.5747991 0.012830466 -0.20808491
000030 b1 81 cc 3e d2 ce 03 be 04 ba b1 bd 16 bc f3 be
       0.39942697 -0.12871864 -0.08678058 -0.47604436
000040 d6 5c ef bd 08 e7 86 3d 53 78 08 3f 18 e1 58 be
       -0.11687629 0.065870345 0.533086 -0.21179616
000050 f4 6f 2d be 6c d1 f5 3e b9 66 e8 3c 51 af a7 3d
       -0.16937238 0.4801134 0.028369294 0.08187736
000060 b9 54 80 3e b6 ce dc ba 48 a4 6f bb d5 e2 c4 be
       0.25064638 -0.0016846273 -0.0036566425 -0.3845431
000070 f6 58 27 be 3b 9c 20 be 3c e9 65 be 7d 37 e5 bd
       -0.1634253 -0.15684597 -0.22452253 -0.11192224
000080 ec c3 2b be 28 fe e7 3e 48 d7 cb bd e9 c2 aa bd
       -0.16773957 0.45311093 -0.09953171 -0.083379574
000090 c6 e5 4e 3f 2b b2 23 bc 56 99 67 bd 2d 06 2c 3f
       0.80819356 -0.009991209 -0.056542717 0.67196923
0000a0 73 6c 20 be c3 39 38 be 0c 95 9c be 78 aa 39 be
       -0.1566637 -0.17990784 -0.30582464 -0.18131435
0000b0 fb 72 9b bd 5b 61 40 3f 86 e3 ea bd 9e c6 f9 bd
       -0.0759029 0.7514855 -0.11469178 -0.12196086
0000c0 1f e6 ed 3e 4f 13 11 3d 63 ed 5a ba b6 4c d3 3e
       0.4646463 0.035418805 -0.00083514134 0.41269463
0000d0 26 b0 bb 3d 60 36 2b 3e a2 37 12 3f 27 fd b7 bd
       0.09164457 0.16719961 0.5711614 -0.08983832
0000e0 f2 76 4c 3e 67 93 f5 3e 64 e6 08 be f2 4e c4 3d
       0.19967249 0.47964022 -0.13369137 0.0958537
0000f0 aa 6e f3 3e 7c 69 00 bd 21 55 f9 3d 88 e4 85 be
       0.47545367 -0.031350598 0.1217444 -0.26150918
000100 5d d4 84 3c 1c 70 11 bb 5a 3b 19 3f b1 f9 01 be
       0.016214544 -0.0022192067 0.5985619 -0.12692906
000110 59 9c f5 bc 49 eb 1f 3f f7 51 8a bd a1 68 5e 3d
       -0.029981779 0.6246839 -0.06753915 0.054299
000120 51 45 a9 3d 04 5e 88 be 3f 6f 0d bd 6f 15 86 be
       0.08265174 -0.26634228 -0.03452992 -0.26188228
000130 a8 75 f9 bc cb 86 25 be f6 20 07 be 94 8d a3 bd
       -0.03045161 -0.161647 -0.13196167 -0.07985988
000140 58 bf de 3d 4b 7b 07 3f 5c 90 2f 3d 89 62 93 3b
       0.1087634 0.52922505 0.04286228 0.0044978303
000150 1b 0b 40 3f 0b 44 34 3c 4f 0e f2 3d 02 5e 27 3f
       0.75016946 0.011002551 0.118191354 0.6537782
000160 3d 3d 4c 3d 54 be 72 bd 1f 06 b9 be b7 d9 16 be
       0.04986309 -0.059263542 -0.36137483 -0.14731489
000170 e0 c4 68 be df 08 02 3f a6 70 de bd 7c 3f 25 3d
       -0.22731352 0.50794786 -0.1086133 0.040343747
000180 dd 74 e3 3e 9a fa 58 bf 15 48 d5 be 25 7d ec 3e
       0.44425097 -0.8475739 -0.41656557 0.46189228
000190 b5 0d 07 bf 7d 88 17 be 78 fb c7 3e ee fe 1e bf
       -0.5275529 -0.1479816 0.39059043 -0.6210774
0001a0 63 79 85 be c7 c9 b2 3e ed a7 4c bf 82 b4 b9 be
       -0.26069173 0.3491957 -0.79943734 -0.3627053
0001b0 2e f7 fe 3e d6 f2 d3 be fe 1f bc 3b 1c ef 69 be
       0.49797958 -0.41396207 0.0057411185 -0.22845119
0001c0 32 7a 12 bf 0a b3 90 be 8f 30 18 3f 77 24 8e be
       -0.57217705 -0.28261596 0.59449095 -0.27762195
0001d0 3c 35 3b 3d 03 6c e7 3e a4 3b e7 be 52 1d 93 bd
       0.045705065 0.45199594 -0.4516269 -0.07183327
0001e0 fb 35 9b be f3 02 68 be 12 43 97 be 62 3e ca be
       -0.3031462 -0.22657375 -0.29543358 -0.3950072
0001f0 27 52 40 be a1 a0 cf 3d 74 92 6f be 9f 4b fb be
       -0.18781339 0.101380594 -0.23395711 -0.49081132
000200 81 00 36 be 8c b9 23 3f 44 4e 1d be 34 10 aa bb
       -0.1777363 0.63955 -0.15361887 -0.00518992
000210 8e a4 1a 3f ea 33 5e bf 0a fc 5c be 22 f2 3d 3f
       0.6040734 -0.86797965 -0.2158052 0.7419759
000220 2b d6 58 bf 85 a0 4e bd cc eb cd be 3e ba 18 bf
       -0.84701794 -0.050446052 -0.4021896 -0.59659183
000230 10 e6 20 be 68 ed e3 3e 2e 12 47 bf f2 dd cb be
       -0.15712762 0.44517064 -0.77762115 -0.39817768
000240 a5 ac 84 bd a2 6a e2 bd 3c 4b ec bd fd 62 ca 3e
       -0.06478242 -0.11055495 -0.11537787 0.39528647
000250 e1 15 37 be 80 8d 1a 3b 3e 2c 9c 3d ac 4d 3b be
       -0.1787944 0.0023582876 0.07625626 -0.18291348
000260 0d 10 3b 3d b9 4d 6a 3e 36 36 f1 bd 5c c6 ca bc
       0.045669604 0.22881211 -0.11777918 -0.024752788
000270 74 e3 be 3e 62 9c 28 be c2 d6 73 bc c8 bb db 3e
       0.37282908 -0.16465905 -0.014882745 0.42916703
000280 09 be de bd 77 b9 1c bd 5f 69 c2 be 81 17 70 3d
       -0.1087609 -0.03826281 -0.37971017 0.058616165
000290 72 8b 37 bd ab e8 c8 3e 17 22 39 be 1c c4 80 3d
       -0.04481072 0.39240012 -0.1807941 0.06287405
0002a0 d2 46 0a bf 9f 1c 7e bc ee d0 30 bd c0 ae f0 3e
       -0.54014313 -0.0155097535 -0.043168 0.47008324
0002b0 8c 2b 5a be 19 e5 51 bd 7a df 92 3e eb db 37 be
       -0.21305674 -0.051243875 0.28686124 -0.17954986
0002c0 4b 70 4c 3c 56 e8 f3 3e 67 72 ed 3d a5 e0 13 3e
       0.012477945 0.47638196 0.11594086 0.14441164
0002d0 33 fa 22 3d 34 65 d0 bd b6 66 19 3e d4 93 ac bd
       0.03978939 -0.10175553 0.14980587 -0.084266335
0002e0 a8 52 73 bc d9 cf 6f 3e e5 a3 b2 3e 47 db 45 be
       -0.01485125 0.23419131 0.34890667 -0.19321929
0002f0 17 4f 52 3b 81 c8 bf be aa df b1 bd cf 8e 96 bd
       0.0032090598 -0.3745766 -0.08685239 -0.07351457
000300 56 75 e6 3d d6 50 d5 bd d0 cd 70 be b8 15 27 3f
       0.11252849 -0.10415809 -0.23516011 0.65267515
000310 03 38 d9 3d e6 46 e8 bc f6 93 df 3e 4c a0 84 be
       0.106063865 -0.02835412 0.43667573 -0.25903547
000320 7b 8b f9 bd 53 ec cc 3e 4c 17 16 be 74 bd 63 bd
       -0.12184807 0.4002405 -0.14657325 -0.0556006
000330 cb bd f7 3e f5 98 e7 bd 43 69 73 3d ce f3 92 3e
       0.48386988 -0.11308471 0.059426557 0.28701633
000340 fc 56 43 be 35 0a 15 be 71 c2 c3 bc b0 52 16 3d
       -0.1907615 -0.14554675 -0.023896428 0.03669995
000350 d1 b0 05 be fb 66 26 3f 13 03 ff bd 97 4a 62 be
       -0.13055731 0.65000886 -0.12451758 -0.22098766
000360 76 f9 f0 be 92 e7 d2 3d fb cb 60 bd 4d 87 93 3e
       -0.47065324 0.10298075 -0.05488203 0.28814164
000370 58 da 01 be 47 70 68 3d bf 28 1d 3e 3c 73 b4 bd
       -0.12680948 0.0567477 0.15347575 -0.08811042
000380 e1 dc 65 be 33 7a 1c 3f 73 44 e3 3d bd e9 06 be
       -0.2244754 0.6112396 0.1109704 -0.13175102
000390 6e ed 28 3e e6 40 36 be 15 83 9b be 41 05 33 3e
       0.16496822 -0.17798194 -0.30373445 0.17482473
0003a0 a5 01 9e bc 70 f4 89 be 5c 57 c8 3d 89 00 21 be
       -0.019287894 -0.26944304 0.097822875 -0.1572286
0003b0 0a 18 3b be ae d9 e7 3c f0 eb 1e be 10 95 1d be
       -0.18270889 0.02830204 -0.1551969 -0.15388894
0003c0 f5 4b 6f 3e de ed 09 bc 3a ba 03 3e 2b c3 30 3e
       0.23368819 -0.008418528 0.12864009 0.1726195
0003d0 f1 98 a7 3d a0 c5 e7 3d 0e f3 02 3f 18 8f 65 bd
       0.08183468 0.11316991 0.5115212 -0.056044668
0003e0 d4 13 40 3d 56 53 06 3f 5e 70 ad bd 78 74 73 3d
       0.04689391 0.5247091 -0.08468698 0.059437245
0003f0 a2 5c 00 3f 79 80 9d bd b8 91 6b 3d 36 e8 db be
       0.50141346 -0.0769052 0.057512015 -0.429506

cnn_layers.0.0.bias f4 [8]
000000 32 14 6a 3f 42 68 28 3f 56 79 fa 3e 70 74 f6 3e
       0.91437066 0.65784085 0.48920697 0.4813571
000010 d0 28 27 3f a1 a7 46 3f 7a 12 27 3f c1 e6 1b 3f
       0.6529665 0.7759953 0.6526257 0.6089898

cnn_layers.1.0.weight f4 [4, 8, 3]
000000 e9 09 0d c0 de 74 97 bf c8 b3 92 bf 3b 35 03 c0
       -2.2037299 -1.183254 -1.1461115 -2.050124
000010 41 cf b7 bf 0b dc 7b bf ae b1 26 c0 47 fb c8 bf
       -1.4360124 -0.98382634 -2.6045947 -1.5701684
000020 f3 c3 95 bf fa 76 bb bf 26 1a 7c bf 83 76 96 bf
       -1.1700424 -1.4645684 -0.984774 -1.1754917
000030 2e a8 08 c0 d5 a9 af bf 75 a5 80 bf dd 0a 08 c0
       -2.1352649 -1.3723704 -1.0050493 -2.125663
000040 b5 f3 9f bf e7 8c 89 bf 7e 88 37 3f 17 d7 98 bf
       -1.2496248 -1.0746125 0.71692646 -1.194064
000050 9e 5a cc bf 76 72 29 3f 9c 9d 7a bf 21 4e a8 bf
       -1.5965154 0.6619028 -0.9789674 -1.3148843
000060 ff 42 06 be 24 1a 29 3c 3c 60 34 3e d9 76 24 bf
       -0.13111494 0.010321174 0.17614836 -0.6424385
000070 97 e1 98 bd 4a 0c a5 3d 2e 23 02 bf 20 ef 4f 3e
       -0.07464903 0.080589846 -0.5083493 0.20306063
000080 f6 3c 43 3d 7d ad 28 bf 7e b7 47 be b7 ad 42 3e
       0.04766556 -0.6588972 -0.1950359 0.1901158
000090 08 25 8a bf b1 4a 94 bd f9 f0 a9 3d ce 0a 19 bf
       -1.0792551 -0.07240809 0.08297915 -0.5978211
0000a0 a0 4e 38 3d 7a e7 95 3e 22 28 2b 3f dc 69 d4 3e
       0.044996858 0.29278165 0.6685811 0.41487014
0000b0 79 0d 15 3f 5d 83 00 3f 40 f0 bf 3e 34 52 f9 3e
       0.5822368 0.50200444 0.37487984 0.48695529
0000c0 c4 83 0d 3f e7 ec 01 3e b5 df 95 3d 50 9b de 3e
       0.55279183 0.12688027 0.07318059 0.4347787
0000d0 48 8c 5b 3e f8 3c a8 3d 0b 85 36 3f 4b dd 43 3e
       0.21440232 0.08214754 0.7129676 0.19127385
0000e0 c1 4d e0 bd 2b ae ca be 09 fc bb bd 41 62 d1 bc
       -0.109523304 -0.39586005 -0.09178931 -0.025559546
0000f0 0d d5 cc 3d 52 da 51 3c 45 17 d6 3d 88 22 0b 3f
       0.10001574 0.012808399 0.10453657 0.54349566
000100 e8 89 a5 3e 6a 9d 76 3e 36 6f 87 bf 90 84 65 3d
       0.32331777 0.24083486 -1.0580814 0.056034625
000110 1a f8 d8 3d 71 76 2e bf 8c d4 28 be ec 77 f8 3d
       0.105941966 -0.6814948 -0.1648733 0.12132248
000120 e5 19 75 be 20 df a1 bd da 0f a2 bc aa 5a 42 be
       -0.23935659 -0.07903886 -0.01978295 -0.18979898
000130 26 a3 d9 bd d2 de c4 3d 82 7d 3b be d0 7c 3c bc
       -0.10626821 0.09612812 -0.18309596 -0.011504367
000140 a6 38 84 bd ab 6f fa 3e a6 74 50 3e e2 6f 08 3e
       -0.06456117 0.4891332 0.20356998 0.1332393
000150 6e 88 f9 3e 38 67 1f 3e 36 0b 4e 3e e9 3e 79 be
       0.487369 0.15566719 0.20121464 -0.24340405
000160 01 16 de bd a6 57 16 bd 9b 2f 15 bf b1 97 7d 3d
       -0.10844041 -0.03670468 -0.58275765 0.061912242
000170 1f be c0 3d 11 71 43 bf 24 1d c8 bd 4d 86 19 3e
       0.09411263 -0.763444 -0.09771183 0.14992638

cnn_layers.1.0.bias f4 [4]
000000 78 83 a3 bf ad 0d 33 3f 35 82 ce 3e b8 9e 04 3f
       -1.2774496 0.6994274 0.40333715 0.51804686

pred_layer.weight f4 [5, 4]
000000 6f 03 81 3d c6 db 20 3e 44 8d e5 bb c2 63 a8 bc
       0.06299483 0.15708837 -0.0070053656 -0.02055538
000010 9d 37 91 bf 45 a3 a2 3d c8 4f 04 3d b0 d7 26 3e
       -1.1345097 0.079412974 0.032302648 0.16293216
000020 83 ea f8 bf 5b 70 ec be 72 ce f1 3d f2 e6 94 3e
       -1.9446567 -0.4617947 0.118069544 0.29082447
000030 87 7c fd 3d 79 ea 32 bd 88 2c 68 bc 3a fa 55 3e
       0.12377267 -0.04368064 -0.014170773 0.20896235
000040 68 aa e7 3d 91 13 26 bd 55 a8 77 bc 10 aa 9c 3e
       0.11311799 -0.040546004 -0.015115817 0.30598497

pred_layer.bias f4 [5]
000000 d9 8a 12 3e e8 41 e6 3f d1 58 0e 40 92 d8 7a 3e
       0.14310779 1.7988863 2.224171 0.24496678
000010 55 49 66 3e
       0.22488911

pred_layerc.weight f4 [4, 4]
000000 18 5a ba 3f 2b a8 a5 bf cd f4 91 be b2 17 f3 3e
       1.4558744 -1.2941946 -0.2850708 0.47479016
000010 ad 0e ad bf 8c 09 81 bf 50 7c c9 3e fc 4e 88 bf
       -1.3520104 -1.0081038 0.39352655 -1.0649104
000020 53 76 d8 3f ba 04 cf 3d 30 3e b6 bf 43 64 94 bf
       1.691111 0.101083234 -1.4237728 -1.1593097
000030 94 0a 1a 40 4b f3 c7 bf 02 31 b2 bf 3f f5 cd bf
       2.4068956 -1.5621122 -1.3921206 -1.6090468

pred_layerc.bias f4 [4]
000000 e9 75 f3 3a da e8 2e 3f 40 54 88 3e 18 88 09 c0
       0.0018574569 0.68324053 0.26626778 -2.1489315
