data/PredModel_final.pth (torch_old, 2863 bytes, 6 tensors)

pred_layers.0.0.weight f4 [8, 40]
-0.07009447 0.0087474035 0.02576661 -0.08356995 -0.0907499 -0.050341133 0.019305857 0.10835861
0.04498827 -0.117216244 0.0050501446 0.08000931 -0.09059105 0.07831834 -0.053592663 -0.11259222
-0.13183554 -0.085346565 0.026947698 -0.0037700608 0.004031892 -0.10124917 0.020383462 -0.024197267
0.050651908 -0.09767574 0.017579207 -0.010042239 0.061478205 -0.12559189 0.022985807 -0.056808464
0.029813433 0.0050948197 0.03242213 -0.03521423 -0.000829269 -0.045395285 0.009689414 -0.0011400898
-0.034660522 -0.12275906 0.095328376 0.100188605 -0.03636836 0.04502001 -0.035219643 0.020465702
0.07322655 -0.03166575 0.08490452 0.120787404 -0.0345971 -0.032667223 -0.054582085 0.020691225
0.06491078 -0.050667945 -0.058376104 -0.09991614 0.043826595 0.011617438 -0.029982274 0.05146425
0.09067706 0.099648416 0.08097748 0.010688342 -0.00762934 -0.08272994 -0.055939194 -0.106380604
-0.06728739 -0.12674986 0.048495468 -0.03264552 0.023819827 -0.0035525977 -0.061077382 -0.08949809
0.11616399 0.16057403 -0.09105882 0.07638478 -0.0077947564 -0.058830112 0.093668684 -0.14055292
0.1339018 -0.060684517 0.10731169 -0.005873243 0.16979842 0.024175521 -0.03409015 0.07765298
-0.067355454 0.05208003 0.09004586 -0.1407507 -0.094799854 0.16954683 -0.03676368 0.025416585
-0.018290384 -0.06518584 0.011277633 -0.059667423 -0.08727923 0.14784077 -0.07817096 0.10224088
0.05268917 0.10861706 0.01445085 -0.07937484 0.016284933 0.17956558 -0.070136614 -0.054725803
-0.011722337 -0.012447931 0.008407533 -0.0032396847 -0.028183892 -0.037177894 0.07224632 -0.037300594
-0.027022596 -0.037379406 0.018006148 -0.12811388 0.015457272 0.06939938 0.022242244 -0.0044362587
-0.027156739 -0.07131091 -0.043449286 -0.074076265 -0.07136717 -0.08039851 0.064030446 0.0052133524
0.021128837 -0.05367343 0.025538513 -0.0883526 -0.029420821 0.017017433 -0.00032097957 -0.0065968083
-0.017063916 -0.06364073 -0.004202495 -0.041884962 0.010261356 -0.04435224 -0.07696237 -0.051823046
-0.11259189 -0.0074452218 0.08475328 -0.11182822 -0.1285354 0.025736142 -0.000989624 0.12584303
-0.034633175 -0.02974044 -0.08080222 0.07995599 -0.10378041 0.073052905 0.07175148 0.018565392
-0.05036486 -0.06633773 0.06789508 0.10743589 -0.05286593 -0.07585575 0.045071986 0.02782775
-0.014829352 -0.1395113 -0.06730548 0.0015045104 -0.0043635657 0.099937916 -0.006079319 0.04499425
-0.12373459 -0.037839063 -0.049836636 0.09283847 -0.03262125 -0.078901954 0.09296837 0.121627785
0.050784398 -0.050752997 -0.015616581 0.078984775 0.05323735 0.04121147 0.022204502 0.027486565
-0.010984288 0.024210455 0.007074427 -0.014638068 -0.028062442 -0.14096944 -0.007748034 -0.0019795178
0.07334847 0.05775184 -0.010062799 0.0002956618 -0.0033910156 -0.09681016 0.03796983 -0.08143345
-0.14343445 -0.1012342 0.109981656 0.024590572 -0.02694448 -0.13496968 -0.019286059 0.13476284
-0.15862626 -0.092715904 0.10928544 0.11208011 -0.048394203 -0.17231017 -0.02039629 0.03892549
0.033727624 -0.05976703 -0.08183788 0.0077085467 -0.045105945 -0.051693015 -0.07045617 0.0014316676
0.10649257 0.076773226 -0.051163606 0.13931443 0.08813823 0.13960703 -0.040312596 0.01581362
00000000: b18d 8fbd 4551 0f3c 7f14 d33c b926 abbd
00000010: 15db b9bd 8132 4ebd 5127 9e3c 1eeb dd3d
00000020: 9f45 383d 120f f0bd af7b a53b ecdb a33d
00000030: cd87 b9bd 5e65 a03d fb83 5bbd c096 e6bd
00000040: e5ff 06be 2eca aebd 6bc1 dc3c 2013 77bb
00000050: f61d 843b ba5b cfbd 38fb a63c 5939 c6bc
00000060: 6078 4f3d 380a c8bd 4502 903c 3488 24bc
00000070: 92d0 7b3d 299b 00be bb4c bc3c feaf 68bd
00000080: 4d3b f43c 72f2 a63b 11cd 043d cc3c 10bd
00000090: 4d63 59ba 68f0 39bd 59c0 1e3c 116f 95ba
000000a0: 31f8 0dbd 1a69 fbbd 863b c33d af2f cd3d
000000b0: fdf6 14bd e766 383d 7942 10bd b0a7 a73c
000000c0: cdf7 953d f2b3 01bd 6ce2 ad3d 635f f73d
000000d0: b0b5 0dbd 11ce 05bd 7791 5fbd a580 a93c
000000e0: f1ef 843d 3189 4fbd c81b 6fbd d5a0 ccbd
000000f0: 8483 333d 1157 3e3c 639d f5bc 2dcc 523d
00000100: e5b4 b93d 7814 cc3d 85d7 a53d 281e 2f3c
00000110: 8bff f9bb 516e a9bd 7f20 65bd 13de d9bd
00000120: f9cd 89bd b7ca 01be 2fa3 463d 4fb7 05bd
00000130: cc21 c33c b3d2 68bb 472c 7abd c64a b7bd
00000140: 63e7 ed3d 856d 243e 0c7d babd a06f 9c3d
00000150: 286b ffbb d8f7 70bd 5ed5 bf3d 1bed 0fbe
00000160: 8e1d 093e 5490 78bd 3bc6 db3d 5574 c0bb
00000170: a3df 2d3e be0b c63c 1da2 0bbd 8708 9f3d
00000180: a8f1 89bd df51 553d f769 b83d f420 10be
00000190: 6d26 c2bd af9d 2d3e 8395 16bd 7136 d03c
000001a0: b7d5 95bc 2780 85bd d2c5 383c d465 74bd
000001b0: 74bf b2bd 9263 173e 1918 a0bd ab63 d13d
000001c0: 99d0 573d 9f72 de3d 42c3 6c3c 478f a2bd
000001d0: fb67 853c 0ae0 373e c9a3 8fbd 2a28 60bd
000001e0: 0c0f 40bc 68f2 4bbc c0bf 093c e450 54bb
000001f0: e8e1 e6bc d947 18bd e1f5 933d 82c8 18bd
00000200: 7e5e ddbc 261b 19bd a181 933c 4930 03be
00000210: 7f40 7d3c 4321 8e3d 5e35 b63c 095e 91bb
00000220: cf77 debc 740b 92bd e1f7 31bd 4cb5 97bd
00000230: f328 92bd f9a7 a4bd 6522 833d c5d4 aa3b
00000240: 6216 ad3c acd8 5bbd 2536 d13c 35f2 b4bd
00000250: ef03 f1bc 2568 8b3c 2649 a8b9 0a2a d8bb
00000260: a0c9 8bbc 1256 82bd 15b5 89bb 918f 2bbd
00000270: 3f1f 283c b2aa 35bd 729e 9dbd 6744 54bd
00000280: 9496 e6bd 0cf7 f3bb 2193 ad3d 3206 e5bd
00000290: c99e 03be 9ad4 d23c 45b6 81ba ffdc 003e
000002a0: 84db 0dbd 39a2 f3bc a27b a5bd f7bf a33d
000002b0: d38a d4bd c39c 953d 71f2 923d 7316 983c
000002c0: 624b 4ebd 13dc 87bd 930c 8b3d 5907 dc3d
000002d0: f289 58bd 425a 9bbd 679d 383d 06f7 e33c
000002e0: cff6 72bc 0ddc 0ebe 75d7 89bd fe32 c53a
000002f0: 3efc 8ebb 40ac cc3d 0635 c7bb e44b 383d
00000300: 9068 fdbd 22fd 1abd 8021 4cbd 1922 be3d
00000310: dc9d 05bd 5997 a1bd 3366 be3d fd17 f93d
00000320: 4d03 503d 60e2 4fbd b0dc 7fbc c5c2 a13d
00000330: 680f 5a3d 5ccd 283d 37e6 b53c 812b e13c
00000340: 71f7 33bc 0155 c63c 98d0 e73b 82d4 6fbc
00000350: 35e3 e5bc 4b5a 10be 38e3 fdbb ccba 01bb
00000360: b937 963d 328d 6c3d 70de 24bc 0e03 9b39
00000370: cd3b 5ebb 6844 c6bd 4186 1b3d 95c6 a6bd
00000380: 7be0 12be e053 cfbd 103e e13d 2b72 c93c
00000390: acba dcbc 7e35 0abe ccfd 9dbc 45ff 093e
000003a0: ec6e 22be d6e1 bdbd 0bd1 df3d 428a e53d
000003b0: 0039 46bd 1472 30be 1f16 a7bc 5670 1f3d
000003c0: fa25 0a3d 46ce 74bd 9e9a a7bd fa97 fc3b
000003d0: 03c1 38bd 0ebc 53bd 534b 90bd cba6 bb3a
000003e0: c718 da3d 483b 9d3d ee90 51bd 71a8 0e3e
000003f0: d181 b43d 25f5 0e3e d21e 25bd 918b 813c

pred_layers.0.0.bias f4 [8]
-0.11671421 -0.021137772 0.16734985 -0.00018787198 -0.061987445 -0.037155673 -0.09495886 0.16529155
00000000: dc07 efbd 1f29 adbc c25d 2b3e 80ff 44b9
00000010: 8ce6 7dbd 8c30 18bd ca79 c2bd 3042 293e

pred_layers.1.0.weight f4 [4, 8]
-0.20893729 -0.034669034 -0.018652596 -0.17935956 -0.1788363 -0.107713364 -0.05699813 0.28782862
0.008742495 -0.21026765 -0.19488603 -0.070574805 -0.08185719 0.2942669 -0.19982159 -0.18694776
-0.05926149 0.385688 0.039166786 0.05368897 -0.20324728 0.14818935 0.23055953 -0.30761635
0.17782201 0.24297976 -0.1875133 0.08622044 -0.056787036 0.28011653 -0.057452355 -0.29071552
00000000: a8f3 55be 1e01 0ebd 54cd 98bc 08aa 37be
00000010: dd20 37be d398 dcbd df76 69bd 465e 933e
00000020: af3c 0f3c 6750 57be 3490 47be 8689 90bd
00000030: bea4 a7bd 27aa 963e 089e 4cbe 3c6f 3fbe
00000040: 2dbc 72bd e678 c53e 5a6d 203d f7e8 5b3d
00000050: 0e20 50be f3be 173e cc17 6c3e e47f 9dbe
00000060: f916 363e b0cf 783e 7d03 40be 5894 b03d
00000070: 8699 68bd 6f6b 8f3e 2953 6bbd aad8 94be

pred_layers.1.0.bias f4 [4]
0.1592334 0.017745791 0.2550722 0.1266146
00000000: 150e 233e 9f5f 913c d398 823e 42a7 013e

pred_layers.2.weight f4 [4, 4]
0.27093035 -0.21663032 0.17502685 -0.38107806 0.30818948 -0.37228072 -0.39434832 -0.29050624
-0.44576582 0.2571052 -0.029728072 -0.44904402 0.47106403 -0.24679469 0.469823 0.44717628
00000000: 62b7 8a3e 57d4 5dbe 3d3a 333e aa1c c3be
00000010: 03cb 9d3e 949b bebe 06e8 c9be 3cbd 94be
00000020: 6b3b e4be 4ba3 833e 4988 f3bc 19e9 e5be
00000030: 4e2f f13e bfb7 7cbe a48c f03e 4af4 e43e

pred_layers.2.bias f4 [4]
0.21248576 0.07431824 0.3131535 -0.1677749
00000000: de95 593e 2934 983d a855 a03e 2fcd 2bbe
