data/PredModel.pth (torch_old, 3832 bytes, 8 tensors)

cnn_layers.0.0.weight f4 [8, 16, 3]
0.36256096 -0.09290405 -0.20756869 0.28136218 -0.028954163 -0.2337267 0.49966916 -0.05790132
0.038349025 0.52504224 0.029703468 -0.21707542 0.45584276 -0.14137933 -0.106324114 -0.3682312
-0.017771944 0.16415969 0.5839331 -0.19339909 -0.18529354 0.4940189 0.030398421 0.075689055
0.16105522 -0.037206978 -0.028306905 -0.24889317 -0.15794125 -0.19686055 -0.17819504 -0.13185874
-0.21941341 0.5220346 -0.10495649 -0.09205431 0.7276535 0.0031115366 -0.08406253 0.6145852
-0.17512327 -0.19128132 -0.28473228 -0.20675786 -0.06158913 0.71445835 -0.11750838 -0.17534472
0.34599403 0.039605577 -0.025448514 0.42020425 0.022517322 0.16555755 0.5363795 -0.054626085
0.21160847 0.45837075 -0.044435494 0.13716395 0.45579186 -0.04099949 0.13052174 -0.32158417
-0.030587267 0.04927911 0.53045124 -0.18373393 -0.053638034 0.5727827 -0.049279507 0.068065904
0.17068148 -0.14327317 0.008475176 -0.22629933 -0.0404501 -0.15582368 -0.06483941 -0.08560429
0.11444094 0.5041056 0.03142911 0.01420871 0.71142244 0.08889322 0.13274355 0.60149485
0.09449144 -0.045871776 -0.2552567 -0.049690284 -0.18513468 0.47721484 -0.06970314 0.0068873614
0.3134196 -0.63250816 -0.28212488 0.42969105 -0.59939194 -0.18483129 0.3864953 -0.55999625
-0.20992157 0.34045893 -0.6368917 -0.26737493 0.48503745 -0.43508497 -0.009928929 -0.15924287
-0.44831336 -0.15554635 0.4884807 -0.25744534 0.032109443 0.4206678 -0.45106527 -0.05932407
-0.23035435 -0.08540105 -0.19721082 -0.32846448 -0.37691936 -0.009848539 -0.1630166 -0.52859604
-0.13643977 0.5614634 -0.22961286 -0.08516461 0.5418673 -0.67274624 -0.1488247 0.6662165
-0.74402577 -0.025669333 -0.26335934 -0.5608532 -0.10626086 0.40544534 -0.56831 -0.3308316
-0.031305026 -0.19424531 -0.16542237 0.35939568 -0.19004098 -0.002794123 0.08961003 -0.14445221
0.017950574 0.19435304 -0.055564687 -0.036272105 0.3569772 -0.17430484 -0.032013662 0.34931484
-0.057945687 -0.07834728 -0.19048455 0.0077185296 -0.08881445 0.3317773 -0.19310908 0.0013395537
-0.5726686 0.008106057 -0.062499866 0.54206127 -0.1094984 -0.009361184 0.32297394 -0.11840221
0.06306329 0.433925 0.05717664 0.10523532 0.1345133 -0.13708657 0.10896847 0.052037753
-0.07625716 0.18910564 0.43651915 -0.11208337 0.014127533 -0.2232099 -0.119242914 -0.12343511
0.09414732 -0.117706776 -0.22366849 0.535789 0.055675995 -0.060983874 0.33188683 -0.29413918
-0.18950832 0.25729442 -0.12773328 -0.09492891 0.3875888 -0.16931696 0.018647315 0.19209434
-0.12630065 -0.14717987 0.07794374 -0.044477776 -0.18396516 0.48707643 -0.18429403 -0.30922207
-0.3783279 0.19181736 -0.027325677 0.28697366 -0.094947934 0.037196383 0.12744503 -0.05322449
-0.21376471 0.52349645 0.1040903 -0.11103817 0.18142818 -0.17890409 -0.30816627 0.2489418
-0.04671635 -0.28835103 0.094930366 -0.15393336 -0.23485778 0.07949442 -0.20598538 -0.21895936
0.18417902 0.027462842 0.09729082 0.28163275 0.0664283 0.11307979 0.49977234 -0.0072213826
0.1021322 0.5080971 -0.008544108 0.12779152 0.53321 -0.06737591 0.09532502 -0.3883216
00000000: 97a1 b93e 7b44 bebd e38c 54be b40e 903e
00000010: 4831 edbc 0d56 6fbe a3d4 ff3e ef29 6dbd
00000020: de13 1d3d 2b69 063f b054 f33c 0549 5ebe
00000030: 3964 e93e bec5 10be 75c0 d9bd cd88 bcbe
00000040: 7896 91bc 7a19 283e a47c 153f 690a 46be
00000050: 97bd 3dbe 0cf0 fc3e 1c06 f93c dd02 9b3d
00000060: a9eb 243e 5866 18bd e2e3 e7bc dadd 7ebe
00000070: 5abb 21be d095 49be c378 36be fa05 07be
00000080: e9ad 60be 0fa4 053f 6ef3 d6bd f886 bcbd
00000090: 8047 3a3f ecea 4b3b fa28 acbd 7555 1d3f
000000a0: 8453 33be 40df 43be 6ec8 91be 55b8 53be
000000b0: e244 7cbd bee6 363f 3ca8 f0bd 918d 33be
000000c0: 2126 b13e 7539 223d 6779 d0bc 0325 d73e
000000d0: 3f76 b83c eb87 293e 2b50 093f 9abf 5fbd
000000e0: e4af 583e 92af ea3e fe01 36bd b574 0c3e
000000f0: 8d5d e93e 15ef 27bd 7ea7 053e aea6 a4be
00000100: 2692 fabc e4d8 493d a7cb 073f bf24 3cbe
00000110: 8eb3 5bbd e3a1 123f 4fd9 49bd 2366 8b3d
00000120: 20c7 2e3e 34b6 12be 77db 0a3c 03bb 67be
00000130: 01af 25bd 3e90 1fbe 86ca 84bd 4d51 afbd
00000140: 0360 ea3d 110d 013f cfbb 003d a6cb 683c
00000150: c81f 363f a60d b63d eded 073e 91fb 193f
00000160: ba84 c13d 0be4 3bbd 02b1 82be 0a88 4bbd
00000170: f293 3dbe 8155 f43e 85c0 8ebd 60af e13b
00000180: 8978 a03e 0eec 21bf ac72 90be 7700 dc3e
00000190: c071 19bf 6a44 3dbe b6e2 c53e ea5b 0fbf
000001a0: aef5 56be a250 ae3e 560b 23bf 5ee5 88be
000001b0: d456 f83e 75c3 debe f2ac 22bc 9010 23be
000001c0: 5489 e5be 8b47 1fbe 241a fa3e e0cf 83be
000001d0: 3185 033d c561 d73e 07f2 e6be ccfd 72bd
000001e0: 03e2 6bbe bfe6 aebd a2f1 49be 7f2c a8be
000001f0: 93fb c0be c45b 21bc d3ed 26be 1252 07bf
00000200: deb6 0bbe 11bc 0f3f a21f 6bbe c86a aebd
00000210: d1b7 0a3f 1939 2cbf 8165 18be 2a8d 2a3f
00000220: 7978 3ebf 7e48 d2bc 09d7 86be 1394 0fbf
00000230: 4b9f d9bd 8896 cf3e c47c 11bf c262 a9be
00000240: b339 00bd 3ee8 46be 7b64 29be b602 b83e
00000250: 1a9a 42be 9b1d 37bb 7785 b73d 48eb 13be
00000260: 150d 933c 7c04 473e cc97 63bd 0f92 14bd
00000270: b7c5 b63e f87c 32be c220 03bd 65d9 b23e
00000280: 7558 6dbd 8a74 a0bd 620e 43be b8eb fc3b
00000290: 5ae4 b5bd b7de a93e 63be 45be f793 af3a
000002a0: 699a 12bf 44cf 043c dcff 7fbd 87c4 0a3f
000002b0: b240 e0bd a75f 19bc d75c a53e dc7c f2bd
000002c0: 5427 813d 6b2b de3e 0d32 6a3d 9e85 d73d
000002d0: dbbd 093e 6c60 0cbe dc2a df3d 8a25 553d
000002e0: b72c 9cbd e9a4 413e 707f df3e f78b e5bd
000002f0: 2b77 673c 2391 64be a135 f4bd 8ccb fcbd
00000300: 4fd0 c03d 4010 f1bd 5a09 65be 7829 093f
00000310: 830c 643d 3aca 79bd 12ed a93e 6999 96be
00000320: 780e 42be 18bc 833e 83cc 02be 176a c2bd
00000330: 0a72 c63e 6d61 2dbe 41c2 983c 61b4 443e
00000340: f554 01be 52b6 16be f8a0 9f3d 542e 36bd
00000350: 5d61 3cbe 1562 f93e 93b7 3cbe 5b52 9ebe
00000360: 32b4 c1be c56b 443e 19da dfbc 36ee 923e
00000370: 1074 c2bd 3c5b 183d f380 023e ec01 5abd
00000380: 23e5 5abe dd03 063f 4c2d d53d fb67 e3bd
00000390: 4fc8 393e a232 37be f8c7 9dbe 99ea 7e3e
000003a0: a559 3fbd bfa2 93be da6a c23d b5a0 1dbe
000003b0: 8f7e 70be f8cd a23d d5ed 52be e236 60be
000003c0: 6d99 3c3e c1f9 e03c 6940 c73d 2b32 903e
000003d0: 900b 883d 6096 e73d 29e2 ff3e 59a1 ecbb
000003e0: b02a d13d a712 023f 96fc 0bbc c8db 023e
000003f0: 7380 083f 62fc 89bd c439 c33d 17d2 c6be

cnn_layers.0.0.bias f4 [8]
0.8690592 0.6891056 0.5739018 0.6108901 0.6525014 0.74893624 0.6561275 0.56264323
00000000: aa7a 5e3f 3969 303f 3aeb 123f 4b63 1c3f
00000010: 550a 273f 49ba 3f3f f9f7 273f 6309 103f

cnn_layers.1.0.weight f4 [4, 8, 3]
-2.0508368 -1.2691121 -1.3834703 -1.8553002 -1.5163535 -1.1626976 -2.286994 -1.6057963
-1.3948563 -1.4239887 -1.1820474 -1.4366779 -1.944865 -1.4918513 -1.2559175 -1.965651
-1.3810663 -1.3274745 -0.037884913 -1.5850202 -1.8910592 -0.15690312 -1.4263897 -1.6467274
-0.28333205 -0.02879057 0.14324069 -0.61407006 -0.06817458 0.04913629 -0.54966974 0.20673229
0.05955555 -0.49278775 -0.21443295 0.16234396 -0.71034336 -0.011423599 0.052296527 -0.72793996
0.02013159 0.23688225 0.8265228 0.41177204 0.55012393 0.6182341 0.3413881 0.42916492
0.5274616 0.08312039 0.03949194 0.45758548 0.23898315 0.058960397 0.67609143 0.17830104
-0.10423138 -0.258296 -0.041268766 -0.0018571827 0.26133355 0.026040059 0.1259558 0.4882841
0.32066724 0.23304608 -0.85415804 0.09846674 0.062391777 -0.8254348 -0.1442931 0.09872211
-0.22140889 -0.058057595 -0.0075732428 -0.1825616 -0.09416773 0.1177579 -0.14638859 0.00589976
-0.06291965 0.5556453 0.20878312 0.13182403 0.39953947 0.16953598 0.22575924 -0.22487345
-0.11908115 -0.04470388 -0.3900232 0.0044486024 0.07970068 -0.43654576 -0.10529211 0.18770967
00000000: e940 03c0 4472 a2bf 8e15 b1bf 7a7a edbf
00000010: df17 c2bf 46d3 94bf 1c5e 12c0 bc8a cdbf
00000020: a78a b2bf 4345 b6bf 544d 97bf 10e5 b7bf
00000030: 56f1 f8bf fcf4 bebf e8c1 a0bf 749a fbbf
00000040: c8c6 b0bf afea a9bf 362d 1bbd f1e1 cabf
00000050: 3a0e f2bf 36ab 20be f093 b6bf f7c7 d2bf
00000060: e610 91be 34da ebbc b0ad 123e b233 1dbf
00000070: 1d9f 8bbd 2243 493d 28b7 0cbf a1b1 533e
00000080: 85f0 733d ad4e fcbe 5094 5bbe 7f3d 263e
00000090: 10d9 35bf 0c2a 3bbc e234 563d 465a 3abf
000000a0: 01eb a43c 4391 723e 0097 533f c9d3 d23e
000000b0: ecd4 0c3f 9744 1e3f 6cca ae3e 81bb db3e
000000c0: b907 073f 063b aa3d 4dc2 213d a548 ea3e
000000d0: 00b8 743e 7580 713d 5414 2d3f 8c94 363e
000000e0: 4377 d5bd 603f 84be 7009 29bd b66c f3ba
000000f0: 83cd 853e f651 d53c 8ffa 003e 6000 fa3e
00000100: 7f2e a43e a2a3 6e3e 1aaa 5abf eea8 c93d
00000110: 858e 7f3d b24f 53bf 92c1 13be d12e ca3d
00000120: 03b9 62be cdcd 6dbd f728 f8bb 6ef1 3abe
00000130: 03db c0bd 0e2b f13d e4e6 15be c652 c13b
00000140: 04dc 80bd c53e 0e3f 3ecb 553e e1fc 063e
00000150: 7090 cc3e d79a 2d3e 6e2d 673e 3a45 66be
00000160: d1e0 f3bd 6a1b 37bd 1fb1 c7be 95c5 913b
00000170: 1c3a a33d ed82 dfbe 64a3 d7bd f736 403e

cnn_layers.1.0.bias f4 [4]
-1.5705541 0.47812408 0.32124105 0.45382544
00000000: eb07 c9bf aecc f43e b579 a43e cf5b e83e

pred_layer.weight f4 [5, 4]
0.07892605 0.13551871 -0.007896858 -0.024234073 -1.4879527 0.12942974 0.05420873 0.22464426
-1.8876752 -0.32144338 0.1666815 0.39060277 0.18858153 -0.035781935 -0.0128481705 0.20737413
0.1802186 -0.032410048 -0.014070747 0.30703384
00000000: fba3 a13d 6bc5 0a3e d361 01bc 8986 c6bc
00000010: 3c75 bebf 3b89 043e f909 5e3d 2509 663e
00000020: 579f f1bf 3a94 a4be 8eae 2a3e 16fd c73e
00000030: 841b 413e 1490 12bd 2281 52bc e259 543e
00000040: 3a8b 383e 66c0 04bd fe88 66bc 8a33 9d3e

pred_layer.bias f4 [5]
0.18016647 1.3039864 1.6135479 0.2450418 0.22343814
00000000: 8f7d 383e 07e9 a63f bd88 ce3f 3dec 7a3e
00000010: f8cc 643e

pred_layerc.weight f4 [4, 4]
1.2484795 -1.0044875 -0.26345405 0.24401776 -0.85409456 -1.2240607 0.24686849 -0.9665731
1.1147465 0.17607184 -0.8689644 -0.73379827 1.65177 -1.3866271 -0.9674542 -1.1384445
00000000: 2dce 9f3f 0c93 80bf 73e3 86be cbdf 793e
00000010: f1a5 5abf 05ae 9cbf 18cb 7c3e 5671 77bf
00000020: 03b0 8e3f 2d4c 343e 7374 5ebf 34da 3bbf
00000030: 336d d33f ff7c b1bf 14ab 77bf 8db8 91bf

pred_layerc.bias f4 [4]
0.024403032 0.806198 -0.027379693 -1.3287969
00000000: dee8 c73c fe62 4e3f 614b e0bc 0416 aabf
