data/PredModel_tmp.pth (torch_old, 22543 bytes, 6 tensors)

pred_layers.0.0.weight f4 [32, 160]
-0.03786844 0.027396195 -0.05441278 0.034497112 -0.037061892 0.08909007 0.11835596 -0.029779615
0.002922887 -0.027995856 0.06979726 0.03782816 -0.0037684846 0.06316592 0.080301404 0.055911273
-0.048285868 -0.04012392 0.07837959 0.05639131 0.0035793106 0.08983088 -0.019756604 0.04525573
-0.02905701 0.02692054 -0.049777847 -0.039017837 -0.0045876577 -0.032497343 0.07895561 0.053133592
0.012488513 0.107150845 0.037940282 -0.007748963 -0.089581415 -0.0200344 0.08219762 -0.050058883
-0.006847761 -0.012050868 0.042837273 -0.02204167 -0.02151735 -0.050586995 0.04297565 -0.07316052
0.022861592 0.09402397 0.009811831 -0.0391685 0.024589507 -0.06277505 0.052973088 -0.01302314
0.0068396544 0.014889276 0.07234243 -0.05583228 0.06245625 -0.010032369 -0.035727065 0.025099589
-0.03190933 0.07898994 0.04770878 0.0387347 0.014677766 0.016957803 0.06576625 -0.021802835
0.06336298 -0.08962093 -0.040270157 0.011316296 0.016915536 0.012706358 0.0874336 -0.0136719225
0.0074359635 -0.013542564 0.028869124 -0.043510873 -0.08001524 0.04312002 0.060604796 0.07981357
0.056727055 0.050281726 0.011728271 -0.012958168 0.12178873 -0.020144312 0.044375062 -0.0014960438
-0.017140487 0.0057877125 0.013812063 -0.083761096 0.012436562 0.048214894 0.09483207 -0.047152866
-0.050484434 -0.025392361 -0.05440351 0.0768748 0.018109746 -0.06310277 0.035905894 -0.08436208
-0.0015577672 0.0005776483 0.069401436 -0.034886695 -0.02707871 0.017411264 0.039889593 0.09241632
-0.0688205 -0.079279095 0.014490219 0.044436306 0.04877739 -0.06286309 0.08052789 0.014238308
-0.02261905 -0.008180812 -0.039500322 -0.0208812 -0.014037509 -0.007855561 0.045647323 0.0764978
-0.08207722 0.016067859 -0.068196245 -0.04436517 0.016595256 -0.07841977 0.067152016 -0.077512614
-0.022968592 0.0521994 -0.013014095 -0.0041443524 0.019208603 -0.04195578 0.029034972 0.023488998
-0.03937715 -0.055038355 -0.055676274 0.0954268 -0.004961723 0.08133159 0.021262378 -0.045005005
0.015843326 0.02828899 -0.033583026 -0.03137135 0.047756366 -0.024397288 0.048223365 -0.055451926
-0.008195986 -0.00096269365 -0.036949847 0.018063636 -0.018391576 -0.03369629 0.057685092 0.008013026
-0.010739575 0.029486086 -0.042524315 0.018590076 -0.015528327 0.038528208 -0.04361497 0.0064672045
-0.046381824 -0.07546273 0.020366441 -0.04325393 0.016808217 0.073911406 0.08180317 -0.04788733
-0.033155218 0.049453177 0.04303638 0.054454602 0.012753902 -0.024902165 0.083509326 -0.08199179
-0.052129894 0.06821154 -0.0155278705 0.05569321 0.024079006 0.0737462 0.063621916 -0.03342628
0.019420652 0.024486436 -0.06396712 0.064566545 0.012150394 0.0035178722 -0.06927414 -0.046772357
-0.031068336 0.02989213 0.086640015 0.014791623 0.0712836 0.0076806666 -0.013339291 0.029850611
0.05599324 0.043499753 -0.0072755814 -0.048343297 -0.009977334 -0.03575421 0.03922912 0.016380595
0.054826707 -0.055803522 -0.032597482 -0.046000212 -0.024274193 -0.0075099547 0.019824564 0.073576085
0.02443845 -0.017784957 -0.01714115 -0.008758217 0.058975495 0.048425864 0.066082925 -0.045000933
0.056747764 -0.045041215 0.067281134 -0.07860778 0.041657124 -0.06483492 0.030282522 0.016260432
00000000: f01b 1bbd fc6d e03c efdf 5ebd d84c 0d3d
00000010: 36ce 17bd db74 b63d 9c64 f23d 61f4 f3bc
00000020: e88d 3f3b 9157 e5bc def1 8e3d b3f1 1a3d
00000030: aef8 76bb 225d 813d 1075 a43d 3803 653d
00000040: 67c7 45bd fb58 24bd 7a85 a03d 93fa 663d
00000050: de92 6a3b 41f9 b73d 9ad8 a1bc 135e 393d
00000060: f708 eebc 7788 dc3c dbe3 4bbd 2bd1 1fbd
00000070: 1054 96bb ef1b 05bd 7bb3 a13d 9ca2 593d
00000080: 9f9c 4c3c e771 db3d 4567 1b3d 03eb fdbb
00000090: 7676 b7bd 2f1f a4bc 3a57 a83d 8b0a 4dbd
000000a0: 2f63 e0bb 0171 45bc 2376 2f3d bb90 b4bc
000000b0: 2745 b0bc 4f34 4fbd 3c07 303d 2fd5 95bd
000000c0: 3c48 bb3c a48f c03d cdc1 203c 266f 20bd
000000d0: ef6f c93c 3590 80bd 4ffa 583d 025f 55bc
000000e0: 2e1f e03b 26f2 733c 4528 943d 64b0 64bd
000000f0: 20d2 7f3d ce5e 24bc 8b56 12bd a79d cd3c
00000100: 5cb3 02bd 7ac5 a13d 486a 433d 47a8 1e3d
00000110: 037b 703c 17eb 8a3c 75b0 863d dc9b b2bc
00000120: 73c4 813d 2e8b b7bd 52f2 24bd fc67 393c
00000130: 7392 8a3c 542e 503c 6310 b33d 3300 60bc
00000140: 62a9 f33b a1e1 5dbc f17e ec3c 7538 32bd
00000150: 08df a3bd 9e9e 303d bc3c 783d 4c75 a33d
00000160: a15a 683d 36f4 4d3d ef27 403c 7f4e 54bc
00000170: 5f6c f93d af05 a5bc a0c2 353d e616 c4ba
00000180: 356a 8cbc daa6 bd3b fe4b 623c f08a abbd
00000190: b9c2 4b3c fb7c 453d 5137 c23d 5d23 41bd
000001a0: c4c8 4ebd a403 d0bc 37d6 5ebd 8970 9d3d
000001b0: e45a 943c 063c 81bd 0f12 133d 07c6 acbd
000001c0: fe2d ccba 526d 173a 5722 8e3d 5ae5 0ebd
000001d0: 2cd4 ddbc 11a2 8e3c 4563 233d c544 bd3d
000001e0: c3f1 8cbd 145d a2bd 6268 6d3c d802 363d
000001f0: cdca 473d 5dbe 80bd ceeb a43d cb47 693c
00000200: 964b b9bc d008 06bc 17cb 21bd 0d0f abbc
00000210: 95fd 65bc 9cb4 00bc b0f8 3a3d e1aa 9c3d
00000220: 1a18 a8bd bea0 833c 79aa 8bbd 41b8 35bd
00000230: c6f2 873c 8b9a a0bd ff86 893d efbe 9ebd
00000240: a128 bcbc 0acf 553d 1239 55bc 59cd 87bb
00000250: 5c5b 9d3c d3d9 2bbd c0da ed3c 006c c03c
00000260: ef49 21bd e66f 61bd ce0c 64bd 206f c33d
00000270: f395 a2bb 2d91 a63d 702e ae3c 2b57 38bd
00000280: ddc9 813c 50be e73c 5b8e 09bd 3f7f 00bd
00000290: 2e9c 433d d2dc c7bc dd85 453d 8f21 63bd
000002a0: 7548 06bc 475d 7cba b958 17bd 31fa 933c
000002b0: eea9 96bc 1f05 0abd 3447 6c3d 1149 033c
000002c0: 0bf5 2fbc ce8c f13c fa2d 2ebd 374a 983c
000002d0: 866a 7ebc c1cf 1d3d 9ca5 32bd d8ea d33b
000002e0: defa 3dbd 348c 9abd 86d7 a63c 082b 31bd
000002f0: 63b1 893c dd5e 973d 6c88 a73d 8125 44bd
00000300: c4cd 07bd 6a8f 4a3d ea46 303d ca0b 5f3d
00000310: bef5 503c a0ff cbbc f006 ab3d 50eb a7bd
00000320: 2886 55bd 7eb2 8b3d 9c68 7ebc 901e 643d
00000330: 5641 c53c 3f08 973d 354c 823d ffe9 08bd
00000340: 0f18 9f3c c797 c83c 3201 83bd 773b 843d
00000350: 7212 473c 1a8c 663b 9adf 8dbd 5f94 3fbd
00000360: 0683 febc 57e0 f43c 5270 b13d 9058 723c
00000370: 23fd 913d 1aae fb3b 0b8d 5abc 4589 f43c
00000380: 2b59 653d cc2c 323d 0068 eebb 9f03 46bd
00000390: f977 23bc 0273 12bd b7ae 203d 9930 863c
000003a0: f891 603d 3c92 64bd f084 05bd b86a 3cbd
000003b0: acda c6bc 1116 f6bb 2067 a23c 0faf 963d
000003c0: 2533 c83c c2b1 91bc 996b 8cbc a07e 0fbc
000003d0: 4a90 713d 335a 463d 7c56 873d e652 38bd
000003e0: 5870 683d 237d 38bd b1ca 893d 1efd a0bd
000003f0: a9a0 2a3d 2cc8 84bd 0d13 f83c 9934 853c

pred_layers.0.0.bias f4 [32]
0.13433382 -0.0028701376 -0.081578754 -0.0016828711 0.122173905 0.056475874 0.11382504 -0.061631143
-0.074524336 0.07258415 0.064655095 0.06799286 -0.03835471 -0.012253007 0.04250027 -0.006250396
-0.035405096 -0.036543272 -0.04781127 0.0126113 -0.09530783 -0.024654828 -0.033112917 0.10097406
-0.030331312 -0.06688023 0.043834466 -0.02245406 0.04084756 -0.0350506 0.04320405 -0.10152748
00000000: ce8e 093e eb18 3cbb c312 a7bd c993 dcba
00000010: 5036 fa3d 3f53 673d 1a1d e93d f070 7cbd
00000020: 37a0 98bd 00a7 943d e469 843d d73f 8b3d
00000030: d419 1dbd d6c0 48bc c314 2e3d 1fd0 ccbb
00000040: ef04 11bd 66ae 15bd c0d5 43bd a09f 4e3c
00000050: c030 c3bd ecf8 c9bc 69a1 07bd 7dcb ce3d
00000060: 5f79 f8bc 81f8 88bd c58b 333d 94f1 b7bc
00000070: c54f 273d 3891 0fbd bbf6 303d a4ed cfbd

pred_layers.1.0.weight f4 [4, 32]
-0.07569398 0.061003868 -0.067675225 -0.117017716 -0.060335234 -0.13328077 -0.1687386 -0.15787841
0.08379714 -0.06721655 -0.051059123 -0.10826382 0.19140458 0.13619617 0.1283573 0.029924242
-0.030079292 -0.14318272 0.06916591 -0.0040066857 0.072410874 0.005539187 -0.06467624 0.10258127
0.14100212 0.057313185 -0.03670053 0.07910437 -0.010345112 0.12796052 0.006292143 -0.1682791
0.1543831 0.11145922 -0.11751785 0.10686255 -0.041516785 0.07690966 -0.10514469 -0.030222302
-0.009267146 -0.124487706 0.108455375 0.16104908 0.044831876 -0.12825882 0.07826028 -0.16310868
0.17555055 0.09644514 -0.1293852 -0.023642119 -0.052995693 -0.01935566 0.023042083 0.11586683
-0.118465684 0.026618274 0.0055126254 -0.09299123 0.08460205 0.0027049314 -0.07111704 0.06977089
0.039041456 0.085890405 0.042984147 0.13100061 -0.023029475 -0.07007348 0.05349736 -0.124719955
-0.08056584 0.10785185 0.14292295 0.2695364 -0.13191676 0.08005641 0.13966864 -0.02387503
-0.033648867 0.062348433 0.17103988 -0.015018961 -0.12947692 -0.042229965 -0.08772645 0.006333496
-0.020625774 -0.015531442 0.17944059 0.046408888 0.000106960746 0.07222048 0.016970716 0.08562782
0.06213642 0.007246625 -0.12036244 -0.013040414 0.11227429 0.17874606 0.19008014 0.121131726
-0.06626151 0.16101795 0.15365207 -0.075374775 0.15263821 0.019567855 0.08872473 0.05612396
0.038130365 -0.15782689 0.0031874964 0.05899422 -0.10825152 0.09411175 0.0454197 0.051268622
-0.13283144 -0.13182996 0.00663343 -0.12771338 -0.14021786 -0.17962028 -0.10840682 -0.14187008
00000000: 7205 9bbd 31df 793d 4f99 8abd fca6 efbd
00000010: 1422 77bd c17a 08be d0c9 2cbe e1aa 21be
00000020: d69d ab3d d5a8 89bd 5f23 51bd 6cb9 ddbd
00000030: 90ff 433e 0277 0b3e 1970 033e af23 f53c
00000040: d968 f6bc 7e9e 12be dba6 8d3d 844a 83bb
00000050: 274c 943d 1282 b53b fa74 84bd 2116 d23d
00000060: dc62 103e 3bc1 6a3d 4c53 16bd 7901 a23d
00000070: 8b7e 29bc 1508 033e 522e ce3b 5b51 2cbe
00000080: 9a16 1e3e bb44 e43d 33ad f0bd c1da da3d
00000090: 810d 2abd d082 9d3d 1956 d7bd c394 f7bc
000000a0: 3ad5 17bc 69f3 febd da1d de3d 0dea 243e
000000b0: a1a1 373d 4856 03be ed46 a03d f605 27be
000000c0: 86c3 333e 0885 c53d 8e7d 04be 1ead c1bc
000000d0: 0312 59bd c38f 9ebc c0c2 bc3c 974b ed3d
000000e0: 239e f2bd 910e da3c 41a3 b43b 3072 bebd
000000f0: d743 ad3d 3845 313b d0a5 91bd 0ae4 8e3d
00000100: efe9 1f3d 4fe7 af3d 2510 303d 0625 063e
00000110: 4fa8 bcbc af82 8fbd 0c20 5b3d 2d6d ffbd
00000120: b4ff a4bd 6ee1 dc3d 655a 123e ad00 8a3e
00000130: 3015 07be 9df4 a33d 4c05 0f3e 9195 c3bc
00000140: 65d3 09bd 1261 7f3d 1425 2f3e 1712 76bc
00000150: 9995 04be 54f9 2cbd eda9 b3bd 3789 cf3b
00000160: 62f7 a8bc 9777 7ebc 46bf 373e 3f17 3e3d
00000170: 1d50 e038 55e8 933d 2c06 8b3c a35d af3d
00000180: c282 7e3d 1975 ed3b 9580 f6bd 76a7 55bc
00000190: 10f0 e53d 3509 373e 5ea4 423e e913 f83d
000001a0: 1db4 87bd e4e1 243e f856 1d3e 175e 9abd
000001b0: 314d 1c3e c44c a03c 50b5 b53d 3de2 653d
000001c0: 962e 1c3d 5f9d 21be 51e5 503b eca3 713d
000001d0: f9b2 ddbd a9bd c03d 020a 3a3d 0cff 513d
000001e0: f704 08be 6ffe 06be 3e5d d93b 4cc7 02be
000001f0: 4595 0fbe 61ee 37be 6504 debd 6446 11be

pred_layers.1.0.bias f4 [4]
0.1769926 0.02773109 0.12608898 0.06617809
00000000: 8c3d 353e 502c e33c 781d 013e 6188 873d

pred_layers.2.weight f4 [4, 4]
0.02615564 0.026614722 0.2511834 0.2863944 0.35088286 -0.31544966 0.49241123 -0.0029361567
0.23224632 -0.45550275 0.16702832 -0.20723505 0.2796684 -0.3130294 0.018635456 0.3542925
00000000: 5a44 d63c 1e07 da3c 1c9b 803e 49a2 923e
00000010: eba6 b33e 9e82 a1be 531d fc3e 896c 40bb
00000020: fbd1 6d3e a837 e9be 7909 2b3e 6d35 54be
00000030: b230 8f3e 6445 a0be 62a9 983c d465 b53e

pred_layers.2.bias f4 [4]
-0.08181429 -0.34637582 0.10720399 -0.0033697144
00000000: 408e a7bd 2c58 b1be c48d db3d 6dd6 5cbb
