data/PredModel_tmp.pth (torch_old, 3468 bytes, 6 tensors)

cnn_layers.0.0.weight f4 [8, 16, 3]
000000 b2 1a 2f bd 2f 7b ca bd 17 59 29 be 17 12 ad bd
       -0.042750068 -0.09886777 -0.16537891 -0.08450716
000010 7a cc 0f 3e fb 1a 77 bd 4a 05 c8 3d a8 9e 0f 3e
       0.14042845 -0.060328465 0.09766634 0.14025366
000020 49 40 9a 3e bf 94 26 3e e1 96 7e 3e ba 6d 4a 3c
       0.3012717 0.1626768 0.24862243 0.012355262
000030 16 14 ad 3d 4a 3c 1e bd 11 2f d8 3d 29 53 d8 3c
       0.08451097 -0.038631715 0.10555852 0.026406841
000040 5a be cf bd a8 74 40 39 3c 4d 04 3e 57 3c 81 3d
       -0.101437286 0.00018354005 0.12920088 0.06310337
000050 97 d7 aa 3d 12 2e 04 3e 97 68 4f 3e fe 75 8a 3e
       0.08341902 0.129082 0.20254742 0.27043146
000060 08 15 00 bd dd c1 02 be e4 35 65 bd 8e 14 fe 3d
       -0.031270057 -0.12769265 -0.055959597 0.12406264
000070 c9 8f 09 bd 43 33 21 be 53 69 d3 bd 54 d6 6c bd
       -0.03358439 -0.15742211 -0.103228234 -0.057821587
000080 34 24 ed bd 70 e5 d3 3c a7 a9 00 be fe 39 a9 bd
       -0.11579171 0.02586624 -0.12564717 -0.08263014
000090 0a b0 03 3d 0d 34 59 3d d7 78 a7 3d 57 03 e8 3c
       0.032150306 0.053028155 0.08177345 0.028321905
0000a0 fc 81 e7 bd 37 96 c5 bc 4a 38 13 bc ed ad ad 3c
       -0.113040894 -0.02411948 -0.008985588 0.021201098
0000b0 fc 8e 0e 3e 78 6f 38 3d e7 0b b4 3d c7 fe d7 3d
       0.13921732 0.04502818 0.08791333 0.10546642
0000c0 8a 13 01 3e fe 37 fe 3d 0d 5b 87 bb a4 a3 e1 3d
       0.1260511 0.124130234 -0.004130727 0.1101754
0000d0 95 2a 02 3e 18 88 1f 3e be 25 5d 3e f0 3f e2 3d
       0.12711556 0.1557926 0.21596429 0.11047351
0000e0 9c 17 ad 3e f8 e9 3d 3e f7 83 23 3e 59 60 72 3e
       0.33807075 0.18546283 0.1596831 0.23669566
0000f0 7d df e5 3d 02 ed 0b 3d 48 93 1e 3e 96 a5 18 be
       0.11224268 0.034161575 0.15485871 -0.14906916
000100 d8 6b c0 bd 7f 8f 80 ba a7 4b 32 3e 8a 9d 25 bd
       -0.093955696 -0.000980839 0.17411672 -0.040433444
000110 fc 06 16 bc 76 bf 7c 3e 86 51 8a 3d cc b6 e7 3d
       -0.009156939 0.24682412 0.067538306 0.113141626
000120 20 4f cd 3d aa ab 1d be ef 85 c9 3d 4d d5 6d 3d
       0.100248575 -0.15397516 0.09839999 0.058064748
000130 95 09 a6 3c 8c 0f 19 be 24 cd eb 3d 60 9e 66 bd
       0.020268241 -0.14947337 0.11513737 -0.056303382
000140 78 b8 31 3e ca ec e5 3d 51 2b 13 bd e5 f6 12 be
       0.17355525 0.112268046 -0.03592998 -0.14351995
000150 d6 c2 23 3e df 55 f8 3d 67 d0 e5 3d d9 92 f6 3d
       0.15992293 0.121257536 0.1122139 0.12039728
000160 e3 e4 19 3e eb 1a a8 bd 6e 92 3e bd ae eb d0 3d
       0.1502872 -0.08208259 -0.046526365 0.10201202
000170 08 a2 fc bd ce ca c1 bc ad 14 cd 3d ca fd f4 3d
       -0.123355925 -0.023656275 0.10013709 0.11962469
000180 24 52 2b 3d ad 95 04 3c 37 c9 1f 3d 81 f1 f2 bc
       0.041826382 0.008092326 0.039010253 -0.029656174
000190 18 f4 e6 bd a7 05 eb bd 0c ea 92 3d fb 97 58 3d
       -0.11277026 -0.114756875 0.07173547 0.052879315
0001a0 d0 45 fe 3c 52 71 b5 3d b6 e4 8b 3d 79 05 74 3c
       0.031039149 0.08859505 0.068307325 0.014893883
0001b0 6f 95 c1 3d 0f 8e 72 3d 8c 7b 0b 3e b5 19 b0 3d
       0.0945233 0.05921751 0.13621348 0.08598653
0001c0 ec 9e dc bd 12 01 06 3d 12 77 70 3d 20 ad c3 3d
       -0.107724994 0.032715864 0.058707304 0.09554505
0001d0 aa f7 92 3d 74 0e a7 3d 95 90 10 3e 32 ab 19 3e
       0.071761444 0.081570536 0.14117654 0.15006712
0001e0 72 08 31 bd 59 5d e5 bd ed 9e 7e bd 6f 1a 36 be
       -0.043220945 -0.11199445 -0.062163282 -0.17783521
0001f0 8e 09 4f be a5 69 58 bc 6b e1 05 be 56 14 9b bd
       -0.20218489 -0.013208781 -0.13074271 -0.07572238
000200 c3 79 40 3d 81 09 a4 bc 75 b2 1c 3e 92 08 99 bd
       0.04699112 -0.020024063 0.15302451 -0.07472338
000210 8e 92 bc 3d 28 89 fd bc 07 8c f0 3d 76 87 14 3e
       0.092076406 -0.03094919 0.11745458 0.14504799
000220 8a 2d ad bd b8 b2 1e 3e 0a ef 2a 3d 31 ad 85 bd
       -0.084559515 0.15497863 0.04173187 -0.06527174
000230 14 fc c7 3d 7e 40 d9 3d ec a7 14 3e 08 11 81 bc
       0.09764877 0.10608004 0.14517182 -0.015755191
000240 64 3e 3c bb dd cf 33 bd 57 de 60 bd fe 54 07 3d
       -0.002872371 -0.043899406 -0.05489954 0.03304004
000250 81 e8 e1 bd 34 35 18 bd 90 65 ae bd 17 bd 18 3d
       -0.11030675 -0.037160113 -0.08515465 0.037289705
000260 99 7a 1f 3d 76 a1 40 bd be 34 1d 3e 12 40 ba bc
       0.038935278 -0.04702898 0.15352151 -0.02273563
000270 4f 22 e2 3d ef dd d0 bd e2 9d be bd 06 28 fb 3d
       0.110417 -0.101985805 -0.093074575 0.12263493
000280 55 f3 3c 3e 92 3e 07 3e f2 76 7c bd 93 57 2b 3d
       0.18452199 0.13207462 -0.061636873 0.041831564
000290 db 16 2c be 74 41 6c 3d 98 63 80 bd 58 df 14 3d
       -0.16805594 0.05767961 -0.06268996 0.03634581
0002a0 dd 4b d6 bc 70 f5 5f bc 11 89 a5 bd 77 01 1b 3e
       -0.026159221 -0.013669357 -0.08082784 0.15137278
0002b0 8a 58 9f bb 8d 0c 13 3e 98 43 a2 3d 42 a3 8e 3c
       -0.0048628496 0.14360256 0.07923049 0.017411832
0002c0 35 75 0f 3e 9f 67 52 3d 5b a1 e3 3d 88 5e a7 3d
       0.14009555 0.051368352 0.111147605 0.08172327
0002d0 53 ac 89 3c 2c d5 05 be 77 e4 28 3d 40 f9 e9 bd
       0.016805803 -0.130696 0.041233506 -0.11424494
0002e0 0c 97 04 bd e9 55 09 3e 8d 15 98 3d e2 3f fb 3c
       -0.032370612 0.13411678 0.074259855 0.03067011
0002f0 60 db af 3d 66 b0 2d be dd 01 a8 3c 25 fb 3c be
       0.08586764 -0.16961822 0.020508701 -0.18455179
000300 9d f9 19 bc 3b b6 a5 3d 70 05 dc 3d f0 76 20 3e
       -0.009397891 0.08091398 0.107432246 0.15670371
000310 95 91 04 3e 0c 14 9a 3d 8e ef 70 3d 4d b6 0b be
       0.1294616 0.07523355 0.058822207 -0.13643761
000320 c3 16 ce 3a 4d 44 34 bd 8a ac 87 3d 15 96 a8 3d
       0.0015723336 -0.04401045 0.06624706 0.08231751
000330 60 f7 7f 3d cc 8c 01 be 87 06 0b 3e 36 b6 9a 3d
       0.062491775 -0.12651366 0.13576709 0.07554285
000340 2a b1 9b 3d 73 dc 69 3d 82 55 dc bd 55 92 3d bd
       0.07602151 0.057095002 -0.10758497 -0.04628213
000350 8a ec 06 be 8a b4 13 3e ac 92 6b bd b7 9e ee bd
       -0.1317617 0.14424339 -0.057512924 -0.11651366
000360 5a 83 3c bd da a6 2a 3e 8c 70 8e bd 8d f4 16 3e
       -0.046023704 0.16665211 -0.0695506 0.14741726
000370 71 59 b6 bc 66 fa 0a 3e 0d cb 3f 3d 9a 98 14 3c
       -0.022259446 0.13572082 0.046824504 0.009069586
000380 98 2c ec bd eb c7 1b 3e 3d 9f 0c 3e b1 8f 3f bd
       -0.11531943 0.15212981 0.1373262 -0.046767894
000390 5d 39 2b bd f5 35 1f be 63 df 2b be 19 6e b2 3b
       -0.041802753 -0.15547927 -0.16784434 0.0054452536
0003a0 dd 9e 1b 3c 1e 5e e3 bd 63 c4 c0 bd ae 75 a9 bc
       0.009498325 -0.11101936 -0.09412458 -0.020685997
0003b0 b4 df 35 be e0 6c d5 bc 8f 9d 86 bd a3 1d fd bc
       -0.17761117 -0.026052892 -0.06573021 -0.030897921
0003c0 69 95 fc 3d 9a e0 8b 3d 66 22 bd 3d f7 d1 54 3b
       0.12333185 0.06829949 0.092350766 0.0032473782
0003d0 58 d7 08 3e 1c 62 e8 3d cd 4b 72 3e 04 08 03 3e
       0.13363397 0.11346838 0.23661728 0.12796026
0003e0 0f 18 68 3e a1 61 91 3e 3f 22 1b 3e 3b 3d 6b 3e
       0.22665428 0.28394797 0.15149783 0.22972576
0003f0 1a ea 6d 3e 27 ca bd bc 75 ef 01 3e 1e 76 24 3c
       0.23233834 -0.023167683 0.12689002 0.010037927

cnn_layers.0.0.bias f4 [8]
000000 a9 ce cc 3e a9 08 b3 3e 41 f7 09 3e aa b2 db 3e
       0.4000142 0.34967545 0.13473226 0.42909747
000010 f6 60 da 3e ed f0 a7 3e 6e b0 0e 3e 8e 5c fb 3d
       0.426521 0.32801 0.1393449 0.12273513

cnn_layers.1.0.weight f4 [4, 8, 3]
000000 6e ca 38 be 95 f1 14 3e e4 e8 dd bd 69 b7 f3 3c
       -0.18045971 0.14545281 -0.10835436 0.029750543
000010 b9 44 71 be f6 30 51 3d 8f 4d 7c be 5a 7d 6f be
       -0.23561372 0.051072083 -0.24638961 -0.23387662
000020 ea 21 55 be ae 7c 0c bd c3 a5 de 3c 8c aa f9 bd
       -0.20813718 -0.03429859 0.02717865 -0.12190732
000030 57 6f 09 be 84 41 0c be 9e 64 76 bc 16 93 f8 bd
       -0.13421379 -0.13696867 -0.015038637 -0.121374294
000040 4b be 47 bd c7 b1 e2 bc 3d 45 f4 3b d5 e0 c0 bd
       -0.048765462 -0.027672661 0.007454543 -0.09417883
000050 c1 c6 6a be 9d 9e c9 bd 67 59 01 be 8f 49 ab bd
       -0.22927381 -0.09844706 -0.1263176 -0.083636396
000060 63 d6 40 3e d1 6f 03 be 07 dd 79 ba b6 61 54 bb
       0.18831782 -0.12835623 -0.0009531532 -0.0032406873
000070 03 46 31 be 5c 3f e8 bd df 07 5d bd 39 bc 0d 3e
       -0.17311864 -0.1134021 -0.053962585 0.13841332
000080 ee 05 ba bd b4 6e 78 bd 98 19 5f bd 60 59 25 3e
       -0.09083162 -0.06065245 -0.054467767 0.16147375
000090 ad 8d 35 bd ed f0 16 3e f6 b0 23 bd d2 bd 4c be
       -0.044324566 0.14740343 -0.039963685 -0.19994286
0000a0 42 00 6a be 61 90 29 bc 19 70 ff 3d 5b ed a0 3c
       -0.22851661 -0.010349364 0.12472553 0.01964443
0000b0 aa b1 a4 3e 87 01 f1 3c 6a 4d 7c 39 64 2a 05 3e
       0.32166797 0.029419674 0.00024061432 0.13004452
0000c0 a5 9f a3 3e 11 7c 8b 3d 45 09 2c 3e 11 19 bb 3d
       0.31957737 0.06810773 0.16800411 0.091356404
0000d0 ce 8d e0 3e 97 00 40 3e 1c 95 fc 3c 91 89 65 3e
       0.43858188 0.18750225 0.03083282 0.22415759
0000e0 db 82 ca 3d 90 69 64 3e ca e5 8a 3e 43 b9 05 3e
       0.0988824 0.22305894 0.2712844 0.13058953
0000f0 41 97 99 3e 5e 88 0d 3e a6 84 b3 3e 89 c3 e6 3b
       0.2999821 0.13821551 0.3506214 0.0070423526
000100 a6 af d7 3e da 29 c2 3e c6 04 ad 3d 08 11 12 3e
       0.42126197 0.37922555 0.08448176 0.1426431
000110 b0 d2 1d 3b ec 18 f9 bc f2 c0 29 bd b2 07 df 3d
       0.0024081878 -0.030407391 -0.041443773 0.1089014
000120 e6 a2 37 be 36 8a 0c be 3b 52 ab bd 8f e7 13 be
       -0.17933235 -0.13724598 -0.083652936 -0.14443801
000130 e6 b3 d8 bd 1c 16 d8 3d bd 52 93 bd 5d 4e 23 3b
       -0.10581188 0.10551092 -0.071935154 0.0024918534
000140 ed 60 f7 bd ed 67 53 3e 0a 72 23 3d 04 db e8 3b
       -0.12079034 0.20645113 0.039903678 0.007106187
000150 72 be 61 bb dc 49 97 3d 3c a2 6d 3e f6 4e 29 be
       -0.003444579 0.073871344 0.23206419 -0.16534027
000160 74 a8 51 be 87 7b 2a be c6 3a 25 3e 9a 0c f8 3b
       -0.20474416 -0.16648684 0.16135702 0.0075698616
000170 ef 72 cc 3d c9 bb e2 3d 8d a9 09 3a e4 ed a0 3e
       0.09982859 0.110709734 0.00052514 0.31431496

cnn_layers.1.0.bias f4 [4]
000000 04 85 07 3e a6 89 6c 3d 1b 96 30 3e bf bc 66 3e
       0.13234335 0.05774846 0.1724476 0.22532938

pred_layer.weight f4 [5, 4]
000000 f5 5c e7 be 3b b7 dd 3e 49 32 96 3d c7 e4 f0 3e
       -0.45188108 0.43303856 0.0733381 0.47049543
000010 2d 34 a4 be 08 9d cb be fc ad 35 3e d4 31 9a 3e
       -0.32071057 -0.39768243 0.17742151 0.3011614
000020 93 46 43 3d b7 c1 b7 bd 2f 65 a3 3e 93 1d 8f be
       0.047674727 -0.08972495 0.31913134 -0.2795225
000030 0d 29 8e bb f9 02 18 bf f3 63 31 3b df ec b9 3e
       -0.0043383897 -0.59379536 0.002706763 0.3631353
000040 07 ba 79 3e 2c 4e 69 3e 7c 65 0b 3e 30 81 14 be
       0.2438737 0.22783726 0.13612932 -0.14502406

pred_layer.bias f4 [5]
000000 f7 64 4a be ad 66 7e bd df 02 cd 3b 8a 21 65 3d
       -0.19765078 -0.062109638 0.006256446 0.05594019
000010 ad ac 60 be
       -0.2194087
