data/Tracking.pth (torch_old, 503233 bytes, 365 tensors)

net.level1.conv.weight f4 [16, 3, 3, 3]
0	0x3c4d782e	0.01254086
1	0x3e08c38b	0.13355844
2	0x3d9677e7	0.07347088
3	0xbdf10c11	-0.117698796
4	0xbceb502a	-0.028724749
5	0x3e28c592	0.16481617
6	0x3e02a362	0.12757638
7	0xbc8bd62d	-0.0170699
8	0x3d8d463a	0.0689816
9	0xbd031c09	-0.03200916
10	0x3bf487cb	0.007462477
11	0xbd7f82ea	-0.06238071
12	0x3e25be74	0.16185933
13	0x3e52027a	0.20508757
14	0xbe3095a4	-0.17244583
15	0xbd2857b7	-0.041099276
16	0x3d40c94f	0.047066983
17	0xbe2e62de	-0.17029902
18	0x3eb0615d	0.34449282
19	0xbdd52c3d	-0.104088284
20	0xbe006027	-0.12536679
21	0xbe0256f0	-0.12728477
22	0x3e47a519	0.19496574
23	0xbda91a90	-0.082570195
24	0x3e1dcee7	0.15410958
25	0x3e069658	0.13143289
26	0x3d83acc8	0.0642944
27	0x3cb946a6	0.022616696
28	0x3e334ebe	0.17510507
29	0xbd354242	-0.04425264
30	0x3c7d754f	0.015469863
31	0xbdd98d70	-0.1062268
32	0xbd971da5	-0.07378701
33	0xbd528f93	-0.051406454
34	0x3c7db738	0.015485577
35	0x3c759615	0.014989396
36	0x3e8daef9	0.27672556
37	0xbda8dd15	-0.08245293
38	0xbe8ab2b9	-0.2708948
39	0x3d0c8e4a	0.034315385
40	0x3d6860bc	0.056732878
41	0x3d53f5dd	0.051748145
42	0xba02d2af	-0.0004990501
43	0x3dc9f834	0.09861794
44	0xbe0ab824	-0.13546807
45	0x3dbf6fd6	0.09347503
46	0x3d3c66b0	0.045996368
47	0x3c658bd7	0.014010391
48	0xbd30e8d2	-0.043190785
49	0xbcc50a7a	-0.024052847
50	0x3e5e53e9	0.21711697
51	0xbe73ef2e	-0.23821709
52	0x3d519c8b	0.05117468
53	0xbdcb4615	-0.099254765
54	0xbe79a1f6	-0.2437819
55	0xbdad7629	-0.08469803
56	0xbce2682c	-0.027637564
57	0xbd6d957c	-0.058003888
58	0xbc27a5ba	-0.010232383
59	0x3d478798	0.048713297
60	0xbd0f59f0	-0.03499788
61	0xbd04f88e	-0.032463603
62	0x3a5f317d	0.0008514149
63	0xbced1dc4	-0.028944857
64	0x3d788676	0.060675107
65	0x3e3106b3	0.17287712
66	0x3d965ad9	0.073415466
67	0xbeb6035f	-0.35549447
68	0xbcde8d02	-0.027166847
69	0xbcfa4983	-0.030552631
70	0x3e19f086	0.15033159
71	0xbe1ee3eb	-0.15516631
72	0x3dfef0c3	0.124482654
73	0x3be75941	0.0070602004
74	0x3d8b4379	0.06799979
75	0x3d3a2c3c	0.04545234
76	0x3e2940ea	0.16528669
77	0x3ccdd4ec	0.025125943
78	0x3da713a5	0.08158044
79	0x3dd38f0b	0.10330018
80	0xbda9134c	-0.08255634
81	0x3d582c53	0.052776646
82	0xbc1ca843	-0.009561601
83	0xbddc6d9b	-0.10763093
84	0xbe116f63	-0.14202647
85	0xbdde710b	-0.10861405
86	0xbc3c44f3	-0.011491048
87	0xbc63bfec	-0.013900738
88	0xbdcaeacf	-0.099080674
89	0xbe80488c	-0.2505535
90	0xbdddfa58	-0.10838765
91	0xbe07a2bd	-0.13245673
92	0xbdb68056	-0.08911197
93	0x3df9c2b6	0.12195341
94	0xbd17f90f	-0.037102755
95	0x3cbbcef4	0.022925831
96	0xbd060c81	-0.03272677
97	0xbbd36456	-0.00645117
98	0x3debdf78	0.11517233
99	0xbd749087	-0.059708145
100	0x3e139d8e	0.14415571
101	0x3dbff805	0.09373478
102	0x3e22084a	0.15823475
103	0x3e10aea9	0.14129128
104	0x3e20a157	0.15686546
105	0x3cd18546	0.025576245
106	0xba61a6aa	-0.0008607904
107	0x3d7ab0a8	0.06120363
108	0x3d7f1f1f	0.06228554
109	0xbc4af72d	-0.012388033
110	0xbd6017fa	-0.054710366
111	0xbd7a0ac6	-0.06104543
112	0xbe2c976c	-0.16854638
113	0xbdedfc92	-0.116204396
114	0xbce59c4e	-0.028028633
115	0xbc4045ec	-0.011735421
116	0x3d1a5570	0.037679136
117	0x3ca3d6a5	0.019999811
118	0x3b2f81e2	0.0026780297
119	0x3c8eb645	0.017420897
120	0xbba5a18b	-0.005054658
121	0xbd327184	-0.04356529
122	0xbc9a6b1c	-0.018849902
123	0xbc91ee51	-0.017813833
124	0xbca8fae0	-0.020627439
125	0xbe4da7d3	-0.20083551
126	0x3bb404c3	0.0054937317
127	0x3d0383ac	0.032107994
128	0xbc73328c	-0.014843594
129	0x3c1ff760	0.009763569
130	0x3e0e0e8e	0.1387274
131	0x3e90a918	0.28254008
132	0x3d746348	0.059664994
133	0x3dd04001	0.10168458
134	0x3dcd43f8	0.1002273
135	0xbe5427b9	-0.20718278
136	0xbe44b9c7	-0.19211493
137	0x3d8b7cee	0.06810938
138	0xbc8d5336	-0.017251592
139	0x3d07414f	0.033021268
140	0x3e16e652	0.14736298
141	0xbc565833	-0.013082552
142	0x3d7b5dcb	0.061368745
143	0xbc57f8e4	-0.013181899
144	0x3acc2ca7	0.0015577272
145	0x3dd0ad43	0.10189297
146	0xbcad9523	-0.021189278
147	0xbd8e3c93	-0.06945147
148	0x3e9ac5d0	0.30229044
149	0x3e7c848c	0.24659938
150	0x3d5c2c82	0.053753383
151	0xbdfceb3c	-0.12349555
152	0xbcb38bc4	-0.021917231
153	0x3e1addba	0.15123644
154	0xbd481e51	-0.048857037
155	0xbd4cac7a	-0.049969174
156	0x3db9f3a7	0.09079676
157	0x3e3e76f1	0.1860006
158	0xbd58e1ac	-0.052949592
159	0xbd942bdf	-0.0723493
160	0xbb9eaf79	-0.0048426953
161	0x3e35cc5c	0.17753738
162	0x3dcd995a	0.10039015
163	0x3d1613e2	0.036640055
164	0xbdd152b0	-0.102208495
165	0xbd8419be	-0.064502224
166	0x3d070c2f	0.032970604
167	0x3b84839d	0.00404401
168	0x3d90fc6e	0.07079397
169	0xbccc96a7	-0.02497418
170	0x3da5ee2d	0.08102069
171	0x3e0f8ae1	0.14017822
172	0x3d9acf4b	0.07559069
173	0xbd5f6f09	-0.05454925
174	0xbcf3bdd8	-0.02975361
175	0x3d8aad6e	0.0677136
176	0xbe4927f3	-0.19644146
177	0x3e3ce11b	0.18445246
178	0x3d4a77fd	0.049430836
179	0xbde3e006	-0.111267135
180	0xbda6155f	-0.08109545
181	0xbc54e377	-0.012993685
182	0xbc9ae228	-0.018906668
183	0x3c740a5d	0.014895049
184	0xbd85e4c5	-0.06537775
185	0x3d2959fb	0.041345578
186	0x3d762a85	0.060099144
187	0xbd7dd48d	-0.061970282
188	0x3e2282df	0.15870236
189	0xbd54ee76	-0.051985227
190	0x3a827857	0.0009954077
191	0xbe59171a	-0.21200219
192	0xbe3c8a62	-0.18412164
193	0x3e0d2409	0.13783278
194	0x3d813f46	0.063108966
195	0xbdcc1b13	-0.099661015
196	0x3da52d5c	0.08065292
197	0x3dd08409	0.10181434
198	0x3d5def05	0.054183025
199	0x37401aaf	1.1450305e-05
200	0xbd5253c5	-0.05134942
201	0xbdb576fd	-0.08860586
202	0xbd4e608e	-0.05038505
203	0xbda2dd32	-0.07952346
204	0xbc8ee644	-0.017443784
205	0xbeafc6fe	-0.34331506
206	0xbdf0f302	-0.117651
207	0x3df340df	0.118776076
208	0x3d61ad9e	0.055097215
209	0x3dc8f6c8	0.09812695
210	0x3e177b51	0.14793135
211	0x3cb6bcaf	0.022306768
212	0x3cd1e644	0.025622495
213	0x3df51260	0.119663954
214	0xbbdd06e2	-0.0067452053
215	0xbc5e553f	-0.013570129
216	0x3cf444f9	0.029818045
217	0xbd58dc87	-0.052944686
218	0xbe2411f9	-0.16022481
219	0x3c320b3d	0.010866937
220	0xbda0ecfe	-0.07857703
221	0xbd94e315	-0.07269875
222	0x3d52d5cc	0.051473424
223	0xba09f8ea	-0.00052632263
224	0x3bb26905	0.005444648
225	0xbcad775f	-0.021175085
226	0xbd977921	-0.073961504
227	0xbd3571ca	-0.04429797
228	0xbd83aad9	-0.06429071
229	0xbe62a39a	-0.22132722
230	0x3a2c6a3b	0.0006577109
231	0xbd4fa58f	-0.050695
232	0xbd1fe5d1	-0.03903753
233	0xbcde2aa7	-0.027119948
234	0xbc592140	-0.013252556
235	0x3e30c530	0.17262721
236	0x3e83a86c	0.25714433
237	0x3db06e73	0.086148165
238	0x3e7c3443	0.24629311
239	0x3ccd7810	0.025081664
240	0x3baffee0	0.0053709596
241	0x3ce50d9b	0.02796059
242	0x3db4c5ca	0.08826788
243	0xbd99125c	-0.07474205
244	0xbdd0b3df	-0.10190558
245	0xbc655bc4	-0.013998929
246	0xbdade4bb	-0.084908925
247	0x3e25dbce	0.1619713
248	0x3d85ff57	0.06542843
249	0xbccd9051	-0.02509323
250	0xbd44f714	-0.048087195
251	0xbe169476	-0.14705071
252	0xbdda1bb2	-0.10649814
253	0xbe541569	-0.20711292
254	0x3da90ebb	0.08254763
255	0x3ddf4ad0	0.10902941

net.level1.bn.weight f4 [16]
0	0x3f9bfc3a	1.2186348
1	0x3f667285	0.9001849
2	0x3f8f4691	1.119341
3	0x3f9e01ea	1.2344334
4	0x3f9ed8b5	1.2409884
5	0x3f8f3450	1.118784
6	0x3f7c139b	0.98467416
7	0x3f99a459	1.200328
8	0x3fa24cb9	1.2679664
9	0x3f93b378	1.1539145
10	0x3f9c77da	1.2224076
11	0x3f7afb10	0.9803934
12	0x3f9da97d	1.2317349
13	0x3f985d35	1.1903445
14	0x3f996704	1.1984563
15	0x3f958650	1.1681614

net.level1.bn.bias f4 [16]
0	0x3e68087d	0.22659488
1	0xbde976bc	-0.113996
2	0x3e44edb4	0.19231302
3	0x3e8aeb3a	0.2713259
4	0x3e6c23c9	0.23060526
5	0x3e11120c	0.1416704
6	0x3b9a2348	0.004703913
7	0x3e63d158	0.22247827
8	0x3e8a8a23	0.27058515
9	0x3e3e703c	0.18597502
10	0x3e6399b0	0.22226596
11	0xbaf9f648	-0.001907059
12	0x3e6ad0b5	0.22931178
13	0x3e5aa7fa	0.2135314
14	0x3e4ec20d	0.20191212
15	0x3e487d2b	0.19578998

net.level1.bn.running_mean f4 [16]
0	0x3e984ef9	0.2974775
1	0x3c6b273f	0.014352619
2	0x3d901d9f	0.070369
3	0x3dac850d	0.08423815
4	0x3df1eb5b	0.118124686
5	0x3eb647dc	0.356017
6	0x3ddfccf2	0.10927762
7	0xbdc553b7	-0.09635108
8	0x3de91de0	0.11382651
9	0xbec7923f	-0.38978764
10	0x3e73ba5f	0.23801564
11	0xbd87c7c4	-0.06629899
12	0x3eb93cb6	0.3617913
13	0xbde2f120	-0.11081147
14	0x3de4ef69	0.11178476
15	0xbd0d5fe8	-0.03451529

net.level1.bn.running_var f4 [16]
0	0x3f2c0dc6	0.67208517
1	0x3c319dbd	0.01084083
2	0x3c50bbb1	0.012740062
3	0x3d354394	0.0442539
4	0x3c48f500	0.012265444
5	0x3f067006	0.52514684
6	0x3dbf5982	0.09343244
7	0x3de56cc6	0.112023875
8	0x3c923c91	0.017851146
9	0x3f7a1d77	0.9770121
10	0x3e7576b3	0.23971061
11	0x3cde7f47	0.0271603
12	0x3f81d7cf	1.0143985
13	0x3e51ddab	0.20494716
14	0x3d9263f3	0.0714797
15	0x3e1cfffb	0.15332024

net.level1.act.weight f4 [16]
0	0x3d1c51f1	0.038164083
1	0x3eb2add9	0.3489826
2	0x3d7be7e0	0.06150043
3	0xbc606421	-0.013695748
4	0x3d0fca2b	0.03510491
5	0x3df90b6d	0.121603824
6	0x3e76bbc9	0.24095072
7	0x3ceec4ee	0.029146638
8	0x3c5e30b4	0.013561416
9	0x3d7f1773	0.062278222
10	0x3d672844	0.056434885
11	0x3e874bfe	0.26425165
12	0x3d361768	0.044455916
13	0x3d35459e	0.044255845
14	0x3d9803f4	0.07422629
15	0x3d8588ce	0.06520234

net.level2_0.eesp.proj_1x1.conv.weight f4 [4, 4, 1, 1]
0	0xbe282abd	-0.16422553
1	0x3ee9635a	0.45583612
2	0x3f4772e6	0.77909696
3	0xbf2943a6	-0.6611885
4	0xbe172bea	-0.14762846
5	0x3c50a1bb	0.012733872
6	0xbe8a6518	-0.27030253
7	0x3e82ee26	0.25572318
8	0x3d08ecf1	0.03342909
9	0xbf806383	-1.0030369
10	0x3d930aa3	0.07179763
11	0xbe7d9df0	-0.2476728
12	0xbf3a0fcd	-0.7268036
13	0x3e568f94	0.20953208
14	0xbda2589c	-0.07927057
15	0x3f15c5af	0.58504766

net.level2_0.eesp.proj_1x1.bn.weight f4 [4]
0	0x3f378890	0.7169275
1	0x3f379f49	0.71727425
2	0x3f37bdb8	0.7177386
3	0x3f376117	0.7163252

net.level2_0.eesp.proj_1x1.bn.bias f4 [4]
0	0xbd853ae8	-0.06505376
1	0xbce15f2f	-0.027511207
2	0xbc64ca90	-0.01396431
3	0xbd7eacd9	-0.06217656

net.level2_0.eesp.proj_1x1.bn.running_mean f4 [4]
0	0xbdd3a610	-0.10334408
1	0xbc612292	-0.013741152
2	0xbf0b811b	-0.54493874
3	0xbd5470db	-0.05186544

net.level2_0.eesp.proj_1x1.bn.running_var f4 [4]
0	0x3e3408e5	0.17581518
1	0x3e1c32be	0.15253732
2	0x3f277e0b	0.654267
3	0x3fa38288	1.277421

net.level2_0.eesp.proj_1x1.act.weight f4 [4]
0	0x3d2adf15	0.041716654
1	0x3e96b8f3	0.2943798
2	0x3e9297e9	0.28631523
3	0x3e762068	0.240358

net.level2_0.eesp.spp_dw.0.conv.weight f4 [4, 1, 3, 3]
0	0x3d73c1ce	0.059511
1	0xbcf74673	-0.03018496
2	0x3dd7dfa4	0.10540703
3	0x3d8e8c27	0.06960326
4	0x3ceb870e	0.028750923
5	0x3df1a304	0.11798671
6	0x3db23365	0.08701209
7	0x3e622f31	0.22088315
8	0x3e28d7c7	0.16488563
9	0x3e427a81	0.18992044
10	0xbe60d1a4	-0.21954972
11	0xbd79bea7	-0.060972836
12	0x3dc1f09a	0.09469719
13	0xbe2fc1be	-0.1716375
14	0xbd29b1c6	-0.041429304
15	0xbe5ef1b7	-0.21771894
16	0x3ea6b310	0.3255849
17	0xbdd9a8b9	-0.106278844
18	0x3e99ad19	0.30014876
19	0x3ca77562	0.020441715
20	0xbec34294	-0.38136733
21	0x3dd3b7e2	0.10337807
22	0x3ca7c3bd	0.020479077
23	0xbd295f24	-0.0413505
24	0x3e0ee602	0.13954929
25	0xbe77ff75	-0.24218543
26	0xbe326bd3	-0.17423944
27	0xbe54483c	-0.2073068
28	0xbe549726	-0.20760784
29	0xbd1b1389	-0.037860427
30	0xbb6f6859	-0.0036530702
31	0xbed15a33	-0.4088913
32	0x3dd4f0bb	0.10397478
33	0xbe294ac9	-0.16532435
34	0x3e463a00	0.19358063
35	0x3e09d190	0.13458848

net.level2_0.eesp.spp_dw.1.conv.weight f4 [4, 1, 3, 3]
0	0xbdd8300b	-0.105560385
1	0x3de0f690	0.10984528
2	0x3df5ef20	0.120085
3	0x3c7a61ac	0.015282076
4	0x3d8a2f91	0.06747354
5	0x3d5426f6	0.05179497
6	0xb98f2515	-0.00027302714
7	0x3d4b3607	0.04961207
8	0x3dc88a13	0.097919606
9	0x3e398f32	0.18121031
10	0xbe107c5e	-0.14109942
11	0x3db0628c	0.08612546
12	0xbcc826c2	-0.024432544
13	0xbd471e89	-0.048613105
14	0xbc8616de	-0.016368326
15	0x3ea41481	0.32046893
16	0xbf05cf98	-0.5226989
17	0x3e9c9f87	0.3059046
18	0x3e4e956e	0.2017419
19	0x3e50115a	0.20319119
20	0x3dee8102	0.116457
21	0x3d414461	0.04718435
22	0xbeb4a33a	-0.35280782
23	0x3bcb3430	0.0062012896
24	0xbd1e4f47	-0.038649824
25	0xbdb1ecc8	-0.086877406
26	0x3e192d07	0.14958583
27	0xbd26b429	-0.040699158
28	0xbe00ec74	-0.125902
29	0xbdf4cd3c	-0.11953208
30	0xbd9153da	-0.070960715
31	0x3da52527	0.08063727
32	0xbdf0105e	-0.11721872
33	0xbe41c2ff	-0.18922041
34	0xbb9c4824	-0.004769342
35	0x3ce55e01	0.027998926

net.level2_0.eesp.spp_dw.2.conv.weight f4 [4, 1, 3, 3]
0	0x3d82a616	0.06379335
1	0xbd52af6e	-0.051436834
2	0x3d226e44	0.03965594
3	0xbc816afb	-0.015798083
4	0xbb5b5add	-0.0033470907
5	0x3ddd2a80	0.10799122
6	0xbdaa10e0	-0.08304
7	0x3d58f18a	0.052964725
8	0x3d86d74b	0.065840326
9	0xbc8bda06	-0.017071735
10	0x3d164959	0.036691044
11	0xbd062129	-0.032746468
12	0x3d5253f4	0.051349595
13	0xbcec5f4f	-0.02885404
14	0xbe08058e	-0.13283369
15	0x3d5c9e07	0.053861644
16	0xbb70c2ad	-0.003673713
17	0x3c88f633	0.01671896
18	0xbccbba76	-0.024869185
19	0xbd8814c8	-0.06644589
20	0xbca7183a	-0.020397294
21	0xbe428586	-0.18996248
22	0xbe06206b	-0.13098304
23	0xbde073ad	-0.109595634
24	0xbdfb9906	-0.12285046
25	0xbc815b0e	-0.015790489
26	0xbd559ac2	-0.05214954
27	0x3e358e5d	0.17730089
28	0xbd87b7e3	-0.066268705
29	0xbcc91509	-0.024546163
30	0xbd8eebe9	-0.0697859
31	0x3c00fb2e	0.007872386
32	0x3eb95200	0.36195374
33	0xbe32ba47	-0.17453872
34	0x3cfa3fdb	0.030548027
35	0xbe25c69c	-0.16189045

net.level2_0.eesp.spp_dw.3.conv.weight f4 [4, 1, 3, 3]
0	0xbcae1faa	-0.021255333
1	0xbd12e72a	-0.035864986
2	0xbcbbb697	-0.022914214
3	0xbc705be4	-0.014670346
4	0xbc05dbea	-0.008170107
5	0xbc887bf6	-0.016660672
6	0xbd751a1e	-0.05983936
7	0xbc0e7198	-0.008694075
8	0xbc37df5d	-0.011222688
9	0xbca9bede	-0.020720895
10	0x3db82a39	0.08992428
11	0xbcd8de82	-0.026473287
12	0x3d4bd31d	0.04976188
13	0x3e421b7b	0.18955795
14	0x3e150bd3	0.14555292
15	0x3e73f6ff	0.2382469
16	0xbe0d8317	-0.13819538
17	0x3e480ccb	0.1953613
18	0x3cfb1ddb	0.030653885
19	0x3c348a31	0.0110192755
20	0x3b818cf8	0.0039535724
21	0x3cc66dba	0.024222244
22	0x3c9919a6	0.018688988
23	0xba771414	-0.0009425294
24	0xbead4de5	-0.3384849
25	0xbd4d8167	-0.050172236
26	0xbc5576a5	-0.013028775
27	0x3ae73fe4	0.0017642942
28	0x3d0049fd	0.03132056
29	0xbe55b7ab	-0.20870845
30	0xbdeb7bd2	-0.11498226
31	0x3eb3d2e4	0.35121834
32	0x3e073805	0.13204964
33	0xbd3bb110	-0.045823157
34	0x3cb31756	0.021861713
35	0x3e83fd6a	0.25779277

net.level2_0.eesp.conv_1x1_exp.conv.weight f4 [16, 4, 1, 1]
0	0xbdc234d6	-0.09482734
1	0x3e3b56f9	0.18294896
2	0x3e6c5bc3	0.2308188
3	0xbe252023	-0.1612554
4	0xbba715ec	-0.005099049
5	0x3e89edf6	0.26939362
6	0xbd8c7eef	-0.06860148
7	0x3dcaddd7	0.09905594
8	0xbd2ae671	-0.041723672
9	0x3d979f3a	0.07403417
10	0xbbc9227e	-0.006138145
11	0x3db5cb43	0.0887666
12	0x3e159b52	0.14610031
13	0x3dbb7a85	0.09154228
14	0xbe98bb98	-0.29830623
15	0xbdf82545	-0.121164836
16	0xbcfe5be6	-0.03104968
17	0x3e39a0e5	0.18127783
18	0x3e01857a	0.12648574
19	0x3e943889	0.28949383
20	0xbde01b6b	-0.109427296
21	0xbec68684	-0.38774502
22	0xbd8addd7	-0.06780594
23	0x3ebc8956	0.3682353
24	0x3e23ee20	0.16008806
25	0x3e78e84f	0.24307369
26	0x3d325dc5	0.043546457
27	0x3c040b43	0.008059326
28	0xbdaf2b97	-0.08553236
29	0x3ec6358d	0.3871273
30	0xbe6574b1	-0.22407795
31	0x3d81a36f	0.063300006
32	0x3e1bafa5	0.15203722
33	0x3e54d795	0.20785363
34	0x3e4c2cb0	0.19938922
35	0xbe0bfffb	-0.13671868
36	0x3e85dea1	0.26146415
37	0x3ecd98b0	0.40155554
38	0x3dd7bdff	0.10534286
39	0x3e947984	0.2899896
40	0x3e506466	0.20350799
41	0xbd888662	-0.066662565
42	0x3e9faa14	0.31184447
43	0xbe0bd36a	-0.13654867
44	0xbed10035	-0.4082047
45	0x3e5a6b13	0.21329908
46	0xbd8c04be	-0.06836842
47	0x3ed5ee66	0.41783446
48	0xbe6e2a38	-0.23258293
49	0x3e4f175f	0.20223759
50	0xbcbc8c74	-0.023016192
51	0xbc88be53	-0.016692316
52	0x3ead388d	0.33832207
53	0xbd4979d1	-0.04918844
54	0x3e8ad592	0.27116066
55	0x3e40a37e	0.18812367
56	0xbe07d005	-0.13262947
57	0xbd92719e	-0.07150577
58	0xbd8955b6	-0.06705801
59	0x3ca524ec	0.020159207
60	0xbd86c03c	-0.065796345
61	0xbe3b908f	-0.18316863
62	0x3dc9eaa5	0.09859208
63	0x3df1d141	0.1180749

net.level2_0.eesp.conv_1x1_exp.bn.weight f4 [16]
0	0x3f495a8a	0.78653777
1	0x3f371e48	0.7153058
2	0x3f4961c6	0.78664815
3	0x3f3570dc	0.70875335
4	0x3f41beac	0.7568157
5	0x3f4314cf	0.76203626
6	0x3f3c7f1d	0.7363146
7	0x3f37f4c1	0.7185784
8	0x3f507dee	0.81442153
9	0x3f36dc2d	0.7142971
10	0x3f47cf39	0.7805057
11	0x3f4402f8	0.7656703
12	0x3f454f9c	0.770746
13	0x3f4d9c8e	0.8031701
14	0x3f3a9571	0.7288428
15	0x3f33d1a3	0.70241755

net.level2_0.eesp.conv_1x1_exp.bn.bias f4 [16]
0	0xbd114682	-0.035467632
1	0xbcc69f6f	-0.024245946
2	0xbc0ef547	-0.008725471
3	0xbd20757e	-0.03917455
4	0xbd045ebb	-0.032316905
5	0x3d30096a	0.042977728
6	0xbd009501	-0.0313921
7	0x3ca8c874	0.020603396
8	0xbceeb5b0	-0.02913937
9	0x3d08de3f	0.033415075
10	0x3c614a11	0.013750569
11	0x3c152397	0.009102724
12	0x3c88d5b5	0.016703466
13	0x3d5617ee	0.052268915
14	0xbce9309a	-0.028465558
15	0x3c777cb8	0.015105419

net.level2_0.eesp.conv_1x1_exp.bn.running_mean f4 [16]
0	0x3d39adae	0.04533165
1	0x3d9f1789	0.07768161
2	0x3d01e1fc	0.031709656
3	0xbd5468f1	-0.051857892
4	0x3ded544f	0.11588346
5	0xbc89cfb8	-0.01682268
6	0x3db7ebbd	0.089805104
7	0x3cb0188d	0.021496082
8	0x3dd732b3	0.10507717
9	0x3e80b648	0.2513907
10	0x3dd1bcef	0.10241114
11	0x3c8e4367	0.017366124
12	0xbbaf0dcd	-0.0053422214
13	0x3e408eed	0.18804522
14	0xbd7820ff	-0.060578343
15	0xba2a2016	-0.00064897665

net.level2_0.eesp.conv_1x1_exp.bn.running_var f4 [16]
0	0x3c7ddd10	0.0154946
1	0x3c9e2e35	0.019309143
2	0x3b6a0e05	0.0035713923
3	0x3cc8de1e	0.024519976
4	0x3c89a9b8	0.016804561
5	0x3d312f81	0.043258194
6	0x3ca9d855	0.020733038
7	0x3d2d486f	0.042305406
8	0x3cfa66f6	0.030566674
9	0x3d613233	0.054979514
10	0x3d83cd02	0.064355865
11	0x3df38458	0.11890477
12	0x3cf1c3e3	0.029512351
13	0x3d633571	0.055470888
14	0x3c5d5b28	0.013510503
15	0x3c4cc297	0.012497566

net.level2_0.eesp.br_after_cat.bn.weight f4 [16]
0	0x3f35a593	0.7095577
1	0x3f382bff	0.7194213
2	0x3f3bab25	0.7330802
3	0x3f409c49	0.7523847
4	0x3f35b7ed	0.70983773
5	0x3f454182	0.7705308
6	0x3f42b1f5	0.7605279
7	0x3f372d82	0.71553814
8	0x3f369613	0.71322745
9	0x3f3c92aa	0.7366129
10	0x3f3703f3	0.714904
11	0x3f3ebde3	0.74508494
12	0x3f33599d	0.70058614
13	0x3f42b5c9	0.7605863
14	0x3f380e76	0.71897066
15	0x3f3abf43	0.7294809

net.level2_0.eesp.br_after_cat.bn.bias f4 [16]
0	0xbda49159	-0.08035535
1	0x3a61bfc9	0.0008611647
2	0xbd1757eb	-0.03694908
3	0xbb538e9c	-0.0032281047
4	0x3ca36071	0.019943448
5	0xbd5b7000	-0.05357361
6	0x3abe7670	0.0014531147
7	0xbb283cbc	-0.0025670966
8	0x3df104c6	0.117684886
9	0xbc893fa2	-0.016753975
10	0x3ccedcb5	0.025251726
11	0xbcf77fd9	-0.03021233
12	0x3b889789	0.004168455
13	0xbc563ad4	-0.013075549
14	0xbd462990	-0.04837948
15	0x3c82f847	0.015987528

net.level2_0.eesp.br_after_cat.bn.running_mean f4 [16]
0	0x3e1543fa	0.14576712
1	0xbd25f985	-0.040521163
2	0xbd4470b3	-0.04795904
3	0xbdf393af	-0.11893403
4	0x3e5f9d60	0.21837378
5	0xbcadcf9a	-0.021217156
6	0x3b303f2f	0.002689313
7	0xbe6d22da	-0.23157826
8	0x3e812457	0.25223038
9	0xbd04dadb	-0.03243528
10	0xbe150928	-0.14554274
11	0xbe5db092	-0.21649387
12	0x3e5d797a	0.21628371
13	0x3dc75496	0.0973293
14	0xbe53e09f	-0.20691155
15	0xbe059a85	-0.13047226

net.level2_0.eesp.br_after_cat.bn.running_var f4 [16]
0	0x3db1fadb	0.08690425
1	0x3c596311	0.013268248
2	0x3c39a693	0.011331218
3	0x3db099f9	0.08623118
4	0x3e194124	0.14966255
5	0x3c61ae01	0.013774396
6	0x3c170057	0.00921639
7	0x3e96e7a9	0.29473618
8	0x3e3d2cbe	0.18474099
9	0x3cc6e44c	0.024278782
10	0x3da437c3	0.08018448
11	0x3e82cd5f	0.2554731
12	0x3e265c02	0.16246036
13	0x3dad91c1	0.08475066
14	0x3e16ad62	0.14714578
15	0x3deec067	0.116577916

net.level2_0.eesp.br_after_cat.act.weight f4 [16]
0	0x3c709986	0.01468504
1	0x3dd538a5	0.10411195
2	0x3ddf42a8	0.109013855
3	0x3e39deff	0.18151473
4	0x3d8d2557	0.06891888
5	0x3d25a821	0.040443543
6	0x3db6f87e	0.08934115
7	0x3e653a2d	0.22385474
8	0x3e28859b	0.16457216
9	0x3e0b9094	0.13629371
10	0x3d523f8d	0.051330138
11	0x3e1423ed	0.1446683
12	0x3e0e4b59	0.1389593
13	0x3dd41092	0.10354723
14	0x3d7192e0	0.05897796
15	0x3d629053	0.05531342

net.level2_0.eesp.module_act.weight f4 [16]
0	0x3e800000	0.25
1	0x3e800000	0.25
2	0x3e800000	0.25
3	0x3e800000	0.25
4	0x3e800000	0.25
5	0x3e800000	0.25
6	0x3e800000	0.25
7	0x3e800000	0.25
8	0x3e800000	0.25
9	0x3e800000	0.25
10	0x3e800000	0.25
11	0x3e800000	0.25
12	0x3e800000	0.25
13	0x3e800000	0.25
14	0x3e800000	0.25
15	0x3e800000	0.25

net.level2_0.inp_reinf.0.conv.weight f4 [3, 3, 3, 3]
0	0x3d52a883	0.051430237
1	0xbe2b57ed	-0.1673276
2	0x3e69bb61	0.22825386
3	0xbdc2c188	-0.095095694
4	0xbe961419	-0.29312208
5	0x3cd367a6	0.02580626
6	0xbe83f007	-0.25769064
7	0x3d96a405	0.07355503
8	0x3e6361b0	0.22205234
9	0x3ef287a4	0.4736911
10	0xbc60b876	-0.013715854
11	0x3e0aaeb8	0.13543212
12	0xbe592ee9	-0.21209301
13	0xbd9682c1	-0.07349158
14	0x3ed85fb0	0.42260504
15	0xbbdf08b2	-0.0068064565
16	0xbeb35128	-0.35022855
17	0xbda4a7fb	-0.08039852
18	0x3d1ed817	0.038780298
19	0x3e45280b	0.19253556
20	0x3e797c87	0.2436391
21	0x3e24884e	0.16067621
22	0x3ee67bd1	0.4501634
23	0xbec14782	-0.3774987
24	0xbd4d7147	-0.050156858
25	0x3e96848e	0.29398006
26	0xbe521260	-0.20514822
27	0xbdb50b8d	-0.08840094
28	0x3edb39e0	0.42817593
29	0xbd818801	-0.06324769
30	0xbb626bd2	-0.003454913
31	0xbe27702c	-0.16351384
32	0xbd4fde53	-0.050749134
33	0xbd352f04	-0.04423429
34	0x3ca719e9	0.020398097
35	0x3e24dfd0	0.16101003
36	0x3e0ba40c	0.13636798
37	0x3db231f1	0.08700932
38	0xbc3bd534	-0.011464406
39	0x3cba8f79	0.022773491
40	0xbeb02c2c	-0.344087
41	0x3de66499	0.11249656
42	0x3c2f79f3	0.010710227
43	0xbe35c499	-0.17750777
44	0xbdd22e4a	-0.10262735
45	0xbe8c0d85	-0.27354065
46	0xbe462b18	-0.19352376
47	0x3e879872	0.26483494
48	0xbcec760e	-0.028864887
49	0xbdb498fe	-0.088182434
50	0xbdedb6a8	-0.116071045
51	0x3c83eb67	0.01610346
52	0x3df95be8	0.12175733
53	0xbeb5917f	-0.35462567
54	0xbe23d1a7	-0.15997945
55	0x3e0f893e	0.14017197
56	0x3e421778	0.18954265
57	0xbcc2835a	-0.023744274
58	0x3ecfaec5	0.40563026
59	0xbe64e592	-0.22353199
60	0xbd0deea5	-0.034651417
61	0x3eafe205	0.34352127
62	0x3eb3a682	0.35087973
63	0xbdea59c5	-0.114429034
64	0xbe32b35c	-0.17451233
65	0xbdd3ec6f	-0.103478305
66	0xbdcde86e	-0.10054098
67	0x3dd71240	0.10501528
68	0xbe9d9d6d	-0.3078417
69	0xbd0fa59a	-0.03507004
70	0x3c8e308b	0.017357131
71	0x3e837941	0.25678447
72	0xbc4a2217	-0.012337229
73	0xbdd93d8e	-0.10607444
74	0xbd17445e	-0.036930434
75	0x3eb37873	0.35052833
76	0xbde12d6e	-0.10994993
77	0x3e1b281e	0.15152022
78	0x3e0bcc3a	0.13652125
79	0xbd75470f	-0.05988222
80	0xbc924868	-0.017856792

net.level2_0.inp_reinf.0.bn.weight f4 [3]
0	0x3f49bfc2	0.78808224
1	0x3f50d874	0.8158028
2	0x3f591d4b	0.8481032

net.level2_0.inp_reinf.0.bn.bias f4 [3]
0	0xbcfbef79	-0.030753838
1	0xbc57484c	-0.0131397955
2	0xbc86da9f	-0.016461669

net.level2_0.inp_reinf.0.bn.running_mean f4 [3]
0	0x3ee07918	0.43842387
1	0xbecce91e	-0.40021604
2	0x3e4f9915	0.2027324

net.level2_0.inp_reinf.0.bn.running_var f4 [3]
0	0x3f34c6f4	0.7061608
1	0x3f0f329d	0.55936605
2	0x3f4664dd	0.77497655

net.level2_0.inp_reinf.0.act.weight f4 [3]
0	0x3e32abef	0.174484
1	0x3e321773	0.17391758
2	0x3e57cef2	0.21075037

net.level2_0.inp_reinf.1.conv.weight f4 [32, 3, 1, 1]
0	0xbdc5163c	-0.096233815
1	0x3e139f75	0.14416297
2	0xbe0b8b96	-0.13627467
3	0x3d7df971	0.062005464
4	0x3e3019e3	0.17197375
5	0xbe75997b	-0.2398433
6	0x3d9d7035	0.076874174
7	0x3e0a4b90	0.13505387
8	0xbd9e74bd	-0.0773711
9	0xb981a485	-0.00024727374
10	0xbe614863	-0.2200027
11	0xbd6c52f0	-0.057696283
12	0x3e72d56e	0.2371423
13	0xbeb5b472	-0.3548923
14	0xbe1bd0cd	-0.1521637
15	0xbe7587f2	-0.2397764
16	0xbdd60e41	-0.104519375
17	0xbe32f93a	-0.17477885
18	0xbe15d478	-0.14631832
19	0x3e6ac111	0.22925211
20	0xbee95e79	-0.4557989
21	0x3e1e5e34	0.15465623
22	0xbe4fd20b	-0.20294969
23	0xbe538f1a	-0.20660058
24	0xbbafe6d2	-0.005368092
25	0x3e55c493	0.20875768
26	0xbcf69d46	-0.03010429
27	0x3d51f400	0.051258087
28	0xbd967524	-0.073465616
29	0x3e2890af	0.16461442
30	0xbed0e69f	-0.4080095
31	0xbe5b0d18	-0.21391714
32	0x3e038c0a	0.1284639
33	0xbdae31fc	-0.085056275
34	0xbd929171	-0.07156647
35	0xbdf51d3b	-0.11968466
36	0xbd59c52e	-0.05316656
37	0x3d1a1539	0.037617896
38	0xbe0a0a6b	-0.13480537
39	0xbd192ac4	-0.0373943
40	0xbe2bd94b	-0.1678211
41	0x3e7c4bba	0.24638262
42	0xbe735e99	-0.23766555
43	0xbe3e8fe4	-0.18609577
44	0x3d41520d	0.04719739
45	0x3ca64e74	0.020301081
46	0xbe69205e	-0.22766253
47	0x3c8d4aa8	0.017247513
48	0xbde845ca	-0.11341436
49	0xbe13ea3f	-0.14444827
50	0x3de245d2	0.110484734
51	0xbe256c42	-0.16154578
52	0x3e16a060	0.14709616
53	0x3e6c668d	0.23085995
54	0x3d84791c	0.06468412
55	0xbd7a390a	-0.061089553
56	0x3d8b4477	0.06800168
57	0x3cf70392	0.03015307
58	0xbdeb2d0f	-0.114832036
59	0x3c6be7d5	0.014398535
60	0xbe27c7ba	-0.16384783
61	0x3c274e7f	0.010211586
62	0x3d05f16f	0.032700952
63	0xbd9721c4	-0.07379487
64	0x3cdf0d82	0.02722812
65	0xbe80b739	-0.25139788
66	0xbd8262d5	-0.06366507
67	0x3d041aa3	0.032251965
68	0xbe1ea47b	-0.15492432
69	0x3e41839e	0.18897864
70	0x3db6e85c	0.08931038
71	0xbe9b58ff	-0.30341336
72	0x3e414f74	0.18877965
73	0x3e4f9ebe	0.20275399
74	0x3e2f6e1c	0.17131847
75	0x3d986dec	0.07442841
76	0xbe1e57ed	-0.15463229
77	0xbe08e091	-0.13366915
78	0xbe3f13f9	-0.18659963
79	0x3d576d42	0.05259443
80	0xbd9a4fee	-0.07534777
81	0xbef03028	-0.4691174
82	0xbdf9410a	-0.12170608
83	0xbe723313	-0.23652296
84	0xbdc8d70c	-0.09806642
85	0xbe9d4a95	-0.30720964
86	0xbe77fa02	-0.24216464
87	0xbe504960	-0.2034049
88	0xbeae43da	-0.34036142
89	0xbe0a6894	-0.13516456
90	0x3dda8ac9	0.106710024
91	0xbe1e3687	-0.15450488
92	0x3cb689f9	0.022282587
93	0x3de298f6	0.11064331
94	0xbe2a3d6e	-0.16624996
95	0x3f157a51	0.58389765

net.level2_0.inp_reinf.1.bn.weight f4 [32]
0	0x3f5382ca	0.82621443
1	0x3f3dd549	0.7415357
2	0x3f4f3cb4	0.80952
3	0x3f45bffb	0.77246064
4	0x3f4256a7	0.7591347
5	0x3f440adb	0.76579064
6	0x3f4b4c14	0.7941296
7	0x3f3daa3a	0.7408787
8	0x3f4a2e16	0.7897657
9	0x3f52290b	0.82093877
10	0x3f3865ac	0.7203014
11	0x3f40f2d8	0.7537055
12	0x3f424de3	0.75900096
13	0x3f53a257	0.82669586
14	0x3f3ca78b	0.7369315
15	0x3f380828	0.71887445
16	0x3f40b191	0.75270945
17	0x3f3ef011	0.7458506
18	0x3f4934ca	0.78596175
19	0x3f3f91bd	0.74831754
20	0x3f3c2545	0.7349437
21	0x3f493020	0.7858906
22	0x3f40fef0	0.75389004
23	0x3f3a8b74	0.7286904
24	0x3f38f9f4	0.722564
25	0x3f49c9cb	0.78823537
26	0x3f3fb849	0.7489057
27	0x3f49fb9e	0.7889956
28	0x3f409ac9	0.75236183
29	0x3f37ec9b	0.71845406
30	0x3f3d752d	0.7400692
31	0x3f40543b	0.75128525

net.level2_0.inp_reinf.1.bn.bias f4 [32]
0	0xbcc015fe	-0.023447987
1	0xbbcdc0fd	-0.0062791095
2	0xbce97e7f	-0.0285027
3	0xbc480b40	-0.012209713
4	0x3ca183f1	0.019716235
5	0xbd017968	-0.031609923
6	0x3c5185b3	0.012788224
7	0xbba8be41	-0.005149633
8	0x3d0aafee	0.033859186
9	0xbd4fe276	-0.05075308
10	0xbc4dbdd3	-0.012557465
11	0x3d72328f	0.059130248
12	0xbc684376	-0.01417624
13	0x3d5d5cd0	0.05404359
14	0xbc8e9d94	-0.017409123
15	0xbc0a7a4f	-0.008452012
16	0xbd114682	-0.035467632
17	0xbcc69f6f	-0.024245946
18	0xbc0ef547	-0.008725471
19	0xbd20757e	-0.03917455
20	0xbd045ebb	-0.032316905
21	0x3d30096a	0.042977728
22	0xbd009501	-0.0313921
23	0x3ca8c874	0.020603396
24	0xbceeb5b0	-0.02913937
25	0x3d08de3f	0.033415075
26	0x3c614a11	0.013750569
27	0x3c152397	0.009102724
28	0x3c88d5b5	0.016703466
29	0x3d5617ee	0.052268915
30	0xbce9309a	-0.028465558
31	0x3c777cb8	0.015105419

net.level2_0.inp_reinf.1.bn.running_mean f4 [32]
0	0xbcac1b85	-0.021009216
1	0xbb86ee73	-0.004117781
2	0x3d0d5c59	0.034511898
3	0xbd9b4750	-0.07581961
4	0xbda59164	-0.08084372
5	0xbe08bc3b	-0.13353054
6	0xbdc380e4	-0.09546068
7	0xbd95d02c	-0.07315096
8	0x3d4d52d7	0.05012783
9	0x3d1a799a	0.037713625
10	0xbdfdc2d5	-0.12390677
11	0xbd930ace	-0.07179795
12	0xbd1fe63d	-0.03903793
13	0x3c36a732	0.011148261
14	0xbdc3806e	-0.095459804
15	0xbd608ab9	-0.054819796
16	0xbd196c6a	-0.037456907
17	0x3d7d8fb1	0.061904613
18	0x3c90cb6b	0.017675122
19	0xbca34c16	-0.019933742
20	0xbcee4b72	-0.02908871
21	0xbda168f4	-0.07881346
22	0xbd449661	-0.047994975
23	0xbc3d7ec9	-0.0115658725
24	0x3e15f901	0.14645769
25	0xbd738ee5	-0.059462447
26	0xbd55d627	-0.052206185
27	0xbe5900f2	-0.21191767
28	0xbe30f79f	-0.1728196
29	0xbe37c028	-0.17944396
30	0xbc1186f7	-0.008882276
31	0x3e0d734d	0.13813515

net.level2_0.inp_reinf.1.bn.running_var f4 [32]
0	0x3cf555a4	0.029948063
1	0x3d1346d6	0.035956226
2	0x3c027fda	0.0079650525
3	0x3c42745a	0.011868561
4	0x3d539d97	0.05166396
5	0x3c9d0235	0.019166091
6	0x3e1b3da3	0.15160231
7	0x3c3bf7c6	0.011472648
8	0x3c983f7b	0.018584957
9	0x3c94e0b6	0.018173557
10	0x3c90810c	0.01763966
11	0x3b8c5ce4	0.0042835344
12	0x3c2c0806	0.01049996
13	0x3d18e237	0.03732511
14	0x3c1542c3	0.0091101555
15	0x3cb11c15	0.021619836
16	0x3c2a7749	0.010404416
17	0x3bed4d41	0.0072418754
18	0x3bf34e0c	0.0074250754
19	0x3bd99c01	0.0066409116
20	0x3b838eb9	0.0040148166
21	0x3cdf4a23	0.02725703
22	0x3c561362	0.013066145
23	0x3cae24c4	0.021257766
24	0x3c3b9cfc	0.011451002
25	0x3bb70f15	0.0055865147
26	0x3c911d55	0.017714182
27	0x3d828ff1	0.06375111
28	0x3c83a8f4	0.016071774
29	0x3ca0121c	0.019539885
30	0x3c910f81	0.017707588
31	0x3e2ace8a	0.16680351

net.level2_0.act.weight f4 [32]
0	0x3db3ffa1	0.08788992
1	0x3dd3e1d2	0.10345806
2	0x3e59ed38	0.21281898
3	0x3dc8b576	0.09800236
4	0x3e4733f1	0.19453408
5	0x3df54617	0.11976259
6	0x3e168fab	0.14703242
7	0x3e129c9f	0.14317559
8	0x3d5b9868	0.053612143
9	0x3d8405dd	0.06446431
10	0x3dd5a3c0	0.104316235
11	0x3e1692b0	0.14704394
12	0x3d9c7f39	0.07641453
13	0x3df29c11	0.118461736
14	0x3e2c3ea6	0.16820773
15	0x3dabd217	0.08389681
16	0x3e24f39f	0.16108559
17	0x3e001d75	0.12511237
18	0x3e5333cd	0.20625229
19	0x3e86826c	0.2627138
20	0x3e15b218	0.14618719
21	0x3e446cc0	0.1918211
22	0x3dd43586	0.10361771
23	0x3e2ceb77	0.16886698
24	0x3e1f7c43	0.15574746
25	0x3e5ef03c	0.2177133
26	0x3e28e120	0.16492128
27	0x3e21f819	0.15817298
28	0x3e29390e	0.16525671
29	0x3e3e2e63	0.18572383
30	0x3e3d37c3	0.18478303
31	0x3e54e1e6	0.20789298

net.level3_0.eesp.proj_1x1.conv.weight f4 [8, 8, 1, 1]
0	0xbdc45f9e	-0.0958855
1	0xbe57107b	-0.2100238
2	0xbc3c784e	-0.011503292
3	0x3d8ce5c2	0.0687976
4	0xbe797d76	-0.24364266
5	0x3ed170a5	0.40906253
6	0xba6f47cd	-0.00091278256
7	0x3f00ba53	0.5028431
8	0xbd7490a6	-0.05970826
9	0xbe8df532	-0.27726132
10	0x3d90d222	0.0707133
11	0xbd245fc7	-0.040130403
12	0xbd43e894	-0.047829226
13	0x3e439b60	0.1910224
14	0x3db33a1f	0.0875132
15	0x3e4d4dba	0.20049182
16	0xbed27904	-0.41107953
17	0xbedf31ec	-0.43592775
18	0x3f289e0f	0.6586618
19	0x3d4b86d4	0.04968913
20	0x3f07dc57	0.53070587
21	0x3b3e6e02	0.002905727
22	0x3df4db05	0.11955837
23	0xbd94d727	-0.072675996
24	0xbcf1d660	-0.029521167
25	0xbded93fd	-0.11600492
26	0x3e93a849	0.2883933
27	0x3e8124e2	0.25223452
28	0xbd2e8120	-0.042603612
29	0x3edd812a	0.43262607
30	0x3dad60ae	0.08465706
31	0xbdb44dc3	-0.08803894
32	0xbf5341a8	-0.8252206
33	0x3e7f2dcd	0.24919815
34	0xbcc8e738	-0.024524316
35	0xbe903b06	-0.2817003
36	0xbc28518b	-0.010273348
37	0x3d094271	0.03351063
38	0xbdfab7db	-0.12242099
39	0xbe9caae9	-0.30599144
40	0x3eaf57ed	0.3424677
41	0xbe92d656	-0.2867915
42	0xbea94fbe	-0.3306865
43	0xbb376f03	-0.0027989752
44	0xbefc99bd	-0.49336043
45	0xbaecc1dc	-0.0018063146
46	0x3e1ad121	0.15118839
47	0x391294bf	0.00013979057
48	0xbf2ff7a3	-0.6873724
49	0x3e9bdd5d	0.30442324
50	0xbeaa7ba3	-0.33297452
51	0xbea53a6c	-0.32271135
52	0x3d66bb5c	0.056331024
53	0xbc8f27c1	-0.01747501
54	0x3e395487	0.18098651
55	0xbcab9340	-0.020944238
56	0x3da3a82b	0.0799106
57	0xbd8820f1	-0.06646908
58	0x3cf3b4f8	0.029749379
59	0x3e5254ae	0.20540115
60	0x3eacb093	0.33728465
61	0xbebbf1d0	-0.36707926
62	0x3f4140a2	0.75489247
63	0x3e1881fb	0.14893334

net.level3_0.eesp.proj_1x1.bn.weight f4 [8]
0	0x3f37942e	0.7171048
1	0x3f378d6a	0.71700156
2	0x3f3791e8	0.7170701
3	0x3f3791f0	0.7170706
4	0x3f3792ec	0.7170856
5	0x3f378d64	0.7170012
6	0x3f37928a	0.71707976
7	0x3f378d5c	0.7170007

net.level3_0.eesp.proj_1x1.bn.bias f4 [8]
0	0x3bc6edb4	0.006070817
1	0x3cd5cc2b	0.026098331
2	0x3b8206da	0.003968102
3	0x3c5f9697	0.013646743
4	0x3b64b16e	0.0034895795
5	0x3ca7f083	0.020500427
6	0x3b28695c	0.0025697565
7	0x3cdccfe1	0.026954593

net.level3_0.eesp.proj_1x1.bn.running_mean f4 [8]
0	0x3e4dbb63	0.20091014
1	0x3dc267ce	0.094924554
2	0x3ebb09ee	0.36531013
3	0x3f04d0ff	0.518814
4	0xbe7a6663	-0.2445312
5	0xbe5a48ba	-0.21316805
6	0xbe837077	-0.2567174
7	0x3ed4ee25	0.4158794

net.level3_0.eesp.proj_1x1.bn.running_var f4 [8]
0	0x3ddca613	0.10773864
1	0x3cce9c9a	0.025221158
2	0x3eb88337	0.3603761
3	0x3dfab6b7	0.12241881
4	0x3df9dec3	0.122006916
5	0x3e646612	0.22304562
6	0x3f495e6b	0.78659695
7	0x3efb845d	0.49124423

net.level3_0.eesp.proj_1x1.act.weight f4 [8]
0	0x3d660052	0.05615265
1	0x3db26bd2	0.08711971
2	0x3dcc4fd5	0.09976164
3	0x3d81f66f	0.063458316
4	0x3e2aa88e	0.16665861
5	0x3db5b85b	0.08873054
6	0x3dd65aff	0.10466575
7	0x3deb7ae9	0.114980526

net.level3_0.eesp.spp_dw.0.conv.weight f4 [8, 1, 3, 3]
0	0xbd2b6404	-0.04184343
1	0xbe83f5da	-0.25773507
2	0xbdb26e4c	-0.08712444
3	0x3df5e986	0.12007432
4	0xbd852802	-0.065017715
5	0x3df7cc14	0.12099472
6	0xbd9fe9f2	-0.078082934
7	0x3e0df800	0.13864136
8	0x3e07cd84	0.13261992
9	0x3dd1f4c3	0.10251763
10	0x3d823139	0.06357045
11	0xbcd772d0	-0.026299864
12	0xbd116a43	-0.03550173
13	0xbc5fc2ae	-0.013657255
14	0x3c381ac6	0.011236852
15	0xbd8f0ffb	-0.0698547
16	0xbe22547b	-0.15852539
17	0xbca60169	-0.020264344
18	0xbe0e23ab	-0.13880794
19	0x3e544596	0.2072967
20	0xbe1832d3	-0.14863138
21	0xbce444b5	-0.027864793
22	0x3d85b719	0.06529064
23	0x3c93d5b6	0.018046241
24	0x3d903716	0.07041757
25	0xbdc7bde0	-0.09753013
26	0x3df118ef	0.11772334
27	0x3bbca78b	0.0057572774
28	0x3d259d22	0.040433057
29	0x3c025031	0.007953689
30	0xbcd89d9d	-0.026442343
31	0x3de71771	0.11283768
32	0xbc9dbb80	-0.019254446
33	0xbcb3d951	-0.02195421
34	0xbe106925	-0.1410261
35	0x3bf97482	0.0076127658
36	0x3d82e048	0.063904345
37	0x3c985bd0	0.018598467
38	0x3dbc9485	0.09208015
39	0xbca353a9	-0.019937353
40	0xbddb4678	-0.107068
41	0xbdce8e34	-0.10085717
42	0xbc255f32	-0.010093497
43	0x3c2d3614	0.010571975
44	0xbdbc5cf5	-0.09197418
45	0x3e23586a	0.15951696
46	0x3d4ebd68	0.0504736
47	0x3d3cd697	0.046103086
48	0x3d6bc583	0.05756141
49	0xbe9321f2	-0.28736836
50	0xbc9ad5d2	-0.018900786
51	0xbd419d53	-0.047269177
52	0xbde81baa	-0.113334015
53	0xbd46a1e2	-0.048494227
54	0x3d0911b1	0.033464137
55	0xbcef3e3c	-0.02920448
56	0xbb03dcae	-0.002012055
57	0x3db97e13	0.0905725
58	0xbda594ac	-0.080849975
59	0x3d1b5e11	0.037931506
60	0x3dfa78f7	0.122301035
61	0x3d6c2d6c	0.057660505
62	0xbd6862e7	-0.056734946
63	0x3d080b85	0.03321411
64	0x3c940628	0.018069342
65	0xbdba864a	-0.09107645
66	0xbc940bb9	-0.018071996
67	0xbde7a4d4	-0.11310735
68	0x3d22115b	0.039567333
69	0x3b9e45cc	0.004830098
70	0xbe233fc4	-0.15942293
71	0xbd8d949a	-0.06913109

net.level3_0.eesp.spp_dw.1.conv.weight f4 [8, 1, 3, 3]
0	0xbdb9cbc6	-0.0907207
1	0x3dcc61ad	0.09979568
2	0xbd978578	-0.07398504
3	0x3cbe4b76	0.023229342
4	0x3c9285af	0.01788601
5	0xbbddddd2	-0.006770828
6	0x3d1a437b	0.03766201
7	0xbd1c7de8	-0.03820601
8	0xbd9940d2	-0.074830666
9	0x3c9aad05	0.01888133
10	0x3ca11ec0	0.019667983
11	0x3c93ca89	0.018040912
12	0xbcb558b7	-0.02213703
13	0xbc7098fb	-0.014684911
14	0xbdec3cf7	-0.115350656
15	0xbbcb9f84	-0.006214084
16	0x3c87ad16	0.016562026
17	0xbd113234	-0.035448268
18	0xbb5a2752	-0.0033287597
19	0xbbf6a318	-0.0075267665
20	0xbcb4167b	-0.021983376
21	0xbccf218a	-0.025284547
22	0x3ccf27c0	0.025287509
23	0xba107fc6	-0.0005512204
24	0xbdceca22	-0.100971475
25	0xbd1556f1	-0.036459867
26	0xbde1d099	-0.11026115
27	0xbcdc6e51	-0.026908072
28	0x3cfb48dc	0.03067439
29	0xbdb3bf55	-0.08776728
30	0xbdb26b4c	-0.087118715
31	0xbc437f0e	-0.011932148
32	0x3cc15a78	0.02360271
33	0x3e24646f	0.16053937
34	0x3dd907c7	0.105971865
35	0x3cecd29c	0.02890902
36	0xbd0fd436	-0.03511449
37	0xbd636df0	-0.055524766
38	0xbcaeb299	-0.021325396
39	0x3e3c3b29	0.18381943
40	0xbcdfe6a0	-0.02733165
41	0x3cd06618	0.025439307
42	0x3c3cf943	0.011534038
43	0x3d08ccb9	0.033398364
44	0xbdd11a4b	-0.10210093
45	0xbd216da1	-0.03941119
46	0x3df59ce1	0.11992813
47	0xbcaac6d0	-0.020846754
48	0x3bb7687f	0.0055971737
49	0x3d8990fc	0.06717107
50	0xbd54ab19	-0.051920984
51	0xbd23e096	-0.040009104
52	0xbc8104bd	-0.01574933
53	0x3da533e2	0.080665365
54	0x3daf54a1	0.085610636
55	0x3e4455e0	0.19173384
56	0x3d35a00e	0.044342093
57	0xbdfdce79	-0.12392897
58	0xbc87ac7f	-0.016561745
59	0x3ab1872d	0.0013544314
60	0xb9cb3a37	-0.0003876255
61	0xbd18a60c	-0.03726773
62	0x3d0b7888	0.034050494
63	0xbdb69f88	-0.08917147
64	0x3dcd0dc6	0.10012393
65	0x3d1d4438	0.038395137
66	0x3d4f94df	0.050679084
67	0xbcf7b350	-0.03023687
68	0xbccf4119	-0.025299596
69	0x3cdbb404	0.026819237
70	0xbaf8cb8f	-0.0018981564
71	0x3e0d7b36	0.13816532

net.level3_0.eesp.spp_dw.2.conv.weight f4 [8, 1, 3, 3]
0	0x3d6cd9aa	0.057824768
1	0x3ccdd14c	0.025124215
2	0x3d39e50c	0.04538445
3	0xbd3ffe48	-0.04687336
4	0x3c7b66e1	0.015344352
5	0x3cb4005c	0.021972828
6	0x3c36056c	0.011109691
7	0x3e298241	0.16553594
8	0x3b6ac1b7	0.003582103
9	0xbbd33b0e	-0.006446249
10	0x3c981014	0.018562354
11	0xbe12343a	-0.14277735
12	0x3d0aa595	0.033849318
13	0xbbc068b3	-0.005871856
14	0x3d2894e3	0.041157614
15	0x3c7e9235	0.015537788
16	0xbbfa0ead	-0.007631144
17	0x3daf6f52	0.085661545
18	0xbd287656	-0.04112848
19	0xbdb1fb87	-0.08690553
20	0x3c04933f	0.008091747
21	0xbd70b372	-0.058764882
22	0xbe02ab8d	-0.12760754
23	0x3dc5d488	0.09659678
24	0x3c248fab	0.010044019
25	0xbc30fc18	-0.010802291
26	0x3d3f4c96	0.046703897
27	0x3d947782	0.07249357
28	0xbdac2582	-0.084055915
29	0xbba51f40	-0.0050391257
30	0x3e551eec	0.20812577
31	0x3c4156de	0.011800496
32	0x3daac441	0.08338214
33	0x3c310cba	0.010806257
34	0x3d466b64	0.04844226
35	0x3d80b58b	0.062846266
36	0xbcca00c9	-0.024658578
37	0x3d1d2e89	0.038374458
38	0x3cd9e717	0.02659945
39	0x3c8c459c	0.017123036
40	0xbe36bffb	-0.17846672
41	0x3cb1b8c5	0.02169455
42	0x3bf79e7e	0.0075567355
43	0xbdad2e14	-0.08456054
44	0x3c96ea2f	0.018422214
45	0x3c42cef9	0.011890166
46	0xbdf68bb6	-0.120383665
47	0x3cdb7f3b	0.026794067
48	0xbbc8dd33	-0.0061298846
49	0x3d18f215	0.037340242
50	0x3cc75c4c	0.024336003
51	0xbc6892d6	-0.014195165
52	0xbd7532c8	-0.059862882
53	0x3cf2075a	0.029544521
54	0xbb985a4e	-0.004649437
55	0xbc53f7f6	-0.012937536
56	0xbd7fe660	-0.062475562
57	0x3c379d2a	0.011206904
58	0xbc5a4e1f	-0.01332429
59	0xbdf2502a	-0.11831696
60	0x3d905c89	0.070489
61	0xbdcbdb97	-0.09953993
62	0x3d6783ec	0.056522295
63	0x3d1d6786	0.038428806
64	0x3d10aa28	0.035318524
65	0x3a8e4e9b	0.0010857166
66	0x3d1c4a41	0.03815675
67	0xbdfd7045	-0.12374929
68	0x3d53e5b0	0.05173272
69	0x3bef944f	0.007311381
70	0x3d75b20c	0.05998425
71	0xbafbc422	-0.0019208232

net.level3_0.eesp.spp_dw.3.conv.weight f4 [8, 1, 3, 3]
0	0xbdc79ab0	-0.09746301
1	0xbd738aec	-0.059458658
2	0x3bc69fa6	0.006061512
3	0xbdd4af86	-0.10385041
4	0x3cfaf040	0.030632138
5	0xbcee2679	-0.02907108
6	0xbd537284	-0.051622882
7	0x3d277a74	0.040888265
8	0x3beccf50	0.007226862
9	0xbe3d02d1	-0.18458106
10	0x3ca8c6e3	0.02060265
11	0xbc3bb752	-0.011457281
12	0xb9dcc073	-0.00042105056
13	0x3d03d598	0.03218612
14	0xbb916b4e	-0.0044378405
15	0xbd9492c3	-0.07254555
16	0x3be763ee	0.007061473
17	0x3e10a6b3	0.1412609
18	0x3d1de778	0.038550824
19	0x3bc4ca86	0.006005588
20	0x3e2ad702	0.16683581
21	0x3d73b08d	0.059494544
22	0xbd935714	-0.07194343
23	0xbdbe6a36	-0.09297602
24	0x3d1dfc3a	0.03857062
25	0x3dda6f4f	0.10665762
26	0x3d3cddc7	0.04610994
27	0xbd12c645	-0.035833616
28	0x3a1e9394	0.00060492125
29	0xbcb86403	-0.022508627
30	0x3d815349	0.063147135
31	0xbd98f0a5	-0.07467774
32	0x3c34676c	0.011010986
33	0xbd6914e4	-0.05690469
34	0x3cb893fc	0.022531502
35	0xbda2b516	-0.07944696
36	0x3bbc5b29	0.005748172
37	0x3b8414ec	0.0040308144
38	0xbc7584dd	-0.01498529
39	0x3bbd78ac	0.0057822075
40	0xbb39b5c8	-0.002833711
41	0xbd94eef1	-0.07272137
42	0x3c3fa4e0	0.011697024
43	0xba5f88c9	-0.00085271575
44	0x3c604797	0.013688943
45	0xbc83fdca	-0.016112227
46	0xbc0403cb	-0.008057545
47	0xbbf93ec1	-0.007606358
48	0xbbff1040	-0.0077839196
49	0xbdcf48ca	-0.10121305
50	0xbb45642d	-0.0030119524
51	0xbc8b5029	-0.017005997
52	0xbc87c995	-0.016575614
53	0xbc3b8002	-0.011444094
54	0xbda6c615	-0.0814325
55	0xbd5f74fc	-0.054554924
56	0x3dbdb775	0.09263507
57	0x3d6123da	0.05496583
58	0x3d61a131	0.055085365
59	0xbe48ab55	-0.19596608
60	0xbda1be9d	-0.07897685
61	0x3dbd119b	0.092318736
62	0x3cf63bb9	0.030057775
63	0x3d0c6eff	0.03428554
64	0xbc9c50c3	-0.019081479
65	0xbd4d142b	-0.05006806
66	0xbc64a188	-0.013954528
67	0x3d1893b8	0.03725025
68	0x3c909035	0.017646888
69	0x3bdd98f7	0.0067626196
70	0x3d90d212	0.07071318
71	0xb9e8f09b	-0.00044429753

net.level3_0.eesp.conv_1x1_exp.conv.weight f4 [32, 8, 1, 1]
0	0x3e19b90c	0.15011996
1	0xbd463279	-0.04838798
2	0xbcf4c451	-0.029878767
3	0xbd21167a	-0.039328076
4	0xbe97e922	-0.29670054
5	0x3c9dca50	0.01926151
6	0x3c5b4f8b	0.013385664
7	0xbc84975f	-0.01618546
8	0x3cc1f432	0.023676012
9	0xbc2822b8	-0.010262184
10	0xbd2d54a2	-0.04231704
11	0x3d119751	0.035544697
12	0x3ce2166c	0.027598582
13	0xbc4d8d83	-0.012545946
14	0x3dd72277	0.105046205
15	0xbd6b8503	-0.057499897
16	0x3ec475bd	0.38371077
17	0x3d795dd2	0.06088049
18	0x3c52ec7f	0.012873768
19	0xbe298c2e	-0.1655738
20	0x3d902338	0.070379674
21	0x3e68cc79	0.2273425
22	0x3cb1f50c	0.021723293
23	0x3c382c96	0.011241099
24	0xbe64ab27	-0.22330914
25	0x3df933ce	0.12168084
26	0xbc1fc858	-0.0097523555
27	0x3dc13570	0.094340205
28	0x3e2621a2	0.16223767
29	0xbc20af1b	-0.009807373
30	0xbe2403cb	-0.16017072
31	0x3e4b9a2c	0.1988303
32	0xbcf5c96a	-0.030003268
33	0xbbf59d9c	-0.007495595
34	0xbd84e96b	-0.064898334
35	0xbdfc19e4	-0.12309626
36	0xbc86f442	-0.016473893
37	0x3c84499a	0.016148377
38	0x3d859d48	0.0652414
39	0x3d80bee1	0.06286407
40	0xbc11035b	-0.008850898
41	0x3df2eae4	0.11861208
42	0xbd3e19a4	-0.04641117
43	0x3d671919	0.05642042
44	0x3bc867d3	0.0061158924
45	0x3b15d790	0.002286408
46	0xbde9131f	-0.113806
47	0x3bc41edd	0.0059851245
48	0x3dcae2fc	0.09906575
49	0x3d3ec6de	0.046576373
50	0xbe0d478b	-0.13796823
51	0xbcf5999a	-0.02998047
52	0x3de30a41	0.1108594
53	0xbaf480f6	-0.0018654156
54	0x3c3f7e2e	0.011687798
55	0xbe9f72f0	-0.31142378
56	0x3ee0de87	0.43919775
57	0x3c8a7c0b	0.016904851
58	0xbc5c8100	-0.01345849
59	0x3c09ccef	0.008410676
60	0xbd37c7ff	-0.044868466
61	0xba9374d7	-0.0011250031
62	0xbcf4798d	-0.029843116
63	0x3cafd9b5	0.021466115
64	0xba954aeb	-0.0011390125
65	0x3e163f85	0.14672668
66	0x3e041688	0.1289922
67	0x3d0a45f8	0.033758134
68	0xbd181e38	-0.037138194
69	0x3c97dc14	0.018537559
70	0x3c4bdbd1	0.012442545
71	0x3bc6c5d4	0.0060660634
72	0xbd3feb46	-0.046855234
73	0xbe2e33a5	-0.17011888
74	0x3be73989	0.0070564193
75	0xbbd4988a	-0.0064879106
76	0x3b5dad7b	0.0033825326
77	0xbad23fb0	-0.0016040709
78	0xbea4e44c	-0.32205427
79	0xbe55c86b	-0.20877235
80	0xbd1579f0	-0.03649324
81	0xbd8d99d2	-0.069141045
82	0xbc8db1c1	-0.017296674
83	0x3a8e16b6	0.0010840509
84	0x3d52bba8	0.051448494
85	0xbc47399a	-0.012159729
86	0x3d6b1e9d	0.057402242
87	0x3c984e39	0.018591987
88	0xbd0fe686	-0.035131954
89	0x3c76ef03	0.015071633
90	0x3c7b1406	0.015324598
91	0xba21469b	-0.00061521836
92	0x3d11d1fd	0.03560065
93	0xbeaeffbd	-0.34179488
94	0xbc9c0012	-0.019043002
95	0x3cfd0324	0.030885287
96	0x3c6bffbe	0.014404235
97	0xbb89aefc	-0.004201768
98	0x3e84e752	0.25957733
99	0x3bbe8735	0.005814458
100	0x3dc4c1ad	0.09607253
101	0x3d9b5426	0.075844094
102	0x3d86aac5	0.065755405
103	0x3c546855	0.012964328
104	0xbcfc9f8b	-0.030837795
105	0x3d8e2c7d	0.06942079
106	0x3d886baf	0.06661164
107	0x3dcf029f	0.10107922
108	0xbbbcc5d9	-0.00576089
109	0xbe9217f4	-0.285339
110	0x3e26fb0c	0.16306704
111	0xbd11b045	-0.035568494
112	0xbcaf59a0	-0.021405041
113	0x3bdb49da	0.0066921534
114	0xbdaec19f	-0.08533024
115	0xbd666742	-0.056250818
116	0xbd2d20ce	-0.042267613
117	0xbe2d0f9c	-0.16900486
118	0xbe1d0f34	-0.15337831
119	0x3cf0a5fb	0.02937602
120	0x3da1fc94	0.079095036
121	0x3b50b18b	0.0031844105
122	0xbcca69e9	-0.024708705
123	0x3d1ab617	0.03777131
124	0x3e085229	0.13312592
125	0x3e272ad5	0.16324933
126	0x3c609f54	0.013709862
127	0x3b8f6f6f	0.0043772976
128	0x3dbef452	0.09323944
129	0x3cc2c3e6	0.023775052
130	0x3dcf2707	0.10114866
131	0x3e1412ff	0.14460371
132	0x3dabaac1	0.08382178
133	0x3ba0a747	0.0049027535
134	0xbc8b72ba	-0.01702248
135	0x3b054153	0.0020333126
136	0xbc15d531	-0.009145067
137	0x3dc2ab57	0.09505337
138	0xbcfac6c0	-0.03061235
139	0x3deac714	0.114637524
140	0x3d2151a7	0.03938451
141	0xbc0252c6	-0.007954305
142	0xbe426637	-0.18984304
143	0x3dfc99ca	0.123340204
144	0x3d81b7c2	0.06333877
145	0xbd7669f7	-0.06015965
146	0x3bbc9e79	0.005756196
147	0x3d4e005b	0.050293308
148	0x3ccdc370	0.025117606
149	0xbd8c6e21	-0.06856943
150	0x3d67c553	0.056584667
151	0x3dda1b37	0.10649722
152	0xbe3d5d77	-0.18492685
153	0xbdfe2219	-0.12408847
154	0xbe1f9ecc	-0.1558792
155	0xbdc9e8c5	-0.098588504
156	0x3e0c0e7a	0.13677397
157	0x3ddd89ce	0.108173
158	0xbc903b21	-0.01760632
159	0xbd3ef26b	-0.046617907
160	0xbb367004	-0.0027837763
161	0x3d1ab37e	0.037768833
162	0xbd468388	-0.04846528
163	0xbd25eb62	-0.04050768
164	0xbafcbe31	-0.0019282756
165	0x3dfde2fe	0.12396811
166	0x3e0d70f8	0.13812625
167	0x3de58a02	0.112079635
168	0xbdb5705d	-0.08859322
169	0xbbd30826	-0.0064401804
170	0xbd104a1a	-0.03522692
171	0xbe9d2757	-0.30694076
172	0xbd38bd96	-0.04510268
173	0xbda513d1	-0.0806042
174	0x3e0ce85c	0.13760513
175	0xbc6edb95	-0.01457872
176	0xbdb44368	-0.08801919
177	0xbd265f59	-0.040618274
178	0x3cfd8d4f	0.03095117
179	0x3c9479d2	0.018124495
180	0xbcd6120e	-0.026131656
181	0xbd65f81c	-0.05614482
182	0xba1e52cb	-0.0006039559
183	0xbd3b1c71	-0.04568142
184	0xbdd2dfc8	-0.10296589
185	0x3b52a869	0.0032143837
186	0x3ddfb26f	0.109227054
187	0x3d10931c	0.035296544
188	0x3e210b59	0.15726985
189	0xbe33b8c7	-0.17550956
190	0x3e7e1d6d	0.24815913
191	0xbe03f456	-0.12886176
192	0x3c6063cf	0.013695671
193	0xbb1bf82f	-0.0023799052
194	0xbc904d5f	-0.017615018
195	0x3e88b3c6	0.26699656
196	0x3bc2b962	0.0059425095
197	0xbb816fba	-0.0039500864
198	0x3d8910f9	0.066926904
199	0x3c11933b	0.0088852
200	0x3d50e009	0.050994907
201	0x3c8d5f33	0.017257309
202	0xbe3c7951	-0.18405654
203	0x3d641f8a	0.05569414
204	0x3d0bcef4	0.034132913
205	0x3b899e65	0.0041997903
206	0x3c2dc504	0.010606054
207	0x3d133fde	0.03594958
208	0x3e1c51f3	0.15265636
209	0xbe1d06d3	-0.15334634
210	0xbd1de6d3	-0.03855021
211	0xbdd897eb	-0.10575851
212	0x3c882837	0.016620738
213	0x3df51bd7	0.11968201
214	0xbcd8e81e	-0.02647787
215	0xbc867a37	-0.016415698
216	0x3d378da3	0.04481281
217	0xbe7c1cbb	-0.24620335
218	0x3cbc2f83	0.022971874
219	0x3d13bf7a	0.03607128
220	0xbae62f3f	-0.0017561688
221	0xbc81d9ca	-0.01585092
222	0xbcfcd603	-0.030863767
223	0x3c935020	0.017982543
224	0xbc40961e	-0.011754541
225	0xbda20d89	-0.07912738
226	0x3d6002f1	0.054690305
227	0xbd7d15d5	-0.0617884
228	0x3c337eec	0.0109555535
229	0xbbc617ad	-0.006045303
230	0xbe34bd22	-0.17650273
231	0x3cd8c8a6	0.026462864
232	0x3dc3ed4b	0.095667444
233	0x3ead7dea	0.33885127
234	0xbe9dd341	-0.30825236
235	0x3cb6eeaa	0.0223306
236	0x3cbdaac3	0.023152715
237	0xbdf042d7	-0.11731499
238	0xbc532ef1	-0.01288961
239	0x3e1caa3e	0.15299317
240	0x3e987968	0.29780126
241	0xbc88c1fd	-0.016694063
242	0xbcf90e3d	-0.030402297
243	0xbc8b9ce8	-0.017042592
244	0xbb5b7268	-0.003348494
245	0x3cec1240	0.028817296
246	0xbea4ce0c	-0.3218845
247	0xbdc4b1d1	-0.09604228
248	0xbbb0aac0	-0.0053914487
249	0x3b46d701	0.0030340555
250	0xbc6c0aac	-0.014406841
251	0x3c0266eb	0.007959108
252	0x3d34af85	0.0441127
253	0x3d35d64b	0.04439382
254	0xbd203c6f	-0.039120134
255	0x3daccd92	0.08437647

net.level3_0.eesp.conv_1x1_exp.bn.weight f4 [32]
0	0x3f372da6	0.7155403
1	0x3f37e472	0.71832955
2	0x3f38cadd	0.72184545
3	0x3f39ade8	0.72530985
4	0x3f376cdf	0.716505
5	0x3f37c303	0.7178194
6	0x3f37bb3c	0.7177007
7	0x3f3837f3	0.7196037
8	0x3f37e2fb	0.7183072
9	0x3f37f07b	0.7185132
10	0x3f3819e1	0.7191449
11	0x3f37d82a	0.71814215
12	0x3f393ad0	0.72355366
13	0x3f3798d5	0.7171758
14	0x3f385fc0	0.720211
15	0x3f38a0f6	0.72120607
16	0x3f38db15	0.7220929
17	0x3f3b37a8	0.731318
18	0x3f39a697	0.7251982
19	0x3f388b86	0.72087896
20	0x3f384774	0.7198403
21	0x3f378fff	0.71704096
22	0x3f37e67e	0.7183608
23	0x3f37800b	0.71679753
24	0x3f37d9a2	0.71816456
25	0x3f385729	0.72007996
26	0x3f3727c6	0.71545064
27	0x3f370069	0.71485
28	0x3f37e871	0.7183905
29	0x3f37fa6c	0.7186649
30	0x3f379d28	0.71724176
31	0x3f37f6b4	0.71860814

net.level3_0.eesp.conv_1x1_exp.bn.bias f4 [32]
0	0x3a5beeb6	0.0008389758
1	0x3ae4c30d	0.0017453149
2	0x3c8b1fc9	0.01698293
3	0x3c2928af	0.010324641
4	0x3c0b1d1a	0.008490825
5	0x3c1fc699	0.009751939
6	0x3bb1dc66	0.005427885
7	0x39548e54	0.00020270917
8	0xbab87390	-0.0014072526
9	0x3ba3a3e7	0.004993904
10	0x3c663643	0.014051023
11	0xbc86b7a3	-0.016444987
12	0x3be416f3	0.0069607436
13	0xbc2147c9	-0.009843775
14	0x3b9d544e	0.0048013097
15	0x3b5f7305	0.0034095657
16	0xbb8ebc48	-0.004355941
17	0x3c85805c	0.016296558
18	0x3cd04651	0.025424154
19	0x3c9ce25c	0.019150905
20	0xb9dedfd2	-0.000425099
21	0x3a18a977	0.0005823592
22	0x3c11897f	0.008882879
23	0x3894c218	7.093343e-05
24	0x3bdd7c7c	0.0067592245
25	0xbba4969a	-0.005022836
26	0x3b7f8634	0.0038989903
27	0xb9c3179c	-0.0003721089
28	0xbc1671ff	-0.009182452
29	0xbb8d6320	-0.004314795
30	0x3bf85945	0.007579001
31	0x3ba5c297	0.0050585973

net.level3_0.eesp.conv_1x1_exp.bn.running_mean f4 [32]
0	0xbd723825	-0.059135575
1	0x3c7632ec	0.015026789
2	0x3e20bd22	0.15697148
3	0x3d3ae0bd	0.045624483
4	0x3b31f739	0.0027155413
5	0xbab73cf0	-0.0013979953
6	0xbd91ca32	-0.07118644
7	0x3d8f17d9	0.069869705
8	0x3da88deb	0.08230194
9	0xbe6bd40b	-0.23030107
10	0xb99d4bd9	-0.00030001884
11	0xbd93dc3d	-0.072197415
12	0x3e0b117e	0.13580891
13	0x3cc45d31	0.023970218
14	0xbe020aad	-0.12699385
15	0x3dc2d5b3	0.09513416
16	0x3de2150d	0.11039171
17	0x3cadff34	0.021239854
18	0x3d2ff280	0.042955875
19	0xbde25eb7	-0.11053222
20	0x3dafff78	0.08593649
21	0xbdd912cf	-0.105992906
22	0xbd56255f	-0.052281734
23	0x3d3891fe	0.045061104
24	0x3dac4edd	0.084134795
25	0x3bf76598	0.0075499527
26	0xbc3ef8fa	-0.01165604
27	0xbd4fec87	-0.05076268
28	0xbd876878	-0.06611723
29	0x3d51ba06	0.051202796
30	0xbd418b80	-0.04725218
31	0x3cfbf416	0.030756038

net.level3_0.eesp.conv_1x1_exp.bn.running_var f4 [32]
0	0x3cb66fc3	0.022270089
1	0x3b67f872	0.0035395888
2	0x3d313f4a	0.043273248
3	0x3d0d17c1	0.03444648
4	0x3bc3e5e2	0.005978332
5	0x3bb70970	0.005585842
6	0x3c6b0714	0.014344949
7	0x3d261c56	0.040554367
8	0x3bc6c489	0.0060659093
9	0x3ca763d1	0.020433338
10	0x3acf1c53	0.0015801288
11	0x3cc3b3f9	0.023889529
12	0x3c81a9df	0.015828071
13	0x3c8c9b58	0.017163917
14	0x3c540d82	0.012942674
15	0x3c4884cd	0.012238693
16	0x3c4ac439	0.012375885
17	0x3c855cb2	0.016279552
18	0x3bd65ec1	0.0065420573
19	0x3c8b6241	0.017014625
20	0x3c1fb62a	0.009748021
21	0x3d261412	0.040546484
22	0x3b0f0fdf	0.0021829528
23	0x3c87946d	0.016550267
24	0x3cf145c8	0.02945222
25	0x3c13f23d	0.009029922
26	0x3c406c84	0.011744622
27	0x3c197516	0.009366294
28	0x3c1e8814	0.009675998
29	0x3d1d2f41	0.038375143
30	0x3d326a13	0.04355819
31	0x3b219af7	0.0024659017

net.level3_0.eesp.br_after_cat.bn.weight f4 [32]
0	0x3f37475a	0.7159325
1	0x3f374916	0.71595895
2	0x3f378f16	0.71702707
3	0x3f38060a	0.71884215
4	0x3f392e4b	0.7233626
5	0x3f378ce7	0.71699375
6	0x3f378178	0.7168193
7	0x3f3825a5	0.7193244
8	0x3f3760d5	0.7163213
9	0x3f37c552	0.7178546
10	0x3f37e8b2	0.7183944
11	0x3f37210c	0.715348
12	0x3f37f232	0.71853936
13	0x3f38105b	0.71899956
14	0x3f3806db	0.7188546
15	0x3f37a338	0.7173343
16	0x3f37a1b8	0.7173114
17	0x3f375ebf	0.71628946
18	0x3f375c2f	0.71625036
19	0x3f372a39	0.715488
20	0x3f393d38	0.7235904
21	0x3f378062	0.7168027
22	0x3f37bf49	0.71776253
23	0x3f3abc42	0.7294351
24	0x3f371d0e	0.7152871
25	0x3f38b80f	0.7215585
26	0x3f38299d	0.71938497
27	0x3f37f5f1	0.7185965
28	0x3f376ae6	0.7164749
29	0x3f3778a0	0.71668434
30	0x3f37b35d	0.7175806
31	0x3f374850	0.71594715

net.level3_0.eesp.br_after_cat.bn.bias f4 [32]
0	0xbb9ae549	-0.00472704
1	0xbb53d21c	-0.003232128
2	0x39b07be8	0.00033661653
3	0x3bad1887	0.005282465
4	0x3b726eab	0.0036992233
5	0x3b6c6d78	0.003607599
6	0x3b6ca7b6	0.0036110706
7	0xbb86293f	-0.0040942724
8	0xbc218bc2	-0.009859981
9	0x3bd51e47	0.0065038535
10	0xbc0f417e	-0.008743642
11	0xbc19df67	-0.009391642
12	0xbc1ee8ab	-0.009699027
13	0x3c5c434e	0.013443781
14	0x3cb684cf	0.022280125
15	0x3c00e6a8	0.007867493
16	0xbba361f8	-0.004986044
17	0xbc09e869	-0.008417227
18	0xbc34ced6	-0.011035642
19	0xbad00fd3	-0.0015873857
20	0xbc0aaea3	-0.008464488
21	0xbb1644db	-0.0022929225
22	0xbcab1575	-0.020884255
23	0x3bd8e262	0.006618784
24	0xb8dbdbf6	-0.00010483705
25	0x3a86f57f	0.0010296552
26	0xbb8b25ee	-0.004246465
27	0x3afe0932	0.0019381403
28	0xbbb68984	-0.0055705924
29	0xbbc046b5	-0.005867804
30	0x3b0f6ef9	0.0021886213
31	0x3c144ab2	0.009051012
