data/Tracking.pth (torch_old, 499885 bytes, 365 tensors)

net.level1.conv.weight f4 [16, 3, 3, 3]
000000 20 91 ae bd 50 65 99 bc 79 4e 73 bc 08 7f ed bc
       -0.08523774 -0.018725067 -0.014850252 -0.028991237
000010 0a ff e8 3b 26 c3 77 bd 65 cd 10 bc bb a9 dd bd
       0.007110481 -0.060488842 -0.008838032 -0.10823389
000020 61 38 08 be 1e f0 65 bc e0 14 20 bd 1a 52 b2 bd
       -0.13302757 -0.014034299 -0.039082408 -0.08707066
000030 59 91 b2 bd e0 ea 54 3d b0 ca f6 3b 67 07 1c bd
       -0.08719129 0.051981807 0.0075314865 -0.038092997
000040 80 22 f8 3c 0b a8 6c bd 80 d2 ef 3d 38 52 83 3d
       0.030289888 -0.057777446 0.117100716 0.06412166
000050 86 56 f6 3d 99 0f c7 3d e6 30 92 bc 8a 1f c6 3c
       0.12028222 0.09719772 -0.017845582 0.02418496
000060 11 50 a2 3d 18 df de 3c dc 50 3e 3e ea da 5d 3c
       0.07925428 0.027205989 0.18585533 0.013540963
000070 43 d8 3a 3d bf 1d b1 3c 06 da c4 3c 58 f7 8d 3a
       0.0456164 0.02162063 0.024029743 0.001083116
000080 c4 c9 58 bc 89 61 b4 bc 5f 7d 1c 3d a5 6c 18 3c
       -0.013231698 -0.022019165 0.0382055 0.009303247
000090 56 92 0b bd 36 ba ab bc 46 27 1a bd 55 89 03 bd
       -0.034075104 -0.020962816 -0.03763511 -0.032113392
0000a0 0e 69 cb bc 01 0a ee ba 13 76 13 bd 16 9a 20 bd
       -0.024830367 -0.001816094 -0.036001276 -0.039209448
0000b0 b7 8b 86 bc 84 d4 52 bd 3e 1c 12 3c 08 3f a8 3c
       -0.016424043 -0.051472202 0.008917866 0.020537868
0000c0 7d 38 cf bb b0 ef be 3c cb e5 8c 3c 5b 87 62 3b
       -0.0063238726 0.023307651 0.017199418 0.0034565541
0000d0 12 af 85 b9 d3 54 15 bd 03 eb 62 bd 69 e6 88 bd
       -0.00025498174 -0.036457848 -0.055399906 -0.06684572
0000e0 45 35 b4 3c 98 b8 8b bd 98 a2 65 bd ce 1f 7a bd
       0.021998057 -0.06822318 -0.056063265 -0.061065488
0000f0 c9 a0 d3 bd 52 0a 99 3d 4f 1f 02 3e 20 77 47 3d
       -0.10333402 0.074726716 0.12707256 0.04869759
000100 2d 34 26 3e a8 a1 08 3d 6e 56 f1 3d 26 a4 ae 3d
       0.16230841 0.033357292 0.11784063 0.085274026
000110 0a a4 81 bd 94 63 2b 3c 41 0b b5 bd e7 e9 f5 3d
       -0.06330116 0.010460753 -0.08840037 0.12007504
000120 4f 5c af bd f3 99 16 be 41 76 a3 3d 1b f3 25 3d
       -0.08562528 -0.14707164 0.079815395 0.040515047
000130 10 32 17 bc d4 c2 8e bb 23 87 98 bd 57 25 96 bd
       -0.009228244 -0.0043567214 -0.0744765 -0.07331341
000140 d9 cf 1f 3d 5f 36 97 3d 2b e4 77 3d 72 7b 3d bc
       0.03901658 0.07383417 0.060520332 -0.011565076
000150 ad 4c f6 bb e5 3b af ba 11 9f 68 3c cf d4 99 3d
       -0.0075164647 -0.001336929 0.014198081 0.07511293
000160 91 5e a7 bc 6b 14 68 bd 0d 61 b5 3b b8 24 48 bd
       -0.020430835 -0.056660097 0.005535251 -0.048863143
000170 ed 1f a5 bb b5 88 10 3a 8a bf a8 bd d1 4e 92 bc
       -0.0050392062 0.0005513535 -0.08239658 -0.017859848
000180 3e ec 0c bd 62 24 2e 3d 1e 9d 97 bd 09 f8 08 3d
       -0.034404986 0.042515166 -0.074030146 0.03343967
000190 5d 57 6c 3c 84 9a 54 3d 4f a7 99 bc 11 eb a5 bd
       0.014425126 0.05190517 -0.018756537 -0.08101476
0001a0 ac 18 b0 bd 96 0b 6d 3d dd 27 ab bd b3 de 52 3c
       -0.08598456 0.057872377 -0.08357213 0.012870478
0001b0 c9 f2 df bc d6 5e 2d bd b3 51 d0 bc d8 b6 24 bd
       -0.027337449 -0.04232677 -0.025429582 -0.040213436
0001c0 cf 68 80 bd 11 1e 23 bd b6 ea 4e bd a0 fc aa 3c
       -0.06269991 -0.039823595 -0.050516807 0.020872414
0001d0 5e 51 4d bd 2c c3 ca bc 5b fc dc 3b 42 90 a6 bc
       -0.050126426 -0.024751268 0.0067439503 -0.02033246
0001e0 cb 4a 68 bc 5a 86 44 bc e9 57 94 bc b1 d4 02 bb
       -0.014177988 -0.0119949225 -0.018108325 -0.00199632
0001f0 94 32 48 3b 03 7b 7f bc 36 fc 90 3d 48 20 32 3d
       0.0030547725 -0.015593293 0.070793554 0.043487817
000200 b6 dd 82 3d 97 06 8c 3d af 18 9b 3d 67 04 93 3d
       0.06389944 0.068371944 0.075730674 0.07178574
000210 f6 01 99 3d eb 27 52 bc a9 7d a7 3d 9e 16 f0 3d
       0.07471077 -0.0128269 0.08178265 0.11723064
000220 dd 38 42 3d 5a db 50 3d f9 47 ae bc 2a 40 14 bc
       0.04741751 0.05099044 -0.021274554 -0.009048501
000230 c4 4f 4a bc 15 02 0c be 90 ab f0 bd 04 be a4 bc
       -0.012348119 -0.13672669 -0.11751473 -0.020110138
000240 1c b8 b4 bb a2 b2 ba bc b1 80 26 3e d2 26 ab 3c
       -0.0055151116 -0.022790257 0.1626003 0.020892534
000250 78 7e c8 3c e7 32 af 3d db 9e a1 3d 85 f1 f3 bd
       0.024474367 0.08554631 0.078916274 -0.119113006
000260 1d 4a c4 bd 33 2f 72 bd 96 fb af 3d ba 88 51 bd
       -0.095844485 -0.059127044 0.08592908 -0.051155783
000270 ae 8e f4 b9 68 fc c2 3d ac 18 05 bb d9 d7 a8 3c
       -0.0004664561 0.09520799 -0.0020308895 0.020610737
000280 9d 6a af ba b6 16 c3 bd 0b 4e c2 3c 60 38 b8 bb
       -0.0013383214 -0.09525816 0.023718854 -0.005621955
000290 d6 76 c5 3b 08 79 15 3d ad b2 1b 3c 4a 75 86 bd
       0.0060261292 0.036492378 0.009503049 -0.0656534
0002a0 47 e2 2f 3b ee 4b a4 bc 02 76 57 3d 7a 5a 03 bc
       0.0026837753 -0.020055737 0.052602775 -0.008017177
0002b0 15 d0 1b bc e0 ff 73 bd 0a f9 85 3c da 7d 03 bc
       -0.00951006 -0.059570193 0.016354103 -0.008025611
0002c0 4d a3 9b bd 1c 4c 3d bd 46 c1 c8 bc d8 c0 59 3d
       -0.075995065 -0.04621516 -0.024506222 0.053162426
0002d0 81 67 a6 3c 0f d8 05 3d 8c df 8b 3c 5b 75 50 3d
       0.020313026 0.032676753 0.017074369 0.05089317
0002e0 29 2f b5 3c d7 c6 4d bd c7 cc 98 bc 00 89 b1 3c
       0.022117214 -0.050238457 -0.018652333 0.021671772
0002f0 43 f0 b8 3d 36 42 6f 3c fd 66 db bc be b3 16 3d
       0.09030201 0.014603188 -0.026782507 0.03679251
000300 b8 d9 19 bc 9d e8 5f 3c 0b bf 40 3c 36 73 c4 3b
       -0.009390287 0.013666299 0.011764298 0.0059951795
000310 60 2e 5a bc 85 12 ca 3c c2 ef 01 bd d8 d7 01 bd
       -0.013316721 0.024667034 -0.03172279 -0.031699985
000320 7f b5 1b bd ec e2 06 bd d4 4f 35 bc f8 51 81 bc
       -0.038014885 -0.032931253 -0.011066396 -0.015786156
000330 cb 09 de b9 71 04 3c bb d1 47 d6 bb 3a 8a e4 3c
       -0.00042350436 -0.002868917 -0.006539323 0.027897943
000340 02 5a e7 3b f6 c1 bf 3c e5 07 26 bb 04 61 11 3d
       0.0070602903 0.023407917 -0.0025334295 0.035492912
000350 8d 3a 24 3d 8c 28 04 3d ec 18 16 3d 39 e3 01 3d
       0.0400949 0.03226523 0.03664486 0.031710837
000360 24 42 fa 3c a5 cd 6c bd aa f1 1f be 8c 18 d7 bd
       0.030549116 -0.057813305 -0.15619531 -0.10502729
000370 17 26 b8 bd 77 14 3b 3d 26 28 e9 bd 39 52 df bd
       -0.0899164 0.045673814 -0.11384611 -0.109043546
000380 88 28 b2 bd 2b dd 5a 3d 39 aa d0 3c bb 50 94 3c
       -0.08699137 0.05343358 0.025471793 0.018104902
000390 88 b2 b0 bc db db 07 3d 52 6a 37 bd 62 43 24 3d
       -0.021569505 0.033168655 -0.04477913 0.040103324
0003a0 a7 4a 05 3e c7 a4 83 3d dd a3 1a bd 3f d3 00 3d
       0.13016759 0.06427913 -0.03775393 0.03145146
0003b0 1d 30 b3 3d 51 14 c9 3d aa 5c b6 3c 6d 73 94 3d
       0.08749411 0.09818328 0.022260983 0.07248578
0003c0 08 2e 3a 3d 20 3b 3b 3d 1e 5c a0 3c c5 6c e7 bc
       0.045454055 0.045710683 0.019575175 -0.028250108
0003d0 3f a7 6c bc d1 ff e3 bb ce 1b db bc 3f 92 06 bd
       -0.014444171 -0.006957986 -0.026746657 -0.032854315
0003e0 33 6c 45 bd 42 72 84 bd 87 37 1e bc 94 6e a7 bd
       -0.04819889 -0.064671054 -0.009656793 -0.08175388
0003f0 20 69 f8 bc fb 09 01 bc 32 68 f3 bc c9 18 83 bc
       -0.030323565 -0.007875915 -0.02971277 -0.01600303

net.level1.bn.weight f4 [16]
000000 90 e3 45 3f df ce 49 3e 87 01 e6 3e c6 1e 6b 3e
       0.7730036 0.19707821 0.4492304 0.22960958
000010 b7 7a 1d 3f 4c 92 a6 3e c7 31 27 3f 3c 6b d5 3e
       0.61515373 0.3253349 0.6531033 0.41683376
000020 4e 7e 8f 3e 4f b2 48 3f 2e 9b 88 3e 78 85 fc 3e
       0.2802605 0.7839708 0.26680893 0.4932058
000030 26 56 9f 3e a0 94 0e 3f 31 a4 12 3f 2d 25 1c 3f
       0.31120414 0.55695534 0.57281786 0.60994226

net.level1.bn.bias f4 [16]
000000 d8 37 e9 3e c4 5b 4d 3c 13 db f3 bd 00 63 f9 3d
       0.45550418 0.012534086 -0.119070195 0.12177086
000010 72 d1 b9 3e db 0d 16 bd 52 3f d7 3e 91 ef 1a 3f
       0.36292607 -0.036634307 0.42040497 0.605218
000020 a5 0c 56 3f e2 dc be 3e 93 71 48 3f f0 17 e2 bd
       0.83613044 0.37277895 0.782983 -0.11039722
000030 b3 5e 10 3f b0 fd db 3e 56 cd 06 3f 00 c2 df 3e
       0.563945 0.42966986 0.5265707 0.43702698

net.level1.bn.running_mean f4 [16]
000000 f7 4f 9a 3d 88 7c 0c be 6e 69 16 3d fa 9b 4b be
       0.07534783 -0.1371938 0.03672164 -0.19883719
000010 00 1c 26 3e e0 7f 1b 3d aa b8 a8 3d eb 9d d5 3d
       0.16221619 0.037963748 0.08238347 0.10430511
000020 9b 6b fe 3d f9 45 17 3e 93 f1 44 3e 66 33 f1 3c
       0.12422868 0.14772786 0.19232778 0.029443454
000030 e9 34 90 bd fb a2 86 3e 52 d5 59 3e 79 23 b2 3d
       -0.07041342 0.2629622 0.21272781 0.08698172

net.level1.bn.running_var f4 [16]
000000 d8 e5 17 3c b3 ee f6 3b 27 c9 19 3b 0f 33 b3 3c
       0.009271108 0.0075357794 0.0023465843 0.021874933
000010 8e 27 11 3c c1 5a 5d 3c 65 bf b2 3b 5b e1 01 3c
       0.008859528 0.013510407 0.005454945 0.007927264
000020 84 c2 14 3c 83 b4 fe 3b ef 9d d5 3c fa 87 e3 3a
       0.009079579 0.0077729835 0.026076285 0.001735925
000030 c9 72 3d 3b 71 95 0c 3d c3 07 05 3d 14 27 c5 3b
       0.0028907529 0.034322206 0.032478105 0.0060166214

net.level1.act.weight f4 [16]
000000 cb 98 93 bd b0 d0 78 3c 46 06 b1 3c 59 c8 47 3d
       -0.07206877 0.015186474 0.021609437 0.04877505
000010 7c 64 5b be d3 fd 3f bd bc 9c 03 bd 15 c0 50 bd
       -0.2142505 -0.046872925 -0.032131895 -0.050964434
000020 f9 87 8d bd 57 60 30 be fa 7b b5 bd 8e 6e 32 bd
       -0.069107 -0.1722425 -0.08861537 -0.043562464
000030 b2 ae 90 bc 57 7a b7 bd 65 6e 41 bd 81 e4 ef bd
       -0.017661426 -0.08958881 -0.04722442 -0.117135055

net.level2_0.eesp.proj_1x1.conv.weight f4 [4, 4, 1, 1]
000000 dc d1 55 3b cb 35 c8 bc 09 20 09 3c 6f a2 03 3e
       0.0032626307 -0.024439713 0.008369454 0.12854932
000010 c1 e5 03 3a 9b 10 28 3e 40 27 a8 3d 93 14 b9 bd
       0.00050314894 0.16412584 0.08210611 -0.09037127
000020 73 7b 28 bc 41 ff 88 35 6a 5c c0 bd f3 63 b9 bb
       -0.010283339 1.0207078e-06 -0.093926266 -0.005657667
000030 24 86 fb bc c5 21 10 bd 12 c3 bb bd f1 30 f5 3d
       -0.030703612 -0.035188455 -0.09168066 0.119722255

net.level2_0.eesp.proj_1x1.bn.weight f4 [4]
000000 ca 01 8b 3d 79 98 b2 3d 00 7f 81 3d d4 c4 94 3d
       0.067874506 0.08720488 0.063230515 0.072641045

net.level2_0.eesp.proj_1x1.bn.bias f4 [4]
000000 ef 93 f3 3c f5 4d e6 bc 57 98 f9 bd c0 f7 b5 bc
       0.029733626 -0.028113345 -0.1218726 -0.022212863

net.level2_0.eesp.proj_1x1.bn.running_mean f4 [4]
000000 f9 72 9a 3c 42 d5 ce bb d4 7f a8 bd b4 8d c9 bc
       0.018853651 -0.0063120434 -0.08227506 -0.024603702

net.level2_0.eesp.proj_1x1.bn.running_var f4 [4]
000000 8f 06 1c 3a de 3f db 3a f2 f5 17 3a 46 a4 03 3a
       0.0005951905 0.0016727408 0.00057968416 0.0005021732

net.level2_0.eesp.proj_1x1.act.weight f4 [4]
000000 fb e8 98 3b 21 b9 82 bc 96 f3 23 3e 65 ec 2b be
       0.0046664453 -0.015957417 0.1601089 -0.16789396

net.level2_0.eesp.spp_dw.0.conv.weight f4 [4, 1, 3, 3]
000000 42 a5 f0 bc 9b f4 fd bb 26 69 0a 3d 23 34 6a bd
       -0.029375676 -0.0077501065 0.033791684 -0.057178628
000010 40 2e 00 bd 85 1f af 3d 10 36 d3 3d 27 11 c7 bb
       -0.031294107 0.08550934 0.10313046 -0.0060750428
000020 f2 e8 ca bd 2b f9 9f bb fa d0 ad bb 37 1c 07 bc
       -0.09907712 -0.004881998 -0.005304453 -0.008246473
000030 9d b0 85 bc af 67 80 3d cd 19 48 bd b0 c8 d6 bc
       -0.016319567 0.06269776 -0.04885273 -0.026218742
000040 ac 64 be bd bb 68 bf 3d 17 33 49 3b 08 6a 56 bd
       -0.092965454 0.093461476 0.0030700618 -0.052347213
000050 2e 20 cb 3c 0a 80 04 3b eb 79 a1 bc f7 0d ca 3d
       0.024795618 0.0020217919 -0.019711455 0.09865945
000060 1e 1b a1 bc 00 8f 67 3d 34 b6 d7 bd bf 41 75 bc
       -0.01966625 0.05653286 -0.10532799 -0.014969288
000070 ec d2 44 bc f1 07 78 39 dc 17 81 b9 aa ff 87 3c
       -0.012013178 0.00023654081 -0.00024622574 0.016601402
000080 d9 4a cc 3c 25 a2 39 3c 42 6a 22 3d 5a 55 9f 3d
       0.024938034 0.011330162 0.039652117 0.077799514

net.level2_0.eesp.spp_dw.1.conv.weight f4 [4, 1, 3, 3]
000000 57 f3 6f bc a8 bd 09 bc 28 56 4a 3b c6 ae 2e bd
       -0.014645419 -0.008407034 0.0030874107 -0.042647146
000010 2a 8c 8b bd 46 b9 e6 3d 38 de 1a 3d e1 ca 13 3e
       -0.068138435 0.11265807 0.03780958 0.14432861
000020 d9 03 3d be 20 7d 2e ba e8 d1 b2 3b b3 be 3c 3b
       -0.18458499 -0.00066562183 0.0054571517 0.002880019
000030 68 ed de ba 89 0d 94 bd c1 27 13 bd a4 e3 96 bc
       -0.0017008008 -0.07229144 -0.035926584 -0.018419094
000040 46 bb 87 bd 95 de 8f bd 0d 64 1d bc 1a 3d 91 bb
       -0.066275164 -0.07024876 -0.0096063735 -0.0044323327
000050 c5 4c 00 bc 9a 9f 30 bc a9 c4 14 bd 6b 2d e4 3d
       -0.007830803 -0.0107802395 -0.036320362 0.11141475
000060 e3 49 3b bc 6c 38 f1 3d 1a 01 b1 bd 53 41 86 ba
       -0.01143119 0.1177834 -0.08642788 -0.0010242857
000070 c1 e2 4f bc e5 0e 26 bb 39 e9 12 bb 89 25 27 bd
       -0.01268834 -0.0025338468 -0.0022416844 -0.04080728
000080 e5 d7 a4 3c 6a 42 40 3a a6 f7 42 3d 9d 15 6d 3d
       0.020122478 0.0007334115 0.047599457 0.05788194

net.level2_0.eesp.spp_dw.2.conv.weight f4 [4, 1, 3, 3]
000000 80 1e f0 bb b0 60 87 bb df c6 19 bc 04 d0 ad bc
       -0.0073278546 -0.004131399 -0.0093857935 -0.021217354
000010 8b 6d 98 bd 5a 6f 31 3d 9b b7 99 bb 67 9b f3 3c
       -0.07442769 0.043319084 -0.004691077 0.029737188
000020 28 97 70 3d aa 67 3e 38 ac 41 96 3b 26 b6 17 3b
       0.058737904 4.5396075e-05 0.0045854654 0.002314934
000030 b8 2d 0c 3b d5 62 b8 bb 6c f7 73 bc 7b 0a 88 bb
       0.0021389555 -0.005627016 -0.014890533 -0.00415164
000040 8e 17 62 bd 7e d3 c9 bb a2 f8 50 bb 6d ce 62 bb
       -0.055198245 -0.006159245 -0.0031886478 -0.0034607903
000050 1a 87 21 bb 5f 74 28 3b f2 c2 7c bd fe e0 ba bb
       -0.0024647177 0.0025704128 -0.06170935 -0.0057030907
000060 fe f9 c3 3a 0c 64 8d bc 60 f5 0d bc 5c a0 77 bb
       0.0014951823 -0.01725962 -0.008664459 -0.003778479
000070 4e 8f 49 bb 81 59 cb ba 8a 0c 84 bb 13 24 85 3d
       -0.0030755582 -0.0015514345 -0.004029815 0.06501021
000080 24 0d cf 3c 08 b4 32 3a 1c 69 11 3d 4b 2e 17 3d
       0.02527482 0.0006816988 0.03550063 0.036909383

net.level2_0.eesp.spp_dw.3.conv.weight f4 [4, 1, 3, 3]
000000 ae cf 66 bc 7d e1 ec 3b 9a 63 e4 ba 44 39 72 3c
       -0.014087601 0.0072290287 -0.0017424703 0.014784161
000010 4e 3b 90 3d f8 3c 4a 3d e1 65 fa 3b ce 5f c5 3c
       0.070425615 0.04937455 0.0076415394 0.024093535
000020 9a c8 5e 3c 7e 98 07 38 40 3c 98 3b 54 61 7b 3b
       0.013597632 3.2328528e-05 0.0046458542 0.0038357573
000030 ad 5f 20 bb 84 39 09 bb 9e bb 7c 3a 5e 95 d9 3b
       -0.002447109 -0.0020938823 0.0009640994 0.0066401204
000040 14 a6 b1 bd c7 b8 f7 3b 74 19 90 3c 6d d1 0e ba
       -0.08674255 0.007559869 0.017590262 -0.0005448077
000050 32 d9 81 3b 5b 92 32 3c ec 85 e5 bb 02 2e 46 bb
       0.0039626593 0.010899152 -0.00700449 -0.0030239825
000060 8b 0f 4b 3b dd 14 f6 bb 19 a9 02 bb 10 3e 96 ba
       0.0030984606 -0.0075098113 -0.0019937216 -0.0011462588
000070 76 40 71 3b 13 9c 0b bb 7e 73 cf bb b5 b8 6e bc
       0.0036812103 -0.0021302744 -0.0063309064 -0.014570405
000080 95 6d db bc a4 5c be bb 8d fb 3a bd f3 78 77 bc
       -0.026785651 -0.0058093835 -0.045650054 -0.01510452

net.level2_0.eesp.conv_1x1_exp.conv.weight f4 [16, 4, 1, 1]
000000 aa d6 e6 3a 74 4a ce 3c 09 12 7f 3b 62 e8 a8 3c
       0.0017611582 0.025181986 0.0038920662 0.020618621
000010 5d 32 c4 3d 65 08 eb 3b 85 59 82 ba 95 08 3e 3b
       0.095799185 0.0071726316 -0.0009944892 0.0028996815
000020 63 82 bd bd e0 e1 24 3d bc 94 47 3d 1b 58 cf 3c
       -0.09253385 0.040254474 0.04872583 0.025310567
000030 2b e9 12 ba 28 e3 9f bd a8 38 7c bc bb 99 b0 bc
       -0.0005604203 -0.078069985 -0.015394367 -0.02155768
000040 f8 2d 38 3d d7 66 23 3d c6 9e d3 bc 24 7a 84 3c
       0.044965714 0.039892998 -0.025832545 0.016171522
000050 18 95 21 3d 2f 15 26 3d 3e 8a 33 3c f0 05 e9 3c
       0.039448828 0.040547546 0.0109582525 0.028445214
000060 58 de 1e 3d 80 60 8c 3d 03 be 06 bd 0d 71 45 3d
       0.038786262 0.068543434 -0.032896053 0.048203517
000070 eb c3 b0 bc 20 41 b3 bd c0 f2 33 3d 44 af 86 bc
       -0.021577796 -0.08752656 0.043932676 -0.016440995
000080 6e 10 b0 3c d4 b3 b8 bd a6 27 16 bd f4 60 14 bd
       0.02149221 -0.090186745 -0.036658905 -0.036225274
000090 d0 db 71 bd 37 93 81 3d ab 13 df bc 2c 37 9b bc
       -0.05904752 0.06326907 -0.027231058 -0.018947206
0000a0 4c 18 34 bd c3 2c 6c bc 2c 60 7e bd 38 dc 82 bd
       -0.043968484 -0.014414969 -0.062103435 -0.0638966
0000b0 82 84 a1 bc 4e 13 b3 bd 7b c7 61 3d c2 de 77 bb
       -0.019716505 -0.087439165 0.05512188 -0.0037821983
0000c0 c6 6b 7f 3c b0 86 a0 3d 18 84 13 bd ee 9a 56 bd
       0.01558966 0.078381896 -0.036014646 -0.052393846
0000d0 95 38 08 3d 08 b6 8a 3b 8a 20 c5 bc 05 c0 f6 bb
       0.033257086 0.0042331256 -0.024063367 -0.0075302147
0000e0 7a 7a 87 3d 6c ff e8 3c af 94 28 bc 63 42 54 3b
       0.066151574 0.028442107 -0.010289355 0.0032388202
0000f0 17 83 34 bd 1b 67 7e 3b c1 a6 d4 3c 92 fc 57 3c
       -0.04407033 0.003881878 0.02595842 0.013182776

net.level2_0.eesp.conv_1x1_exp.bn.weight f4 [16]
000000 22 2d eb 3c 59 c2 e7 3d 10 66 2c 3e 44 67 cf 3d
       0.028708044 0.11316366 0.16835809 0.10127118
000010 68 16 9e 3d 17 8b 99 3d 1d e5 17 3e 10 fe d0 3d
       0.077191174 0.074972324 0.14833494 0.102047086
000020 8a c1 01 3e 27 a1 12 3e a4 bd 1c 3e 80 b7 f4 3d
       0.12671486 0.14319287 0.15306717 0.11949062
000030 91 58 f4 3d e7 d1 4b 3d ef 91 be 3d 42 1c 52 3d
       0.11930955 0.049760725 0.093051784 0.05129648

net.level2_0.eesp.conv_1x1_exp.bn.bias f4 [16]
000000 1a c5 19 3c 94 3f dc 3a 71 89 a0 bb 24 ec c2 3d
       0.009385372 0.0016803616 -0.004899197 0.095176965
000010 7f a2 38 3c f3 ee 87 bc d1 0a 7f 3d 72 a4 b5 3d
       0.011269211 -0.016593432 0.062266175 0.08869256
000020 0a cc 19 3c 85 85 88 3d 15 a7 cf 3d a6 41 8a 3c
       0.009387026 0.06666092 0.1013929 0.016877007
000030 aa 42 25 3d 03 46 00 3d c0 e4 69 3d c6 c3 e2 3c
       0.04034678 0.03131677 0.05710292 0.027681243

net.level2_0.eesp.conv_1x1_exp.bn.running_mean f4 [16]
000000 db 4d 2e 3a ea 72 31 3c 92 b9 20 bc d3 bc 31 ba
       0.00066491746 0.01083062 -0.009809868 -0.0006780151
000010 15 5f 32 ba a8 49 d6 3a 3d ce 03 ba b0 10 f1 3a
       -0.00068043295 0.0016348856 -0.00050279853 0.0018391814
000020 ff 44 10 bc a8 e7 8e 3b dd cd 62 bb 49 4d fc bb
       -0.008805512 0.0043611117 -0.0034607567 -0.007699643
000030 c8 ce 83 3b 31 0c 4f 3b 29 8e f4 3b 55 69 7a bb
       0.004022453 0.003159296 0.007463236 -0.0038209755

net.level2_0.eesp.conv_1x1_exp.bn.running_var f4 [16]
000000 b9 9a 11 36 d3 26 30 37 59 de 58 37 99 d1 5a 37
       2.1696744e-06 1.0499457e-05 1.2926373e-05 1.3042613e-05
000010 fa 4b 0b 37 5b ac 2b 37 75 be 8f 37 fd 56 cf 36
       8.302735e-06 1.0232524e-05 1.7135617e-05 6.1792075e-06
000020 58 a9 2f 37 2c 7a b8 37 56 c8 e4 37 50 b1 1d 37
       1.0470241e-05 2.19914e-05 2.7273007e-05 9.399213e-06
000030 4b 5a 04 37 90 50 14 36 10 6e 0e 37 61 ee 90 36
       7.888836e-06 2.2100612e-06 8.4894855e-06 4.3192854e-06

net.level2_0.eesp.br_after_cat.bn.weight f4 [16]
000000 86 4d 82 3d 7e d3 c0 3d 5a 16 86 3d c9 27 2c 3d
       0.06362443 0.09415339 0.06547232 0.04203013
000010 c2 ec aa 3d d7 a1 01 3e d4 74 41 3d 24 0e 4c 3d
       0.08345939 0.12659393 0.047230557 0.049818173
000020 a6 e7 91 3d 5d 98 ed 3d 24 80 da 3d 86 6c 75 3d
       0.071242616 0.116013266 0.10668972 0.05991795
000030 ee 75 4b 3d 14 ba a7 3d 2c 19 85 3d 32 d8 49 3d
       0.049673013 0.081897885 0.06498942 0.049278446

net.level2_0.eesp.br_after_cat.bn.bias f4 [16]
000000 2f 15 e5 3d bd 40 72 bc 52 20 0c bc e4 f7 57 3c
       0.11185681 -0.014785943 -0.008552628 0.01318166
000010 a4 8f c4 bb d8 da 11 bd 18 63 6f 3d 42 3b 38 3c
       -0.0059985686 -0.035609096 0.058444113 0.011244597
000020 19 0c 32 bc 7e 9a 8b 3d 56 e0 99 bc 23 5e bd 3c
       -0.010867142 0.068165764 -0.01878373 0.023116177
000030 36 2f c3 3d 12 53 b3 3c d6 81 57 bb a9 76 d6 3b
       0.09530489 0.021890197 -0.0032883785 0.006544907

net.level2_0.eesp.br_after_cat.bn.running_mean f4 [16]
000000 73 59 61 b9 14 c7 51 ba e5 7c a8 39 76 64 d7 3a
       -0.00021490995 -0.0008002382 0.0003213651 0.0016433138
000010 00 5a 3a ba 21 7a 80 bb fe 28 3a ba 75 93 1e 3b
       -0.0007108748 -0.003920809 -0.0007101445 0.0024196778
000020 8c 76 db b9 dd 26 a5 bb 6c 48 87 3a 53 65 87 3b
       -0.0004185926 -0.0050400333 0.0010321266 0.004131952
000030 70 90 b0 3b ba 11 c1 bb 3e 99 5f 3a b1 49 3d 3b
       0.005388312 -0.0058920057 0.000852961 0.0028883035

net.level2_0.eesp.br_after_cat.bn.running_var f4 [16]
000000 b2 a8 1b 37 3d 76 29 38 66 29 6a 35 61 37 40 38
       9.277997e-06 4.0402858e-05 8.7232036e-07 4.5827943e-05
000010 0a ab 2d 38 93 67 6b 39 99 dd 1e 36 22 47 bd 38
       4.1405707e-05 0.00022449931 2.3672821e-06 9.025472e-05
000020 da df 85 38 91 e0 a1 39 a7 6b 38 36 ee 9e 30 39
       6.38363e-05 0.00030875628 2.7480799e-06 0.00016843874
000030 26 5b 03 39 45 69 c5 39 a7 06 34 36 6a a3 0a 39
       0.00012527089 0.000376532 2.6825962e-06 0.00013221582

net.level2_0.eesp.br_after_cat.act.weight f4 [16]
000000 20 f7 16 3d 59 85 cc bd 85 29 26 bd 4d be d3 3a
       0.03685677 -0.099863715 -0.04056694 0.0016154737
000010 f5 63 12 be fc ea d6 bd 56 b4 e9 3b d9 2b 03 bb
       -0.14295943 -0.104940385 0.0071320934 -0.002001515
000020 f3 ba b5 bd b2 2c ee 3c cb 3a d1 bd 46 fd dc bb
       -0.08873548 0.029074047 -0.10216292 -0.0067440597
000030 2b da 0e 3c 3b 55 d6 bd 1f 1b db bc c4 22 23 3b
       0.0087190075 -0.10465475 -0.02674633 0.0024892548

net.level2_0.eesp.module_act.weight f4 [16]
000000 00 00 80 3e 00 00 80 3e 00 00 80 3e 00 00 80 3e
       0.25 0.25 0.25 0.25
000010 00 00 80 3e 00 00 80 3e 00 00 80 3e 00 00 80 3e
       0.25 0.25 0.25 0.25
000020 00 00 80 3e 00 00 80 3e 00 00 80 3e 00 00 80 3e
       0.25 0.25 0.25 0.25
000030 00 00 80 3e 00 00 80 3e 00 00 80 3e 00 00 80 3e
       0.25 0.25 0.25 0.25

net.level2_0.inp_reinf.0.conv.weight f4 [3, 3, 3, 3]
000000 e6 46 e2 3c f1 6e 76 3d c0 52 26 3d de 9d da bc
       0.027621698 0.060164396 0.04060626 -0.026686605
000010 06 6f 8c 3c 05 7b 51 3d 11 d5 80 3c c4 20 b8 3c
       0.017142784 0.05114271 0.015726598 0.022476561
000020 6f 8c 1c 3c d6 ef 51 bc 6c 05 88 bd 12 54 48 bc
       0.009554966 -0.012813529 -0.06641659 -0.012227075
000030 8b c3 c6 bc 47 9e d5 bc 0d ee 32 3c c3 05 02 3d
       -0.024263164 -0.02607645 0.010921014 0.031743776
000040 51 a1 00 ba 00 63 85 bd 66 f0 f9 bc 79 92 97 bd
       -0.00049068505 -0.065130234 -0.030510139 -0.07400984
000050 21 33 a5 bc 3c 9e 1f bd ed 20 ff bc 37 ee 75 bc
       -0.020165982 -0.038969263 -0.03114363 -0.015010408
000060 03 5b 01 3d 12 03 98 3c da fe be bc a3 52 c7 3d
       0.031580936 0.018556152 -0.023314882 0.097325586
000070 e4 95 0d 3d b5 f3 26 3d 53 e9 9a 3d f7 29 41 bc
       0.034566775 0.04075976 0.07564034 -0.01178979
000080 9a a7 93 bd d5 d6 89 bd 90 88 ac bd 15 06 5f 3d
       -0.07209702 -0.06730429 -0.08424485 0.05444916
000090 4b da 70 bc db 52 c9 bc 4e b6 58 bc 99 12 5e 3b
       -0.014700483 -0.024575641 -0.013227059 0.0033885597
0000a0 09 63 85 3c 90 f7 04 be 53 b3 2b bd 78 e7 d5 bc
       0.016282575 -0.12985063 -0.041919064 -0.02611135
0000b0 f4 99 cc 3d 64 7a 1e bb 0f ac 18 bc e2 d7 b7 bd
       0.09990302 -0.0024181837 -0.009318366 -0.08976723
0000c0 71 e8 f9 3a 9d 09 0f bd 51 11 6a 39 40 05 81 bc
       0.0019066465 -0.034921277 0.0002232243 -0.015749574
0000d0 35 bf be 3b e3 a2 0e 3e ce b0 57 3d b6 03 3b 3d
       0.0058211335 0.13929324 0.05265885 0.045657836
0000e0 86 16 82 3d 1d e7 cf bc 99 04 ad bd 8c 29 0c bd
       0.06351952 -0.025378758 -0.084481426 -0.03421931
0000f0 21 4b ea 3d 12 bb 29 bd 20 53 00 be 70 07 42 3d
       0.11440111 -0.04143817 -0.1253171 0.047370374
000100 ee 1e 35 bd 39 2a d9 3b b4 65 03 3d 69 da c1 bd
       -0.04421895 0.006627348 0.032079414 -0.094654866
000110 46 7c 62 3d ba be af 3d 77 74 f8 3c cf e0 36 bd
       0.055294298 0.085813 0.030328972 -0.044647988
000120 cc 09 c2 bd 5a 61 e8 bc 8c 62 56 3d ec 24 e1 bc
       -0.09474525 -0.028366733 0.052340075 -0.027483426
000130 83 07 35 bd 43 14 01 3d 70 ad a4 3d b6 2a a5 bb
       -0.044196617 0.031513464 0.08040893 -0.005040492
000140 83 1b d2 bc
       -0.025647884

net.level2_0.inp_reinf.0.bn.weight f4 [3]
000000 80 4b 26 3e 10 eb 05 3e a5 6f e6 3d
       0.16239738 0.1307795 0.11251763

net.level2_0.inp_reinf.0.bn.bias f4 [3]
000000 34 64 05 bd 0d 9e 3e 3c e6 74 ad 3b
       -0.032566264 0.011634362 0.0052934764

net.level2_0.inp_reinf.0.bn.running_mean f4 [3]
000000 6b d0 32 be c2 da 98 bd 90 29 9c bc
       -0.17462318 -0.074636 -0.019062787

net.level2_0.inp_reinf.0.bn.running_var f4 [3]
000000 4c 97 1f 3c 26 52 8b 3b ec 2f 7f 3b
       0.009740662 0.004251736 0.0038938476

net.level2_0.inp_reinf.0.act.weight f4 [3]
000000 26 64 0a bc 1d 08 ab 3c cf cc ad 3d
       -0.008446729 0.020877892 0.0848633

net.level2_0.inp_reinf.1.conv.weight f4 [32, 3, 1, 1]
000000 75 9b 0c bd c8 de dc 3b 2d ed 3e 3d 1e 01 4d bc
       -0.034327943 0.006740425 0.046612907 -0.012512473
000010 6d 12 aa bc ab cc f2 ba 17 30 5d bc 52 b5 ef bc
       -0.02076074 -0.001852413 -0.013500235 -0.029261265
000020 ab a4 72 bc 99 4a 92 ba 1d 3e b1 bb 72 23 4b 39
       -0.014809768 -0.0011161148 -0.005409016 0.00019372793
000030 79 50 ce 3c d5 51 8c 3c d2 fb 40 3c 2e 12 bf bc
       0.025184857 0.017128864 0.011778789 -0.023324098
000040 27 5b ba bc 57 1a 79 bc fd 73 0d 3b 19 c0 36 bd
       -0.022748543 -0.015204034 0.0021584027 -0.044616792
000050 0f b8 19 3d 49 8d 9a 3c dd 05 e7 3c 73 9a e5 3c
       0.037529048 0.018866198 0.028201038 0.028027749
000060 7f 2b 01 3d 6d f5 7a 3c e2 83 27 3c 8f 92 0a 3c
       0.03153562 0.015317303 0.010224314 0.008457794
000070 13 47 cf 3c 72 45 ee 3c 45 99 34 3d 7c 7b 9e 3c
       0.025302446 0.029085848 0.04409148 0.019345991
000080 87 24 93 3c cb 2a 36 bd 7c 79 e6 3a ee 43 c0 3c
       0.017961754 -0.044474404 0.0017583813 0.023469891
000090 0d 3f c6 bb db 1b 5a ba 1e da bc 3b 46 05 bb 3b
       -0.0060499967 -0.0008320191 0.0057633063 0.0057074158
0000a0 93 d4 a4 3b 63 02 08 bd b8 d5 db 3c d9 b4 2a 3d
       0.0050302236 -0.0332054 0.026835307 0.041676376
0000b0 3c 95 90 3c 79 58 22 3d e8 d9 14 3d 29 5f 12 3c
       0.017649285 0.039635155 0.036340624 0.008933821
0000c0 d4 5d 24 bc bc 02 04 3c d2 bd 48 3d 09 80 d6 3c
       -0.010032136 0.008057293 0.04900915 0.026184099
0000d0 1d 3b 25 bc c2 d7 f0 b9 d6 59 23 bd 08 74 94 bc
       -0.0100848945 -0.0004593712 -0.039880596 -0.018121734
0000e0 29 ac 83 bc 6a 71 5e bd 17 00 9b 3b 94 48 cf bc
       -0.016073303 -0.05430738 0.0047302353 -0.025303163
0000f0 71 62 96 bd 21 fe cc 3d b5 e7 19 bd 53 d9 ec bc
       -0.07342995 0.10009409 -0.03757449 -0.028912222
000100 98 7c 80 bd a4 31 87 3d 9a 6d aa bd f4 0a f9 3b
       -0.06273764 0.06601265 -0.08321686 0.0076001827
000110 d6 f8 d5 3c 15 63 25 bc f1 f0 90 3b cd 4c 5c bd
       0.02611963 -0.010094424 0.0044232537 -0.05378418
000120 b8 a9 51 bd 20 9b dc bc 80 8a 6c 3b ad 83 10 bd
       -0.051187247 -0.026929438 0.0036093295 -0.035281826
000130 b0 81 ff bb 6b 97 c2 bc cc 6a 20 bd a8 4d 10 bd
       -0.0077974424 -0.023753842 -0.03916435 -0.03523031
000140 54 4d ae bc 1c 0d 27 3c 1d dc 26 3b 55 10 1e bc
       -0.021277107 0.010195997 0.0025460788 -0.009647449
000150 3a 47 c5 bc a0 12 13 bd 61 32 95 3c 9b bf 0e bd
       -0.024081815 -0.035906434 0.0182125 -0.034850698
000160 19 a2 89 3d 59 79 2c 3c ee 52 80 3c e7 8a 54 bd
       0.06720371 0.010526978 0.015664544 -0.05189028
000170 10 1c 8a 3d f9 24 65 bc 97 58 a4 bc 9f 21 d7 3c
       0.06743634 -0.013985866 -0.020061774 0.026261149

net.level2_0.inp_reinf.1.bn.weight f4 [32]
000000 09 4c 72 3d 4d 13 b9 3c 36 dc 61 3d 89 47 07 3b
       0.059154544 0.022592211 0.05514165 0.0020642004
000010 6a 67 5d 3d db e5 2f 3d ba ea 9a 3d 25 1a 5f 3d
       0.0540537 0.042943817 0.07564302 0.054468293
000020 fc 5a 79 3d 7c fb 5a 3d 83 3a 03 3e c4 f7 62 3d
       0.060877785 0.05346249 0.12815289 0.05541207
000030 eb 2f 89 3b e2 83 d7 3c 44 e9 f0 3d 2a 69 03 3e
       0.0041866205 0.026308004 0.11763242 0.12833086
000040 8d cd 5f 3d b1 48 2f bb d5 00 78 3d 23 16 6a 3d
       0.054639388 -0.0026746208 0.06054767 0.057150017
000050 f3 96 96 3d 01 75 e3 3d af de 87 3d 12 4d 2d 3d
       0.0735301 0.11106301 0.066342704 0.042309828
000060 29 06 a8 3d bb 97 60 3d 3c 8f 99 3d 48 dc 9b ba
       0.082043 0.0548322 0.07498023 -0.001189121
000070 bf 24 51 3d 2e 3c 5a 3d a0 dc 67 3d 64 cd 0e 3d
       0.051060434 0.053280048 0.05660689 0.034863845

net.level2_0.inp_reinf.1.bn.bias f4 [32]
000000 4d 84 b4 bd ac 66 0f bd 73 f3 02 bd 72 3d fe bc
       -0.08814297 -0.035010025 -0.031970453 -0.031035159
000010 cd cf d0 bc d6 fd 6f 3c 68 8a 7a bc 53 3e e8 bb
       -0.025489712 0.014647922 -0.015291788 -0.0070875078
000020 cb 76 07 bc 03 cd 22 3b a5 bc f7 ba 4a b9 c1 3b
       -0.008268069 0.0024841435 -0.0018900825 0.0059119808
000030 8d af 56 bc 3f aa 0e bc 47 b1 2a 3b b9 77 97 bc
       -0.013103378 -0.008707582 0.0026045607 -0.018489705
000040 1a c5 19 3c 94 3f dc 3a 71 89 a0 bb 24 ec c2 3d
       0.009385372 0.0016803616 -0.004899197 0.095176965
000050 7f a2 38 3c f3 ee 87 bc d1 0a 7f 3d 72 a4 b5 3d
       0.011269211 -0.016593432 0.062266175 0.08869256
000060 0a cc 19 3c 85 85 88 3d 15 a7 cf 3d a6 41 8a 3c
       0.009387026 0.06666092 0.1013929 0.016877007
000070 aa 42 25 3d 03 46 00 3d c0 e4 69 3d c6 c3 e2 3c
       0.04034678 0.03131677 0.05710292 0.027681243

net.level2_0.inp_reinf.1.bn.running_mean f4 [32]
000000 58 dd 9f 38 84 31 de ba d1 51 21 bb cf fb c5 b9
       7.622939e-05 -0.0016952013 -0.0024615417 -0.0003776238
000010 ff b3 1a 3b 74 e3 33 bb 81 0c 7d ba 07 21 4a 3b
       0.0023605821 -0.0027448805 -0.00096530473 0.003084244
000020 d4 6a 2c 3b 49 fa 1f 3b b7 df 6c 3b f4 f7 c0 ba
       0.0026308792 0.0024410656 0.0036144087 -0.0014722333
000030 50 3a 1f b9 b6 5e 7a b9 75 bf 75 3b e0 2a 7f 3b
       -0.00015185145 -0.0002387714 0.003749815 0.0038935468
000040 5c 8b 93 3a c0 04 58 3a c4 3a 59 bb 52 af 50 bb
       0.0011256742 0.0008240454 -0.00331466 -0.003184278
000050 5d b6 5a 38 85 b5 1f bb 68 42 43 bb 67 d5 f9 ba
       5.214509e-05 -0.0024369669 -0.002979422 -0.0019060791
000060 76 94 74 bb 37 a1 3a bb 9e 3e 8b bb be 99 c5 39
       -0.0037319935 -0.002847744 -0.004249408 0.00037689315
000070 89 3b 1d bb f1 4a df 3a 43 3e 93 39 66 2d 90 ba
       -0.0023991785 0.0017035884 0.00028084413 -0.0010999858

net.level2_0.inp_reinf.1.bn.running_var f4 [32]
000000 7a b8 3e 37 bc 1b 49 37 3a 8e cd 37 40 85 26 35
       1.1367834e-05 1.1986991e-05 2.4504134e-05 6.2033723e-07
000010 b9 f2 bf 37 95 2d 00 38 22 eb a1 37 7a 28 23 38
       2.2882e-05 3.056003e-05 1.9302188e-05 3.8899925e-05
000020 e4 09 f3 37 75 6f d2 37 28 08 66 38 33 68 85 37
       2.8972463e-05 2.5085852e-05 5.484387e-05 1.5903357e-05
000030 ec f1 b2 34 b7 41 9f 36 fd e3 6e 38 13 7e 82 38
       3.3331105e-07 4.7462195e-06 5.6955952e-05 6.222366e-05
000040 4f f6 69 37 37 3e a8 36 c4 97 40 38 ce 34 51 38
       1.394523e-05 5.014033e-06 4.591771e-05 4.987866e-05
000050 6c a5 86 38 25 db 82 38 3d 4e 69 38 59 55 d8 37
       6.42043e-05 6.239702e-05 5.5624394e-05 2.578895e-05
000060 58 39 7d 38 7a ec 14 38 04 d8 99 38 e1 f9 ad 35
       6.0373306e-05 3.5506186e-05 7.3358446e-05 1.2962229e-06
000070 8e 45 f2 37 aa aa db 37 b3 3b 1d 38 f8 d2 28 37
       2.8881037e-05 2.6186306e-05 3.7487316e-05 1.00627e-05

net.level2_0.act.weight f4 [32]
000000 b6 1d 05 bc ca cf 1b bb 5b 55 2c ba ae af 4d 3a
       -0.008124759 -0.0023774975 -0.0006573998 0.00078463077
000010 7c 2c f3 39 15 19 82 bb 3b 8b 86 bb c3 6a 64 36
       0.00046381715 -0.003970275 -0.004105953 3.403679e-06
000020 66 db 61 b2 cd d4 98 38 03 d6 42 a6 65 ac 8e ba
       -1.3146609e-08 7.287562e-05 -6.759731e-16 -0.0010885118
000030 50 e3 a0 b7 30 73 45 ba 7a 0f 48 b7 a3 85 0d b7
       -1.9179337e-05 -0.0007532118 -1.1924532e-05 -8.43537e-06
000040 78 f3 9b 3b 71 bc 96 bc 48 d2 b8 3b a8 e0 af bc
       0.0047592483 -0.018400403 0.005640302 -0.02146943
000050 31 59 3b bc 33 f5 01 bc d8 51 83 bc 4c 6e da bc
       -0.011434839 -0.007931995 -0.016030237 -0.026663922
000060 28 2a e6 bb 07 2d 5f bd f5 dd 9f bd 4f 84 0e bc
       -0.0070240684 -0.0544863 -0.07806007 -0.008698537
000070 0e 08 84 bc 95 db 30 3b 29 9f 9c 3b 2a 38 74 3a
       -0.016117122 0.002698635 0.0047797156 0.00093162304

net.level3_0.eesp.proj_1x1.conv.weight f4 [8, 8, 1, 1]
000000 cc 1c 8d 3c 0a e7 fe 3b 16 b5 88 bb cd e6 a4 3b
       0.017225645 0.007779007 -0.0041719778 0.0050323964
000010 db 28 30 3d 8c 7a dd 3b b2 3c 35 3c 36 c5 99 3b
       0.043007713 0.0067589935 0.011061834 0.004692699
000020 14 ab 44 bc 8e c9 91 3a e3 f5 f1 bc 69 21 14 bd
       -0.012003679 0.001112269 -0.029536193 -0.036164675
000030 67 bc 12 bd 49 6a 6d bd e5 6a 4b bc ed ad 04 3c
       -0.035824206 -0.05796269 -0.012415622 0.008098108
000040 96 96 8d bd ca 9a d0 3c 4a 66 a1 b9 c1 f1 65 ba
       -0.069134876 0.025464434 -0.00030784524 -0.0008771681
000050 36 2a ef 3c 3e 0a 1d bd 66 ca c3 3b b5 5e 53 3c
       0.029194932 -0.038339846 0.0059750555 0.012900998
000060 7c ba c2 bb 96 f7 10 bb 4f 18 8e bc ea 1d 1c bd
       -0.005942641 -0.002212023 -0.017345576 -0.038114466
000070 87 e7 83 bc b8 3d 3d 3d a5 cc b5 bb e0 9d 26 bd
       -0.016101612 0.046201438 -0.005548077 -0.040677905
000080 45 a6 25 bc c1 a7 3a bd 2d fc 2c bd a7 37 f1 3c
       -0.0101104425 -0.04557014 -0.04223268 0.029445482
000090 57 75 cd bc bb 6b 35 bd b2 9d d0 ba 85 46 55 3c
       -0.025080366 -0.044292193 -0.0015916137 0.013017301
0000a0 41 bb 5c bd 4f a4 b8 3a 2f e7 38 3c a7 7d c8 3b
       -0.053889517 0.0014087054 0.011285587 0.0061184946
0000b0 eb 44 ad 3d eb 17 ac 3b e4 fe f0 bc cd c5 02 3d
       0.08460411 0.0052518747 -0.029418416 0.03192692
0000c0 cf 61 d5 3c cc ec a4 bc 37 d2 c1 bc 7e f0 c9 3b
       0.026047615 -0.020132445 -0.023659809 0.006162702
0000d0 0a 04 9e 3b 69 63 88 bd 5f 0c 9d 3c 7f 9d 9c 3c
       0.004822259 -0.06659586 0.019170938 0.019118069
0000e0 eb 2e 3f bc 35 df 40 bc c0 12 f9 3a 1c 7c 85 bc
       -0.011668901 -0.011771967 0.001900278 -0.016294532
0000f0 79 40 6c 3c 76 f0 36 bd 63 3e f1 3c 7c b5 81 3b
       0.014419668 -0.044662915 0.029448694 0.003958402

net.level3_0.eesp.proj_1x1.bn.weight f4 [8]
000000 c9 cd f5 3c dc b0 73 3d 30 27 64 3d b1 fc 1c 3d
       0.030005353 0.059494838 0.055701435 0.038326923
000010 e1 78 10 3d c5 b4 47 3d ba 7c 50 3d 37 77 f0 3c
       0.03527153 0.04875638 0.0509002 0.029353721

net.level3_0.eesp.proj_1x1.bn.bias f4 [8]
000000 d0 37 12 3d 88 06 8d 3c 5f e9 8a ba a1 46 62 3d
       0.03569776 0.017215028 -0.0010598114 0.05524314
000010 49 6e 9e 3d 73 db c8 3b 50 cd 8c bc b5 c2 17 3d
       0.07735879 0.006129676 -0.017187744 0.03705092

net.level3_0.eesp.proj_1x1.bn.running_mean f4 [8]
000000 3a c7 22 3d b4 4e 04 bd 2e 98 f1 bc e0 bf 18 bd
       0.03974078 -0.03230162 -0.02949151 -0.03729236
000010 67 0e c6 3b 60 a8 95 3b 3c 5f fb bb f7 c7 e4 b9
       0.0060441974 0.004567191 -0.007671265 -0.00043636534

net.level3_0.eesp.proj_1x1.bn.running_var f4 [8]
000000 f9 e2 18 3a a6 7f de 39 a4 0a 28 39 69 10 14 39
       0.00058321614 0.00042438245 0.00016025692 0.00014120493
000010 6e aa cc 38 0a ea 05 38 50 8b 90 37 e9 00 1e 37
       9.759223e-05 3.1927637e-05 1.723101e-05 9.417746e-06

net.level3_0.eesp.proj_1x1.act.weight f4 [8]
000000 5c 7a 37 39 11 23 0e 3c 34 b5 89 3c a1 54 6a 3c
       0.00017497822 0.008675353 0.016810037 0.014302404
000010 06 7d a6 3c 52 eb 25 bc de e6 80 bb 01 b4 21 3c
       0.020323288 -0.0101269055 -0.0039337715 0.009869576

net.level3_0.eesp.spp_dw.0.conv.weight f4 [8, 1, 3, 3]
000000 34 dd df 3b e4 80 4f 3c 43 ed 6d 3c 05 72 2d 3c
       0.0068317894 0.012665007 0.0145219 0.010586266
000010 1b 05 63 3c a4 f9 23 3c a4 b1 83 3b af 21 03 3c
       0.013856198 0.010008249 0.004018979 0.008003636
000020 bb d8 af 3b b6 d8 c9 bc 8c 6c de bc 4e 06 d4 bc
       0.0053664125 -0.024639469 -0.027151369 -0.025881913
000030 e9 33 c9 bc 06 07 87 bc 8d 3f 6d bc d6 35 b6 3c
       -0.024560886 -0.016482841 -0.014480484 0.022242468
000040 aa cd 57 3d 68 1c 29 3d bc 50 b6 bc 32 7a b1 3c
       0.05268637 0.041286856 -0.022255294 0.021664713
000050 46 39 2a 3b 1e de f0 ba a9 0c 72 3b 89 25 dc bc
       0.002597408 -0.0018376743 0.0036933816 -0.026873367
000060 6d 14 c5 3c 0e cf 37 3d 18 16 53 bd d9 42 82 bc
       0.024057591 0.044875197 -0.051534742 -0.015901016
000070 27 09 6f bc 75 af 8e bc 55 26 3c bc 25 01 bf bb
       -0.014589584 -0.017417649 -0.011483748 -0.005828994
000080 a2 e2 a2 bc ed 97 d4 3c 86 0e 5b 3d d0 a2 c3 3c
       -0.019883458 0.02595135 0.053480648 0.023881346
000090 46 24 01 3b b7 3a db bc 07 da 29 bc 8c c8 ed 3b
       0.0019705459 -0.026761396 -0.010366923 0.007256573
0000a0 10 f6 7a bd 86 5d 8c bd 1d c3 f6 3c df 09 ae bc
       -0.06126982 -0.06853776 0.030122334 -0.021244941
0000b0 90 41 64 bd 1b 3d b5 3c 1b cb f4 3c 3a 84 a3 bb
       -0.055726588 0.022123864 0.029882004 -0.004990128
0000c0 81 ca 69 3d 3c 45 4c 3d 4f e3 69 ba 3c 48 1f 3d
       0.05707789 0.049870715 -0.0008922116 0.038887247
0000d0 6e bc ca 3c 0d 11 0d bb 92 8b f1 38 09 41 d3 b8
       0.024748053 -0.0021525056 0.000115177725 -0.00010073378
0000e0 53 c6 0c ba 66 16 8d 3c 14 bf 4c 3b 66 28 65 3d
       -0.0005370129 0.017222594 0.003124182 0.05594673
0000f0 06 7c cb 3c 28 b3 25 3d 1b 34 3d 3d 4b 23 96 bc
       0.024839412 0.04045406 0.04619227 -0.018327376
000100 0a 83 19 bc 70 66 86 bc 4d 32 a5 bc 67 f7 c6 bb
       -0.009369621 -0.016406268 -0.020165587 -0.006071973
000110 d9 05 76 3c 12 aa f7 3c 75 59 d4 3c f8 58 03 3d
       0.015016043 0.030232463 0.025921563 0.03206727

net.level3_0.eesp.spp_dw.1.conv.weight f4 [8, 1, 3, 3]
000000 e0 4a 2a 3c cf b0 7a 3c c9 fd b5 3c ef a0 10 3c
       0.010393828 0.0153009435 0.02221574 0.008827432
000010 cb 3f 63 3c f1 ff b9 3b 0e d5 49 bb df 14 02 bc
       0.01387019 0.0056762625 -0.0030797157 -0.007939546
000020 51 d7 93 bc 7e 3f 72 3c bc 17 28 bc 18 92 21 3b
       -0.018047007 0.0147856455 -0.010259565 0.002465373
000030 e8 38 53 bc bf 30 96 3c e2 5d ac bb e8 07 75 3c
       -0.0128919855 0.01833379 -0.005260215 0.014955498
000040 48 ca 3e 3d ac 6a b3 bc d6 e9 f4 bc 84 1f 00 bb
       0.04657963 -0.021901451 -0.029896658 -0.0019550035
000050 28 f0 b5 3b 84 4a 93 3b 30 80 a5 3c 01 bb 0e bd
       0.0055523105 0.004494967 0.020202726 -0.03484631
000060 e6 fa b6 bc 46 da 90 3c 28 a5 49 bd 2f be 8e 3c
       -0.022336435 0.017682206 -0.04922977 0.017424671
000070 bc 6b 3b 3c 13 c1 26 3c 68 1f 6b bc 05 db 29 3c
       0.01143926 0.010177868 -0.01435075 0.01036716
000080 dc ae 0b bd ae a6 7a bc f5 43 51 3d 15 d1 0e bd
       -0.034102306 -0.015298529 0.0510902 -0.034867365
000090 5f 3f 37 bb 67 80 c7 bb a8 46 8b 3c 96 ef cd 3c
       -0.0027961356 -0.006088305 0.017001465 0.025138658
0000a0 f8 e6 6e bb c5 bd 2d bd 1e 9b 14 3d 17 2c 53 3c
       -0.0036453586 -0.042417306 0.036280744 0.01288893
0000b0 01 7a 37 3c 9f e6 b8 3c 4e a7 34 3c f0 45 97 3b
       0.011198522 0.022570906 0.011026217 0.0046164915
0000c0 96 5f f2 3c 1f 2b 7c bc 00 65 62 3c 80 a5 b0 3b
       0.029586595 -0.01539114 0.013818026 0.005390823
0000d0 b2 8d a0 3c e7 5f a3 3c 02 77 ac bc 22 e6 24 bc
       0.019598816 0.01994319 -0.021052841 -0.010064634
0000e0 7a d7 8d bc 5e 82 23 bc b8 24 f4 3c 15 d4 83 3b
       -0.017314661 -0.009979812 0.029802665 0.004023085
0000f0 90 7a 75 bc 69 85 13 bc c0 af 1b bc fc 5e dc 3b
       -0.014982834 -0.009003975 -0.009502351 0.00672519
000100 f3 2b 73 bc 37 a4 7a bc 97 c0 f2 bb 5b fd 31 bc
       -0.014842021 -0.015297941 -0.0074082124 -0.010863627
000110 c5 b5 2f bc 1b c8 81 bb 62 b0 d1 3c 7b e0 fc bc
       -0.01072449 -0.003960622 0.025596801 -0.03086876

net.level3_0.eesp.spp_dw.2.conv.weight f4 [8, 1, 3, 3]
000000 00 99 e7 3c f0 87 d6 3c 8a 38 ff 3c df f0 81 3b
       0.028271198 0.026187867 0.03115489 0.0039654817
000010 7e 9e 63 3c ce 36 42 3c 45 88 12 37 23 bb e0 37
       0.013892768 0.011853887 8.734006e-06 2.6790023e-05
000020 68 cd 4e bc 4d db cc bc 71 cc 1f bc 7f 22 3e bd
       -0.012622215 -0.025006915 -0.0097533325 -0.046419617
000030 f8 88 3e bc fd 35 aa bc c6 e6 11 bc 44 b6 c4 bc
       -0.011629336 -0.020777697 -0.008905118 -0.024012692
000040 c3 23 42 bd af 3f 9e bc c1 c0 a2 bc 5c af f2 ba
       -0.047397386 -0.019317476 -0.019867303 -0.0018515396
000050 e6 b4 fd bb 50 1b c8 3b f2 a5 9d 3c 3f 85 51 3d
       -0.007742512 0.0061067715 0.019244168 0.051152464
000060 d8 35 66 bc 42 2c 56 3c 6e 9b 33 3c d6 38 a0 3b
       -0.014050923 0.013072075 0.01096235 0.004889588
000070 ff d7 b1 3c da 8d 8a 3c 8d 9c 0e 3c 34 50 99 3b
       0.02170944 0.016913343 0.008704317 0.0046787504
000080 1d a6 54 3c 4a 08 86 bc 9b d0 e1 bb 5b 2f 89 3c
       0.012979058 -0.016361374 -0.006891323 0.016746214
000090 38 a2 c0 bb fe 70 30 3c 1e 65 00 3c ac d7 8c 3c
       -0.005878713 0.010769127 0.007836608 0.017192684
0000a0 45 77 bb 3b e9 3a 34 3c f0 01 a9 3b c7 09 ac 3c
       0.005721005 0.011000373 0.0051577017 0.021000756
0000b0 25 0a b1 3b 5f cb 29 bc 6b 46 90 bc 0b 0d cc 3a
       0.0054028207 -0.010363429 -0.017611703 0.0015567852
0000c0 3a 47 af bc 18 0e 3a bd 51 96 67 3b 2a 18 73 bc
       -0.021396268 -0.045423597 0.0035337398 -0.014837304
0000d0 a5 2e 04 bb bc 3b e4 bb bb 19 03 3c 29 b4 03 3b
       -0.0020169404 -0.0069651287 0.00800174 0.0020096397
0000e0 34 77 61 3b 2a f4 89 bc 5c fb 1f 3c 70 9e e5 bc
       0.0034403326 -0.01684006 0.009764519 -0.02802965
0000f0 54 ee 6c 3a 78 90 78 bb 57 e8 97 3c ab 45 4f 3c
       0.0009038199 -0.0037927907 0.018543405 0.0126508875
000100 03 81 f4 3a 87 e8 45 3c f6 56 77 bb b6 ef ac 3c
       0.0018654171 0.012079365 -0.0037741042 0.021110397
000110 e3 6e d8 bb 93 42 c3 bb 65 46 be bc f2 79 67 bc
       -0.0066050156 -0.005958864 -0.023226926 -0.014128195

net.level3_0.eesp.spp_dw.3.conv.weight f4 [8, 1, 3, 3]
000000 92 fb d9 3a f7 e9 97 3b 30 b4 0e 3a 09 81 fd 3a
       0.001663076 0.004636045 0.000544372 0.0019340824
000010 c1 1d 46 bb ec e7 d6 bb 65 c0 11 3c 40 83 74 3b
       -0.0030230137 -0.006558409 0.008895968 0.0037309676
000020 15 f7 2c bb 62 f3 6d 3a b8 54 2d bc 87 6e 91 bc
       -0.002639239 0.00090770994 -0.010579281 -0.017752899
000030 b2 79 a2 3c fc e0 b8 3c c5 6b 2a 3b b7 df 71 3b
       0.01983342 0.022568218 0.0026004177 0.0036907026
000040 6b 3d be bc 41 5d f2 bb 10 35 d6 bb dc 14 79 3a
       -0.023222646 -0.0073963706 -0.0065370873 0.00095017045
000050 61 35 d7 ba d8 9f 8d 3c 96 07 1c 3c c4 4c d2 3b
       -0.0016419106 0.017288134 0.009523293 0.0064178426
000060 7f ce af bc 8f bb 85 3c 40 49 ab bc bf 9b d9 3a
       -0.02146077 0.016324786 -0.020908952 0.0016602202
000070 c1 f9 c2 3a 43 aa e9 3a a1 7a b3 3a 13 bb 30 b9
       0.0014875458 0.0017827231 0.0013693162 -0.00016854359
000080 b5 5c 20 ba 77 37 a7 ba 16 fe f1 ba 74 5c e4 39
       -0.000611733 -0.0012757619 -0.0018462564 0.00043556432
000090 03 74 d9 ba f3 97 0c bc 00 b1 18 3b de 6d 40 3c
       -0.001659036 -0.008581149 0.002329886 0.011744944
0000a0 5d 88 c9 bc 32 d9 5c 3d f8 40 88 3c d2 5d a7 3c
       -0.024601156 0.05391807 0.016632542 0.02043048
0000b0 64 71 28 3c f3 24 39 b9 29 46 f4 b8 02 dd f3 39
       0.010280941 -0.0001765674 -0.00011647895 0.00046513235
0000c0 aa f6 21 b9 c9 86 3d bb 85 1a c4 b6 71 4b 0d 39
       -0.00015446046 -0.002891945 -5.8443425e-06 0.00013474912
0000d0 a0 2f 43 ba 29 5b 8a ba 05 18 05 3c 49 4a 3d bc
       -0.00074457563 -0.0010555732 0.0081234025 -0.0115533555
0000e0 9e 2c 2a bc 74 96 81 bc 85 7f 27 3c 41 82 76 bc
       -0.010386614 -0.015818812 0.010223274 -0.015045703
0000f0 02 ca f2 bb dd b7 0a bc 8f 11 4a bc 39 bd d8 28
       -0.007409335 -0.008466688 -0.012333288 2.406288e-14
000100 28 e5 ac a9 48 68 6f a8 98 1f 79 a8 66 f9 8d 29
       -7.678087e-14 -1.32897775e-14 -1.38291275e-14 6.3049216e-14
000110 c5 d5 03 29 d9 e3 67 28 41 94 97 28 a8 77 df a8
       2.927326e-14 1.28724825e-14 1.6828663e-14 -2.4809866e-14

net.level3_0.eesp.conv_1x1_exp.conv.weight f4 [32, 8, 1, 1]
000000 e2 cf 60 35 86 a0 e4 3c 5d b2 7f bc 18 58 0d 3d
       8.374901e-07 0.027908575 -0.01560649 0.03450784
000010 c6 50 45 3d 2a 09 a8 3c 20 48 0d bc 8f 3d 70 39
       0.048172735 0.020512182 -0.008623153 0.00022911116
000020 64 91 2e b2 ce bd 1e bc b8 76 9b 3b 1b cb 98 bb
       -1.0161191e-08 -0.009688808 0.004744377 -0.004662884
000030 aa 30 cc bb d6 a2 8f 37 92 89 bd bc 2d 51 e2 b7
       -0.006231387 1.7122755e-05 -0.023136888 -2.69791e-05
000040 22 45 41 34 f0 6e 0e 3d ef 00 4a bb d8 76 18 3d
       1.7999676e-07 0.034773767 -0.003082331 0.037222713
000050 a3 cf 17 bc 57 4e 37 3c a6 98 04 bc 7a f6 80 3a
       -0.009265813 0.011188111 -0.008093035 0.0009839081
000060 1e 5e 3c b3 a7 38 21 bb a2 b0 00 3d a4 d9 5e 3b
       -4.385776e-08 -0.0024600418 0.03141845 0.0034004236
000070 da 98 de bc 2d 87 22 3c ef 8f 76 bd 52 d0 d7 3b
       -0.027172495 0.009919924 -0.06019586 0.006586113
000080 ff 81 25 32 a8 7c d7 ba 92 72 8f bc 1a a5 0c 3c
       9.633822e-09 -0.0016440349 -0.017510686 0.008584285
000090 8c ae 04 bc 79 11 27 bd 51 54 9e 3c 4c d8 b2 3a
       -0.008098256 -0.040788148 0.019327315 0.0013644784
0000a0 82 1a d8 34 b0 8b 3f bc 0d e6 13 3d b2 ca 99 bc
       4.0252422e-07 -0.011691019 0.036108065 -0.01877341
0000b0 ab b9 de 3c 82 27 63 3d 00 71 d1 3c 8b b1 6e 3c
       0.027188143 0.0554576 0.025566578 0.014568697
0000c0 d9 56 63 36 18 14 ea b3 58 28 55 32 4b 30 8f 33
       3.3876188e-06 -1.0900129e-07 1.2407405e-08 6.667741e-08
0000d0 75 88 b1 35 8b 14 a6 b7 e7 b4 81 39 a0 16 53 39
       1.3227242e-06 -1.9798308e-05 0.0002473958 0.00020130957
0000e0 31 34 b6 a6 f0 9b 4b 9e da d2 2e aa 07 91 6b 20
       -1.2642933e-15 -1.0778978e-20 -1.5527458e-13 1.995326e-19
0000f0 d7 50 08 b1 56 ed 94 aa f5 84 af b4 ca 9e a4 a8
       -1.9836557e-09 -2.6454766e-13 -3.269303e-07 -1.8276521e-14
000100 c0 ed 97 34 20 df 86 bc c2 ec 30 b7 b9 f0 99 bc
       2.8298928e-07 -0.016463816 -1.0545542e-05 -0.018791543
000110 f2 85 35 bc ca ed 99 3c 01 c5 2b bc a5 40 ad 3b
       -0.011079298 0.018790144 -0.010483981 0.0052872472
000120 66 78 09 b6 f6 19 72 bd 31 48 a5 35 4a ef d6 ba
       -2.0484672e-06 -0.05910679 1.2314468e-06 -0.0016398218
000130 52 62 21 bc 63 0c 9b 3c ad a1 97 3b be dd bd 3c
       -0.009850102 0.018926805 0.0046274276 0.023177024
000140 34 39 27 35 15 20 09 bd 55 f7 20 b9 51 13 2b bd
       6.229559e-07 -0.03347786 -0.00015350927 -0.04176647
000150 05 e6 da 3c 85 9b a5 b8 e5 79 07 3d 0d a3 b2 bc
       0.02672101 -7.896781e-05 0.033075232 -0.021806264
000160 e7 8b 65 b6 75 d7 81 3c 60 a0 a4 37 bf 6a f4 3c
       -3.4205093e-06 0.015849808 1.9625004e-05 0.029836057
000170 8a 7d 4e 3d ff e6 07 3c 63 66 2e 3c a2 06 37 bb
       0.050412692 0.00829482 0.010644528 -0.0027927537
000180 87 4d 89 34 c9 81 00 bd 20 75 84 38 c3 04 9f bc
       2.5574647e-07 -0.031373773 6.316067e-05 -0.01941145
000190 41 4d f7 bc 2b 66 4d bd 6b b9 03 3b 7c 99 0e bd
       -0.030188205 -0.050146263 0.0020099531 -0.034814343
0001a0 dd 5b 03 b6 1e 3a 05 bd 82 0c 9e b4 7e a2 8d bc
       -1.9573993e-06 -0.032526128 -2.9438894e-07 -0.017289396
0001b0 71 1c ca 3c 78 67 91 3b ed 8a 18 3c 0b c9 aa 3c
       0.024671765 0.0044373833 0.009310466 0.020847818
0001c0 4d 9f 00 b5 5d 62 91 3b fc 5c 35 37 ca 66 b5 3c
       -4.791553e-07 0.0044367746 1.081009e-05 0.02214374
0001d0 e8 49 b3 bc 6d 77 0c 3d c9 9b 2b bd eb 5d 3f bc
       -0.021885827 0.03429358 -0.041896615 -0.011680107
0001e0 27 07 93 a6 1f d0 2e b5 0d 1f f5 b4 64 db e9 b3
       -1.0202113e-15 -6.512291e-07 -4.5657399e-07 -1.0889815e-07
0001f0 78 89 ae b9 f2 f0 8c b8 0c c4 69 39 07 98 25 b5
       -0.00033290288 -6.7206e-05 0.00022293645 -6.168852e-07
000200 a4 79 f8 3c 35 df 2e 3c 5f 6a 12 3d 38 67 96 bc
       0.03033144 0.010673334 0.035745975 -0.018359765
000210 50 b8 20 3c 18 9b 14 bd 3f 8b ee 3b 3d 87 bc 3c
       0.0098095685 -0.03628072 0.007279783 0.023013705
000220 b1 44 04 3a b1 29 61 bc ef bf 8e b9 c4 03 65 bb
       0.0005045636 -0.01374285 -0.00027227352 -0.0034944871
000230 35 85 2b 3a 55 90 b6 bc 91 51 ae ba 72 e5 d1 3b
       0.0006542982 -0.02228562 -0.0013299455 0.006405526
000240 a4 23 cb bc 19 e9 12 bc 2b 2a a8 3b e9 a2 ff 3c
       -0.024797268 -0.008966708 0.00513198 0.031205611
000250 db b8 d0 3c 5d 43 95 bb 16 0b 95 bc 86 b5 15 bc
       0.025478771 -0.0045551495 -0.018193763 -0.009137517
000260 45 84 22 bd 63 7c 2c bb ed 40 18 bb 4f 36 26 bc
       -0.039676923 -0.0026319257 -0.0023232058 -0.010144784
000270 1e 35 34 bd fa e0 33 bc 98 f7 d1 3b a3 66 1a ba
       -0.04399597 -0.010978932 0.0064076893 -0.0005889928
000280 c6 59 0c ba cb 04 47 3a 2d e7 37 3a b0 44 d8 b9
       -0.00053539535 0.0007591962 0.0007015344 -0.00041249907
000290 68 3f 37 3b 25 f9 2b 3a d8 40 0d 3b 44 2e 06 39
       0.0027961377 0.0006560258 0.0021553542 0.00012796471
0002a0 a8 59 fa bc 11 45 0b bd de e7 52 bc 11 a0 81 bc
       -0.03056033 -0.034001414 -0.012872664 -0.015823396
0002b0 28 81 f2 ba c4 de 63 bc 4d 7d 41 bb 2e 2e 8e bc
       -0.0018501626 -0.013908092 -0.0029524148 -0.017356005
0002c0 20 a5 8d 3c 22 37 45 3d be a3 b3 bc 5b b8 cc 3c
       0.017290652 0.048148282 -0.021928664 0.024990251
0002d0 ee 67 48 3c 52 52 81 3c a6 5b 67 3c 24 3b be 3c
       0.01223181 0.015786324 0.014120972 0.02322156
0002e0 70 89 54 ba d2 a9 bb 3c 13 cf f4 bb df 88 d6 3c
       -0.0008107638 0.022908125 -0.0074709742 0.026188312
0002f0 fc 6b b7 3c d3 22 2e bc 2b ca a4 3c 51 48 bc 3c
       0.022390358 -0.01062842 0.020115932 0.022983702
000300 a2 e0 b5 bc b9 4d c4 bc b8 00 dc ba d7 58 fb bb
       -0.02220184 -0.023962842 -0.0016784882 -0.0076705026
000310 6a 23 40 3d 10 f4 74 3b f0 91 ef 39 fe bb d9 b5
       0.046908773 0.0037376918 0.00045694364 -1.6222473e-06
000320 30 98 04 b7 0a 82 a6 bc 8e fa 1d 3d 33 f7 51 3c
       -7.903247e-06 -0.02032568 0.038569026 0.012815285
000330 0c d0 ab 3c d0 3b da bb fd 59 1c bd 5a f9 35 36
       0.020973228 -0.0066599622 -0.038171757 2.7116243e-06
000340 7f b1 91 3b 79 81 f1 bc ef a6 14 3d f5 72 cc bb
       0.004446208 -0.029480683 0.036292013 -0.00623929
000350 15 ea b9 bc dc fa b1 3a 95 b0 ad 3c 4d d6 42 34
       -0.022694627 0.001357879 0.021202365 1.814562e-07
000360 de 3f 21 bb b4 a9 86 bc 0a d6 36 3c dd 6a c1 bb
       -0.0024604718 -0.016438343 0.011159429 -0.0059026317
000370 38 93 46 3c 2c 16 47 bb da e4 1b bc 09 78 0e 36
       0.012120061 -0.0030378206 -0.009515012 2.1229519e-06
000380 e4 26 2a 38 9d d6 da 32 4b d9 00 b3 f2 64 de 32
       4.0567378e-05 2.5476135e-08 -2.999995e-08 2.5890106e-08
000390 03 61 af 35 09 a3 6b 31 2d f0 4c 33 64 d9 e0 a8
       1.306675e-06 3.4289676e-09 4.771589e-08 -2.4963274e-14
0003a0 d6 5f bb bb aa dc 3d 3c 51 6e c6 3b 08 e2 d0 b9
       -0.0057182116 0.011588255 0.006055631 -0.00039841258
0003b0 4b cc 35 bd c1 dd 20 3a 41 00 1a bd c5 a7 02 36
       -0.044384282 0.00061365595 -0.0375979 1.9469164e-06
0003c0 25 5b ec bb f1 75 94 bc 4d 37 3d 3c 8c e4 63 bc
       -0.0072130137 -0.018122645 0.011548829 -0.01390947
0003d0 9f e6 bb 3c d9 2c 3d bb df 67 fe 3b 49 21 b1 36
       0.022937117 -0.0028865843 0.0077638472 5.278886e-06
0003e0 22 3e 0a 3b 5e 24 84 3c 98 dc 81 ba 58 65 de bb
       0.0021094163 0.016130622 -0.0009907661 -0.0067869835
0003f0 24 6d 0c bd 0d 29 30 bb db b3 4a bb 58 c6 b1 34
       -0.034283772 -0.0026879937 -0.0030929956 3.3113133e-07

net.level3_0.eesp.conv_1x1_exp.bn.weight f4 [32]
000000 38 0b 39 3d e5 9a ad 3c 88 0f 04 3d a0 9a 77 3d
       0.045176715 0.021192024 0.032241374 0.060450196
000010 2d e5 0f 3d 14 25 7c 3d bb 14 03 3a 1e c6 9b 2c
       0.03513067 0.061558798 0.00050003425 4.4273604e-12
000020 a6 73 bf 3c b3 56 13 3d 33 f3 3d 3d ca 06 50 3d
       0.023370575 0.035971355 0.04637451 0.050787725
000030 0d 14 6a 3d fc f4 fa 3c 6a d1 38 3d 64 ae ca 37
       0.05714803 0.030634396 0.045121588 2.4161483e-05
000040 1c 50 31 3d 46 72 79 3c c5 f9 0a 3d 51 b1 39 3d
       0.04328929 0.015224999 0.033929605 0.045335118
000050 a4 9a cf 3b e6 57 16 3d 7d bd 23 3d b4 0b 17 3d
       0.0063355733 0.03670492 0.039975632 0.036876395
000060 f0 c8 1f 3d 39 6b 28 3d 92 4c 39 3d 74 0f 6c 3c
       0.03900999 0.04111788 0.04523904 0.014407981
000070 f4 65 ed 37 1d fd 4e 3d f4 65 ce 3c 12 d4 f1 3c
       2.8300077e-05 0.050534356 0.0251951 0.029520068
