data/Trackingff.pth (torch_old, 503233 bytes, 365 tensors)

net.level1.conv.weight f4 [16, 3, 3, 3]
-0.08619936 -0.017706849 -0.02614563 -0.03736373 0.0053277626 -0.0665307 -0.027980048 -0.11385917
-0.14414889 -0.018787406 -0.03575976 -0.09198503 -0.09009564 0.04790314 -0.001861314 -0.053406965
0.016243957 -0.07263108 0.10365262 0.05979769 0.10188408 0.081790715 -0.017815238 0.0141912345
0.056642458 0.014151192 0.15681377 0.010293206 0.05344858 0.04318219 0.041137647 0.017641215
0.015764268 -0.009480833 0.04305228 0.03221941 -0.034899138 -0.0048397775 -0.00840858 -0.0070957495
-0.0046596797 0.028903311 -0.023504497 -0.026756424 0.01130113 -0.03521588 0.025376901 0.042770553
0.022263162 0.040655114 0.04226283 0.023760365 0.012411127 -0.010140123 -0.05479766 -0.06255822
0.021569114 -0.06319334 -0.050225653 -0.050409734 -0.09004968 0.07076846 0.12192605 0.03922976
0.14423887 0.031311452 0.09865044 0.07232677 -0.051575236 0.008023033 -0.06922342 0.1111229
-0.074385285 -0.1267343 0.0792093 0.04121291 -0.0007265456 0.0072919535 -0.05495589 -0.049172685
0.053989656 0.09517639 0.064344145 -0.017827153 -0.00076126447 0.00062639517 -0.0010987776 0.06577714
-0.03312029 -0.08316323 0.037641652 -0.030822251 -0.00035401035 0.01772177 -0.065398686 -0.018396081
-0.03036937 0.04271883 -0.08504079 0.06761219 0.033547692 0.059949778 0.0021686966 -0.05892036
-0.07690065 0.063662246 -0.07460519 0.0088370675 -0.027458848 -0.040822707 -0.026739039 -0.038089614
-0.06003945 -0.039986297 -0.05031133 0.019611351 -0.053187642 -0.029607724 0.002782467 -0.02647423
-0.01711286 -0.014824933 -0.0233091 -0.0073306407 -0.0030321279 -0.024038628 0.07253018 0.04696489
0.06436023 0.0722461 0.07962302 0.07304155 0.07616077 -0.011000718 0.079495944 0.1226534
0.055216696 0.056444332 -0.020573588 -0.006635982 -0.012380054 -0.13775566 -0.117210284 -0.023246227
-0.0048808707 -0.019758282 0.16279097 0.016009541 0.021631867 0.08011633 0.07149579 -0.1241379
-0.103951305 -0.05453948 0.09227425 -0.046498574 -0.0008721574 0.09643001 -0.0027418537 0.01831058
-0.0018787165 -0.098389745 0.03289832 0.0074161026 0.024132831 0.043769713 0.023042671 -0.044231366
0.006188279 -0.008048142 0.06794903 -0.0099482685 -0.0074288654 -0.050956104 0.0119050825 -0.0053841877
-0.06578542 -0.05436778 -0.024344023 0.05691409 0.016342819 0.033490125 0.025611496 0.04390138
0.024582991 -0.03767936 -0.02908069 0.0213945 0.09562918 0.013670087 -0.016641797 0.019803578
0.014913942 0.03479513 0.0127074225 0.048746847 0.026707254 0.04953056 -0.030761635 -0.027542308
-0.048646532 -0.012580335 0.004124886 -0.017010275 0.03401331 0.025226586 0.012735385 0.0045976634
-0.010238346 -0.018978031 -0.0023691931 0.021958213 -0.0047158552 0.05439817 0.045700602 0.025015727
-0.0062036626 -0.07827913 -0.17674907 -0.13163157 -0.10386274 0.024653891 -0.14265935 -0.12867445
-0.106913656 0.02450022 0.010711671 -0.0009518462 -0.042396806 0.023511523 -0.05249638 0.014033304
0.10969569 0.04727042 -0.06903026 0.009220749 0.058085904 0.06487821 0.005525021 0.051848125
0.011630873 0.020682298 -0.0037018228 -0.039440878 -0.021148194 -0.015800223 -0.024893742 -0.028293164
-0.04389375 -0.05757744 -0.002117171 -0.073459916 -0.044820223 -0.018216737 -0.04204685 -0.016826153
00000000: 4a89 b0bd f40d 91bc 5c2f d6bc b60a 19bd
00000010: 8394 ae3b 3f41 88bd 6a36 e5bc ff2e e9bd
00000020: c49b 13be 0ce8 99bc d378 12bd a662 bcbd
00000030: 1084 b8bd 1536 443d 56f7 f3ba 43c1 5abd
00000040: 0c12 853c 9bbf 94bd d347 d43d 6cee 743d
00000050: 9aa8 d03d e481 a73d 43f1 91bc 5a82 683c
00000060: ec01 683d 67da 673c ca93 203e d6a4 283c
00000070: e6ec 5a3d cfdf 303d f37f 283d 4f84 903c
00000080: 1124 813c 7f55 1bbc 9657 303d 80f8 033d
00000090: 66f2 0ebd ff96 9ebb 24c4 09bc 7683 e8bb
000000a0: 3ab0 98bb a3c6 ec3c 818c c0bc 4a30 dbbc
000000b0: 6028 393c 873e 10bd 38e3 cf3c 2d30 2f3d
000000c0: 3c61 b63c fa85 263d ca1b 2d3d 19a5 c23c
000000d0: 0a58 4b3c c222 26bc 8373 60bd 861e 80bd
000000e0: b6b1 b03c 836b 81bd 6ab9 4dbd 707a 4ebd
000000f0: f76b b8bd 0eef 903d 5db4 f93d 63af 203d
00000100: 5bb3 133e 7040 003d 3e09 ca3d 0f20 943d
00000110: 8e40 53bd 0a73 033c 02c5 8dbd 6794 e33d
00000120: 5057 98bd a3c6 01be 7c38 a23d dece 283d
00000130: a675 3eba 57f1 ee3b 6d19 61bd 4c69 49bd
00000140: 4224 5d3d d7eb c23d ddc6 833d 400a 92bc
00000150: 988f 47ba ab34 243a dc04 90ba 2ab6 863d
00000160: 24a9 07bd 7c51 aabd 222e 1a3d f27e fcbc
00000170: 779a b9b9 3f2d 913c bfef 85bd 61b3 96bc
00000180: 2fc9 f8bc f1f9 2e3d de29 aebd 4378 8a3d
00000190: 4e69 093d e68d 753d b120 0e3b 7a56 71bd
000001a0: 177e 9dbd 5a61 823d 9bca 98bd 59c9 103c
000001b0: 61f1 e0bc b635 27bd d40b dbbc db03 1cbd
000001c0: edeb 75bd acc8 23bd 4113 4ebd fca7 a03c
000001d0: 49db 59bd e68b f2bc 0d5a 363b 7ce0 d8bc
000001e0: 4530 8cbc 47e4 72bc baf2 bebc df35 f0bb
000001f0: aab6 46bb a8ec c4bc b48a 943d 425e 403d
00000200: 4ccf 833d c3f5 933d 6511 a33d cf96 953d
00000210: 2efa 9b3d 5b3c 34bc c5ce a23d b531 fb3d
00000220: e72a 623d 2c32 673d f189 a8bc a772 d9bb
00000230: b6d5 4abc d20f 0dbe f20b f0bd df6e bebc
00000240: b6ef 9fbb 1fdc a1bc adb2 263e 7126 833c
00000250: 5035 b13c 0814 a43d 626c 923d 033c febd
00000260: 6ce4 d4bd ca64 5fbd 48fa bc3d 4a75 3ebd
00000270: 7ea1 64ba 197d c53d acb0 33bb 1200 963c
00000280: 443f f6ba 9080 c9bd 64c0 063d c702 f33b
00000290: 37b2 c53c df47 333d fcc3 bc3c f32b 35bd
000002a0: 0cc7 ca3b 5bdc 03bc dc28 8b3d 10fe 22bc
000002b0: d76d f3bb 59b7 50bd 890d 433c d76d b0bb
000002c0: 82ba 86bd c0b0 5ebd 1e6d c7bc c01e 693d
000002d0: 60e1 853c f12c 093d 33cf d13c efd1 333d
000002e0: 4562 c93c ac55 1abd a13a eebc 8543 af3c
000002f0: 3bd9 c33d 80f8 5f3c 6154 88bc 1d3b a23c
00000300: 9b59 743c 5785 0e3d cb32 503c c6aa 473d
00000310: 2cc9 da3c 8ee0 4a3d d3ff fbbc 68a0 e1bc
00000320: 9641 47bd c01d 4ebc 0d2a 873b 2259 8bbc
00000330: 8a51 0b3d fca7 ce3c 14a8 503c ffa7 963b
00000340: bcbe 27bc d177 9bbc 7744 1bbb b6e1 b33c
00000350: 7687 9abb 9ed0 5e3d 8e30 3b3d c8ed cc3c
00000360: 1848 cbbb cf50 a0bd b5fd 34be 6dca 06be
00000370: fdb5 d4bd f5f6 c93c 4b15 12be 3cc3 03be
00000380: 8cf5 dabd afb4 c83c 0180 2f3c 5185 79ba
00000390: 46a8 2dbd 3d9b c03c 7206 57bd f1eb 653c
000003a0: 22a8 e03d a19e 413d bd5f 8dbd a012 173c
000003b0: 7ceb 6d3d dede 843d 3c0b b53b b35e 543d
000003c0: 6b8f 3e3c ec6d a93c 489a 72bb c28c 21bd
000003d0: fa3e adbc 786f 81bc f6ed cbbc 11c7 e7bc
000003e0: efc9 33bd 52d6 6bbd 3cc0 0abb 2772 96bd
000003f0: 6995 37bd 443b 95bc 5139 2cbd 00d7 89bc

net.level1.bn.weight f4 [16]
0.6068515 0.16775133 0.41308236 0.19851528 0.4681651 0.38121274 0.56172115 0.35157454
0.14608972 0.6179005 0.23556666 0.46094158 0.2230431 0.46605757 0.5136226 0.5329247
00000000: 9f5a 1b3f 01c7 2b3e 887f d33e 9747 4b3e
00000010: 56b3 ef3e 512e c33e f5cc 0f3f 9401 b43e
00000020: 8b98 153e ba2e 1e3f 6338 713e 8900 ec3e
00000030: 6965 643e 199f ee3e c57c 033f c16d 083f

net.level1.bn.bias f4 [16]
0.39755905 -0.031118646 -0.09022683 0.119110934 0.24204737 -0.03583269 0.3981912 0.6080763
0.8335957 0.25869957 0.8840253 -0.083668336 0.5049889 0.3691961 0.526008 0.44038737
00000000: dc8c cb3e 88ec febc d8c8 b8bd 6ff0 f33d
00000010: 44db 773e 4cc5 12bd b8df cb3e e3aa 1b3f
00000020: 8766 553f 4574 843e 7b4f 623f 4e5a abbd
00000030: f446 013f 4507 bd3e 76a8 063f 747a e13e

net.level1.bn.running_mean f4 [16]
-0.23601225 0.2790349 0.16913913 -0.037600968 0.075105935 0.018141638 0.14337075 0.20493835
-0.44589648 0.07862463 0.12163823 0.21511552 -0.30342147 0.2958109 0.23127653 0.07542551
00000000: 32ad 71be aadd 8e3e cf32 2d3e 7903 1abd
00000010: 24d1 993d c69d 943c c8cf 123e 5cdb 513e
00000020: 8b4c e4be f305 a13d 771d f93d 3e47 5c3e
00000030: 0f5a 9bbe 8774 973e c1d3 6c3e b178 9a3d

net.level1.bn.running_var f4 [16]
0.17891407 0.30994725 0.063442945 0.022684671 0.031810474 0.046337932 0.09821869 0.18109895
0.84023833 0.03699777 0.045989994 0.12390228 0.19097638 0.2838281 0.19060694 0.028734092
00000000: 4035 373e 68b1 9e3e 60ee 813d 34d5 b93c
00000010: b34b 023d d8cc 3d3d e126 c93d 0172 393e
00000020: dc19 573f f98a 173d 0160 3c3d 7bc0 fd3d
00000030: 508f 433e eb51 913e 772e 433e c263 eb3c

net.level1.act.weight f4 [16]
-0.04103402 -0.0041105254 -0.030753212 0.043897036 -0.15214518 -0.13327411 0.0027213388 -0.010081672
8.928713e-09 -0.10420802 -0.027770838 -0.0880357 -0.00047713995 -0.04019852 0.002527319 -0.068873525
00000000: 4a13 28bd 96b1 86bb 29ee fbbc 61cd 333d
00000010: f2cb 1bbe 0279 08be 7d58 323b 992d 25bc
00000020: e564 1932 046b d5bd ab7f e3bc 104c b4bd
00000030: a428 fab9 34a7 24bd 60a1 253b 900d 8dbd

net.level2_0.eesp.proj_1x1.conv.weight f4 [4, 4, 1, 1]
0.0014268893 -0.046410978 -0.01214016 0.1293149 -0.014438694 0.20399249 0.06812215 -0.09098399
0.026492668 0.016475683 -0.09633277 0.02926401 -0.01368972 -0.042423815 -0.09672379 0.11714331
00000000: 7606 bb3a 7019 3ebd 86e7 46bc 206b 043e
00000010: 4690 6cbc 68e3 503e a083 8b3d d055 babd
00000020: 2707 d93c 03f8 863c 1e4a c5bd 14bb ef3c
00000030: d94a 60bc 98c4 2dbd 1f17 c6bd d5e8 ef3d

net.level2_0.eesp.proj_1x1.bn.weight f4 [4]
0.06693915 0.07518105 0.07369564 0.073344156
00000000: 6517 893d 86f8 993d bded 963d 7635 963d

net.level2_0.eesp.proj_1x1.bn.bias f4 [4]
0.046124525 -0.04283124 -0.09149484 -0.019695593
00000000: 12ed 3c3d cf6f 2fbd a661 bbbd a758 a1bc

net.level2_0.eesp.proj_1x1.bn.running_mean f4 [4]
0.014595039 -0.015910456 -0.049449816 -0.021663005
00000000: 0820 6f3c a556 82bc e48b 4abd 9d76 b1bc

net.level2_0.eesp.proj_1x1.bn.running_var f4 [4]
0.0004515369 0.0027711585 0.0003418954 0.00032034217
00000000: 42bc ec39 539c 353b 6c40 b339 99f3 a739

net.level2_0.eesp.proj_1x1.act.weight f4 [4]
0.0012378076 -0.029193616 0.11649496 -0.12936093
00000000: ee3d a23a 7327 efbc e994 ee3d 3177 04be

net.level2_0.eesp.spp_dw.0.conv.weight f4 [4, 1, 3, 3]
-0.024830803 -0.023085648 0.044243805 -0.052996587 -0.044727847 0.091290414 0.109832846 -0.018506197
-0.09373186 0.016101327 0.002389931 -0.017073093 0.0048395484 0.056249615 -0.08955609 -0.07454778
-0.1372024 0.059168022 0.008959492 -0.052421663 0.030649105 -0.00062766206 -0.022220591 0.09232657
-0.019602714 0.07214336 -0.1111615 -0.03151358 -0.06295556 0.027183421 0.015149225 -0.029555075
0.037950728 0.01900336 0.016950965 0.07616376
00000000: f869 cbbc 1d1e bdbc fe38 353d f312 59bd
00000010: 8c34 37bd 78f6 ba3d 0bf0 e03d 4f9a 97bc
00000020: 7df6 bfbd eee6 833c 63a0 1c3b dfdc 8bbc
00000030: 1395 9e3b ff65 663d 2f69 b7bd 82ac 98bd
00000040: c97e 0cbe 2b5a 723d d5ca 123c 19b8 56bd
00000050: d513 fb3c b089 24ba f507 b6bc b615 bd3d
00000060: df95 a0bc e6bf 933d a4a8 e3bd 6214 01bd
00000070: d8ee 80bd c4af de3c 7434 783c 7c1d f2bc
00000080: 3972 1b3d efac 9b3c c0dc 8a3c bffb 9b3d

net.level2_0.eesp.spp_dw.1.conv.weight f4 [4, 1, 3, 3]
-0.017170276 -0.011470927 0.02925139 -0.0477557 -0.074278615 0.11867086 0.044187423 0.12919624
-0.18835832 -0.028770328 0.0094512515 0.002498227 0.0026641297 -0.05739621 0.014497852 -0.016660867
0.002322652 -0.09109755 0.01062448 -0.0018373817 -0.016483026 -0.0006814126 -0.042787384 0.09970569
-0.0073031313 0.10993203 -0.1011737 0.01625593 -0.03915119 0.010225357 0.0015239812 -0.094395295
0.01488654 0.007656291 0.0058061583 0.027725326
00000000: aea8 8cbc 8ef0 3bbc 9ca0 ef3c 7b9b 43bd
00000010: 631f 98bd b509 f33d dffd 343d 054c 043e
00000020: 01e1 40be c0af ebbc 6cd9 1a3c 4bb9 233b
00000030: ae98 2e3b 4a18 6bbd 6688 6d3c 5f7c 88bc
00000040: a237 183b 5a91 babd 4d12 2e3c 4dd4 f0ba
00000050: 6907 87bc d3a0 32ba d341 2fbd 7f32 cc3d
00000060: 1b4f efbb 0b24 e13d 2834 cfbd 282b 853c
00000070: 005d 20bd 4188 273c 53c0 c73a 5252 c1bd
00000080: ade6 733c a0e1 fa3b 9641 be3b 3920 e33c

net.level2_0.eesp.spp_dw.2.conv.weight f4 [4, 1, 3, 3]
-0.016698431 0.006981675 -0.018041592 -0.023194108 -0.054009367 0.044211768 -0.026376309 0.037671965
0.055416893 0.0025600942 -0.02877572 -0.00823045 0.019020952 -0.0054692253 -0.028329574 0.0016464934
-0.037647977 -0.02830132 0.021150008 0.015049536 0.0073155346 0.020278158 -0.056736615 -0.0051409327
0.021471241 -0.017027108 -0.01197396 -0.0075926385 -0.0021152736 -0.0016942045 -0.015678255 0.0022567909
0.027920973 0.014198469 0.029115463 0.04384349
00000000: 26cb 88bc 89c6 e43b f6cb 93bc 9201 bebc
00000010: ed38 5dbd 6617 353d 2113 d8bc eb4d 1a3d
00000020: d3fc 623d 41c7 273b 0fbb ebbc 02d9 06bc
00000030: d4d1 9b3c 3037 b3bb 6c13 e8bc 27cf d73a
00000040: c434 1abd 2bd8 e7bc c842 ad3c 5492 763c
00000050: 27b7 ef3b 611e a63c a764 68bd 4575 a8bb
00000060: 75e4 af3c 6f7c 8bbc 6e2e 44bc abcb f8bb
00000070: 67a0 0abb 1210 deba af6f 80bc abe6 133b
00000080: 86ba e43c b2a0 683c 8d83 ee3c 3b95 333d

net.level2_0.eesp.spp_dw.3.conv.weight f4 [4, 1, 3, 3]
-0.027293487 0.008034533 -0.026594697 0.007598187 0.09016541 0.010635979 -0.013700752 0.017372398
-0.029436167 -0.03182037 -0.012223993 -0.0223777 -0.029128626 -0.0037024424 -0.020676538 -0.026153227
-0.022638123 -0.028415155 0.019664386 0.009285619 0.006064218 0.012751261 -0.010617382 -0.008908948
0.010532906 -0.010996181 0.001011211 0.012799617 -0.009992922 0.0076068095 -0.0036757668 -0.035161015
-0.0260031 -0.012468811 -0.039543778 -0.024552604
00000000: 9796 dfbc 46a3 033c 1fdd d9bc 36fa f83b
00000010: a4a8 b83d 8742 2e3c 1e79 60bc 8f50 8e3c
00000020: 1e24 f1bc 1456 02bd 2547 48bc 7051 b7bc
00000030: 289f eebc ada4 72bb d861 a9bc 4b3f d6bc
00000040: 9673 b9bc e6c6 e8bc 3517 a13c b522 183c
00000050: 59b6 c63b aaea 503c 87f4 2dbc d6f6 11bc
00000060: 3692 2c3c 5329 34bc 9c8a 843a 7cb5 513c
00000070: 5ab9 23bc 8b42 f93b 22e5 70bb ff04 10bd
00000080: 7404 d5bc fc49 4cbc a8f8 21bd 8b22 c9bc

net.level2_0.eesp.conv_1x1_exp.conv.weight f4 [16, 4, 1, 1]
-0.0075554796 0.0043360246 -0.010859315 0.0323087 0.11587862 0.0072823334 0.02951182 0.0069006523
-0.09965281 0.031274974 0.049822554 0.023049807 0.003882516 -0.056273606 -0.007539467 -0.004785934
0.053232506 0.01874815 0.0012183154 -0.002118165 0.014248523 0.0098814005 0.011590214 -0.0035793313
0.023507452 0.06135559 0.0035330716 0.036264673 0.040537 -0.03926883 0.040472746 0.02444223
-0.0024725308 -0.09325731 -0.055777885 -0.025913859 -0.005415533 0.053396817 -0.028688334 0.015880559
-0.037685353 -0.04213526 -0.04363204 -0.050829627 0.0149338795 -0.10750481 0.018948153 -0.023388823
0.017091516 0.09572593 -0.026032854 -0.057163205 0.05040942 -0.01414848 -0.031209456 0.0054862755
0.019703891 0.0318198 0.0045411424 0.022284593 -0.07933815 -0.016935868 0.019573472 -0.00934178
00000000: f593 f7bb 3615 8e3b 45eb 31bc 2156 043d
00000010: c551 ed3d a4a0 ee3b c6c2 f13c de1e e23b
00000020: c616 ccbd 301a 003d bc12 4c3d f3d2 bc3c
00000030: cf71 7e3b 277f 66bd a20d f7bb 53d3 9cbb
00000040: 540a 5a3d b895 993c e2af 9f3a e9d0 0abb
00000050: a372 693c 99e5 213c e2e4 3d3c 3793 6abb
00000060: b392 c03c 0050 7b3d 1b8b 673b 448a 143d
00000070: 200a 263d 5ad8 20bd c0c6 253d 123b c83c
00000080: 2f0a 22bb b0fd bebd 5a77 64bd 4d49 d4bc
00000090: c974 b1bb 9fb6 5a3d cc03 ebbc f217 823c
000000a0: f55b 1abd 0696 2cbd 83b7 32bd ba32 50bd
000000b0: 3bad 743c 7b2b dcbd 2839 9b3c eb99 bfbc
000000c0: 8203 8c3c f50b c43d da42 d5bc f723 6abd
000000d0: 1c7a 4e3d 07cf 67bc f9aa ffbc 37c6 b33b
000000e0: 0e6a a13c 7b55 023d ddcd 943b 2e8e b63c
000000f0: 0a7c a2bd 17bd 8abc 8c58 a03c 440e 19bc

net.level2_0.eesp.conv_1x1_exp.bn.weight f4 [16]
0.020297209 0.12555523 0.16466923 0.041671313 0.051777646 0.029605344 0.11875957 0.07098859
0.11988642 0.07332604 0.15435115 0.12794273 0.11496502 0.05997432 0.05527567 0.066166215
00000000: 5546 a63c 8d91 003e 0d9f 283e 8aaf 2a3d
00000010: cc14 543d e886 f23c 3838 f33d 7762 913d
00000020: 0387 f53d f62b 963d 3a0e 1e3e 6b03 033e
00000030: c872 eb3d a2a7 753d be68 623d 2782 873d

net.level2_0.eesp.conv_1x1_exp.bn.bias f4 [16]
-0.017908983 0.0064701475 0.013244301 0.062209614 -0.02628639 -0.04605406 0.068277754 0.08277801
0.033286244 0.031748954 0.053042226 0.023716044 0.037933275 -0.005001866 0.06251851 0.013006122
00000000: dcb5 92bc 8803 d43b a0fe 583c 82cf 7e3d
00000010: 8e56 d7bc 2fa3 3cbd 35d5 8b3d 8487 a93d
00000020: 2857 083d 310b 023d ce42 593d 2648 c23c
00000030: ec5f 1b3d b1e6 a3bb b409 803d a117 553c

net.level2_0.eesp.conv_1x1_exp.bn.running_mean f4 [16]
-0.0008022447 0.013613227 -0.010554272 -0.0007568441 0.0007870534 0.00024509346 0.0005759464 0.0006408512
-0.010228159 0.005277994 -0.005312519 -0.011035032 0.0052303714 0.0025142506 0.0028917647 -0.005974198
00000000: bb4d 52ba 030a 5f3c d3eb 2cbc f366 46ba
00000010: 4252 4e3a e37f 8039 1cfb 163a ccfe 273a
00000020: 0294 27bc 06f3 ac3b a414 aebb 47cc 34bc
00000030: 8963 ab3b 20c6 243b c383 3d3b 35c3 c3bb

net.level2_0.eesp.conv_1x1_exp.bn.running_var f4 [16]
7.106964e-07 2.916668e-05 2.096512e-05 5.979333e-07 6.804569e-06 6.202057e-07 3.4328107e-06 5.198046e-06
1.6434544e-05 7.2548523e-06 1.1911771e-05 2.1986498e-05 6.901401e-06 3.0894917e-06 1.3765339e-06 7.3082592e-06
00000000: afc6 3e35 f8aa f437 41de af37 aa81 2035
00000010: cd52 e436 367c 2635 3d5f 6636 e06a ae36
00000020: eadc 8937 b56e f336 abd8 4737 a56f b837
00000030: 9592 e736 1055 4f36 58c1 b835 7839 f536

net.level2_0.eesp.br_after_cat.bn.weight f4 [16]
0.07323718 0.08047267 0.071561575 0.031185554 0.07769784 0.110621914 0.023450652 0.038791407
0.045023005 0.13710855 0.093644455 0.05688609 0.040621284 0.10965909 0.042482484 0.06378043
00000000: 60fd 953d dbce a43d e08e 923d d978 ff3c
00000010: 0c20 9f3d be8d e23d 951b c03c bde3 1e3d
00000020: 0b6a 383d 2f66 0c3e aac8 bf3d 6401 693d
00000030: 8162 263d f294 e03d 1d02 2e3d 509f 823d

net.level2_0.eesp.br_after_cat.bn.bias f4 [16]
0.11178565 0.008737578 -0.0066864537 -0.0014968829 0.00053149497 -0.029259915 -0.018189048 -0.004490323
-0.0059547545 0.08021074 -0.011180424 0.0030816502 0.0625453 0.017545452 -0.025541943 -0.000679338
00000000: e0ef e43d 0f28 0f3c 0a1a dbbb 0e33 c4ba
00000010: 0654 0b3a 7db2 efbc 3301 95bc 8f23 93bb
00000020: 1a20 c3bb 8745 a43d 192e 37bc 83f5 493b
00000030: c017 803d 7bbb 8f3c 563d d1bc 9a15 32ba

net.level2_0.eesp.br_after_cat.bn.running_mean f4 [16]
-0.00048787173 -0.001956016 4.9280967e-05 0.0011590237 -0.0010181401 -0.0037889439 -0.00023442549 0.00037701632
-0.0008377412 -0.0049816915 -0.00018704163 0.0018219939 0.0013010512 -0.0071361465 -0.00035789443 -0.00015818742
00000000: 09c9 ffb9 8130 00bb 09b3 4e38 62ea 973a
00000010: 1d73 85ba ee4f 78bb 1dd0 75b9 46aa c539
00000020: dc9b 5bba 753d a3bb 9b20 44b9 f8cf ee3a
00000030: 0988 aa3a 56d6 e9bb c7a3 bbb9 1ddf 25b9

net.level2_0.eesp.br_after_cat.bn.running_var f4 [16]
2.513653e-05 0.00010852043 3.6421352e-06 4.018474e-05 8.5746404e-05 0.0001845294 9.371183e-06 9.096749e-05
0.00011866733 0.00023407105 1.0040967e-05 0.00010679952 0.00012572984 0.000367183 1.15099165e-05 0.00013519109
00000000: 4adc d237 7695 e338 686b 7436 098c 2838
00000010: c0d2 b338 3c7e 4139 ed38 1d37 cdc5 be38
00000020: 0add f838 f870 7539 a075 2837 8ef9 df38
00000030: 59d6 0339 7882 c039 b71a 4137 15c2 0d39

net.level2_0.eesp.br_after_cat.act.weight f4 [16]
0.0004397121 -0.034233745 -0.086138 -0.030873982 -0.14199436 -0.048905477 -0.005852681 -0.060779862
-0.037773367 0.068801686 -0.09992218 -0.067552574 0.0043321005 -0.11044379 -0.0118892025 0.019132629
00000000: 2989 e639 af38 0cbd 1f69 b0bd 6feb fcbc
00000010: f866 11be 1c51 48bd d9c7 bfbb 4ef4 78bd
00000020: 3fb8 1abd e6e7 8c3d 00a4 ccbd 0159 8abd
00000030: 4bf4 8d3b 5b30 e2bd eeca 42bc 08bc 9c3c

net.level2_0.eesp.module_act.weight f4 [16]
0.25 0.25 0.25 0.25 0.25 0.25 0.25 0.25
0.25 0.25 0.25 0.25 0.25 0.25 0.25 0.25
00000000: 0000 803e 0000 803e 0000 803e 0000 803e
00000010: 0000 803e 0000 803e 0000 803e 0000 803e
00000020: 0000 803e 0000 803e 0000 803e 0000 803e
00000030: 0000 803e 0000 803e 0000 803e 0000 803e

net.level2_0.inp_reinf.0.conv.weight f4 [3, 3, 3, 3]
0.015857425 0.055098906 0.039775345 -0.04033449 0.0073911687 0.04308996 0.0096026 0.017373497
0.0025806837 -0.02290429 -0.06693419 -0.008665099 -0.038934235 -0.03707369 0.0024057603 0.024788864
-0.0063037854 -0.07130408 -0.045122974 -0.08099458 -0.02160007 -0.058789086 -0.047108084 -0.028248413
0.019295437 0.007745672 -0.034433823 0.09101001 0.023094768 0.011173389 0.06444188 -0.019266522
-0.088151425 -0.0982376 -0.10391189 0.044825856 -0.011951826 -0.027631216 -0.03783562 0.0047771623
0.019674413 -0.13977876 -0.060718626 -0.03538547 0.09426014 -0.0069996743 -0.021943033 -0.1228181
-0.0031117995 -0.041645087 -0.02098571 -0.037769962 -0.012025064 0.12093651 0.062821135 0.06065097
0.07612161 -0.015830964 -0.071537964 -0.030135429 0.12469244 -0.034942843 -0.1397843 0.05539197
-0.029589944 0.019749712 0.038674902 -0.082807824 0.059537075 0.092570186 0.034695745 -0.056744125
-0.08235085 -0.010415121 0.06837331 -0.017711226 -0.0291573 0.040442444 0.08844862 0.0028456831
-0.03275214
00000000: 6ee7 813c 64af 613d 79eb 223d c735 25bd
00000010: 9e31 f23b 197f 303d 3954 1d3c dd52 8e3c
00000020: b020 293b c7a1 bbbc cb14 89bd 0ff8 0dbc
00000030: 8179 1fbd 95da 17bd f6a9 1d3b 0412 cb3c
00000040: fc8f cebb e007 92bd ded2 38bd 7de0 a5bd
00000050: a1f2 b0bc d3cc 70bd 68f4 40bd 3769 e7bc
00000060: 7711 9e3c 68cf fd3b 7b0a 0dbd 7563 ba3d
00000070: 3d31 bd3c 9710 373c 1bfa 833d d3d4 9dbc
00000080: bc88 b4bd cb30 c9bd c2cf d4bd 519b 373d
00000090: 97d1 43bc dc5a e2bc 86f9 1abd be89 9c3b
000000a0: 3c2c a13c 2a22 0fbe 18b4 78bd 5bf0 10bd
000000b0: 760b c13d 865d e5bb e0c1 b3bc 0e88 fbbd
000000c0: 55ef 4bbb 0a94 2abd 39ea abbc adb4 1abd
000000d0: c604 45bc 90ad f73d 5ea8 803d 276d 783d
000000e0: a6e5 9b3d f0af 81bc 7f82 92bd 93de f6bc
000000f0: c05e ff3d 3a20 0fbd 9e23 0fbe b1e2 623d
00000100: 9c66 f2bc 26ca a13c 9369 1e3d 2697 a9bd
00000110: 26dd 733d 7095 bd3d 201d 0e3d 876c 68bd
00000120: 90a7 a8bd 2fa4 2abc 4e07 8c3d 2217 91bc
00000130: 4adb eebc faa6 253d 8d24 b53d a47e 3a3b
00000140: 1c27 06bd

net.level2_0.inp_reinf.0.bn.weight f4 [3]
0.16707933 0.13151029 0.09157467
00000000: d816 2b3e a2aa 063e 808b bb3d

net.level2_0.inp_reinf.0.bn.bias f4 [3]
0.013973792 0.028229998 -0.009474932
00000000: 55f2 643c 9942 e73c bf3c 1bbc

net.level2_0.inp_reinf.0.bn.running_mean f4 [3]
-0.32721445 -0.3709941 0.17603411
00000000: a788 a7be f0f2 bdbe 4942 343e

net.level2_0.inp_reinf.0.bn.running_var f4 [3]
0.30509642 0.42354554 0.09533801
00000000: 9935 9c3e f6da d83e 9340 c33d

net.level2_0.inp_reinf.0.act.weight f4 [3]
0.05128953 0.1154465 0.11565997
00000000: f814 523d 376f ec3d 22df ec3d

net.level2_0.inp_reinf.1.conv.weight f4 [32, 3, 1, 1]
-0.060237437 -0.019502554 0.0019230479 -0.013610674 -0.010281875 0.00829696 -0.004266227 0.034063794
0.0031898688 -0.0054108156 0.002482877 0.0088467505 0.0022656622 0.047262795 0.0144837415 0.001976397
0.004320857 -0.052052606 0.0048179184 -0.03792037 0.02329875 0.037331548 0.03195101 0.0038933447
0.065486446 -0.0076014022 -0.014003627 0.023637999 0.029228915 0.025374746 0.06438638 0.03685124
0.024594473 -0.05225591 0.001076752 0.0006314816 -0.047127135 -0.027384818 0.031245057 0.0011131365
0.005689627 -0.008380137 0.029397156 0.060760163 0.019925043 -0.012648994 0.08347237 0.027257605
-0.023580175 0.0022753025 0.061383657 0.014249006 -0.0095841065 -0.027851213 -0.02129575 -0.0184164
-0.039073933 -0.04567412 0.0063644196 -0.023343707 -0.08794977 0.100939795 -0.027475443 -0.026524069
-0.06893797 0.06847846 -0.08152087 -0.024714166 0.01357709 0.005234327 0.01978959 -0.044438664
-0.045799535 -0.007993664 -0.0003082327 -0.029128598 -0.0072414726 0.0021375874 -0.031894553 -0.010986077
-0.009463679 0.0060855197 0.02149752 0.026023004 -0.023012947 -0.012937713 0.013589563 -0.03646906
0.07551586 0.014018523 0.014983825 -0.04362984 0.0796677 -0.032756165 -0.03054259 0.020844065
00000000: 88bb 76bd d2c3 9fbc c80e fc3a 4eff 5ebc
00000010: 4f75 28bc f9ef 073c b5cb 8bbb 7a86 0b3d
00000020: 1e0d 513b 364d b1bb c4b7 223b f6f1 103c
00000030: 817b 143b a296 413d 374d 6d3c 7086 013b
00000040: fa95 8d3b 1d35 55bd a1df 9d3b 6452 1bbd
00000050: 05dd be3c f7e8 183d 10df 023d 7c27 7f3b
00000060: c21d 863d 2f15 f9bb 786f 65bc 7aa4 c13c
00000070: 7a71 ef3c b3de cf3c 02dd 833d 53f1 163d
00000080: 597a c93c 4b0a 56bd cd21 8d3a 038a 253a
00000090: 6208 41bd 2056 e0bc a2f5 ff3c aae6 913a
000000a0: 0d70 ba3b d84c 09bc 4ed2 f03c a6df 783d
000000b0: d839 a33c ba3d 4fbc 90f3 aa3d 574b df3c
000000c0: 362b c1bc 3e1d 153b 6e6d 7b3d aa74 693c
000000d0: a806 1dbc 3a28 e4bc 6d74 aebc fddd 96bc
000000e0: fd0b 20bd c914 3bbd 9f8c d03b 4d3b bfbc
000000f0: 021f b4bd 86b9 ce3d 2e14 e1bc 0149 d9bc
00000100: 5a2f 8dbd 6f3e 8c3d 6af4 a6bd 5d75 cabc
00000110: 7172 5e3c b884 ab3b c71d a23c 5105 36bd
00000120: 4b98 3bbd dbf7 02bc 4b9a a1b9 199f eebc
00000130: e049 edbb c416 0c3b dda3 02bd f2fe 33bc
00000140: 8c0d 1bbc 0a69 c73b 911b b03c 322e d53c
00000150: a685 bcbc b4f8 53bc c2a6 5e3c 9560 15bd
00000160: 0fa8 9a3d f2ad 653c b87e 753c 34b5 32bd
00000170: d228 a33d 542b 06bd 7434 fabc 2cc1 aa3c

net.level2_0.inp_reinf.1.bn.weight f4 [32]
0.09183895 0.011174008 0.031224215 -0.003413092 0.061609004 0.026909655 0.009827628 0.051426794
0.0727261 0.043398295 0.14735533 0.04769025 0.049996372 -0.005352686 0.12710747 0.12662064
0.054656465 -0.0058066347 0.037740454 0.03530435 0.11243025 0.08436963 0.049614474 0.009077795
0.04950662 0.027486986 0.041601215 0.00971234 0.015505901 0.079776 0.037449393 0.027363814
00000000: 0f16 bc3d 3013 373c edc9 ff3c 2fae 5fbb
00000010: b959 7c3d a371 dc3c 0f04 213c e7a4 523d
00000020: 6cf1 943d 69c2 313d 51e4 163e da56 433d
00000030: ffc8 4c3d 9665 afbb 7628 023e d7a8 013e
00000040: 75df 5f3d 9545 bebb bc95 1a3d 4b9b 103d
00000050: d541 e63d fcc9 ac3d 8c38 4b3d 08bb 143c
00000060: 74c7 4a3d 632c e13c 0966 2a3d 8220 1f3c
00000070: 760c 7e3c 9961 a33d 8964 193d 142a e03c

net.level2_0.inp_reinf.1.bn.bias f4 [32]
-0.114641085 -0.05212199 -0.053720273 -0.034206048 -0.04310106 0.036601447 -0.011178383 -0.0030685372
-0.009626115 -0.06085871 0.017827049 -0.037634734 -0.013777973 -0.036993463 0.030170927 -0.039992698
-0.017908983 0.0064701475 0.013244301 0.062209614 -0.02628639 -0.04605406 0.068277754 0.08277801
0.033286244 0.031748954 0.053042226 0.023716044 0.037933275 -0.005001866 0.06251851 0.013006122
00000000: f2c8 eabd de7d 55bd ca09 5cbd a41b 0cbd
00000010: bd8a 30bd 66eb 153d 8925 37bc 8319 49bb
00000020: dab6 1dbc fc46 79bd 080a 923c e126 1abd
00000030: 02bd 61bc 7586 17bd 0529 f73c 62cf 23bd
00000040: dcb5 92bc 8803 d43b a0fe 583c 82cf 7e3d
00000050: 8e56 d7bc 2fa3 3cbd 35d5 8b3d 8487 a93d
00000060: 2857 083d 310b 023d ce42 593d 2648 c23c
00000070: ec5f 1b3d b1e6 a3bb b409 803d a117 553c

net.level2_0.inp_reinf.1.bn.running_mean f4 [32]
-0.00560095 -0.0014796164 0.002143707 2.99787e-05 0.0037826367 -0.00096125033 -0.0014992256 0.0049832757
0.003907795 0.00443253 0.007827265 -0.0037638252 -0.004309669 0.00025447976 0.0068439045 0.0055347914
0.00025346864 -0.00049300655 -0.0039763125 -0.0036024938 -0.00015114897 -0.00453683 -0.0072090793 0.00040290356
-0.0038622112 -0.0025945234 -0.0034458297 0.0028992076 -0.0021874628 0.0030075298 0.0004912482 -0.0037867415
00000000: 2d88 b7bb b0ef c1ba 6f7d 0c3b c57a fb37
00000010: 1de6 773b 6bfc 7bba aa81 c4ba bf4a a33b
00000020: f60c 803b c23e 913b ee3d 003c 82aa 76bb
00000030: 2038 8dbb b26b 8539 d542 e03b 325d b53b
00000040: fce3 8439 1c3d 01ba ba4b 82bb d117 6cbb
00000050: be7d 1eb9 b0a9 94bb 243a ecbb cd3c d339
00000060: 271d 7dbb e108 2abb 6ed3 61bb a200 3e3b
00000070: 895b 0fbb fa19 453b 1cc7 003a fb2a 78bb

net.level2_0.inp_reinf.1.bn.running_var f4 [32]
5.7482674e-05 6.7831957e-06 6.201538e-06 5.514481e-07 1.3632223e-05 1.198654e-05 1.5183892e-05 3.8874085e-05
3.967832e-05 1.5783378e-05 7.411941e-05 2.5917943e-05 6.6614746e-05 1.2955585e-06 5.740964e-05 2.6891104e-05
2.4813673e-05 3.4706075e-06 8.07852e-06 1.0637458e-05 9.594917e-06 0.00013231387 0.00011169053 1.8532239e-05
2.6082804e-05 1.2898804e-05 1.5424503e-05 5.0025037e-06 1.5676947e-05 9.29856e-06 4.0435018e-05 4.447084e-05
00000000: 8d19 7138 359b e336 ce16 d036 3a07 1435
00000010: f4b5 6437 cc19 4937 52be 7e37 bb0c 2338
00000020: 466c 2638 8c66 8437 8e70 9b38 5c6a d937
00000030: 85b3 8b38 0de3 ad35 22cb 7038 3594 e137
00000040: f526 d037 95e8 6836 fb88 0737 8977 3237
00000050: dbf9 2037 bcbd 0a39 663b ea38 ae75 9b37
00000060: 65cc da37 f167 5837 de63 8137 2edb a736
00000070: fd81 8337 0301 1c37 c598 2938 3386 3a38

net.level2_0.act.weight f4 [32]
-0.008670616 -0.010853261 -0.004236253 -0.00017052008 -0.00057358714 0.0021437847 0.0029394738 1.3171703e-07
3.758654e-09 0.005497026 -6.0827974e-06 -0.009441506 2.679881e-08 0.001405352 -6.9157745e-06 -0.00039698405
-0.021567889 -0.03880261 -0.0016230848 -0.026673649 -0.05464099 -0.029128576 -0.006028303 -0.019130722
0.0011002609 -0.05983988 -0.07196825 -0.0038552321 -0.013772258 -0.016250318 0.0011828599 0.010459114
00000000: 330f 0ebc e0d1 31bc 44d0 8abb a3cd 32b9
00000010: c85c 16ba bd7e 0c3b 30a4 403b 1a6e 0d34
00000020: 7825 8131 6520 b43b d51a ccb6 8cb0 1abc
00000030: 3533 e632 ca33 b83a 0d0e e8b6 4c22 d0b9
00000040: 24af b0bc 7cef 1ebd b0bd d4ba b282 dabc
00000050: 3bcf 5fbd 0d9f eebc 1289 c5bb 08b8 9cbc
00000060: a136 903a a91a 75bd 1764 93bd 10a8 7cbb
00000070: 09a5 61bc 631f 85bc 310a 9b3a b45c 2b3c

net.level3_0.eesp.proj_1x1.conv.weight f4 [8, 8, 1, 1]
0.025414653 0.0024441606 -0.018723128 0.0023501902 0.021777513 0.022332601 0.004372289 0.00080943445
-0.026278425 0.025333237 -0.013179041 -0.009880859 -0.047936138 -0.10453409 -0.00020975694 0.0117522
-0.07013372 0.011338578 0.03905947 0.043007404 0.022580886 0.007408756 0.018209582 0.03769134
0.04910548 0.0343034 -0.055879284 -0.029387817 0.0067030736 0.03390798 -0.033227745 -0.05035501
-0.04218349 -0.044861723 -0.05687943 0.027280819 -0.056740675 -0.0403869 -0.007066966 -0.013714156
-0.034806367 0.008642851 0.017846609 0.016089017 0.10651299 -0.019204086 -0.027049623 0.042694032
0.033147164 -0.016990006 -0.025422413 -0.0056225862 -0.020149855 -0.075588144 0.014632335 0.07061224
-0.02622236 0.0015762206 -0.007051039 -0.033644903 0.042590808 -0.058780726 0.020729944 -0.013507757
00000000: 6432 d03c 362e 203b 3f61 99bc a605 1a3b
00000010: c166 b23c dcf2 b63c 6b45 8f3b 3a30 543a
00000020: da45 d7bc a687 cf3c e8ec 57bc 54e3 21bc
00000030: af58 44bd f815 d6bd 33f2 5bb9 4d8c 403c
00000040: 45a2 8fbd 71c5 393c d3fc 1f3d 8828 303d
00000050: 8dfb b83c 26c5 f23b 432c 953c 3c62 1a3d
00000060: d422 493d b981 0c3d ade1 64bd b8be f0bc
00000070: 75a5 db3b 18e3 0a3d d119 08bd 0e41 4ebd
00000080: 98c8 2cbd edc0 37bd 68fa 68bd 067c df3c
00000090: e968 68bd bc6c 25bd 0292 e7bb 57b1 60bc
000000a0: 1f91 0ebd bf9a 0d3c 0d33 923c 1dcd 833c
000000b0: 7c23 da3d e351 9dbc 2c97 ddbc f0df 2e3d
000000c0: 52c5 073d a02e 8bbc aa42 d0bc ac3d b8bb
000000d0: 4f11 a5bc f5cd 9abd 76bc 6f3c 269d 903d
000000e0: 46d0 d6bc 3099 ce3a 670c e7bb 3dcf 09bd
000000f0: b373 2e3d 0fc4 70bd d8d1 a93c a44f 5dbc

net.level3_0.eesp.proj_1x1.bn.weight f4 [8]
0.0032871568 0.035363156 0.025762074 0.08066971 0.047391586 0.070869915 0.05012538 0.02806569
00000000: 576d 573b f5d8 103d fc0a d33c 2936 a53d
00000010: ae1d 423d 3f24 913d 4550 4d3d 05ea e53c

net.level3_0.eesp.proj_1x1.bn.bias f4 [8]
0.071055315 0.03199655 -0.07157117 0.003832798 0.074790224 0.00048077718 0.0023367777 0.07314458
00000000: 7385 913d d00e 033d e893 92bd ae2f 7b3b
00000010: 9e2b 993d d210 fc39 a024 193b d3cc 953d

net.level3_0.eesp.proj_1x1.bn.running_mean f4 [8]
0.018945351 -0.028527368 0.029872335 -0.027754568 -0.0049606888 0.0071397377 -0.00096193847 0.00029843824
00000000: 4833 9b3c 3ab2 e9bc d4b6 f43c 8c5d e3bc
00000010: 468d a2bb 76f4 e93b 992a 7cba b477 9c39

net.level3_0.eesp.proj_1x1.bn.running_var f4 [8]
0.000107232896 0.0005487308 0.0024830974 0.00096091436 7.1315706e-05 3.6863097e-05 2.1568021e-05 5.6348123e-05
00000000: 39e2 e038 b3d8 0f3a 76bb 223b dfe5 7b3a
00000010: 548f 9538 739d 1a38 f9ec b437 5657 6c38

net.level3_0.eesp.proj_1x1.act.weight f4 [8]
-4.6423612e-24 0.015895713 -0.008930255 0.045791242 0.03285692 -0.021092879 -0.017300114 0.002286641
00000000: b897 b398 ba37 823c 3450 12bc 998f 3b3d
00000010: fa94 063d f9ca acbc f8b8 8dbc 78db 153b

net.level3_0.eesp.spp_dw.0.conv.weight f4 [8, 1, 3, 3]
0.029581033 -0.006146724 -0.0033699954 0.029400429 -0.014539517 -0.013764247 0.025851022 -0.018482143
-0.018942034 -0.017350297 -0.023896648 -0.01843801 -0.030263534 -0.023833193 -0.018654034 0.015876317
0.04408262 0.035216313 -0.020209257 0.036541477 0.020252708 0.00072909816 0.023612173 -0.002011587
0.016313214 0.060240675 -0.02203588 0.0090989815 0.016186234 0.016131142 0.018666588 0.019220542
0.016108617 0.01610679 0.04340016 0.03648968 -0.0019517016 -0.041051783 -0.008736834 -0.009939205
-0.07798065 -0.092096515 0.024294311 -0.037660357 -0.07070914 0.060895536 0.043787524 -0.030576326
0.06164997 0.042030163 -0.0010660155 0.03685463 0.055968836 -0.0053016464 -0.011633306 -0.0013103662
0.012678516 0.00022131938 0.028523145 0.0528599 0.016955676 0.049416162 0.033571854 -0.01925069
-0.014819512 0.0043002916 -0.009947828 -0.005790514 0.025320023 0.041977014 0.021720076 0.038638923
00000000: ec53 f23c 756a c9bb 24db 5cbb 2bd9 f03c
00000010: 2837 6ebc 7083 61bc 86c5 d33c dd67 97bc
00000020: 532c 9bbc 3622 8ebc e7c2 c3bc 4f0b 97bc
00000030: 3beb f7bc d43d c3bc 58d0 98bc 0d0f 823c
00000040: fa8f 343d fb3e 103d e28d a5bc 84ac 153d
00000050: 02e9 a53c f320 3f3a 516e c13c d4d4 03bb
00000060: 4aa3 853c edbe 763d 9784 b4bc e513 153c
00000070: fe98 843c 7525 843c acea 983c 6674 9d3c
00000080: 38f6 833c 63f2 833c 5ec4 313d 3476 153d
00000090: 3dd0 ffba ea25 28bd f024 0fbc 0cd8 22bc
000000a0: 52b4 9fbd 199d bcbd dd04 c73c bf41 1abd
000000b0: f4cf 90bd 996d 793d 8c5a 333d 347b fabc
000000c0: ae84 7c3d d227 2c3d 8bb9 8bba e1f4 163d
000000d0: 943f 653d 6fb9 adbb 9f99 3ebc 98c0 abba
000000e0: 8db9 4f3c f811 6839 5fa9 e93c 9f83 583d
000000f0: a1e6 8a3c 9a68 4a3d a482 093d 9fb3 9dbc
00000100: 8acd 72bc 76e9 8c3b 37fc 22bc 5abe bdbb
00000110: f06b cf3c 17f0 2b3d 4dee b13c d943 1e3d

net.level3_0.eesp.spp_dw.1.conv.weight f4 [8, 1, 3, 3]
0.02996157 -0.005452554 0.021617947 0.02968083 -0.014458917 0.006922016 -0.012139904 -0.057606913
-0.03635385 0.0092300875 -0.017801495 -0.009694423 -0.016519409 0.00987469 -0.012682716 0.0037675726
0.034459736 -0.033226695 -0.026460784 0.008700561 0.0045883358 0.004245385 0.025813652 -0.03339839
-0.019950533 0.026250768 -0.044553604 0.017580267 0.027439227 0.0156973 -0.0073410715 0.01680034
-0.026084498 -0.011868801 0.03895534 -0.0279559 0.011245764 0.023150347 0.035733413 0.01774313
-0.02023886 -0.06070798 0.013386508 -0.0097082425 -0.014957512 0.017787158 0.040803436 -0.017460475
0.015662216 -0.0037242856 -0.012017205 -0.025609814 0.031563953 0.0012066773 -0.0030539792 -0.018867716
-0.014836291 -0.0017361927 0.05337771 0.009889837 -0.02387883 -0.012123418 -0.02006544 -0.012880242
-0.03920585 -0.023363193 0.018547513 -0.0073600207 -0.015168056 0.0010274127 -0.011269405 -0.070888296
00000000: f771 f53c 57ab b2bb 1f18 b13c 3625 f33c
00000010: 18e5 6cbc 14d2 e23b 73e6 46bc 3af5 6bbd
00000020: c6e7 14bd cb39 173c 71d4 91bc 5bd5 1ebc
00000030: b653 87bc 74c9 213c 2bcb 4fbc 61e9 763b
00000040: a725 0d3d b718 08bd 49c4 d8bc cc8c 0e3c
00000050: c059 963b df1c 8b3b 2777 d33c c0cc 08bd
00000060: 4d6f a3bc da0b d73c d77d 36bd 7e04 903c
00000070: 3bc8 e03c a097 803c 5f8d f0bb dea0 893c
00000080: 28af d5bc 5c75 42bc a28f 1f3d c603 e5bc
00000090: 2740 383c cca5 bd3c 335d 123d 0a5a 913c
000000a0: f7cb a5bc eea8 78bd 1653 5b3c 520f 1fbc
000000b0: 5a10 75bc 60b6 913c 8121 273d 4509 8fbc
000000c0: 0c4e 803c 2513 74bb d0e3 44bc accb d1bc
000000d0: 3449 013d 5f29 9e3a 4525 48bb 7890 9abc
000000e0: ea13 73bc f690 e3ba 96a2 5a3d fc08 223c
000000f0: 899d c3bc 4da1 46bc 4760 a4bc a707 53bc
00000100: 5096 20bd 2b64 bfbc f4f0 973c 542c f1bb
00000110: 7083 78bc 40aa 863a 4fa3 38bc e22d 91bd

net.level3_0.eesp.spp_dw.2.conv.weight f4 [8, 1, 3, 3]
0.017378092 0.0060527734 0.021657752 0.0046262606 0.0032604923 0.010389416 -0.0013446254 -0.008368215
-0.010981141 -0.003351118 0.010945501 -0.027665066 0.0011849628 -0.020408941 -0.012526526 -0.028931417
-0.061241798 -0.04507912 -0.009127192 0.017603839 0.00032142294 0.008240557 0.024987731 0.04464906
-0.013559553 0.017182695 0.005704939 0.0037129954 0.04398055 0.02767914 -0.003322622 0.012479975
0.0062674633 -0.024834879 0.0063061523 0.0017487896 0.0066161836 0.035692308 0.03463241 0.0107646985
-0.0005108901 0.017075937 0.0062876698 0.021822726 0.04090775 -0.042700678 0.03865604 -0.011190031
-0.056466017 -0.02685022 0.0019339402 -0.04010599 0.053089738 0.014243826 0.018016417 -0.010376518
0.015975427 -0.010359524 0.024760582 -0.01816978 -0.012340042 -0.0039330428 0.0126567455 -0.014608212
0.004280889 0.0093350895 -0.020601185 -0.0014474334 -0.029834487 -0.045852907 -0.05746406 -0.048210338
00000000: 805c 8e3c 5856 c63b 996b b13c e397 973b
00000010: fcad 553b 5e38 2a3c 243e b0ba d61a 09bc
00000020: 3eea 33bc 6e9e 5bbb c254 333c d9a1 e2bc
00000030: c150 9b3a a730 a7bc 0f3c 4dbc 9401 edbc
00000040: aed8 7abd e2a4 38bd 388a 15bc ed35 903c
00000050: a884 a839 6703 073c 12b3 cc3c efe1 363d
00000060: e328 5ebc b9c2 8c3c 7ff0 ba3b ba55 733b
00000070: f324 343d 5dbf e23c 59c0 59bb cf78 4c3c
00000080: 4b5f cd3b 8472 cbbc d7a3 ce3b a437 e53a
00000090: 92cc d83b 1932 123d b7da 0d3d 6b5e 303c
000000a0: 41ed 05ba d6e2 8b3c cc08 ce3b 93c5 b23c
000000b0: e38e 273d e8e6 2ebd cc55 1e3d 6456 37bc
000000c0: e948 67bd fef4 dbbc 447c fd3a 2e46 24bd
000000d0: a074 593d f05e 693c 2a97 933c 4502 2abc
000000e0: e6de 823c feba 29bc b4d6 ca3c cad8 94bc
000000f0: e32d 4abc c1e0 80bb 3d5e 4f3c 4857 6fbc
00000100: b346 8c3b 34f2 183c d1c3 a8bc ceb7 bdba
00000110: 7467 f4bc 42d0 3bbd 6f5f 6bbd 3478 45bd

net.level3_0.eesp.spp_dw.3.conv.weight f4 [8, 1, 3, 3]
-0.0008374961 -0.00010536322 -0.00020348394 0.00014903776 4.8636026e-05 -1.11320805e-05 0.0015801055 0.00090494094
0.00051679794 0.00580863 -0.004396741 -0.0062867873 0.025581624 0.015375159 0.01126015 0.022051021
2.996846e-05 0.0008415049 -0.0023524424 0.00971087 -0.0034445818 0.021944663 0.01728966 0.00782481
-0.008248418 0.030997317 -0.00959312 0.028568141 0.022070222 0.02719887 -0.014763877 -0.019357705
-0.020079494 -0.010333885 -0.022721693 -0.019175895 0.013429068 0.021394636 0.023341302 0.0085542565
-0.027720554 0.044572365 -0.00010664949 0.023708878 0.023835797 -1.1374765e-08 -1.8537667e-08 -5.414207e-09
-1.2688851e-08 1.4048901e-09 -2.8141232e-08 -4.4651e-09 2.225977e-09 -2.564464e-08 0.014844436 -0.014965218
0.015536584 -0.025507472 0.027360719 -0.008007808 -0.02699392 -0.0077885515 -0.0036042435 -0.0014079124
0.0019722288 0.0019428434 0.002441396 0.00070769526 0.0058832457 0.0018202607 0.003551358 0.0058322237
00000000: 698b 5bba 73f6 dcb8 4e5e 55b9 0547 1c39
00000010: 89fe 4b38 ecc3 3ab7 8b1b cf3a 8f39 6d3a
00000020: b979 073a 5256 be3b 8912 90bb 6501 cebb
00000030: 8e90 d13c 17e8 7b3c 7e7c 383c 58a4 b43c
00000040: c764 fb37 7098 5c3a 6f2b 1abb 571a 1f3c
00000050: 7ebe 61bb 4bc5 b33c 0ca3 8d3c a233 003c
00000060: 5f24 07bc 16ee fd3c 762c 1dbc bc07 ea3c
00000070: 9ccc b43c 2ad0 de3c 30e4 71bc 0d94 9ebc
00000080: c07d a4bc 754f 29bc d822 babc c416 9dbc
00000090: 9805 5c3c ce43 af3c 4236 bf3c 2727 0c3c
000000a0: 3716 e3bc 8391 363d 02a9 dfb8 1f39 c23c
000000b0: 4a43 c33c bf6a 43b2 c33c 9fb2 de07 bab1
000000c0: 28fe 59b2 2d16 c130 39bb f1b2 6f6b 99b1
000000d0: cdf7 1831 2949 dcb2 1436 733c ac30 75bc
000000e0: 288d 7e3c 0cf5 d0bc 9623 e03c 2e33 03bc
000000f0: 5a22 ddbc 1b37 ffbb 2c35 6cbb b389 b8ba
00000100: 8240 013b 02a7 fe3a d4ff 1f3b a084 393a
00000110: 3ec8 c03b d095 ee3a e6bd 683b 3d1c bf3b

net.level3_0.eesp.conv_1x1_exp.conv.weight f4 [32, 8, 1, 1]
3.9300303e-05 0.009893202 -0.009336959 0.046744995 0.053336255 0.019673469 -0.004805144 0.013160272
-9.311037e-05 -0.010993617 0.012801449 -0.041253015 0.009289865 -0.0002711114 -0.016647102 0.014480807
-2.518882e-07 0.013084404 0.0040685013 0.031861894 -0.0101221055 -0.01047468 0.000942385 0.0028422426
-0.000116163545 -0.010048101 0.052485693 -0.00901582 -0.0129090175 -0.0072329114 -0.035638254 -0.009088623
4.1653487e-07 -0.001607767 -0.0062024444 0.0046347436 -0.017967544 -0.044315077 0.013871445 0.004280063
-7.393422e-11 0.0075393002 -0.009145547 -0.030741787 0.054044098 0.06713586 0.024107598 -0.00047393987
3.417563e-17 9.93747e-12 -6.795681e-14 3.8241832e-10 -7.364425e-10 3.338786e-11 -2.551498e-10 -2.9172584e-12
-5.5584274e-17 1.7047415e-10 0.0015112377 -0.0011275142 0.0022022212 0.00037943947 0.0016627609 3.784548e-09
0.049070425 -0.0032908255 -4.2079208e-11 -0.024918744 -0.05004312 0.0073784953 -0.0050055613 0.034173373
0.009007607 -0.035747286 1.1228387e-12 0.009374111 0.0025226946 0.011234736 0.0043005883 0.009728984
-0.054682788 -0.0063632284 6.866608e-09 -0.03455807 0.035101973 0.034965795 0.03362095 0.0210026
-0.034719266 0.023802835 7.607788e-10 0.013733944 0.06873205 0.02034361 0.0037878396 0.012364738
-0.036622755 -0.020934908 2.5742752e-10 0.0022949956 -0.028412893 -0.070603594 0.022803143 -0.03634364
-0.07640399 -0.023739086 -6.361073e-10 -0.007095299 0.028654808 -0.0145539325 0.006535467 0.039019044
0.0006015689 0.0033198274 -9.472992e-12 0.027716557 -0.035569437 0.005456531 -0.03253612 -0.009673672
0.026312107 0.022344878 4.770978e-09 0.012172393 0.021560736 0.012072125 0.031842757 0.07343207
0.018900672 0.01566797 0.028222987 0.008358805 0.016871234 -0.03867387 -0.0047834706 0.04242154
-0.021370571 -0.018520193 -0.0018810561 0.060082287 0.0358622 -0.021939782 0.016772397 -0.004067432
-0.027708737 3.971675e-05 0.0065009855 0.026231041 0.017974457 -0.0134827215 -0.014275988 -0.019168343
-0.028516656 0.006588183 0.0035647196 -0.005416354 -0.044104695 -0.005197112 -0.011118201 0.03004042
1.4965917e-06 1.9504473e-07 3.270541e-11 1.1795296e-05 2.8890634e-08 1.2799363e-06 -2.0923904e-08 1.2669966e-06
-0.016794877 -0.016091162 -0.008224278 -0.020589856 0.0017132352 -0.015042304 -0.005909034 -0.014699464
0.010340412 0.04297727 -0.022742422 0.0366951 0.0077650617 0.051730677 0.02609507 0.046965625
-0.00260822 0.040001318 -0.010904434 0.03640747 -0.009682087 -0.017172769 0.031104 0.0366689
-0.012743536 -0.01622638 -0.009948514 -0.01899358 0.07418244 0.0032677324 -0.0033388643 -0.009425543
-0.0040077893 -0.024592876 0.02851819 -0.0047723027 0.018110976 -0.0026862146 -0.055138625 -0.001212086
-0.000922322 -0.013622311 0.05653069 -0.010709122 -0.017516999 0.0014859447 0.0090916455 0.0023276883
0.002458512 -0.007761947 -0.0036787884 -0.023162702 -0.012593889 -0.00010193743 -0.023984902 0.0034877982
-1.0178814e-11 1.4342163e-07 -1.5857706e-08 8.6253216e-08 -1.7965233e-07 8.302192e-13 6.9729616e-08 7.392528e-08
-0.0003408875 0.009030875 0.0054336716 -0.0067339675 -0.06894855 0.0044917497 -0.048527937 -0.0031058257
-0.0026714068 -0.015232799 -0.0052943653 -0.025923936 -0.0026730755 8.450327e-05 0.0064809592 -0.0012870715
0.00086263154 0.021044677 0.045464262 -0.0025426126 -0.020694625 -0.00022324931 -0.0061846846 0.011498319
00000000: 61d6 2438 1917 223c 0bfa 18bc ae77 3f3d
00000010: 1e77 5a3d 412a a13c 7874 9dbb 2e9e 573c
00000020: 4044 c3b8 921e 34bc 2bbd 513c ecf8 28bd
00000030: 8534 183c f523 8eb9 815f 88bc e840 6d3c
00000040: 403b 87b4 f85f 563c 1051 853b 9e81 023d
00000050: 30d7 25bc fe9d 2bbc 630a 773a eb44 3a3b
00000060: d49c f3b8 caa0 24bc 3dfb 563d 17b7 13bc
00000070: 5880 53bc 0f02 edbb 6bf9 11bd 73e8 14bc
00000080: 1ea0 df34 b5bb d2ba e03d cbbb 0cdf 973b
00000090: ac30 93bc ba83 35bd 0f45 633c c53f 8c3b
000000a0: 4495 a2ae 3c0c f73b 34d7 15bc 33d6 fbbc
000000b0: 585d 5d3d 877e 893d 4c7d c53c 227b f8b9
000000c0: 769b 1d24 63d2 2e2d 6f06 99a9 983c d22f
000000d0: 896e 4ab0 63d7 122e 2445 8caf a848 4dac
000000e0: 2a2b 80a4 3570 3b2f b914 c63a 19c9 93ba
000000f0: 2453 103b 81ef c639 fff0 d93a 3c09 8231
00000100: 12fe 483d e4aa 57bb fa10 39ae 6522 ccbc
00000110: 04fa 4cbd 4ec7 f13b b105 a4bb 61f9 0b3d
00000120: a494 133c bf6b 12bd 8706 9e2b df95 193c
00000130: cb53 253b e611 383c f3eb 8c3b 5166 1f3c
00000140: 0ffb 5fbd a182 d0bb 53ef eb31 c38c 0dbd
00000150: 16c7 0f3d 4b38 0f3d 1fb6 093d a50d ac3c
00000160: ca35 0ebd 2afe c23c 0c1f 5130 5604 613c
00000170: 64c3 8c3d a4a7 a63c 673d 783b 7895 4a3c
00000180: be01 16bd af7f abbc b485 8d2f a367 163b
00000190: 28c2 e8bc 9e98 90bd a8cd ba3c 12dd 14bd
000001a0: b279 9cbd 7978 c2bc 12da 2eb0 af7f e8bb
000001b0: 7dbd ea3c 9e73 6ebc 7927 d63b 6fd2 1f3d
000001c0: 9bb2 1d3a 7691 593b 90a6 26ad d50d e33c
000001d0: 42b1 11bd b3cc b23b 9844 05bd 527e 1ebc
000001e0: 7d8c d73c 9b0c b73c f7ed a331 b76e 473c
000001f0: 24a0 b03c 2aca 453c 8d6d 023d 8e63 963d
00000200: 95d5 9a3c 1d5a 803c e533 e73c 5ff3 083c
00000210: 8b35 8a3c 7e68 1ebd a9be 9cbb 35c2 2d3d
00000220: 5611 afbc a9b7 97bc c58d f6ba d818 763d
00000230: 3ee4 123d 0fbb b3bc 4466 893c 1848 85bb
00000240: 6ffd e2bc 8995 2638 3806 d53b 7be2 d63c
00000250: 2b3f 933c a2e6 5cbc d5e5 69bc ee06 9dbc
00000260: c39b e9bc afe1 d73b 129e 693b ac7b b1bb
00000270: 20a7 34bd 894c aabb 1d29 36bc 5417 f63c
00000280: 80de c835 7d6d 5134 05d7 0f2e 69e4 4537
00000290: 2d2b f832 47ca ab35 27bc b3b2 ac0d aa35
000002a0: 6995 89bc 9dd1 83bc 1fbf 06bc 0fac a8bc
000002b0: a28e e03a ff73 76bc 92a0 c1bb 05d6 70bc
000002c0: d56a 293c ef08 303d 514e babc 9a4d 163d
000002d0: 0f72 fe3b 8ce3 533d 54c5 d53c 075f 403d
000002e0: acee 2abb 6cd8 233d 83a8 32bc 0020 153d
000002f0: 9ea1 1ebc e8ad 8cbc d1cd fe3c 2132 163d
00000300: 44ca 50bc 2fed 84bc 18ff 22bc 6d98 9bbc
00000310: f7ec 973d 7427 563b d9d0 5abb 986d 1abc
00000320: c653 83bb 0077 c9bc fb9e e93c fa60 9cbb
00000330: 785d 943c 340b 30bb 0ad9 61bd dbde 9eba
00000340: fbc7 71ba 1d30 5fbc ba8c 673d 5075 2fbc
00000350: cf7f 8fbc 08c4 c23a 20f5 143c 218c 183b
00000360: fd1e 213b ee57 febb d417 71bb b5bf bdbc
00000370: 9956 4ebc 3ec7 d5b8 fc7b c4bc 8b93 643b
00000380: 4e11 33ad 70ff 1934 7737 88b2 353a b933
00000390: 75e6 40b4 99af 692b 43be 9533 dac0 9e33
000003a0: 25b9 b2b9 3cf6 133c f10c b23b 9da8 dcbb
000003b0: e634 8dbd 872f 933b 3bc5 46bd 1c8b 4bbb
000003c0: c512 2fbb fd92 79bc 5b7c adbb 6f5e d4bc
000003d0: c42e 2fbb 5937 b138 3a5e d43b f4b2 a8ba
000003e0: 3922 623a e365 ac3c bc38 3a3d f6a1 26bb
000003f0: c687 a9bc 0818 6ab9 e5a8 cabb 7263 3c3c

net.level3_0.eesp.conv_1x1_exp.bn.weight f4 [32]
0.04460703 0.01304801 0.013842067 0.04063165 0.028610693 0.06940177 4.3749013e-10 -0.0042357626
0.03712431 0.0045829355 0.043961827 0.05062677 0.051725894 0.029257605 0.02951847 0.02443232
0.027978798 0.04171569 0.016895836 0.03717962 -4.16477e-06 0.015574921 0.04724157 0.030016383
0.0406279 0.028446548 0.046020724 0.02020662 9.843469e-06 0.07023423 0.014356687 0.04192483
00000000: dcb5 363d 52c7 553c d6c9 623c 5f6d 263d
00000010: f960 ea3c 8422 8e3d 4383 f02f 27cc 8abb
00000020: a90f 183d 732c 963b 5111 343d 045e 4f3d
00000030: 88de 533d a5ad ef3c b8d0 f13c 4a26 c83c
00000040: cb33 e53c 12de 2a3d 2369 8a3c a849 183d
00000050: 1abf 8bb6 f42d 7f3c 6080 413d ebe4 f53c
00000060: 7169 263d bc08 e93c 3a80 3c3d 5b88 a53c
00000070: 6125 2537 f7d6 8f3d 4f38 6b3c 5fb9 2b3d

net.level3_0.eesp.conv_1x1_exp.bn.bias f4 [32]
-0.013051255 0.031961612 0.022020796 -0.0040734923 0.008692156 -0.00048437898 -0.012639314 -0.0026323178
-0.008477871 -0.0057798927 0.024216786 0.011839459 0.00075760233 -0.012661833 -0.013794469 0.0135103315
0.0062394193 -0.000917107 0.00033417498 -0.004640148 -0.004771598 -0.0060913106 0.03837202 0.0034760148
0.012966743 0.0131656965 -0.013925855 -0.006850585 -0.0043990286 0.0031143902 -0.006829705 -0.009100804
00000000: eed4 55bc 2eea 023d f564 b43c ee7a 85bb
00000010: 8b69 0e3c 3ff4 fdb9 2015 4fbc f782 2cbb
00000020: c5e6 0abc 4165 bdbb 4862 c63c 4afa 413c
00000030: d599 463a 9473 4fbc 3202 62bc 705a 5d3c
00000040: 0b74 cc3b 026a 70ba 3534 af39 620c 98bb
00000050: 115b 9cbb 9e99 c7bb fb2b 1d3d dacd 633b
00000060: 7672 543c efb4 573c 4529 64bc df7a e0bb
00000070: ba25 90bb cc1a 4c3b b8cb dfbb 8a1b 15bc

net.level3_0.eesp.conv_1x1_exp.bn.running_mean f4 [32]
0.002337178 -0.00067055825 -0.00031861098 -0.0015579725 -0.001993282 0.004414504 5.633958e-12 9.531895e-05
0.0028922462 0.00097097503 -0.0020669848 0.000993141 -0.0078833215 -0.0057015303 -0.00015075244 0.006029881
0.002710897 0.001550598 -0.00038964103 -0.0009268714 6.386513e-07 -0.0029905243 0.006898394 0.0037718094
0.0062840027 -0.00079413946 -0.00065950514 -0.0027424588 4.176662e-08 -0.008491791 -0.0006985082 -0.0010024812
00000000: 572b 193b 67c8 2fba 3e0b a7b9 e234 ccba
00000010: b9a1 02bb 8ba7 903b 2f3a c62c f9e5 c738
00000020: d78b 3d3b 0889 7e3a 4076 07bb 482c 823a
00000030: 0c29 01bc e7d3 babb 4d13 1eb9 4f96 c53b
00000040: 4ea9 313b 6f3d cb3a bc48 ccb9 49f9 72ba
00000050: c86f 2b35 acfc 43bb ec0b e23b 7630 773b
00000060: 09ea cd3b cc2d 50ba a4e2 2cba d3ba 33bb
00000070: e262 3333 2721 0bbc 171c 37ba b065 83ba

net.level3_0.eesp.conv_1x1_exp.bn.running_var f4 [32]
1.1287904e-05 5.042635e-07 7.854661e-07 1.1799801e-06 7.416469e-06 2.6546126e-05 4.9317075e-22 1.4743186e-08
6.118853e-06 3.849613e-07 1.2226726e-05 1.7205079e-05 1.935535e-05 6.3743105e-06 3.732005e-06 8.997075e-06
5.6306203e-06 3.1534112e-06 1.4690863e-06 1.7813121e-06 1.9139036e-13 2.9762575e-06 2.1046368e-05 8.940961e-06
7.1296536e-06 2.519157e-06 4.7249551e-07 7.3354715e-07 7.349116e-16 7.785422e-06 4.1495568e-07 6.762762e-07
00000000: 2e61 3d37 b95c 0735 d2d8 5235 cf5f 9e35
00000010: fcda f836 5faf de37 3d0d 151c 3849 7d32
00000020: 8c50 cd36 aeac ce34 6321 4d37 a053 9037
00000030: 4c5d a237 e9e2 d536 5c73 7a36 25f2 1637
00000040: a9ee bc36 319f 5336 6c2d c535 6b15 ef35
00000050: 847c 572a b7bb 4736 bb8c b037 2301 1637
00000060: 423b ef36 ca0e 2936 4aab fd34 fae8 4435
00000070: e8d2 5326 229e 0237 13c7 de34 5989 3535

net.level3_0.eesp.br_after_cat.bn.weight f4 [32]
5.7185083e-05 0.017623255 0.03392615 0.056121007 0.05542932 0.050840497 0.019416684 0.012687631
-0.036339816 0.013618445 -6.683957e-08 -0.010694976 0.06468709 0.040691998 0.025351435 0.042593136
0.024335781 0.03247636 0.023746543 0.034742013 0.0118675055 0.03934544 0.019550469 0.04907793
0.0029089465 0.01903495 0.043037448 0.026128676 0.039099436 0.00023257657 0.031708997 0.0014149848
00000000: 04da 6f38 a55e 903c 26f6 0a3d 24df 653d
00000010: db09 633d 203e 503d bd0f 9f3c c8df 4f3c
00000020: 0fd9 14bd e61f 5f3c 7189 8fb3 fb39 2fbc
00000030: aa7a 843d a7ac 263d d0ad cf3c 2476 2e3d
00000040: d55b c73c ef05 053d 1c88 c23c a44d 0e3d
00000050: ed6f 423c af28 213d 4e28 a03c f105 493d
00000060: 06a4 3e3b 2fef 9b3c 0948 303d ce0b d63c
00000070: bb26 203d ccdf 7339 4be1 013d 0377 b93a

net.level3_0.eesp.br_after_cat.bn.bias f4 [32]
-0.00088665687 -0.010630042 -0.008280126 -0.03631863 0.0103298435 0.042652916 0.024929678 -0.01006685
0.07353665 0.024823675 -4.8209454e-09 0.031529352 -0.00045212905 0.04959161 0.017104719 0.023476878
0.027618261 0.032518428 -0.026453435 0.046033807 0.022859275 0.03026224 -0.053636007 0.040953998
-0.007396019 0.018498717 0.016500788 0.0039459094 0.094658755 -0.0059957444 0.0440551 0.0092486935
00000000: 896e 68ba a129 2ebc 5ea9 07bc d8c2 14bd
00000010: 813e 293c d3b4 2e3d 5339 cc3c 6eef 24bc
00000020: 629a 963d 055b cb3c 7ca5 a5b1 ec24 013d
00000030: bc0b edb9 9220 4b3d 321f 8c3c 9552 c03c
00000040: b13f e23c 0b32 053d e0b4 d8bc f28d 3c3d
00000050: 6043 bb3c 84e8 f73c 6eb1 5bbd 61bf 273d
00000060: 4e5a f2bb 9f8a 973c a92c 873c b04c 813b
00000070: 73dc c13d f377 c4bb 1f73 343d d587 173c

net.level3_0.eesp.br_after_cat.bn.running_mean f4 [32]
0.00031379555 -0.0014403042 8.239362e-05 0.006329612 -0.024841065 0.0035705909 0.0033690948 0.005521512
-0.0018250076 -0.0027582503 4.6880305e-05 0.0076343734 -0.025791626 0.0042125834 0.0029665818 -0.0059407176
0.0004948 -0.00929863 0.00011619222 0.009868763 -0.01383074 0.0034769913 0.0032436957 -0.019400021
0.00063020556 -0.0069738515 0.00016216625 0.009063136 -0.005288306 0.0034769902 0.0028160245 -0.017829368
00000000: ed84 a439 97c8 bcba bdca ac38 a268 cf3b
00000010: 7d7f cbbc 9300 6a3b 08cc 5c3b cded b43b
00000020: 1835 efba c3c3 34bb 58a1 4438 c429 fa3b
00000030: f648 d3bc b609 8a3b fc6a 423b 5aaa c2bb
00000040: 77b5 013a 4859 18bc 39ac f338 98b0 213c
00000050: 549a 62bc 3cde 633b 2f94 543b cbec 9ebc
00000060: 6134 253a e884 e4bb 2c0b 2a39 8c7d 143c
00000070: 8749 adbb 37de 633b 0d8d 383b e50e 92bc

net.level3_0.eesp.br_after_cat.bn.running_var f4 [32]
1.1878368e-06 1.6751359e-06 9.2835956e-10 4.3697586e-05 3.5117504e-05 0.00011776044 1.1224289e-05 4.4361755e-06
5.8677156e-06 3.95314e-06 5.574478e-10 6.305928e-05 4.2694093e-05 0.0001542608 1.181757e-05 1.1756929e-05
9.970196e-06 2.8512415e-05 1.9726238e-09 0.000106503474 3.020262e-05 0.0001500818 1.4225307e-05 5.279089e-05
9.778385e-06 1.7639744e-05 3.5606573e-09 9.978516e-05 3.943863e-05 0.00015008177 1.4103288e-05 4.635758e-05
00000000: c36d 9f35 3bd5 e035 7f2f 7f30 ed47 3738
00000010: 224b 1338 28f6 f638 f44f 3c37 75da 9436
00000020: 4be3 c436 37a5 8436 e73a 1930 b13e 8438
00000030: 6f12 3338 11c1 2139 1444 4637 a03f 4537
00000040: aa45 2737 f22d ef37 c48e 0731 9e5a df38
00000050: a25b fd37 475f 1d39 3aa9 6e37 c96b 5d38
00000060: d80d 2437 10f9 9337 bfaf 7431 c043 d138
00000070: e86a 2538 455f 1d39 299d 6c37 1370 4238
