data/Tracking.pth (torch_old, 503233 bytes, 365 tensors)

net.level1.conv.weight f4 [16, 3, 3, 3]
00000000: 2421 a7bc 9f36 663c 6fd0 173c 0cc8 e4bc
00000010: 3c0c 36bc 03e5 8e3c 3bdb 1ebb b924 393b
00000020: 1c13 2fba 19b8 ebbb 7bd0 463c 8bc5 453b
00000030: 1b22 fdbb 4707 b73b 1008 7cbb 60cb 40bc
00000040: 4b51 463c 5de2 9abc ab89 e93c 5990 de3c
00000050: d48c dd3c c511 78bb 56cb 833c 8ed5 bf3c
00000060: 5628 723c 19c0 113d 80b2 803c c1eb 363d
00000070: 578a 243e 1bbb 48bd ceab 20bb 1e8b abbd
00000080: d23e 9cbd b487 4fbd 8c29 763b 0fd7 063d
00000090: a5b5 853e c6a9 69bd 58c2 74be 661a 4f3c
000000a0: 8428 7e3d 1c4d 1a3d 52d6 74bb b27d a63d
000000b0: af93 b7bd b60c c53d df97 313d 17d3 61bb
000000c0: 0c3b 80bd 85af 94bc 134f 2b3e ef1e 60be
000000d0: 4995 da3c 5bfc 91bd 0cf4 5dbe 013d 65bd
000000e0: 7f58 ce3c 4f68 0abd e2b0 84bc b8d2 ac3c
000000f0: 968d f93c c78e 19bd 35e1 1abd 8e33 38bd
00000100: e53e 933d 7a1f 513e e2b7 a93d 3a01 90be
00000110: c488 85bc 21a1 523d a3cf 153e b64d 08be
00000120: cbd7 2e3d c064 51bc 0fb9 9c3d 79f1 463c
00000130: bd59 d83d c7ef 92bc 413e bf3d 3eab 6c3d
00000140: 1e76 f5bd 2ba9 633c 16ca 44bc 47f3 b8bd
00000150: 2be3 fcbd 33d8 d5bd 92f5 d8bc eda2 e7bc
00000160: cc57 3ebd 41d2 34be 0328 80bd 55d0 93bd
00000170: b7b1 63bd 4b8a 8c3d 9f68 45bd 348d a33b
00000180: 00df efbc 98dc bc3c f71a a93d 88ca 5ebc
00000190: 04f5 083e ba8e b63d 7e46 e33d a697 bb3d
000001a0: 6f35 ed3d 551f cb3c 6981 1f3d a3d6 743d
000001b0: 944e eb3c 39c9 28bc c139 cebc 3061 14bd
000001c0: 07eb e0bd 5bad cfbd 35e8 ccbc 5fd0 85bc
000001d0: 28d2 233d f08f 823a 7986 1ebb 9f2e c63c
000001e0: 22c9 0839 b6d5 f0bc 0630 34bd 62e3 b0bc
000001f0: 2e79 0bbd 18a0 10be a186 c83c c6f4 453d
00000200: 14d0 053d e647 143d c519 f23d 082b 3c3e
00000210: 55b9 6e3d 651b 943d 0528 bf3d 6284 e7bc
00000220: a555 ddbb 0554 0a3d 441c e43b 764d 853c
00000230: c10d 153c fddd c03a 46f0 763c 4aea 8c3b
00000240: 84ec 15bc dfe0 9a3a fc88 063c 185b 56bc
00000250: f0dd 153b cf02 a6bc 0320 b3ba 9d30 17bc
00000260: ba94 00bc c811 6a3c 95b4 6d3c bf64 df3c
00000270: 2a48 583c 63e6 443c 8a24 eabb 12bc 3b3c
00000280: 736f 2e3c b146 503c 27fd 0dbc c933 88bb
00000290: 7191 95bc 3530 df3b 929d 993b 19bc 123c
000002a0: 3415 b3bb 739d be3c 4113 9d3c 44e4 3c3a
000002b0: 6f0a 363c 7b18 d7bb 187a 003c 586f 283c
000002c0: 13fe 7dbb 1558 84bb a9ba 8f3c a160 993a
000002d0: 3476 423a 73aa 8d3c e659 b03b d06a f23c
000002e0: 92af 9f3c 4cdf b33c 6537 d63b 12a5 023d
000002f0: eef8 e53c 29a8 9f3c cf01 ac3c df50 97bc
00000300: 9ee9 d1bb 9d02 4c3d f1cf fb3a 9b76 9dbb
00000310: 0a45 41bb 6fe1 f2bc d854 80bc c790 f0bc
00000320: eb09 8ebc 82ed 10bd d43b 30bc 22c0 03bd
00000330: 0f37 0dbd bd2a bbbd c2e5 0bbd 601f b03c
00000340: d36a 7abc 7cff c53c 3bce 6b3d 74d2 adbb
00000350: 45ca ddbc 9838 9a3c a1d1 38bd 8fe2 6cbd
00000360: 6256 193c 9b4c 00bd 2ea2 adbd 72cc 9abc
00000370: 6243 34bd 05da 23bd 6100 41b9 5f78 8cbc
00000380: 1d14 c2bc 647f dcbb ce6c 33bd 5d45 edbc
00000390: 5992 12bd c397 d4bd 1e73 ba3b f40e a0bc
000003a0: 827a 77bc 6853 b5bc ac9e 573c b32f af3d
000003b0: 9e27 033e cf1e 5f3d 726b 0e3e 68c5 173d
000003c0: 9c9d eb3c 1354 143d 7484 603d 4e3f ec3c
000003d0: 24ad 2b3d 9c07 e8bb 60ed 653a 4393 c13d
000003e0: 10e0 6a3d 0696 873d 5f68 ce3c a629 d6bb
000003f0: 6a91 96bd a8f4 8abd 540f 3cbd 7e89 70bc
-0.020401545 0.014051109 0.009266003 -0.027927421 -0.011111315 0.017443186 -0.0024239558 0.0028250648
-0.0006678568 -0.007193577 0.012134667 0.003017756 -0.007725013 0.0055855843 -0.0038456954 -0.011767238
0.012104343 -0.018906767 0.028508028 0.02716844 0.027044691 -0.0037852388 0.016088169 0.02341726
0.014780125 0.03558359 0.015710115 0.044658426 0.16068397 -0.049006563 -0.0024516466 -0.08376144
-0.076291695 -0.050666526 0.0037561385 0.03291994 0.26115146 -0.057046674 -0.23902261 0.012640571
0.062050357 0.037671193 -0.003735919 0.08129443 -0.08963715 0.09621565 0.043357726 -0.0034458095
-0.06261262 -0.0181501 0.16729383 -0.218868 0.026682513 -0.07128211 -0.21675128 -0.05596638
0.025188683 -0.033790883 -0.016197626 0.021096572 0.030463021 -0.03748968 -0.03781243 -0.04497104
0.071897306 0.20422164 0.08287026 -0.28125936 -0.016300566 0.051423196 0.14629988 -0.13310894
0.042686265 -0.012780368 0.076524846 0.0121425325 0.10563991 -0.0179366 0.09338046 0.057780497
-0.1198542 0.013895313 -0.012011072 -0.090307765 -0.12348016 -0.10441627 -0.026484285 -0.028275931
-0.04647045 -0.1765833 -0.06257632 -0.072174706 -0.055589404 0.06862315 -0.048195478 0.004991198
-0.02928114 0.023054406 0.08257096 -0.013598092 0.13374716 0.08913942 0.1109743 0.09159784
0.11582457 0.024795214 0.038941775 0.059775006 0.028723992 -0.0103018815 -0.025174024 -0.036225498
-0.10982328 -0.10140487 -0.025013069 -0.01633471 0.039995342 0.000996111 -0.0024189039 0.024192153
0.00013044899 -0.02939878 -0.04399111 -0.0215928 -0.034051113 -0.14123571 0.024478259 0.048329137
0.032669142 0.03620138 0.118213214 0.1837579 0.058282215 0.072317876 0.09333805 -0.028261367
-0.0067545944 0.033771534 0.0069613773 0.016272288 0.0090975175 0.0014714595 0.015071934 0.0043003904
-0.009150628 0.0011816284 0.008211371 -0.013083242 0.002286788 -0.020265011 -0.0013666156 -0.009227899
-0.007847959 0.014286466 0.014508386 0.02726972 0.013200799 0.012017819 -0.007145469 0.011458414
0.010646689 0.012712167 -0.008666313 -0.004156564 -0.018257828 0.0068111666 0.0046879733 0.008955979
-0.005465174 0.023268437 0.01917422 0.0007205645 0.011110886 -0.0065641976 0.007841609 0.010280453
-0.0038756176 -0.0040388205 0.017545061 0.0011701771 0.00074181263 0.01729319 0.0053818105 0.029591948
0.019492898 0.021957062 0.0065373653 0.031895705 0.0280728 0.019489365 0.020996956 -0.01847118
-0.006406023 0.04980718 0.0019211752 -0.0048053986 -0.0029490613 -0.02964851 -0.015665457 -0.02936591
-0.017338714 -0.035382755 -0.010756452 -0.032165654 -0.034476336 -0.09139011 -0.03415466 0.021499336
-0.015284258 0.024169676 0.057569724 -0.005304629 -0.027073989 0.018825814 -0.045121793 -0.05783325
0.009358974 -0.031323057 -0.08478199 -0.018896315 -0.044009574 -0.04000284 -0.00018406055 -0.017147241
-0.023691231 -0.0067290533 -0.043804936 -0.028963739 -0.0357841 -0.10380509 0.0056899926 -0.01953838
-0.015104892 -0.022134498 0.013160389 0.0855402 0.12808082 0.05447274 0.13908175 0.037053496
0.028761677 0.036212992 0.054813817 0.02883878 0.041913167 -0.0070809852 0.00087710284 0.09451916
0.05734259 0.066204116 0.025196252 -0.0065357266 -0.07351954 -0.06784946 -0.045913056 -0.014681218

net.level1.bn.weight f4 [16]
00000000: 83d9 153f 9e73 d23e 2792 023f 781c 143f
00000010: 6f56 2d3f 7c32 d13e c53f cd3e 18c6 173f
00000020: ef54 383f 4205 043f 0575 303f f237 9b3e
00000030: e9eb 393f 6e3d 343f 04c3 383f 95b2 e23e
0.5853502 0.41103834 0.5100426 0.5785594 0.6771001 0.4085883 0.40087715 0.5928664
0.720046 0.5157052 0.6892856 0.3031612 0.72625595 0.70406234 0.7217257 0.44276872

net.level1.bn.bias f4 [16]
00000000: 745b 053f 3c6c 1bbd ec73 b33e 3bf0 f73e
00000010: b020 be3e 2c87 f33e 10d2 2a3e 0a3b b43e
00000020: 99a8 c13e ef4f 933e d0ec be3e 82e7 cb3e
00000030: ecb7 d13e 8b8f 8f3e c3a6 ce3e 2ef9 f23e
0.5209267 -0.037945017 0.3504938 0.4842547 0.37134314 0.47564065 0.16681695 0.35201293
0.37823942 0.28771922 0.3729005 0.39825064 0.40960634 0.28039202 0.40361604 0.47455734

net.level1.bn.running_mean f4 [16]
00000000: ecb1 a13d 164d c53b 5e1b 863d b4cd e53d
00000010: dc01 0e3e 2683 323d 4a77 c83d 1887 0fbe
00000020: 707c b53d 57b0 d9bd 504c b53d cd04 29bd
00000030: 4014 663d 53e0 9cbd 0652 4f3d a536 9b3d
0.07895264 0.0060211523 0.065481886 0.112208754 0.13867897 0.043582104 0.097883776 -0.14016378
0.08861625 -0.10629337 0.08852446 -0.041264344 0.056171656 -0.07659974 0.050615333 0.07578782

net.level1.bn.running_var f4 [16]
00000000: eadf e13c 6bd1 1c3c 16fa 9c3b 5c70 733c
00000010: 86c9 ff3c a157 493c 3fbc 4b3d ee96 b63d
00000020: 2af4 003c 552b 543c 2f6f 353c 1a61 883b
00000030: be5b 513c 76ed a33c 7380 4d3c 009b 873b
0.02757259 0.0095714135 0.0047905548 0.0148583315 0.031224024 0.012288959 0.049740072 0.08915506
0.007870713 0.012949784 0.0110738715 0.004161966 0.012778221 0.020010691 0.012542832 0.0041383505

net.level1.act.weight f4 [16]
00000000: 4e0b 30bd b198 023d 872c 5dbe 0dae 6fbd
00000010: ce9c d7bd 79fb 3dbc 7545 313c 4752 fbbc
00000020: 733e 0bbe bbc9 d3bc 52cb dfbd a997 56bc
00000030: 807c cebc 0748 90bd 1666 abbd 62a5 0bbd
-0.04297953 0.0318839 -0.21599017 -0.058515597 -0.10527955 -0.0115956 0.0108197825 -0.030678881
-0.13598041 -0.025853029 -0.10927452 -0.013097682 -0.02520585 -0.07044988 -0.08369081 -0.03409327

net.level2_0.eesp.proj_1x1.conv.weight f4 [4, 4, 1, 1]
00000000: 1f0d aebc 22ab 693e 2060 143e 40eb acbd
00000010: 67d5 c2ba 9902 ecbb 4a13 06be 48b4 713d
00000020: fe35 84b9 d617 73bd b3fe 943c f6ef 1fbb
00000030: 8c82 bebd 0cd4 9e3d e6be 833d 68dd 8b3d
-0.021246491 0.22819188 0.14489794 -0.08443308 -0.0014864624 -0.007202458 -0.13093296 0.05900982
-0.0002521723 -0.059348904 0.018187856 -0.0024404502 -0.093022436 0.077552885 0.06432895 0.06829339

net.level2_0.eesp.proj_1x1.bn.weight f4 [4]
00000000: da7f be3d 3abf 6c3d 3176 a43d 30bf b03d
0.093017295 0.057799555 0.08030356 0.08630216

net.level2_0.eesp.proj_1x1.bn.bias f4 [4]
00000000: c737 9ebd 1ac3 19bd 21ba 57bd 6e9c a8bd
-0.077254824 -0.03753958 -0.05266774 -0.082329616

net.level2_0.eesp.proj_1x1.bn.running_mean f4 [4]
00000000: 88ba 9a3c dad0 50bc 17f3 39bc fccb 593d
0.018887773 -0.012745107 -0.011349461 0.05317305

net.level2_0.eesp.proj_1x1.bn.running_var f4 [4]
00000000: 3c60 b53b 9c5f 833b 19e9 833a 6e37 813b
0.0055351537 0.0040092003 0.0010063975 0.0039433753

net.level2_0.eesp.proj_1x1.act.weight f4 [4]
00000000: e0f2 093a 8dd8 873e 3a4e ef3d ee56 813d
0.00052623264 0.26532403 0.116848424 0.06315409

net.level2_0.eesp.spp_dw.0.conv.weight f4 [4, 1, 3, 3]
00000000: 0570 463c a8f2 073d 5ee5 ef3c e089 2a3d
00000010: 161b f53b bafc b13c 5c08 0e3d ae6e 2a3d
00000020: 0b60 623d 524b 183e b67c fdbd 3e6c 2cbd
00000030: 9f6b 8b3d 18d5 d8bd d2b5 34bd d073 11be
00000040: 5e4a 373e 70ea b4bd 4f64 f43c 45cd f2b9
00000050: 932e 95bd be1d 17bc 013f 143c b95f 89bc
00000060: 1c1d 58bc d879 ecbc f3a8 0ebd 0263 ffbc
00000070: 7964 4fbc 8616 9abc 3a6a 3ebd 2c52 7bbd
00000080: 434a edbc 7f9b 4bbd 7b1d 97bc 3a32 68bd
0.0121116685 0.0331904 0.029284175 0.041635394 0.0074800355 0.021726955 0.03467594 0.04160946
0.055267375 0.14872482 -0.12377302 -0.042095415 0.068076365 -0.105875194 -0.04411871 -0.14204335
0.17899463 -0.08833778 0.029832987 -0.00046310775 -0.07284274 -0.0092234 0.009048224 -0.016769277
-0.013190534 -0.028866693 -0.03482909 -0.03117514 -0.012658232 -0.018809568 -0.046488024 -0.061357662
-0.028966075 -0.04970884 -0.018446675 -0.056688525

net.level2_0.eesp.spp_dw.1.conv.weight f4 [4, 1, 3, 3]
00000000: 95f5 363b 0614 8b3b 3c75 3e3c 9043 b23b
00000010: 99a4 dabb 3f2d 283d 4abd 823c 14ba 6b3d
00000020: bc02 683d c99d 053e 2609 a9bd e15b c93d
00000030: 1a86 5f3c 666e 30bc 7ec3 eabc 6e02 4f3e
00000040: 591d b2be 27f0 343e a48e 40bb 1e2f cc3b
00000050: b882 2abc e229 ddbb a16c f83a 2a3a 3ebd
00000060: 0b4d b9bb 74eb 2ebc 9684 dabc 50c3 88bb
00000070: 9347 43bc 2497 323b bb71 25bd a6c8 14bd
00000080: 71cb 893d 4a78 8dbc 2e0b 92bd 2f05 873d
0.0027917374 0.0042443303 0.011624631 0.005440183 -0.0066724536 0.041058775 0.0159594 0.057550505
0.056643233 0.13048472 -0.08253698 0.09831978 0.013642812 -0.010768509 -0.028657671 0.2021577
-0.34788015 0.17669736 -0.0029381895 0.0062312027 -0.010407142 -0.0067493776 0.0018953272 -0.04644219
-0.005654936 -0.010676254 -0.02667455 -0.0041736737 -0.01191892 0.0027250731 -0.040391665 -0.036324166
0.067282565 -0.017269272 -0.071310386 0.065927856

net.level2_0.eesp.spp_dw.2.conv.weight f4 [4, 1, 3, 3]
00000000: 1b78 13bb fab9 d2bb 0528 53bb 4c62 5cbb
00000010: 816b e4bc ff7c 0c3d aff6 b03b 0a0f 143d
00000020: 6829 193d aacb 0fbc 5596 8ebc 6b5d ca3c
00000030: 51c9 8dbc 9990 19bd 3a7b 48bc 9e86 1a3d
00000040: fbbf 303d 5798 2b3d 407f ffbb 09ea e03c
00000050: 1241 823d 347c 91bc 038a 70bc 2260 543c
00000060: 8d16 d43b 7228 c63c 8f26 893d 21fe f6ba
00000070: e079 47ba a5fe a3bb e5c5 d8bb 61bc 74bc
00000080: 6f09 b43d 6d88 a23b ac42 753d c726 a23d
-0.0022502008 -0.0064308615 -0.0032219898 -0.0033627925 -0.027883293 0.034298893 0.0054005007 0.036147155
0.037393004 -0.008776585 -0.017405668 0.024702748 -0.01730791 -0.037491415 -0.012236411 0.037726037
0.043151837 0.04189333 -0.007797152 0.027455347 0.063600674 -0.01775942 -0.014681342 0.012962373
0.006472415 0.024189208 0.066968076 -0.0018844047 -0.00076094083 -0.005004721 -0.0066153877 -0.014937491
0.08790862 0.004960111 0.059878036 0.079175524

net.level2_0.eesp.spp_dw.3.conv.weight f4 [4, 1, 3, 3]
00000000: 8fba 77bb 7414 0dbc e2b0 0ebc 59cc fabb
00000010: 50d4 543d 1e57 aabb ce8a 3bbb 0479 673b
00000020: 7c99 223b da3c 823c 43c7 d93b a729 cc3c
00000030: 5aca 103d aec2 4ebc 3505 2f3d 5349 373d
00000040: 3037 9a3c 3f62 4c3d 06c6 00bc 8372 8cbb
00000050: eeec 72bc da5b 70bc 5eef bc3a d158 dfba
00000060: 00cd 17bb 8104 02bb 706f 4fbb da6a 44ba
00000070: f740 31bb 0eaa faba 14c1 afbb b6f4 293d
00000080: 1166 d53a f146 f43a 8768 103c cda1 e03b
-0.0037800407 -0.008610833 -0.008709164 -0.0076537547 0.05196029 -0.0051983735 -0.002861667 0.0035319934
0.0024810722 0.015898157 0.0066460683 0.024922205 0.035349227 -0.012619657 0.042729575 0.04474766
0.018825144 0.049898382 -0.0078597125 -0.004286112 -0.014826996 -0.014670337 0.0014414599 -0.0017040019
-0.002316296 -0.001983911 -0.0031652115 -0.0007492729 -0.0027046779 -0.0019124167 -0.005363593 0.04149314
0.0016281029 0.0018636865 0.008813984 0.0068552257

net.level2_0.eesp.conv_1x1_exp.conv.weight f4 [16, 4, 1, 1]
00000000: de46 ea3c 6841 a73d e38b 463a d5e5 cebd
00000010: 4f52 edbb e968 bd3c 1473 eebb 4de4 543d
00000020: 9d78 ac3c e8b3 ee3c f098 a1bb 4282 373b
00000030: 0a39 103c bb93 7dbc 0672 7abb 63a9 07bd
00000040: 2143 493c ae97 cd3c 83a3 f83c 78f0 f43d
00000050: 1376 40bd 1d81 c8bd 7d9c 27bd b704 ba3d
00000060: bc4e 503d e952 193d abb9 0e3d f276 203b
00000070: b41c b63c 8f3c 853d 94b9 8abd b951 0bbc
00000080: 8fc7 213d 6f6b c3bc 2023 193d ffe9 ecbc
00000090: ac49 f93c 36ae 293c a80e a73c e3f4 b8bc
000000a0: b8a4 db3c c161 e7bc 890e 993d 2347 69ba
000000b0: f231 89bd 20e0 7bbd 77a7 cc3c a1a0 2f3d
000000c0: 077b b3bd ed15 2f3d c12d 083c 8217 bcbd
000000d0: b8f0 0e3d ffa9 78bd 3449 ba3c ef56 893d
000000e0: 3c85 d6bc 73bc 19bb 97a2 813b ed98 17bc
000000f0: 16c5 1dbd 40bb 82bc aee9 2b3d a1e9 1cbd
0.028598245 0.08166772 0.00075739453 -0.10102431 -0.007242478 0.023121314 -0.007276902 0.051975537
0.021053607 0.02913852 -0.0049315616 0.0028001224 0.008802662 -0.015477116 -0.0038214936 -0.033120524
0.012284071 0.02509674 0.030351406 0.11959928 -0.046987604 -0.097902514 -0.040920723 0.090829305
0.050856337 0.037432585 0.034845036 0.002448496 0.022230484 0.06505691 -0.067736775 -0.008503371
0.039496955 -0.02385494 0.037387013 -0.028920172 0.030430637 0.0103564765 0.02039273 -0.022577709
0.026811942 -0.028244855 0.074734755 -0.0008898845 -0.066989794 -0.06149304 0.024982197 0.042877797
-0.087637 0.04274552 0.00831169 -0.09184171 0.034897536 -0.060708996 0.022739984 0.067060344
-0.026186578 -0.0023458272 0.00395615 -0.009252769 -0.038518034 -0.015958428 0.0419709 -0.038308743

net.level2_0.eesp.conv_1x1_exp.bn.weight f4 [16]
00000000: b481 4a3e 95d4 c53d 8389 c13d a81d 4e3d
00000010: fbf5 103e 33cc 943e 57ba 193e 230e fc3d
00000020: b647 c13d b479 373d 1c8a 023e fd0b 423e
00000030: 8b45 3f3e 524b 263e a18d 143d ac85 043e
0.1977604 0.096596874 0.094500564 0.05032125 0.14156334 0.29062042 0.1501249 0.12307384
0.09437506 0.0447938 0.12747997 0.18949886 0.18678872 0.1623967 0.03626788 0.12941617

net.level2_0.eesp.conv_1x1_exp.bn.bias f4 [16]
00000000: ce4e 85bc 49cc 2ebc 3ffa 96bc 9331 46bb
00000010: b606 38bd 355d b03d 09d1 aebd 8ecd 90bb
00000020: 3908 b7bb 3836 adba cae1 993c 0878 803c
00000030: 3f3e ad3d 2bd0 b8b9 7172 8fbb 1c26 103d
-0.016272929 -0.010668823 -0.018429874 -0.003024195 -0.044928275 0.08611528 -0.08535964 -0.0044190353
-0.005585697 -0.0013215011 0.018784422 0.015682235 0.08459138 -0.00035250312 -0.004377656 0.035192594

net.level2_0.eesp.conv_1x1_exp.bn.running_mean f4 [16]
00000000: 2e5c 08bb 4965 863b 9993 e13a a56b 2dbb
00000010: 6a6b b43b bf54 60ba 6f63 3b3b 78de 2bba
00000020: c920 903a cb1d 8c3a 211b 433b 313c 40ba
00000030: 39a9 ecbb fc6f 203b 8b16 18bb 0214 65bb
-0.0020806897 0.0041014296 0.0017210125 -0.0026461866 0.005505969 -0.000855755 0.0028593203 -0.0006556283
0.0010996099 0.0010690031 0.0029770809 -0.0007333188 -0.0072223214 0.002448081 -0.0023206796 -0.0034954553

net.level2_0.eesp.conv_1x1_exp.bn.running_var f4 [16]
00000000: caec 5337 1d5b 1037 ffdd e735 53c1 7c36
00000010: ac9d 0237 35f1 8438 148c ae37 a0e2 6e37
00000020: 9f47 ff36 2975 b236 d495 0137 a1c4 f237
00000030: 5ab0 0d39 0aba 5238 b7a3 0b37 d183 fb37
1.2631712e-05 8.604283e-06 1.727545e-06 3.7663456e-06 7.785315e-06 6.339179e-05 2.0807645e-05 1.4238671e-05
7.60793e-06 5.3184526e-06 7.723884e-06 2.894021e-05 0.00013512504 5.0241164e-05 8.3231635e-06 2.9982913e-05

net.level2_0.eesp.br_after_cat.bn.weight f4 [16]
00000000: 5efe 0b3d 3627 ed3d d9e4 693c 9924 033e
00000010: 0d48 873d 637f f53d 1a61 c63d 1b34 043e
00000020: bc3a 843d 7925 873d 1778 9b3d 008f fe3c
00000030: 9e2e c73d 227b 0a3e 56f0 283d 5e97 123e
0.03417813 0.115797445 0.014275753 0.1280693 0.066055395 0.11987188 0.096864894 0.12910502
0.06456515 0.06598944 0.07591265 0.031074047 0.097256884 0.13523534 0.041244827 0.14315554

net.level2_0.eesp.br_after_cat.bn.bias f4 [16]
00000000: 112e 363c 6646 1b3c 1b22 1fba ba27 073d
00000010: d2b2 bd3c fa6d 6cbc dc16 82bb 7708 21bb
00000020: 0513 023d 2547 1b3c 95fc f53c fd08 0a3d
00000030: 146a a03d 465b 2fbc 65d8 b63c b59a 78bc
0.0111193815 0.0094772335 -0.0006070451 0.03299687 0.023156557 -0.014430517 -0.00397001 -0.0024571696
0.03175642 0.009477411 0.030027667 0.03369998 0.07832733 -0.010702914 0.022319982 -0.015173604

net.level2_0.eesp.br_after_cat.bn.running_mean f4 [16]
00000000: bccf 5f3b 26b1 bf39 d1f0 97b8 4ea1 80ba
00000010: 8708 b63b bcdb 57b9 f4da 19b9 9f65 b3ba
00000020: 9d81 d23b 7016 c5b9 a0e8 17b8 d474 54ba
00000030: 0157 db3b 9e1f 8fba ec62 a2b8 1256 1dba
0.003415092 0.00036562345 -7.245097e-05 -0.0009813698 0.0055552158 -0.00020585855 -0.00014672783 -0.0013686902
0.0064241425 -0.00037591485 -3.6217854e-05 -0.0008104567 0.0066937213 -0.0010919457 -7.7431876e-05 -0.00060019

net.level2_0.eesp.br_after_cat.bn.running_var f4 [16]
00000000: bdab 2e39 26e8 a937 8f0f d136 505a 8638
00000010: fcfc ab39 ccc9 9237 4732 9937 f5fc cf38
00000020: 3763 d039 0382 a937 c0bb 7736 20f3 7c38
00000030: 37db ed39 1c64 7938 7faa e836 c006 4438
0.0001665791 2.0254472e-05 6.2304966e-06 6.40644e-05 0.0003280415 1.7498525e-05 1.8262434e-05 9.917646e-05
0.00039746772 2.0206911e-05 3.6915153e-06 6.030791e-05 0.0004536749 5.945946e-05 6.933987e-06 4.6736328e-05

net.level2_0.eesp.br_after_cat.act.weight f4 [16]
00000000: 9720 5cb5 9ed1 1ebd 3003 4638 abff dc3d
00000010: f42e 7d39 ba38 e1bd 7021 77bc 0e85 4e3d
00000020: c104 da3a 278e b53b 5750 85ba aafc e6ba
00000030: 4d1e 2f3a e39c 953c 3f14 ea39 2df7 cdbd
-8.200381e-07 -0.038774125 4.7209847e-05 0.10790952 0.00024145452 -0.10997148 -0.015083656 0.05041986
0.0016633497 0.0055406275 -0.0010171038 -0.0017622907 0.00066802354 0.018263286 0.00044647043 -0.10056911

net.level2_0.eesp.module_act.weight f4 [16]
00000000: 0000 803e 0000 803e 0000 803e 0000 803e
00000010: 0000 803e 0000 803e 0000 803e 0000 803e
00000020: 0000 803e 0000 803e 0000 803e 0000 803e
00000030: 0000 803e 0000 803e 0000 803e 0000 803e
0.25 0.25 0.25 0.25 0.25 0.25 0.25 0.25
0.25 0.25 0.25 0.25 0.25 0.25 0.25 0.25

net.level2_0.inp_reinf.0.conv.weight f4 [3, 3, 3, 3]
00000000: 576f 923c 0de6 9ebb 7123 f83c 34ef a23b
00000010: 81b4 04bd 4b63 ef3c c0dd 32bd 1d6b c3bc
00000020: 315c 34bb f1bd c93c 93d3 3abc e2a8 643b
00000030: 788c dc3b 6e4e 90bb 8d43 6a3d 88b8 e53c
00000040: dfad 0fbd 60e2 9bbb 216a 9c3c f6e2 c4bb
00000050: 9488 463c 064a bc3c e7eb 8a3c 4aa8 823c
00000060: 52b3 873c 05aa 173d 2f4d e3bc 7911 57bb
00000070: d68b 543e ede5 d7bc 5983 bc3b 4514 96bc
00000080: 8905 5ebc 69a0 44bc dbaf aa3a ea43 0e3d
00000090: 3a48 9b3d 6ada 473d 2b69 94bc 68e7 ae39
000000a0: c109 bbbd 3cbe d9bb d989 8c3b 021b 9abd
000000b0: 8537 96bd 9085 b6bd bf3f 6dbd ded6 b13d
000000c0: cf97 06bc e86a b1bc 1346 90bd bcae 2c3c
000000d0: 9dfc c0bb 66f0 edbd dbb8 3ebc 072b ce39
000000e0: f319 2dbb 723b 56bc 2db5 2b3d 5f45 c8bd
000000f0: 8bd3 0c3c 5e39 023d dd37 753d 0357 a83c
00000100: 15d4 a0bb af80 873a 8301 cbbb 146a e13c
00000110: 2327 8dbd dcdb 48bc 77fe caba 63b1 403d
00000120: b664 f63c b343 96bb dc5d 11ba 4cc4 ee3c
00000130: 637f 9b39 e3e6 a4bc 790c 013b 9716 53bb
00000140: d52f e93c
0.017875357 -0.0048492015 0.030290337 0.004972363 -0.032398704 0.029222151 -0.04366851 -0.023854787
-0.002752077 0.024626704 -0.011402982 0.00348907 0.0067306124 -0.004403881 0.057193328 0.028042093
-0.035077926 -0.0047572106 0.019093575 -0.006008501 0.012117524 0.022984516 0.01695819 0.015949387
0.016564999 0.037027378 -0.027746765 -0.003281681 0.20756468 -0.026354754 0.0057529625 -0.018320212
-0.013551124 -0.012001135 0.001302238 0.034732737 0.075821355 0.04879228 -0.018116554 0.00033360277
-0.0913272 -0.006644992 0.0042888937 -0.075246826 -0.07334808 -0.08912194 -0.05792212 0.08683561
-0.008214905 -0.021657422 -0.070446156 0.010539707 -0.005889489 -0.11618118 -0.011640753 0.0003932344
-0.0026413172 -0.013075696 0.04192083 -0.097788565 0.008595358 0.03179299 0.05986773 0.020549303
-0.0049080946 0.0010338033 -0.0061952486 0.027516402 -0.0689223 -0.01225945 -0.0015487213 0.04704417
0.03007732 -0.004585707 -0.0005545297 0.029146336 0.00029658814 -0.020129627 0.0019691272 -0.003220951
0.02846519

net.level2_0.inp_reinf.0.bn.weight f4 [3]
00000000: fdff 173e c3cd 4b3e 2166 103e
0.14843746 0.1990271 0.14101459

net.level2_0.inp_reinf.0.bn.bias f4 [3]
00000000: b96f 373d 8429 143c 3f69 3a3d
0.04478428 0.009043101 0.045510527

net.level2_0.inp_reinf.0.bn.running_mean f4 [3]
00000000: fea8 9c3d 2015 11be a7e0 0a3d
0.0764942 -0.14168215 0.03390565

net.level2_0.inp_reinf.0.bn.running_var f4 [3]
00000000: 034f a83c e65b 723d 47a4 fa3b
0.020545488 0.059169672 0.007648978

net.level2_0.inp_reinf.0.act.weight f4 [3]
00000000: 0d06 e83c 3b84 ce3c 1075 0a3d
0.028323198 0.025209537 0.033803046

net.level2_0.inp_reinf.1.conv.weight f4 [32, 3, 1, 1]
00000000: e1e2 a9bc c00d 933d c8e7 a8bc 4d32 193d
00000010: 694b 013d 028d cf3c 447f 8e3c 94d1 c93c
00000020: 821d 95bc 9549 513c b0a4 e5bc 8307 b53b
00000030: 668c 77bc 98ea ef3c 91f3 0abc 3a27 57bd
00000040: 085c e5bc e693 c5bc fd63 13bd 792b 7f3c
00000050: 95a5 eebc 3348 fb3c 9f2d 75bd 1b5a bebc
00000060: 15a9 0cbd 204f 303d 6321 273d 0819 103d
00000070: 8039 f7bc e161 453c d82c 53bd a38a 9939
00000080: e1b4 8fba 8f3c 91bc 76fc 41bc f4ba c4bc
00000090: 77a0 81bd 7ef6 96bb 55f0 29bb 2c6d ccbc
000000a0: 8f8a 75bd 1e4b fcbb e163 84bc 4ef3 12ba
000000b0: cf74 43bc 099f df39 6b8e 0e3a 3980 3439
000000c0: 22a9 79bd c129 ffbc 0a83 6b3d 9bf4 bc3c
000000d0: ff56 613d a8ba 983d 8283 e13c 9114 a5bc
000000e0: 17fa 0ebd bc49 b4bc 25db 80bc e965 f43c
000000f0: fd61 e9bc 5dad ebbc a79d b53b 06c8 413c
00000100: f232 ff3c 8c04 33bd 39be 29bc 5b7d 063d
00000110: be8e 98bc dee0 a63d 3d1b 093c 17fc 8cbd
00000120: 6f46 393d 2da8 843d 08df cf3c 007b 4d3d
00000130: d271 c6bc 43b1 73bd 7e76 39bc 295f 143d
00000140: 0907 8a3c 4df7 90bc 4ee1 41bd d530 b6bc
00000150: a7bd 463c e367 72bd 0ba2 14bc 37c7 12bd
00000160: 5ef1 13bd 95e5 aa3c 3cc7 a13c b402 57bc
00000170: 212b b7ba a8be 2c3c ed62 2fbc 2d64 173d
-0.020738067 0.07180357 -0.020618334 0.037401486 0.031566057 0.025335792 0.01739467 0.024636067
-0.018202547 0.012773891 -0.02803263 0.005524577 -0.015109157 0.029286668 -0.008480922 -0.052527644
-0.027997985 -0.024118375 -0.035984028 0.0155743295 -0.02913169 0.030674076 -0.05985796 -0.023236325
-0.034340937 0.04304421 0.040803324 0.03518012 -0.030178785 0.012047262 -0.05155644 0.00029285726
-0.001096394 -0.017729072 -0.0118399765 -0.024014927 -0.06329434 -0.004607021 -0.0025930603 -0.024954401
-0.059946593 -0.0076993844 -0.016160907 -0.0005605713 -0.011929705 0.00042652365 0.0005438092 0.00017213904
-0.060952313 -0.03114784 0.057498015 0.023065856 0.055014607 0.07457477 0.027528528 -0.020151408
-0.034906473 -0.022007816 -0.015729496 0.02983375 -0.028489107 -0.02876919 0.0055424753 0.011827474
0.031152222 -0.043705508 -0.010360294 0.032834392 -0.018622752 0.08148359 0.0083683105 -0.0688402
0.045233186 0.064773895 0.025374904 0.05016613 -0.024224196 -0.05949522 -0.011319755 0.036223564
0.016849058 -0.017696047 -0.047334008 -0.022240082 0.012130178 -0.059181105 -0.009071837 -0.035834517
-0.036118858 0.020861426 0.019748323 -0.013123203 -0.0013974645 0.010543503 -0.010704738 0.03696077

net.level2_0.inp_reinf.1.bn.weight f4 [32]
00000000: 0f24 aa3e e551 953d b12b d33d 2619 8d3d
00000010: 4a14 693d de31 b13d 9c7a 113e a668 353e
00000020: 3b43 443e 5410 103e 3a28 8e3d 71e3 af3c
00000030: a669 133e dda1 563e dcc7 363c 6135 2039
00000040: cb00 263e 657e 9a3d 2f64 f53d 9272 813d
00000050: 6cc5 213d 2bcc 303e a3a3 f03d 7cc1 ac3d
00000060: 33ce b83d 803c d53d 9fee d73d db90 0b3d
00000070: a383 b93d b850 853d b90c 3b3d 8a8a 933d
0.33230636 0.07291011 0.10311068 0.06889562 0.056904115 0.086520895 0.14206928 0.17715701
0.19166271 0.14068729 0.06941266 0.021470757 0.1439577 0.20960183 0.011156049 0.00015278674
0.1621124 0.07543639 0.11981999 0.06320681 0.039494917 0.17265384 0.11749961 0.08435342
0.090237044 0.1041193 0.1054356 0.03407369 0.09058311 0.065095365 0.04566643 0.072041586

net.level2_0.inp_reinf.1.bn.bias f4 [32]
00000000: 5c49 1c3c f5ae e0bc 8e9c 92bb 0563 8aba
00000010: 0f76 f5bc e871 bcbb 4699 55bc 6b4c fabb
00000020: 524c d6bc da14 b03b 96ec b239 709c f8ba
00000030: 6221 f13a 8bc9 2cbc 63b6 b2bb b1be d63a
00000040: ce4e 85bc 49cc 2ebc 3ffa 96bc 9331 46bb
00000050: b606 38bd 355d b03d 09d1 aebd 8ecd 90bb
00000060: 3908 b7bb 3836 adba cae1 993c 0878 803c
00000070: 3f3e ad3d 2bd0 b8b9 7172 8fbb 1c26 103d
0.009538975 -0.027427176 -0.004474229 -0.0010558075 -0.029963521 -0.0057508834 -0.0130370315 -0.0076385043
-0.02615944 0.0053735794 0.00034127076 -0.001896752 0.001839679 -0.010546098 -0.005453871 0.0016383735
-0.016272929 -0.010668823 -0.018429874 -0.003024195 -0.044928275 0.08611528 -0.08535964 -0.0044190353
-0.005585697 -0.0013215011 0.018784422 0.015682235 0.08459138 -0.00035250312 -0.004377656 0.035192594

net.level2_0.inp_reinf.1.bn.running_mean f4 [32]
00000000: ca64 083b 1f2e 013c ab35 ff3a 0f74 41ba
00000010: 2d73 1d3a 68c8 10bc 4cee 88bb 60be 86bb
00000020: b0a6 723b 8969 e03a 5ac7 98bb 153f 95bb
00000030: 811a c9bb e0da f5bb f6db 2abb 020a dc38
00000040: 46ba 3dbb 8d60 4e3c 0f27 0ebb 5231 1fba
00000050: bf70 91bb 9ebb 34b9 7926 02b7 d926 fe3a
00000060: 3080 373c 1ff3 22bb c9c7 4f3b e602 e9bb
00000070: da76 90bb 5f86 8abb a30d 1b3a 76f3 4d3b
0.0020812028 0.007884531 0.001947095 -0.000737966 0.0006006237 -0.008836843 -0.004178798 -0.00411205
0.0037025623 0.0017121296 -0.0046624364 -0.004554639 -0.0061371927 -0.0075028986 -0.0026071048 0.000104922816
-0.002895014 0.012596262 -0.0021690761 -0.0006072718 -0.004438489 -0.0001723603 -7.757561e-06 0.001939024
0.011199996 -0.002486415 0.0031704775 -0.007110941 -0.0044086995 -0.004227444 0.0005914813 0.0031425632

net.level2_0.inp_reinf.1.bn.running_var f4 [32]
00000000: 78e3 1f39 01cf a637 262e 6237 cc77 cd37
00000010: ee9f fd37 c536 ec37 503a 4838 a4fb a738
00000020: 83e1 1f38 8f42 5b38 bf8d bb37 7caf ff36
00000030: 5c87 0738 77a1 5b38 c068 a936 ab9e bf31
00000040: d8b5 0538 eb67 5738 8649 2137 666b 1937
00000050: e365 4d37 bb7f 3238 fd59 2338 adf3 c537
00000060: 2ee4 6638 0208 a337 c8f1 cb37 ceec fb37
00000070: 9d52 9c38 4dca c537 ddc7 2c37 6234 c937
0.0001524816 1.9885136e-05 1.34813945e-05 2.449369e-05 3.0234423e-05 2.8158896e-05 4.7738024e-05 8.010052e-05
3.811858e-05 5.2275656e-05 2.2358143e-05 7.6200213e-06 3.231257e-05 5.2364045e-05 5.048787e-06 5.57687e-09
3.1879026e-05 5.1356776e-05 9.613466e-06 9.144516e-06 1.22426745e-05 4.2557465e-05 3.8946037e-05 2.35977e-05
5.5048782e-05 1.9434843e-05 2.4312074e-05 3.0031802e-05 7.4540476e-05 2.3578434e-05 1.0298533e-05 2.398546e-05

net.level2_0.act.weight f4 [32]
00000000: 8e30 5c3b 7ef1 3bbb 055f 2737 e50b 8c39
00000010: c424 41b9 f3f4 9aba 6673 b5ba 04a4 eeb9
00000020: e42e 77bb 97c4 b3b9 de29 09b9 503e 00b8
00000030: 27c4 063a f62e 10bb 7a50 8032 486a 14b4
00000040: fd26 bdbc 8a3a 1abc 17c9 a53c 3aae 9ebb
00000050: c849 72bc 30e6 62bc 2779 68bd d151 84bc
00000060: 9436 5ebb 5ea4 8cbc 7ed9 ffb9 0602 03bc
00000070: 9925 61bd d8e9 5abc 6177 20bb a9d2 03bd
0.0033598277 -0.0028677876 9.976099e-06 0.00026711743 -0.0001841961 -0.0011822268 -0.0013843596 -0.000455171
-0.0037717158 -0.0003428801 -0.00013080935 -3.057561e-05 0.00051409233 -0.0022000647 1.4937758e-08 -1.3822239e-07
-0.02308988 -0.009413371 0.020237489 -0.004842547 -0.014788099 -0.013848826 -0.056756165 -0.016152294
-0.0033907043 -0.01716822 -0.00048799434 -0.007996088 -0.054967497 -0.013361417 -0.0024485218 -0.032183323

net.level3_0.eesp.proj_1x1.conv.weight f4 [8, 8, 1, 1]
00000000: d60f 9dbd 8bf6 49bc 533d a63b e829 983c
00000010: 54ff cebb 4737 bc3d 22e5 d13b b4dd 6b3d
00000020: 918f 12bd 0a60 cabd 07a7 10bc f0d0 543c
00000030: 1ae2 b0bc 790b 3d3d aff1 dd3b 0634 d93c
00000040: 480d b4bb 07bf 95bc af56 8f3c d6bd 303c
00000050: 1fe4 153d a6f5 aabb 7451 03bc 08d6 1d3c
00000060: 74ae 76bc a716 e7bc 84a7 9c3c edb5 93b8
00000070: 3c9e 403d af4a bcbb 6f69 07bd ca61 63bc
00000080: 5b67 28bd f007 fd3c b686 203c 7869 5fbc
00000090: 8607 24bd 3e38 503c b25e c5bc c1f5 0dbd
000000a0: 1760 ff3c e15d 04bc 32e4 8b3b b87b 26bb
000000b0: 15f3 f1bc b673 26bd 6ddf c93c ae2f 65bc
000000c0: cfa8 e3bb e36c e5bc 9b7c 12bd 0300 01bc
000000d0: deba c13c a7e3 b03b d8d9 15bc 0062 78bc
000000e0: a5b3 0fbd 0259 11bd f651 84bc e6db 483d
000000f0: d710 3e3d d73e 17bd e871 d23c 7f52 a9bb
-0.07669036 -0.012326847 0.0050732284 0.01857467 -0.0063170586 0.09190231 0.0064054886 0.05758448
-0.035781447 -0.09881599 -0.008828885 0.012989268 -0.021592189 0.04615352 0.0067731957 0.026514065
-0.0054947473 -0.018279565 0.017497389 0.010787448 0.036594506 -0.005217272 -0.008015025 0.009633549
-0.015056241 -0.028209044 0.019122846 -7.0433925e-05 0.047025904 -0.0057462077 -0.033059534 -0.013878295
-0.041114192 0.030887574 0.009797743 -0.013635986 -0.040046237 0.012708722 -0.024093006 -0.034658197
0.031173749 -0.008079023 0.0042691464 -0.0025403332 -0.029534856 -0.040637694 0.02464267 -0.0139884185
-0.006947614 -0.028006023 -0.035763364 -0.007873538 0.023648676 0.005398232 -0.009146176 -0.015160084
-0.03508343 -0.035485275 -0.016152363 0.049037836 0.04640278 -0.036925163 0.02568908 -0.005167305

net.level3_0.eesp.proj_1x1.bn.weight f4 [8]
00000000: 03df 513d 769b 523d d19c 543d 91db 813d
00000010: f090 2d3d e593 2f3d 7128 f83c f34c 8e3d
0.05123807 0.05141779 0.051907364 0.06340707 0.04237455 0.042865653 0.030292721 0.06948271

net.level3_0.eesp.proj_1x1.bn.bias f4 [8]
00000000: 4889 cf3c 1732 5d3d 240b 0c3c 8a10 793c
00000010: 8c0b 2c3d 436d c43c f746 683d 2eda 0a3d
0.025334015 0.054002848 0.008547578 0.015201697 0.0420032 0.023977881 0.056708302 0.03389948

net.level3_0.eesp.proj_1x1.bn.running_mean f4 [8]
00000000: 9709 033d 2826 14b9 a1e3 cd3c d8a4 10bc
00000010: 020d 3eba b78e e7bb dcf6 f5b9 1e67 133c
0.031991567 -0.00014128594 0.025132956 -0.008828364 -0.0007249863 -0.0070665735 -0.00046913966 0.008996753

net.level3_0.eesp.proj_1x1.bn.running_var f4 [8]
00000000: 0d5a 223a 37f1 383a 704a d039 57fe 8a39
00000010: 6a65 bf38 21d7 6438 748a 2238 a2d1 2639
0.0006193228 0.0007054987 0.00039728312 0.0002651091 9.1264796e-05 5.455979e-05 3.8752754e-05 0.00015909088

net.level3_0.eesp.proj_1x1.act.weight f4 [8]
00000000: 6479 683c 1152 6c3c d22e 3b3b 8c52 263c
00000010: a913 cfbb 0877 79bc f8c8 96ba 4b45 863c
0.014189098 0.014423863 0.0028561843 0.010151517 -0.0063194823 -0.015226133 -0.0011503985 0.016390463

net.level3_0.eesp.spp_dw.0.conv.weight f4 [8, 1, 3, 3]
00000000: 1769 b2bc 164e 61bd 0ddc 61bc ac8d 143d
00000010: 2d9b d7bc cc16 bf3c 4ebb 1f3c eb9c ab3c
00000020: ef5c 8d3d 511a e13c 928d d73c 4497 8f3c
00000030: bda5 413c a5a0 5ebc 32fc 80bd 6eff 923c
00000040: c117 4abd b181 03bb daa8 22bd 4094 25bc
00000050: 0e72 b9bc 5219 e2bc 227e cc3b 4797 ae3b
00000060: d9f3 db3c 3784 ef3c a36e d13c 18d1 23ba
00000070: 5e4c 4c3c 6685 043b 46d7 a83c 4db6 0c3d
00000080: 1ea1 a63c e6dc 853b fd6a 0dbd 4bfd 28bd
00000090: 06aa 893c 6216 073c cde8 7b3b 041e e93b
000000a0: e185 08bc 6b91 4abd a6d9 c2bb 682c 08bd
000000b0: c8f4 45bd 0577 263c f906 153d 9931 533d
000000c0: 52c9 b23b 5579 1a3c 0627 663c 1527 41bc
000000d0: 34e2 3bbd a5c8 35bd 28c5 42bc 4448 7ebc
000000e0: 108f 43bc 1934 bf3c b957 cabc c936 2ebd
000000f0: 3480 023d a481 fe3c 6545 6f3c e0ff a4bc
00000100: 9ff9 3cbd c3c7 dbbc 955d ddbc ffbb 41bd
00000110: 56af 1ebd b2fb 813b 0f0c 97bc 8ee4 e73b
-0.021778626 -0.05500611 -0.013785374 0.03626792 -0.02631911 0.0233263 0.009749247 0.020948848
0.06902491 0.027478369 0.026312623 0.017528184 0.0118193 -0.013588105 -0.062981024 0.017944064
-0.04933906 -0.0020066316 -0.03971181 -0.010106146 -0.022637393 -0.027599964 0.006240622 0.0053280923
0.026849674 0.02923785 0.025565451 -0.0006249114 0.012469379 0.0020221113 0.020610463 0.034353543
0.020340499 0.004085171 -0.03452586 -0.041257184 0.016804706 0.008245083 0.003843832 0.007114174
-0.0083327005 -0.049455088 -0.005946356 -0.033245474 -0.048329145 0.010160212 0.036383603 0.051560972
0.005456128 0.009428342 0.01404739 -0.011789103 -0.04587002 -0.044380803 -0.011887826 -0.015520159
-0.011935964 0.023340272 -0.024700033 -0.042532716 0.031860545 0.031067677 0.014603947 -0.020141542
-0.046136495 -0.026828652 -0.027022162 -0.047298428 -0.038741432 0.003966772 -0.018438367 0.0070768064

net.level3_0.eesp.spp_dw.1.conv.weight f4 [8, 1, 3, 3]
00000000: 05da 01bc 7879 4abc 3307 7bbb 4ef8 483c
00000010: b760 0b3d 5605 d9bc 0e0c e1bc f79c 64bc
00000020: 7866 8abc 8e89 12ba 4723 7abc 6f53 313c
00000030: 1af4 f33c 1501 3dbd dd43 5abc 27d6 153d
00000040: 62ec d53b f03b 003d f3a4 7abc fb6f 673b
00000050: 774d 87bb c76b b4bc fe54 e23c e6fd f2bb
00000060: 0f13 8cbc 3b6e bd3c 0c02 bebc f65e cbbb
00000070: b42d 513b 6eff 3fbc 14fa 5dbb 2967 e5bc
00000080: bc48 c43c 1a80 81ba 03f8 c93c 06f4 a13c
00000090: 98e9 293a 28b4 82bc 4776 523c 6ece f73b
000000a0: 3992 f8bc 1f02 02bb 540e c43c 1d7f 35bc
000000b0: 919f 933b d267 dfbb 5f12 033c b653 36bc
000000c0: 59c5 033c fcab d2bc 8f88 86bc dda3 9839
000000d0: 5e65 ffbc 473f a23b 467c 603c 3762 243d
000000e0: eff1 163c c25f b1bc 1736 aabc cb91 84bc
000000f0: 7159 00bb 888b 41bc 02c3 dfbc bc8d 413c
00000100: faa2 f63c fe6a 9c3c 2a25 9b3c e2f4 04bd
00000110: 7d23 aabb 0ce3 bc3c 8e77 243d b373 c33c
-0.007925515 -0.012358062 -0.0038303852 0.012266232 0.03402778 -0.026491802 -0.027471568 -0.013953439
-0.016894564 -0.0005589955 -0.0152672 0.010823115 0.029779483 -0.04614361 -0.013321844 0.036581185
0.006528423 0.03130716 -0.015298116 0.0035314548 -0.0041291076 -0.022024048 0.027628418 -0.007415521
-0.017098932 0.023123851 -0.023194335 -0.0062063886 0.003191811 -0.011718614 -0.0033870982 -0.028003292
0.023960464 -0.0009880096 0.024654394 0.01976968 0.00064816466 -0.015955046 0.012845582 0.00756245
-0.030343162 -0.001983769 0.023932613 -0.011077669 0.004505106 -0.0068177963 0.0079999855 -0.011128357
0.008042657 -0.025716774 -0.016422538 0.00029113787 -0.031176265 0.004951391 0.013701504 0.040132727
0.009212955 -0.021652106 -0.020777745 -0.0161828 -0.0019584561 -0.011813052 -0.027314667 0.011813577
0.03010701 0.019093987 0.01893862 -0.0324601 -0.005192219 0.023057483 0.04015308 0.02385888

net.level3_0.eesp.spp_dw.2.conv.weight f4 [8, 1, 3, 3]
00000000: 4439 68bc 4529 55bb 8af5 aebc 62f1 a0bb
00000010: 386a e63c 3396 b2bc 801f 05bc 2947 ad3c
00000020: 85cf 363c f2c3 42ba 59c7 53b9 1511 e2bc
00000030: c601 b93c b292 53bd 6b42 1cbb 2b02 b83c
00000040: 6363 aebc 728d 49bc f2c0 7b3b 15a7 dcbb
00000050: d6eb 083b e38d 1dbb f459 0fbc eff0 a73a
00000060: 7e69 ab3b 3ca0 dbbb febb d33b a26a 04bb
00000070: fa0d d4b9 0cf5 f53b 3c08 273c ac98 7cbd
00000080: 0364 323d ac7f 99bc 9437 b6bb fbdf 2cbb
00000090: 4977 8abc eea5 20bd 24c4 013c 18a1 8d3b
000000a0: 3069 2abd 2704 f9ba 1697 ca3a 0c08 03bc
000000b0: 44b0 00bc 1e97 74bc 0a7d e23b 3a69 533b
000000c0: 3c44 10bc c848 99bb 7e26 a7bc cfc3 56bc
000000d0: 9dca 123c 5d35 4e3c 00d7 36bc ff5d a0bc
000000e0: 1113 663b 207b 9f3b 2470 47bc 969c 403c
000000f0: 5c72 9a3b 72d9 2ebc 60cf 823c 467a 023b
00000100: 7ffa 9b3c 442a 9839 de2c fb3c 1b9a e0bb
00000110: 77a7 383d 256a c7bc 3354 3cbc 0e25 3cbc
-0.014173809 -0.003252582 -0.021357317 -0.0049115876 0.02812682 -0.021800136 -0.008125186 0.021152096
0.011157875 -0.0007429711 -0.00020196791 -0.027596036 0.022583853 -0.05165357 -0.00238433 0.022461971
-0.021287626 -0.01230179 0.0038414565 -0.006733785 0.0020892522 -0.002404087 -0.008749474 0.0012812893
0.0052310815 -0.006702451 0.0064616194 -0.002020516 -0.00040446204 0.0075060185 0.010194834 -0.061669037
0.04355241 -0.018737637 -0.0055608246 -0.002637862 -0.016902583 -0.039220743 0.007920299 0.0043221824
-0.04160422 -0.001899843 0.0015456404 -0.007997524 -0.007854525 -0.014928607 0.0069118785 0.0032258765
-0.008805331 -0.0046778657 -0.020404097 -0.013108208 0.00895944 0.012585965 -0.011159658 -0.01957607
0.003510658 0.0048669726 -0.0121727325 0.011756083 0.0047133397 -0.01067196 0.015968025 0.0019909306
0.019040344 0.0002902319 0.030661043 -0.0068543083 0.045081582 -0.024342606 -0.011494684 -0.011483444

net.level3_0.eesp.spp_dw.3.conv.weight f4 [8, 1, 3, 3]
00000000: 9c2d fcba 5ce4 5b3a 32ab d53b e74a d0bc
00000010: e19b 073d 2943 30bc 0397 093a 69f8 443c
00000020: 23ca 34bb ea6a 753c 7982 2c3c 644a 1f3b
00000030: 0c4d cf3c 1a6e 56ba 6207 57bc d2b3 893c
00000040: a679 be3b 5d65 8f3c eaea 04ba 3288 d5b7
00000050: 2210 6db8 9da9 2b39 ef7b 52b8 5647 e437
00000060: 0242 f3b9 016f 77b9 0eb3 b2b8 a1e2 0bbc
00000070: 99b1 863b c738 27bc e3a9 3fbb 77c4 41bb
00000080: 219b 8d3c dcb0 683a 261a aa3c e63c 893c
00000090: 73dc 33bc bcb4 e83b 0f8a 68bb 01fb 99bb
000000a0: fc89 6ebb 70a1 753b 6fe6 f839 0b6e f7bb
000000b0: 8734 143c da48 e9bb 2e90 cb3c 1adc f73b
000000c0: 32fd 22bc a7dc 9abb 5e97 8c3b db79 8a3c
000000d0: f1d5 1e3c c85c 853c 41f5 32bb d956 a039
000000e0: 11b1 20bc 1e54 bebb db46 6d3c a950 c0bb
000000f0: 042f 39bc 7968 843a 3494 1abb b1eb bebc
00000100: 55fe 213c 80b8 ddbb 2f88 2dbc 9b92 f63c
00000110: ba3b 8c3c d95e 403c 57a3 afbb b324 283c
-0.0019239667 0.0008388215 0.006520652 -0.025426341 0.033107642 -0.0107582 0.0005248638 0.012022116
-0.0027586303 0.014979104 0.010529154 0.0024305815 0.025305294 -0.00081798586 -0.013124319 0.016809378
0.0058128415 0.017504388 -0.00050704053 -2.5455e-05 -5.6520228e-05 0.00016371017 -5.0183324e-05 2.7212936e-05
-0.0004639775 -0.00023597108 -8.521053e-05 -0.008537919 0.0041105268 -0.010206408 -0.0029245547 -0.0029566565
0.017285885 0.0008876452 0.020764422 0.016752671 -0.010977852 0.0071016233 -0.003548268 -0.0046991115
-0.0036398163 0.0037480257 0.00047473932 -0.00755096 0.009045727 -0.0071192803 0.024849024 0.00756408
-0.009948062 -0.004726011 0.0042905053 0.016903808 0.009694562 0.016279593 -0.0027306827 0.00030582285
-0.009807841 -0.0058083674 0.014482225 -0.0058689904 -0.011302713 0.0010101936 -0.002358687 -0.023305746
0.009887298 -0.006766379 -0.010591551 0.030099204 0.017118324 0.011741363 -0.005360048 0.010262656

net.level3_0.eesp.conv_1x1_exp.conv.weight f4 [32, 8, 1, 1]
00000000: c982 d5bc a6bd a4bc ffa9 94ba e670 833a
00000010: 34e6 9dbc 19f6 dcbb 3a47 eebb fd73 87bc
00000020: 9f1b 5f3c f03b feba 5d39 8a3b ef3c 08ba
00000030: fa91 d7bb 9aa7 95bc 3aef dc3b bca0 9abc
00000040: 516f 9f3b 202c c7bc f291 b43c 2730 1cbd
00000050: b2d5 fd3b 8874 b33c 4846 193d efae 793c
00000060: dfd2 39bd f7c5 c63c 32f9 e9bc 9f2a 113d
00000070: 78e5 063d fc9a 88ba 2265 c8bc fde4 81bc
00000080: 6896 1c3c e708 c4bc 2b12 ae3b 9be8 5ebc
00000090: 028b 11bd 94cb 25bd d0f2 61bb 7ad0 0abd
000000a0: 3199 083d 3673 b6ba 01b8 ba3b 31f7 923a
000000b0: e5c5 f63b 1b7c b33c ff24 e038 1106 7ebc
000000c0: c944 0225 388a 03a5 0af1 b6a4 e6a4 28a5
000000d0: 9a92 07a5 57b0 5126 ff40 75a5 596e a624
000000e0: f8b5 f53c 3019 193d 6234 61bc ff15 2ebc
000000f0: 465b ec3c 10dc 1e3c b6f9 253d 0819 053c
00000100: 707a 3bbc 4e72 403d 64cc bbbb 7a7d 083d
00000110: ae0c c63c e9ee 70bc 95bf 053c cffc 403c
00000120: 0231 463b 95f1 74bc f597 1ebc 7aa6 033d
00000130: 1907 cbbc ded7 f13c e1aa 16bc 35ef 5bbc
00000140: c5e7 13a5 f3d3 3b26 3a41 87a6 6e4f f526
00000150: bf0e 3aa6 e42a 0126 bd97 0026 67ff ec25
00000160: 6f96 a7bc e99e 813c 04ab bcbc 0f12 e53c
00000170: 5c13 ba3b fb3c 77bd f0f4 a1bc 3735 8dbc
00000180: c506 aa3b 0b55 203a dac7 693d 6cdf fd3a
00000190: d02e b63c 713b 9d3c ee8b 5e3c 080e 82bc
000001a0: c75b 2e3c 97f2 ecbb 9388 d03a 2a0e f5bb
000001b0: 1849 1bbd c820 04bd 78c3 233d 7884 4a3d
000001c0: 0332 333b 5226 9abc 627c b13b 1466 c3bb
000001d0: 8d3d 3ebb be3d f1bc 027e 10bd d16e d938
000001e0: 01a5 703a c6fe 5b3b a158 cd3a 2fba 1f3c
000001f0: 2b33 053d 435a b93b 67f0 343c 68dc 303d
00000200: 25ec 5b3c eb75 bc3c 73c1 b5bb ec66 9c3b
00000210: f87c fb3c 3837 f93c 047f 8e3c ccee f03c
00000220: 948d a5bb d034 2f3d edf7 8bbb 0c1b b23c
00000230: 2433 fa3b 22ad 13bd f6e5 4b3b 4047 2a3d
00000240: c1f9 9a3c 8e43 153a 4da9 5a3b 9b4c dd3c
00000250: 5e40 1d3d 286f 03bc 9c9c 983c f622 233d
00000260: 6812 10bd 44dc 183d 043a cdbc 88be f7ba
00000270: cc58 043d 52f5 60bb e088 9f3b 3082 1c3a
00000280: 3315 933c 1e7e 8c3c 2c77 8abc 41d3 173c
00000290: eb74 d93c 71a6 4bbc 8001 233c d5b6 923c
000002a0: e7f1 6bbd ac6d bb3b b973 d53a 7233 afbb
000002b0: e5db 1c3c 31f6 8ebb ec1f 45bc 3993 f43c
000002c0: a1b5 56bc c09d 8abc b2dd 893b 8606 01bc
000002d0: 4b8e 52bc 4057 a139 7eee 31bb 83db 00bc
000002e0: 8f01 64bb 5823 cbb7 d3db 393a d98c 74bb
000002f0: e4ec c73a efa6 22bb af68 05ba 446e 2bbb
00000300: f90a e1bb 4318 113c 782e 7739 d616 b93b
00000310: cfa2 0ebc 38c5 9a3c 2f4a 4ebc 1f90 7abc
00000320: 6cb2 ff35 d4a3 a929 b601 7b26 099e 1ea8
00000330: 7312 a728 708c 4ba9 bef3 4aa9 f304 2729
00000340: bea6 063d e731 1dbd 6d49 3a3b 41c8 3abb
00000350: 0f33 4f3c 4dbd c13c 3814 82bc 9895 503c
00000360: d082 9fbc 3f64 89bc 51c7 ddb8 45bd eabc
00000370: 2f93 63bc 6532 82bc 11b4 703b d941 fbbc
00000380: da2d 59bc 5e96 48bd bff7 de3b f422 283b
00000390: 32c4 633c 7fff 21bd 010b b3bc 7fab 803c
000003a0: 06b5 033b 1808 87bc 5005 053a caed f73c
000003b0: b7cf dc3b fc9d 0bbc 0dcd 463c accb bd3b
000003c0: 82ff d53c e35d 613b b7fb a63b 1418 91bc
000003d0: c327 8739 b24e 083a c597 c6bc 18fe 39bc
000003e0: 237d 97bc 8c65 bebb d868 8a3b d422 c03b
000003f0: e843 783c ee1b fabb 9bcc 103c 60c8 113d
-0.02606334 -0.020109963 -0.0011342167 0.0010028153 -0.019274808 -0.0067432043 -0.0072716745 -0.0165348
0.013617425 -0.0019396525 0.004218264 -0.0005197068 -0.006578681 -0.018268395 0.006742385 -0.018875472
0.004865565 -0.024313033 0.022042248 -0.03813186 0.0077464217 0.021906152 0.03742054 0.015239461
-0.045367118 0.024264319 -0.028561208 0.035441037 0.032933682 -0.0010422166 -0.024462286 -0.01585626
0.009557344 -0.023930026 0.0053122244 -0.013605262 -0.03553296 -0.04047735 -0.0034477003 -0.033890225
0.03334922 -0.0013919834 0.0056982045 0.0011212585 0.007530915 0.021909764 0.000106880434 -0.015504376
1.1299008e-16 -1.1409269e-16 -7.9338254e-17 -1.4627547e-16 -1.1759054e-16 7.2750426e-16 -2.1272384e-16 7.217796e-17
0.029993996 0.037377536 -0.013745399 -0.010625361 0.028852116 0.009696022 0.040521346 0.008123644
-0.011442766 0.04698401 -0.0057311524 0.03332279 0.024175968 -0.014705398 0.0081633525 0.011779024
0.0030241613 -0.014950176 -0.009679784 0.032141186 -0.024783658 0.029521879 -0.009196014 -0.013423731
-1.2828744e-16 6.5165903e-16 -9.385186e-16 1.702182e-15 -6.45517e-16 4.4813993e-16 4.4614565e-16 4.1112541e-16
-0.020457475 0.015822845 -0.023030765 0.027962713 0.0056785773 -0.06036089 -0.019770116 -0.017237289
0.0051887953 0.0006116188 0.05707536 0.0019368953 0.022239119 0.019193383 0.0135831665 -0.015875831
0.010641999 -0.0072310674 0.0015909843 -0.007478495 -0.037911505 -0.032257825 0.039981335 0.04944274
0.0027343042 -0.0188171 0.005416439 -0.0059630964 -0.0029028386 -0.029448386 -0.03527642 0.000103680075
0.0009179861 0.0033568605 0.0015666672 0.0097489795 0.0325195 0.005656512 0.0110436445 0.043178946
0.013423 0.023005446 -0.0055467426 0.0047730114 0.030699238 0.030421838 0.01739455 0.029410742
-0.005052278 0.042774975 -0.0042714984 0.021741413 0.007635491 -0.036053784 0.003111241 0.041571856
0.01891792 0.00056939654 0.0033365071 0.027014067 0.038391463 -0.008022107 0.018629365 0.039828263
-0.035173804 0.037319437 -0.025052078 -0.0018901387 0.032311246 -0.003432591 0.0048686117 0.0005970327
0.017954445 0.017149981 -0.016902529 0.009266675 0.026545009 -0.012429819 0.009949088 0.017909447
-0.057603743 0.005719861 0.0016285098 -0.005346709 0.009573911 -0.0043628444 -0.012031537 0.029855357
-0.013104827 -0.016920924 0.0042073363 -0.00787509 -0.012851308 0.0003077332 -0.002715021 -0.007864836
-0.0034790968 -2.4215944e-05 0.00070899463 -0.0037315397 0.0015253094 -0.0024818738 -0.00050891464 -0.0026158253
-0.006867763 0.008855882 0.00023573067 0.005648474 -0.008705809 0.01889287 -0.012590929 -0.01529315
1.9050908e-06 7.533527e-14 8.7085437e-16 -8.80503e-15 1.8548726e-14 -4.5196865e-14 -4.5064423e-14 3.7085742e-14
0.03287386 -0.03837767 0.0028425113 -0.0028500708 0.012646451 0.023649836 -0.015878782 0.012730978
-0.019471556 -0.016771434 -0.00010575227 -0.028654704 -0.013890072 -0.01589317 0.0036728422 -0.030671047
-0.013255561 -0.048971526 0.006804436 0.00256556 0.013901757 -0.0395503 -0.021855833 0.015706776
0.0020096912 -0.016483352 0.0005074339 0.030264754 0.0067386287 -0.008521553 0.012133849 0.005792102
0.026122812 0.0034388236 0.0050959247 -0.017711677 0.0002577883 0.0005199715 -0.024242291 -0.011352085
-0.018492287 -0.005810445 0.004223924 0.005863527 0.015152909 -0.007632724 0.008837844 0.035591483

net.level3_0.eesp.conv_1x1_exp.bn.weight f4 [32]
00000000: 58c0 f63c 58c3 f63c 61a6 6a3d cab3 973d
00000010: 16d0 933d 6d83 033d 6145 0127 1e3d 8b3d
00000020: 11c9 513d 21b0 483d 43b1 d726 614a 8f3d
00000030: 890f 7f3d de4a 863d 605a 173d aeb0 293d
00000040: c292 4b3d 752a 743d 6406 5f3d c1c8 443d
00000050: b834 0e3d 274c 7f3d 2b58 a43c 0e3d 9a3b
00000060: 9693 d23c 7c17 2e35 601d 3e3d eb49 313d
00000070: 8c4b 7c3d a5d8 023d d25a c93c 8d0d 133d
0.030121014 0.030122444 0.057287578 0.07407339 0.072174236 0.03210776 1.7939957e-15 0.067987666
0.051217142 0.048996095 1.4966669e-15 0.069966085 0.062270675 0.065572485 0.036951423 0.04142826
0.049700506 0.059610803 0.054449454 0.048043016 0.034718245 0.062328484 0.020061573 0.0047069853
0.02570514 6.4854225e-07 0.046414733 0.043283384 0.061595485 0.03194489 0.02457944 0.035901595

net.level3_0.eesp.conv_1x1_exp.bn.bias f4 [32]
00000000: 4a42 223c facf 023b 2451 853b be3c ac3b
00000010: 9ba5 343c 8317 3a3b 3bcb edb2 6619 473b
00000020: faf4 8abb 6fe0 1b3c 0c9c 8530 911e 56bc
00000030: c5df 56bb a196 1539 896e 103c 2c8c ba3c
00000040: 476d 87ba 54be fa3a eb27 8f3c 9757 69bb
00000050: b104 083b 7693 2cbc d7c8 2139 790f d5ba
00000060: 1167 1dba 555a f0b6 5180 ae3b 4108 103c
00000070: 2ad7 bc3b 8c2b a7ba 3b6c 163c d672 a73b
0.0099035 0.001996039 0.0040685106 0.0052562645 0.011025812 0.0028395362 -2.768285e-08 0.003038013
-0.0042406293 0.009513958 9.721375e-10 -0.013068811 -0.0032787186 0.00014265861 0.008815416 0.022771917
-0.001033225 0.0019130209 0.017475089 -0.0035605186 0.002075475 -0.010533204 0.00015428975 -0.0016255222
-0.0006004433 -7.1630734e-06 0.005325355 0.00879103 0.0057629542 -0.0012754067 0.009181078 0.005110125

net.level3_0.eesp.conv_1x1_exp.bn.running_mean f4 [32]
00000000: e066 0cbb 16ee 0f39 ab43 513a 2e0f a1ba
00000010: 60e6 09bb 3d30 cd3a 3f66 22a3 aa87 3c3b
00000020: bf8e 0a3b 7058 d1b9 83e4 2d23 dd9c 89bb
00000030: 149a 2d3b 3208 113a 988d 3ebb f903 8b3b
00000040: bbd5 653b 035d e83a 62fa 3b3b 18d4 7b3a
00000050: ef67 cd3a 278e 473a b7e9 96ba c5fe 71b9
00000060: a267 3439 d87d b032 3f74 ef39 3910 1bbb
00000070: 0028 17bb e8f7 b239 e386 34ba 93d9 5b3a
-0.0021423623 0.00013726237 0.00079828006 -0.0012287849 -0.0021041855 0.0015654635 -8.803689e-18 0.0028767386
0.0021142212 -0.00039929477 9.426738e-18 -0.0041996078 0.0026489543 0.0005532532 -0.0029076096 0.004242417
0.003507002 0.0017727915 0.0028683175 0.00096064946 0.0015671233 0.000761243 -0.0011513744 -0.0002307846
0.00017204744 2.0546324e-08 0.00045672242 -0.0023660793 -0.0023064613 0.0003413551 -0.0006886555 0.0008386608

net.level3_0.eesp.conv_1x1_exp.bn.running_var f4 [32]
00000000: a005 1c36 5475 7335 34cc 0e36 f421 8e36
00000010: a990 c336 176b 9735 03d2 060c 4e07 8136
00000020: 11db 4636 bcf9 8836 746d de0b 8002 3636
00000030: 6140 1e36 adc9 8736 6d24 4e35 5132 8736
00000040: 7979 5a36 71a8 8b36 3db0 b936 8f19 6736
00000050: 9410 4036 5de6 8f36 547e 7335 56fd c132
00000060: 8869 0c35 d882 a427 ad3c 1536 0ddc 8635
00000070: 4b07 1736 cee2 1035 1986 0635 4dc3 3335
2.3249086e-06 9.069529e-07 2.127851e-06 4.2358824e-06 5.8282935e-06 1.1281544e-06 1.0386183e-31 3.84535e-06
2.9631813e-06 4.0821888e-06 8.5675976e-32 2.7121569e-06 2.3581308e-06 4.0467917e-06 7.6793987e-07 4.029171e-06
3.2555238e-06 4.162132e-06 5.5339465e-06 3.443656e-06 2.861988e-06 4.28855e-06 9.0708386e-07 2.2583361e-08
5.230763e-07 4.5661005e-15 2.2238048e-06 1.0047821e-06 2.2504998e-06 5.3974225e-07 5.011403e-07 6.6966896e-07

net.level3_0.eesp.br_after_cat.bn.weight f4 [32]
00000000: 129a 393d 98f0 603d 328f ef3c 7747 fe3c
00000010: 4b20 4f3d 3f2a 373d 6b5e 1f3d 27a0 023d
00000020: a68f 8c3c bac8 293d f5b0 533d 7135 403d
00000030: 1350 4e3d 6b5d 3d3d 5079 1f3d 417d 253d
00000040: acce 863d 9781 373d f7c2 bc3c 9e44 393d
00000050: 3459 3a3d 1937 f93c 2c4d bd3c c484 2a3d
00000060: c7a7 473d 66eb 6c3d f550 063b 6c7b 1b3d
00000070: 975a 5e3c 9c06 013d 18c0 d63c f271 093d
0.04531295 0.054916948 0.029243086 0.031039936 0.050567906 0.044718023 0.038908403 0.031891014
0.01715834 0.041451193 0.05168243 0.046925966 0.050369333 0.04623167 0.038934052 0.040402655
0.06582388 0.04480132 0.023042185 0.045231454 0.045495227 0.03042178 0.023108087 0.04163052
0.04874399 0.05784168 0.0020495031 0.0379595 0.013571403 0.031500444 0.026214644 0.033555932

net.level3_0.eesp.br_after_cat.bn.bias f4 [32]
00000000: f036 1b3d 3bee 16bc 7a57 d63c ecbe 2f3d
00000010: 7f68 963c e46d 9e3b b36c 1a3d b501 963c
00000020: 1ca7 d1bb 7564 213c 8f19 a63c 7d4b d83b
00000030: 8e33 0a3d 7777 503d 337a ec3c d3d3 4f3d
00000040: 7193 18bc df20 2e3c 5fcb b33b 267f 3cbb
00000050: c588 c23c 7f2f ca3c e8be ccba 27c1 293d
00000060: d91f 66bc d21d 003c 00ca 69bc cd5d 2e3c
00000070: 93ee 5f3c d3f5 083d 82fb 9a3c aec5 c63c
0.03789419 -0.009212072 0.026164759 0.042906687 0.018360374 0.0048348773 0.03770132 0.01831136
-0.006398095 0.009850611 0.02027586 0.006600796 0.033740573 0.05089518 0.028866863 0.05073912
-0.0093124965 0.010627954 0.00548689 -0.002876231 0.023746857 0.024680851 -0.0015620859 0.04144397
-0.014045679 0.00781961 -0.014269352 0.010642481 0.01366772 0.03343756 0.018918756 0.024264183

net.level3_0.eesp.br_after_cat.bn.running_mean f4 [32]
00000000: 983a da3a 0593 e1ba bb6b 6cb7 fc3a 613a
00000010: 97cc b3bb 68db 203a 4a2a a9b9 9d71 2bbc
00000020: af67 cdb9 5a1b 3c39 86fc 4aba b04a e33a
00000030: 3c5b c4bb 3f60 98ba 659e 21bb 21a8 87bb
00000040: 693e 49ba ed50 84bb d597 5fba ba23 583a
00000050: 2985 32bc 0b06 f9ba 6726 44bb 3397 fbba
00000060: 0aa3 c3b8 feb3 0b3a f42d 4eba ef5f db3a
00000070: 9e82 3bbc e546 45ba e160 84bb d2c8 07ba
0.0016649542 -0.0017209953 -1.4091779e-05 0.0008591858 -0.0054870355 0.00061362097 -0.000322657 -0.010464099
-0.00039177897 0.00017939266 -0.00077433174 0.0017340984 -0.0059923213 -0.0011625363 -0.002466106 -0.0041399156
-0.00076768413 -0.0040379674 -0.00085293996 0.000824507 -0.010896006 -0.0018998993 -0.0029930116 -0.0019194841
-9.328693e-05 0.000532925 -0.0007865124 0.0016736964 -0.011444716 -0.0007525518 -0.004039869 -0.0005179766

net.level3_0.eesp.br_after_cat.bn.running_var f4 [32]
00000000: 8868 4b37 8072 c536 7646 0236 5599 0b36
00000010: 6cc9 a336 3ece 4037 9e0c f235 108e ed37
00000020: 8a13 3337 7069 2437 2945 3a36 a4c1 7036
00000030: 24c9 cc36 ee5a 6e37 a83c 5236 90cf 5437
00000040: cd77 5c37 e535 9637 b306 5436 2337 1936
00000050: 2683 8537 f683 8c37 e978 5436 1b36 0137
00000060: 5e79 7037 1e3d aa37 a663 4636 f247 9d36
00000070: 4191 9137 ba28 9637 8b65 6c36 d83a c136
1.2124081e-05 5.884387e-06 1.9412523e-06 2.0801865e-06 4.881227e-06 1.1492111e-05 1.8034077e-06 2.8318755e-05
1.0673781e-05 9.799711e-06 2.7756416e-06 3.58755e-06 6.1030896e-06 1.4207077e-05 3.1327745e-06 1.2684512e-05
1.3140915e-05 1.790649e-05 3.1594361e-06 2.283087e-06 1.5915906e-05 1.675075e-05 3.166084e-06 7.701597e-06
1.4333373e-05 2.029404e-05 2.9562302e-06 4.68734e-06 1.7352986e-05 1.7900358e-05 3.5225846e-06 5.7586985e-06
