data/Tracking.pth (torch_old, 503233 bytes, 365 tensors)

net.level1.conv.weight f4 [16, 3, 3, 3]
-0.0025446964 0.06853942 0.060617104 -0.06312183 -0.017827215 0.0898118 0.04344893 -0.016252775
0.042012382 -0.020780196 0.010497934 -0.003001771 0.05937971 0.08161184 -0.06335966 -0.02887795
0.010644725 -0.06599212 0.15303832 -0.026170202 -0.018019797 -0.05241225 0.0870674 -0.0099932
0.06444394 0.05814988 0.05019829 0.04069324 0.16053529 -0.049582843 0.003883318 -0.098183
-0.07167399 -0.048963215 0.011976095 0.035611037 0.27804372 -0.07881724 -0.25794557 0.02163966
0.05874135 0.05133364 0.0020597496 0.09559343 -0.09837127 0.09838758 0.032287378 -0.00039596952
-0.06091322 -0.028076576 0.19511287 -0.23124413 0.039451115 -0.07569376 -0.22231704 -0.07046103
0.014927518 -0.049776006 -0.026092334 0.020718703 0.009008829 -0.041498315 -0.0406928 -0.023314953
0.07628024 0.21392971 0.08425703 -0.30867055 -0.01641255 0.035843626 0.15709664 -0.14304714
0.07737743 -0.008970146 0.0817687 0.016605956 0.11801474 -0.009932588 0.08992824 0.07091351
-0.1198297 0.015073975 -0.004917627 -0.09981314 -0.1437902 -0.11177851 -0.021371001 -0.029310418
-0.057021756 -0.18938601 -0.08863625 -0.0860112 -0.068398535 0.077268474 -0.050649494 0.01075862
-0.037102506 0.019335099 0.10834169 -0.033160135 0.15210244 0.09614635 0.12440765 0.11021114
0.13589565 0.024547359 0.035291467 0.07756039 0.038510464 -0.011748114 -0.03857846 -0.05347033
-0.14539364 -0.12550919 -0.03708067 -0.021948727 0.03899231 0.00633406 0.0013921156 0.025163187
-0.0015096617 -0.03830367 -0.045903295 -0.025694558 -0.034640785 -0.17828803 0.0136249345 0.04513833
0.014554619 0.027605468 0.13586742 0.2325046 0.05842586 0.085550785 0.101994276 -0.11622604
-0.10213108 0.060436234 -0.0039675157 0.025311273 0.10429848 0.0027391538 0.057461414 0.008971625
0.0018712698 0.065361656 -0.0016401432 -0.04219976 0.17926542 0.15410303 0.03795153 -0.06592085
-0.0048675328 0.08996381 -0.021260234 -0.016832855 0.054690838 0.107974574 -0.029483058 -0.036967654
0.009349343 0.119993865 0.07943645 0.041767605 -0.0662497 -0.0493754 0.043635663 0.02923768
0.05721657 0.008340987 0.09055031 0.11115268 0.070138484 -0.03030609 -0.021574216 0.06713178
-0.13980876 0.14851126 0.064662784 -0.07245255 -0.06780033 -0.00044655288 0.000390462 0.016739706
-0.039785914 0.056214463 0.048623964 -0.024477532 0.14963134 0.02550162 0.02410109 -0.049913317
-0.024398752 0.08215901 0.03435624 -0.0027785506 0.035544425 0.02050073 -0.010015681 -0.04535176
-0.03693429 -0.05815226 -0.046846543 -0.06309113 -0.044629123 -0.18649629 -0.101945974 0.04717623
-0.0060009845 0.04845245 0.091039084 -0.0038089405 -0.005918127 0.050931912 -0.034983993 -0.05008093
0.0154525135 -0.041424163 -0.112828866 -0.022707475 -0.05866816 -0.053396184 0.0069637364 -0.016779717
-0.02409894 -0.003914161 -0.05323112 -0.03275902 -0.046540108 -0.13748431 0.011680976 -0.025606683
-0.016745409 -0.023507385 0.011312081 0.11441887 0.17213605 0.06651797 0.18557051 0.043299235
0.028886069 0.042408943 0.06947338 0.042804684 0.05428248 -0.0041317046 0.00011284511 0.12815593
0.07626427 0.08667536 0.035798557 -0.003152991 -0.09128683 -0.09945662 -0.04933699 -0.018145269
00000000: ecc4 26bb 655e 8c3d a449 783d 0546 81bd
00000010: 610a 92bc 40ef b73d 81f7 313d 8a24 85bc
00000020: 2d15 2c3d 3b3b aabc 87ff 2b3c 5cb9 44bb
00000030: 2438 733d 1c24 a73d b6c2 81bd 7391 ecbc
00000040: 3667 2e3c e026 87bd 14b6 1c3e e462 d6bc
00000050: 419e 93bc 3aae 56bd 6550 b23d 85ba 23bc
00000060: 2ffb 833d 922e 6e3d b99c 4d3d f4ad 263d
00000070: 5d63 243e 6117 4bbd 447f 7e3b 2b14 c9bd
00000080: d0c9 92bd a78d 48bd 6237 443c e1dc 113d
00000090: bf5b 8e3e ef6a a1bd 7111 84be a845 b13c
000000a0: c59a 703d 3943 523d ddfc 063b 7dc6 c33d
000000b0: e076 c9bd 6d7f c93d c53f 043d 219a cfb9
000000c0: 2480 79bd d900 e6bc abcb 473e 43cb 6cbe
000000d0: 7e97 213d 5405 9bbd 14a7 63be df4d 90bd
000000e0: 8c92 743c ede1 4bbd 97bf d5bc 45ba a93c
000000f0: c499 133c 23fa 29bd 7ead 26bd 00ff bebc
00000100: d138 9c3d 6410 5b3e f38e ac3d 110a 9ebe
00000110: 9d73 86bc c4d0 123d f1dd 203e f37a 12be
00000120: 0f78 9e3d 85f7 12bc 5976 a73d 3709 883c
00000130: b6b1 f13d 4bbc 22bc 4c2c b83d 1a3b 913d
00000140: 4669 f5bd d5f8 763c 0c24 a1bb d56a ccbd
00000150: bd3d 13be 22ec e4bd 3d12 afbc 671c f0bc
00000160: a58f 69bd 68ee 41be ec86 b5bd a426 b0bd
00000170: 8814 8cbd ef3e 9e3d d875 4fbd ec44 303c
00000180: ccf8 17bd a464 9e3c 3fe2 dd3d ecd2 07bd
00000190: bec0 1b3e 61e8 c43d 70c9 fe3d 61b6 e13d
000001a0: 3b28 0b3e 8b17 c93c c98d 103d fbd7 9e3d
000001b0: 26bd 1d3d 297b 40bc 7304 1ebd b403 5bbd
000001c0: 12e2 14be 7b85 00be e7e1 17bd d1cd b3bc
000001d0: 67b6 1f3d f28d cf3b a677 b63a 0723 ce3c
000001e0: d7df c5ba 4fe4 1cbd 1805 3cbd 657d d2bc
000001f0: 7fe3 0dbd 2391 36be 1e3b 5f3c f8e2 383d
00000200: 7f76 6e3c dd24 e23c d420 0b3e b015 6e3e
00000210: f44f 6f3d 4035 af3d 60e2 d03d eb07 eebd
00000220: 1a2a d1bd fc8b 773d ef01 82bb 9659 cf3c
00000230: 719a d53d 6083 333b a95c 6b3d b9fd 123c
00000240: 6545 f53a 55dc 853d 13fa d6ba a8d9 2cbd
00000250: 5b91 373e 2fcd 1d3e 1073 1b3d 8301 87bd
00000260: d37f 9fbb f23e b83d f129 aebc 0ee5 89bc
00000270: 8003 603d c621 dd3d 7486 f1bc 656b 17bd
00000280: fd2d 193c 58bf f53d 94af a23d 8214 2b3d
00000290: ecad 87bd dc3d 4abd 4fbb 323d dc83 ef3c
000002a0: ec5b 6a3d a3a8 083c 7172 b93d 04a4 e33d
000002b0: c4a4 8f3d 7a44 f8bc 69bc b0bc 637c 893d
000002c0: 072a 0fbe 5613 183e ec6d 843d 0162 94bd
000002d0: e6da 8abd 501f eab9 ecb6 cc39 b521 893c
000002e0: 8ef6 22bd 2341 663d ec29 473d 1b85 c8bc
000002f0: f538 193e c6e8 d03c a66f c53c e871 4cbd
00000300: e4df c7bc fc42 a83d 21b9 0c3d 5818 36bb
00000310: 0897 113d 26f1 a73c d018 24bc c4c2 39bd
00000320: 6948 17bd 1031 6ebd 29e2 3fbd ec35 81bd
00000330: 07cd 36bd e2f8 3ebe 0dc9 d0bd dd3b 413d
00000340: e8a3 c4bb 1476 463d b372 ba3d 6b9f 79bb
00000350: d9ec c1bb fb9d 503d 604b 0fbd a921 4dbd
00000360: 8a2c 7d3c 62ac 29bd d212 e7bd 0705 babc
00000370: 064e 70bd f5b5 5abd 0e30 e43b 9e75 89bc
00000380: 246b c5bc 5d42 80bb e008 5abd 522e 06bd
00000390: d7a0 3ebd b0c8 0cbe 9061 3f3c 1bc5 d1bc
000003a0: ab2d 89bc 8f92 c0bc 4e56 393c 7154 ea3d
000003b0: 6f44 303e 933a 883d 3206 3e3e 8a5a 313d
000003c0: 7aa2 ec3c 00b5 2d3d 0f48 8e3d f753 2f3d
000003d0: 4e57 5e3d 4063 87bb 42a7 ec38 4f3b 033e
000003e0: 7130 9c3d da82 b13d 82a1 123d 69a2 4ebb
000003f0: 97f4 babd eaaf cbbd 9515 4abd 63a5 94bc

net.level1.bn.weight f4 [16]
0.95515656 0.7056791 0.8456217 1.0388035 1.1438116 0.7951281 0.6289464 0.9122475
1.1353073 0.86326635 1.1287163 0.7055515 1.1451455 1.0796491 1.1496038 0.8486185
00000000: 2485 743f 63a7 343f aa7a 583f 83f7 843f
00000010: 6b68 923f 848d 4b3f a202 213f 0d89 693f
00000020: c051 913f 06ff 5c3f c779 903f 069f 343f
00000030: 2194 923f f131 8a3f 3826 933f 103f 593f

net.level1.bn.bias f4 [16]
0.47359672 -0.12874767 0.3736555 0.4264146 0.35286838 0.40439937 0.18084788 0.37673166
0.4034977 0.31118938 0.33889782 0.16452315 0.36084798 0.30892846 0.3006124 0.4208023
00000000: 457b f23e 6ed6 03be c64f bf3e 0453 da3e
00000010: 2aab b43e 6f0d cf3e 3030 393e f9e2 c03e
00000020: 4097 ce3e 3754 9f3e 0484 ad3e c278 283e
00000030: 11c1 b83e df2b 9e3e dee9 993e 6673 d73e

net.level1.bn.running_mean f4 [16]
0.19390476 0.011307508 0.082662724 0.12627557 0.10687703 0.29370284 0.22181329 -0.16916473
0.114803925 -0.13825184 0.113282956 -0.055419326 0.08295678 -0.09261954 0.07723824 0.088666685
00000000: f88e 463e 2043 393c 134b a93d 624e 013e
00000010: 58e2 da3d 3860 963e 0623 633e 8539 2dbe
00000020: 521e eb3d e491 0dbe e500 e83d 60ff 62bd
00000030: 3fe5 a93d 50af bdbd 152f 9e3d e196 b53d

net.level1.bn.running_var f4 [16]
0.25148383 0.008576177 0.0066083265 0.016884223 0.0100068655 0.4321455 0.3431576 0.10504812
0.013675452 0.018131522 0.01360544 0.007568424 0.037520006 0.03551785 0.018077208 0.0059566093
00000000: 7dc2 803e 1883 0c3c a98a d83b c850 8a3c
00000010: d6f3 233c 2d42 dd3e 5ab2 af3e 7823 d73d
00000020: 010f 603c 8f88 943c 5ae9 5e3c 8b00 f83b
00000030: 94ae 193d 2a7b 113d a716 943c a92f c33b

net.level1.act.weight f4 [16]
-0.088296756 0.24907196 -0.23042952 -0.112746544 -0.07422108 -0.025327468 0.07767616 -0.07711353
-0.1156856 -0.048151415 -0.04266355 0.11673075 -0.02988195 -0.04204205 0.0024395927 -0.11198588
00000000: eed4 b4bd b80c 7f3e b7f5 6bbe a9e7 e6bd
00000010: 3901 98bd 8d7b cfbc ae14 9f3d b3ed 9dbd
00000020: 92ec ecbd 6b3a 45bd f9bf 2ebd 8810 ef3d
00000030: feca f4bc 4934 2cbd 93e1 1f3b da58 e5bd

net.level2_0.eesp.proj_1x1.conv.weight f4 [4, 4, 1, 1]
-0.023611939 0.26785722 0.20873863 -0.1326851 -0.0011686386 -0.058716793 -0.12954651 0.10800085
0.0026089647 -0.097994305 0.022087825 -0.00465921 -0.12508701 0.09287533 0.03450134 0.09487558
00000000: d36d c1bc 9524 893e 94bf 553e 9ade 07be
00000010: 012d 99ba 0581 70bd d7a7 04be 8d2f dd3d
00000020: 2afb 2a3b 3db1 c8bd 87f1 b43c 49ac 98bb
00000030: cf16 00be 6c35 be3d 4751 0d3d 214e c23d

net.level2_0.eesp.proj_1x1.bn.weight f4 [4]
0.13040471 0.08143492 0.08816137 0.105198935
00000000: d088 053e 5ac7 a63d f38d b43d 8a72 d73d

net.level2_0.eesp.proj_1x1.bn.bias f4 [4]
-0.077031 -0.015160773 -0.046497725 -0.081658565
00000000: 6ec2 9dbd e464 78bc 6674 3ebd 9b3c a7bd

net.level2_0.eesp.proj_1x1.bn.running_mean f4 [4]
0.027451418 -0.019715236 -0.03513515 0.04611326
00000000: cce1 e03c d981 a1bc e0e9 0fbd 42e1 3c3d

net.level2_0.eesp.proj_1x1.bn.running_var f4 [4]
0.024982348 0.022135194 0.005957385 0.022803796
00000000: c8a7 cc3c de54 b53c 2b36 c33b 07cf ba3c

net.level2_0.eesp.proj_1x1.act.weight f4 [4]
-0.07484052 0.26529276 0.12699999 0.12275098
00000000: fd45 99bd 74d4 873e 490c 023e de64 fb3d

net.level2_0.eesp.spp_dw.0.conv.weight f4 [4, 1, 3, 3]
0.019525561 0.04942941 0.04448504 0.054818157 0.027426105 0.029711045 0.048049185 0.0590958
0.064296454 0.16925548 -0.13981119 -0.04705741 0.08302663 -0.119677044 -0.04633649 -0.1582205
0.20922078 -0.10239793 0.0757655 -0.00119071 -0.118176274 -0.004270172 -0.0014176321 -0.02186718
0.0030900284 -0.040333115 -0.02516369 -0.02737553 -0.023436526 -0.030118508 -0.06692974 -0.07812376
-0.032213088 -0.07732023 -0.03282941 -0.050594978
00000000: 12f4 9f3c 7e76 4a3d f235 363d 0189 603d
00000010: b6ac e03c 9464 f33c 39cf 443d 700e 723d
00000020: dcad 833d 4f51 2d3e aa2a 0fbe 45bf 40bd
00000030: de09 aa3d 3d19 f5bd 55cb 3dbd 8e04 22be
00000040: f93d 563e 02b6 d1bd f12a 9b3d 9911 9cba
00000050: 6706 f2bd cdec 8bbb d7cf b9ba cd22 b3bc
00000060: 1382 4a3b 5634 25bd 1524 cebc a642 e0bc
00000070: f5fd bfbc 17bb f6bc 7612 89bd 5aff 9fbd
00000080: dff1 03bd 125a 9ebd 2278 06bd ae3c 4fbd

net.level2_0.eesp.spp_dw.1.conv.weight f4 [4, 1, 3, 3]
0.0017573019 0.009876895 0.015582482 0.005834695 0.008794195 0.07068565 0.016395826 0.06455482
0.069717154 0.15024485 -0.09558888 0.07355073 0.009167521 -0.019678874 -0.026400506 0.23194675
-0.39812088 0.20745818 0.011537179 0.003991728 -0.013894968 -0.0031490785 -0.013078975 -0.045592945
-0.009906702 -0.01765282 -0.033500195 0.0023246752 -0.018016463 0.017649839 -0.043330263 -0.034802437
0.06941814 -0.011975996 -0.063030355 0.0869395
00000000: 4455 e63a b3d2 213c ab4d 7f3c f830 bf3b
00000010: 8715 103c a3c3 903d 8a50 863c 5135 843d
00000020: dec7 8e3d c9d9 193e 1ac4 c3bd c4a1 963d
00000030: 5f33 163c 9735 a1bc e045 d8bc 7383 6d3e
00000040: 80d6 cbbe eb6f 543e 7006 3d3c 0bcd 823b
00000050: b8a7 63bc c560 4ebb 3249 56bc abbf 3abd
00000060: b84f 22bc a69c 90bc 8037 09bd 9459 183b
00000070: 4397 93bc 6596 903c 137b 31bd 008d 0ebd
00000080: 192b 8e3d f836 44bc 0f16 81bd 560d b23d

net.level2_0.eesp.spp_dw.2.conv.weight f4 [4, 1, 3, 3]
-0.008127827 -0.00399348 -0.006487793 -0.0051834323 -0.040928096 0.040931143 0.006004656 0.040712085
0.042996656 0.0022856302 -0.015088682 0.014605706 -0.025637113 -0.046315037 -0.023867304 0.018669873
0.065192185 0.05015863 -0.016552623 0.022502873 0.06665475 -0.034228526 -0.028480874 0.013557918
-0.02266852 0.015294695 0.06565326 -0.0038034038 0.0029489433 -0.00452511 -0.010023679 -0.009273672
0.10054723 0.0010920031 0.07198048 0.07430194
00000000: 942a 05bc bddb 82bb 8d97 d4bb c8d9 a9bb
00000010: 38a4 27bd 6aa7 273d b5c2 c43b b7c1 263d
00000020: 431d 303d 83ca 153b 8536 77bc c54c 6f3c
00000030: ec04 d2bc d6b4 3dbd 5d85 c3bc 90f1 983c
00000040: 7b83 853d 2373 4d3d 5e99 87bc f257 b83c
00000050: 4982 883d 3633 0cbd b950 e9bc 0822 5e3c
00000060: 55b3 b9bc 9a96 7a3c 3775 863d 8742 79bb
00000070: 0f43 413b 6047 94bb 5b3a 24bc 99f0 17bc
00000080: b5eb cd3d 8b21 8f3a 806a 933d 9e2b 983d

net.level2_0.eesp.spp_dw.3.conv.weight f4 [4, 1, 3, 3]
-0.0075033363 -0.009962729 -0.006306674 -0.008771218 -0.003937734 -0.008155717 -0.0012470281 0.0066417973
0.0028380356 0.008042801 0.0035862075 0.022900729 0.026252652 -0.013460967 0.030701779 0.04896553
0.01934404 0.055114504 -0.010918637 0.0061878804 -0.0075298236 -0.02197088 0.003999476 0.01722242
-0.023641583 -0.005778065 -0.00042362246 -0.0028445285 -0.0022855683 -0.0011705591 -0.006522267 0.06585453
0.006952686 -0.00663375 0.034727003 0.009401056
00000000: 8cde f5bb b73a 23bc 37a8 cebb 28b5 0fbc
00000010: 1b08 81bb 8e9f 05bc 5273 a3ba 6fa3 d93b
00000020: 56fe 393b f4c5 033c 9406 6b3b 4f9a bb3c
00000030: cd0f d73c 638b 5cbc 4c82 fb3c 1490 483d
00000040: 6477 9e3c bfbf 613d 15e4 32bc b4c3 ca3b
00000050: bdbc f6bb 46fc b3bc 090e 833b 0816 8d3c
00000060: feab c1bc ec55 bdbb a519 deb9 456b 3abb
00000070: 79c9 15bb 726d 99ba beb8 d5bb bdde 863d
00000080: 5bd3 e33b ee5f d9bb e73d 0e3d e306 1a3c

net.level2_0.eesp.conv_1x1_exp.conv.weight f4 [16, 4, 1, 1]
0.019753212 0.08392827 0.031171318 -0.10997314 -0.018994508 0.00013145094 -0.018430332 0.05687707
-0.012197136 0.04787527 -0.017373746 0.01872698 0.025218192 -0.01052527 -0.046558756 -0.057752185
0.0030906464 0.05592624 0.055251297 0.111816116 -0.061811242 -0.11998708 -0.025409011 0.1192652
0.07305501 0.047482997 0.025483085 -0.019666532 0.012082089 0.07984478 -0.07190431 0.04322481
0.058244895 -0.024155218 0.040631644 -0.0047007664 0.04123195 0.023627007 0.012707296 -0.017326655
0.04606026 -0.044858772 0.077233166 0.006783939 -0.05813225 -0.05329853 0.026763592 0.04968525
-0.107564084 0.051424768 0.018090816 -0.09378708 0.04043454 -0.073119834 0.019009247 0.080391325
-0.037409376 -0.0063456516 0.030726476 -0.01613186 -0.047517262 -0.025455603 0.042844 -0.0317456
00000000: 7dd1 a13c 96e2 ab3d fe5a ff3c 9939 e1bd
00000010: 5f9a 9bbc 18d6 0939 35fb 96bc eef7 683d
00000020: 7fd6 47bc dc18 443d 6353 8ebc 5369 993c
00000030: 6296 ce3c 2f72 2cbc 65b4 3ebd 8e8d 6cbd
00000040: 718c 4a3b ea12 653d 2f4f 623d d9ff e43d
00000050: c92d 7dbd c9bb f5bd 8f26 d0bc 5041 f43d
00000060: dd9d 953d 887d 423d e7c1 d03c b51b a1bc
00000070: f4f3 453c a985 a33d 9142 93bd 800c 313d
00000080: 3392 6e3d 2ae1 c5bc 5e6d 263d e308 9abb
00000090: d5e2 283d 6d8d c13c 4332 503c a1f0 8dbc
000000a0: afa9 3c3d d5bd 37bd 6c2c 9e3d ce4b de3b
000000b0: 151c 6ebd 8f4f 5abd 523f db3c c382 4b3d
000000c0: 8f4a dcbd c7a2 523d 3133 943c 7113 c0bd
000000d0: b09e 253d dabf 95bd 48b9 9b3c 35a4 a43d
000000e0: 933a 19bd 2fef cfbb 17b6 fb3c f626 84bc
000000f0: 76a1 42bd 4588 d0bc 317d 2f3d ad07 02bd

net.level2_0.eesp.conv_1x1_exp.bn.weight f4 [16]
0.24683483 0.13657829 0.22519064 0.09959395 0.17170817 0.34987527 0.22364043 0.1643982
0.1656499 0.05762082 0.20350818 0.17724857 0.22296861 0.22415134 0.085496575 0.17728783
00000000: 45c2 7c3e 2edb 0b3e 6098 663e eaf7 cb3d
00000010: 44d4 2f3e da22 b33e ff01 653e 0058 283e
00000020: 21a0 293e cf03 6c3d 7364 503e a680 353e
00000030: e251 643e ee87 653e d418 af3d f18a 353e

net.level2_0.eesp.conv_1x1_exp.bn.bias f4 [16]
-0.011899286 -0.019705033 -0.03946684 -0.008592012 -0.034807786 0.12338167 -0.09864483 0.006123258
0.004991639 0.0062012877 0.0260422 0.025411215 0.1258139 -0.006446773 -0.01041538 0.044933647
00000000: 39f5 42bc 736c a1bc fba7 21bd 83c5 0cbc
00000010: 9c92 0ebd 87af fc3d 4d06 cabd 9ca5 c83b
00000020: e790 a33b 2c34 cb3b 7456 d53c 2e2b d03c
00000030: 5cd5 003e 743f d3bb 45a5 2abc 580c 383d

net.level2_0.eesp.conv_1x1_exp.bn.running_mean f4 [16]
-0.001082266 0.0030396234 0.0034931328 -0.0044875722 0.00876101 0.00074174505 0.0028460843 0.0017538969
0.0038738477 0.0030193396 0.0044667376 -0.001700038 -0.009616183 0.0036212343 -0.00322731 -0.0052089915
00000000: d2da 8dba 6b34 473b 0bed 643b 7c0c 93bb
00000010: 578a 0f3c ab71 423a 5f85 3a3b 04e3 e53a
00000020: 61e0 7d3b 1de0 453b b65d 923b cfd3 deba
00000030: 328d 1dbc 3b52 6d3b 4781 53bb 30b0 aabb

net.level2_0.eesp.conv_1x1_exp.bn.running_var f4 [16]
2.0569874e-05 1.5326896e-05 1.3055124e-05 1.1505517e-05 2.700348e-05 0.00018123821 7.346005e-05 4.2353164e-05
2.2192353e-05 1.2024472e-05 2.5040534e-05 2.1752048e-05 0.00030873448 0.00011169956 3.182246e-05 7.3843956e-05
00000000: 788d ac37 4292 8037 5507 5b37 d207 4137
00000010: 8885 e237 c30a 3e39 900e 9a38 5da4 3138
00000020: b729 ba37 b7bc 4937 230e d237 2b78 b637
00000030: a4dd a139 3f40 ea38 1b79 0538 acdc 9a38

net.level2_0.eesp.br_after_cat.bn.weight f4 [16]
0.03356046 0.13063763 0.08481542 0.14933895 0.101506785 0.16302364 0.11710701 0.1494119
0.07160665 0.06904843 0.07142694 0.03597466 0.12824352 0.16720702 0.051110007 0.16632918
00000000: b176 093d dfc5 053e b5b3 ad3d 4fec 183e
00000010: cae2 cf3d abef 263e cdd5 ef3d 6fff 183e
00000020: 82a6 923d 4369 8d3d 4a48 923d 2a5a 133d
00000030: 4552 033e 5138 2b3e ba58 513d 3252 2a3e

net.level2_0.eesp.br_after_cat.bn.bias f4 [16]
0.017177403 0.007937166 -0.008211699 0.023036486 -0.010811796 -0.024032848 -0.005255807 0.0030779028
0.050496876 0.028935993 0.04054351 0.028070442 0.09235441 -0.025847215 0.025535518 -0.029234514
00000000: a0b7 8c3c e30a 023c 5d8a 06bc 03b7 bc3c
00000010: f623 31bc 89e0 c4bc e838 acbb a4b6 493b
00000020: d0d5 4e3d 2d0b ed3c f410 263d fcf3 e53c
00000030: 4f24 bd3d 8abd d3bc dd2f d13c 387d efbc

net.level2_0.eesp.br_after_cat.bn.running_mean f4 [16]
0.009884999 -0.0028376868 -0.0001786575 -0.0006818248 0.016218508 -0.0010979697 -0.00037710773 -0.0009614424
0.017874599 -0.00037751324 -0.00023285265 -0.00065500813 0.01700883 0.0027767967 -0.00030794163 -0.0003657506
00000000: b1f4 213c 7cf8 39bb 0256 3bb9 7dbc 32ba
00000010: addc 843c c0e9 8fba 8bb6 c5b9 4f09 7cba
00000020: c06d 923c f8ec c5b9 e829 74b9 dab4 2bba
00000030: 1a56 8b3c ebfa 353b 3a73 a1b9 37c2 bfb9

net.level2_0.eesp.br_after_cat.bn.running_var f4 [16]
0.0006315202 7.715773e-05 6.672686e-06 0.00019585044 0.0012786363 0.00010150102 2.2700842e-05 0.00022365866
0.0014228933 0.00011049834 1.2204625e-05 0.00010366914 0.0013512278 0.00020437222 1.7404778e-05 6.789217e-05
00000000: 9a8c 253a becf a138 f0e5 df36 345d 4d39
00000010: ea97 a73a f2dc d438 b06d be37 ea85 6a39
00000020: 6080 ba3a 58bb e738 77c2 4c37 f268 d938
00000030: ae1b b13a c04c 5639 7a00 9237 5561 8e38

net.level2_0.eesp.br_after_cat.act.weight f4 [16]
1.8500084e-05 -0.05320716 0.00229378 0.09693091 0.010725265 -0.11788697 -0.012282937 0.07724918
0.0011634111 0.01140122 -0.0006329533 0.0031615933 0.0029831263 0.01665242 -0.0013609476 -0.16338395
00000000: a130 9b37 c0ef 59bd 3e53 163b b783 c63d
00000010: 06b9 2f3c b96e f1bd 5f3e 49bc d134 9e3d
00000020: 997d 983a 2fcc 3a3c c7ec 25ba bc32 4f3b
00000030: 8e80 433b a86a 883c d361 b2ba 1f4e 27be

net.level2_0.eesp.module_act.weight f4 [16]
0.25 0.25 0.25 0.25 0.25 0.25 0.25 0.25
0.25 0.25 0.25 0.25 0.25 0.25 0.25 0.25
00000000: 0000 803e 0000 803e 0000 803e 0000 803e
00000010: 0000 803e 0000 803e 0000 803e 0000 803e
00000020: 0000 803e 0000 803e 0000 803e 0000 803e
00000030: 0000 803e 0000 803e 0000 803e 0000 803e

net.level2_0.inp_reinf.0.conv.weight f4 [3, 3, 3, 3]
0.004187211 -0.019585155 0.025108466 -0.0030226996 -0.071139134 0.019487375 -0.056640174 -0.026975267
0.02262936 0.047524612 0.0033813515 0.0123268375 -0.00783935 -0.011964119 0.09943365 0.0337141
-0.08972791 -0.009620811 0.021200966 0.03442901 0.030199593 0.056601662 0.07179564 -0.01114679
0.027782496 0.06416329 -0.036252577 -0.006424498 0.25411472 -0.03411666 2.4165483e-05 -0.029750807
-0.016507301 -0.013867086 0.008755632 0.05065956 0.087582655 0.056262013 -0.026401151 -0.009113907
-0.12107606 0.0021046272 0.012482506 -0.08309845 -0.08690223 -0.11202881 -0.071570605 0.11362936
-0.018379869 -0.032933913 -0.08394714 0.01830116 0.010691426 -0.16848692 -0.020686287 0.019552924
0.007117538 -0.012475225 0.060467537 -0.09338522 0.0010378982 0.049384553 0.073565766 0.013045939
-0.012780246 -0.01631607 -0.007962061 0.029720012 -0.07315261 -0.012731866 0.012319354 0.05520126
0.035397958 0.0018729431 -0.0019934091 0.04903492 -0.003312454 0.0009938986 0.0050021177 0.008225533
0.032375686
00000000: df34 893b 0c71 a0bc 45b0 cd3c 7c18 46bb
00000010: 65b1 91bd fda3 9f3c 87ff 67bd 3cfb dcbc
00000020: 3561 b93c 2ba9 423d aa99 5d3b 81f6 493c
00000030: 9e70 00bc 2705 44bc dfa3 cb3d cc17 0a3d
00000040: 44c3 b7bd 9ba0 1dbc a6ad ad3c 6f05 0d3d
00000050: 2365 f73c 25d7 673d 9809 933d 07a1 36bc
00000060: 1e98 e33c 0b68 833d 957d 14bd 9884 d2bb
00000070: 531b 823e e9bd 0bbd fbb6 ca37 f7b7 f3bc
00000080: 523a 87bc c632 63bc c873 0f3c 6680 4f3d
00000090: 895e b33d ff72 663d 3a47 d8bc 7f52 15bc
000000a0: baf6 f7bd c9ed 093b 6d83 4c3c 852f aabd
000000b0: ccf9 b1bd 5c6f e5bd 9c93 92bd 83b6 e83d
000000c0: 6191 96bc b6e5 06bd 7aec abbd 50ec 953c
000000d0: 172b 2f3c d687 2cbe 4a76 a9bc 742d a03c
000000e0: 3c3a e93b e364 4cbc cfac 773d c040 bfbd
000000f0: 160a 883a 7547 4a3d a6a9 963d a2be 553c
00000100: 3d64 51bc 47a9 85bc 4e73 02bc 6277 f33c
00000110: 09d1 95bd 5199 50bc 1ed7 493c b71a 623d
00000120: 73fd 103d 8b7d f53a dba3 02bb d7d8 483d
00000130: c215 59bb b445 823a cee8 a33b 63c4 063c
00000140: 5e9c 043d

net.level2_0.inp_reinf.0.bn.weight f4 [3]
0.21518609 0.29081646 0.2334592
00000000: be59 5c3e e5e5 943e ee0f 6f3e

net.level2_0.inp_reinf.0.bn.bias f4 [3]
0.012621179 -0.018505141 -0.0083793355
00000000: 10c9 4e3c 1898 97bc 7b49 09bc

net.level2_0.inp_reinf.0.bn.running_mean f4 [3]
0.12878302 -0.17674622 0.060865812
00000000: b2df 033e f6fc 34be 6e4e 793d

net.level2_0.inp_reinf.0.bn.running_var f4 [3]
0.04408687 0.088401236 0.02702516
00000000: 6f94 343d b50b b53d de63 dd3c

net.level2_0.inp_reinf.0.act.weight f4 [3]
0.061487537 0.053921763 0.05942136
00000000: 5bda 7b3d 11dd 5c3d d063 733d

net.level2_0.inp_reinf.1.conv.weight f4 [32, 3, 1, 1]
-0.004490005 0.07311316 -0.061063267 0.036479007 0.05298344 0.001491922 0.020844914 0.052222803
-0.018854216 0.0009900689 -0.04431974 -0.0029941194 0.0054989294 0.033684853 -0.02673105 -0.073663704
-0.04525559 -0.04303834 -0.017514179 0.036891926 -0.04041973 0.034405846 -0.07357123 -0.045616638
-0.05814892 0.03588599 0.036587972 0.049701378 -0.033965595 0.00038342443 -0.10619658 -0.013726757
0.039892573 -0.036861025 -0.034643777 -0.05811358 -0.07489509 0.005463954 0.0055062254 -0.026360352
-0.074940145 0.029786611 -0.108133554 -0.072254695 -0.0033133656 0.013549298 -0.014528981 0.01054701
-0.059379265 -0.026221387 0.06823258 -0.004765752 0.07602234 0.122469805 0.03243258 -0.046880424
-0.014035435 -0.013417063 -0.027538335 0.026742142 -0.05779345 -0.026928589 -0.017396538 -0.03612136
0.036309212 -0.047915794 -0.013461887 0.023764 -0.037488773 0.09685829 0.02165371 -0.07359037
0.060034394 0.103835635 0.05593628 0.065027654 -0.021899303 -0.05715682 -0.02990039 0.041356966
0.0011326091 -0.031866826 -0.06743199 -0.02840896 0.0033267278 -0.13056935 -0.028234584 -0.042538755
-0.06955695 0.01608064 0.04259689 -0.019595565 0.008140127 0.023629023 -0.025721766 0.044417474
00000000: e420 93bb 5abc 953d 7a1d 7abd 036b 153d
00000010: 2a05 593d 988c c33a f4c2 aa3c 94e7 553d
00000020: 2874 9abc 33c5 813a 9e88 35bd fd38 44bb
00000030: 5d30 b43b 21f9 093d 13fb dabc ffdc 96bd
00000040: ed5d 39bd f848 30bd e579 8fbc fd1b 173d
00000050: 298f 25bd 25ed 0c3d 83ac 96bd 83d8 3abd
00000060: 902d 6ebd 30fd 123d 45dd 153d ac93 4b3d
00000070: 821f 0bbd 5b06 c939 987d d9bd 31e6 60bc
00000080: 6566 233d 96fb 16bd a2e6 0dbd 8108 6ebd
00000090: 9962 99bd f80a b33b 916d b43b aaf1 d7bc
000000a0: 387a 99bd 0d03 f43c 2075 ddbd 45fa 93bd
000000b0: 0d25 59bb e0fd 5d3c f70a 6ebc 5ecd 2c3c
000000c0: ac37 73bd 3cce d6bc 86bd 8b3d 062a 9cbb
000000d0: 9ab1 9b3d 73d1 fa3d 06d8 043d b005 40bd
000000e0: e2f4 65bc 3ed3 5bbc 1398 e1bc 5612 db3c
000000f0: d3b8 6cbd 5899 dcbc 2f83 8ebc fef3 13bd
00000100: f8b8 143d 5a43 44bd 3f8f 5cbc b8ac c23c
00000110: d48d 19bd a45d c63d 1f63 b13c 8cb6 96bd
00000120: a0e6 753d c7a7 d43d 711d 653d 382d 853d
00000130: 2b66 b3bc 451d 6abd aaf1 f4bc ec65 293d
00000140: 0e74 943a ca86 02bd c819 8abd e8b9 e8bc
00000150: 3b05 5a3b f9b3 05be 374c e7bc 1e3d 2ebd
00000160: e073 8ebd 8cbb 833c 147a 2e3d e186 a0bc
00000170: 2b5e 053c a791 c13c 74b6 d2bc 19ef 353d

net.level2_0.inp_reinf.1.bn.weight f4 [32]
0.44150415 0.1291545 0.27796692 0.15663296 0.0819728 0.142529 0.21709515 0.24432845
0.30960715 0.25151983 0.107696116 0.102582134 0.20013031 0.38451996 0.06396793 0.044904824
0.22007737 0.11900729 0.23899789 0.12480908 0.066454455 0.23830786 0.15905839 0.10396778
0.13647288 0.101165876 0.1631581 0.07829041 0.113294154 0.10819845 0.10850432 0.10903462
00000000: d50c e23e 1441 043e ae51 8e3e 6464 203e
00000010: 5be1 a73d 1ff3 113e 314e 5e3e 3d31 7a3e
00000020: d484 9e3e 35c7 803e c88f dc3d 9516 d23d
00000030: f6ee 4c3e cddf c43e 9e01 833d 1fee 373d
00000040: f65b 613e 18ba f33d ddbb 743e e79b ff3d
00000050: 4619 883d fa06 743e 34e0 223e 0fed d43d
00000060: 8cbf 0b3e 0e30 cf3d eb12 273e b956 a03d
00000070: c406 e83d 2697 dd3d 8337 de3d 8b4d df3d

net.level2_0.inp_reinf.1.bn.bias f4 [32]
-0.009201432 -0.011183591 0.009105416 0.0011796015 -0.036646415 -0.010968793 -0.011006163 -0.009045523
-0.024620827 0.012284858 -0.010939642 -0.010996192 0.005256624 -0.0021083786 -0.016991757 -0.0079493355
-0.011899286 -0.019705033 -0.03946684 -0.008592012 -0.034807786 0.12338167 -0.09864483 0.006123258
0.004991639 0.0062012877 0.0260422 0.025411215 0.1258139 -0.006446773 -0.01041538 0.044933647
00000000: 9ac1 16bc 613b 37bc e22e 153c dc9c 9a3a
00000010: 8d1a 16bd 74b6 33bc 3253 34bc ac33 14bc
00000020: 9eb1 c9bc 6e46 493c 2f3c 33bc 5f29 34bc
00000030: c23f ac3b b92c 0abb 4c32 8bbc ee3d 02bc
00000040: 39f5 42bc 736c a1bc fba7 21bd 83c5 0cbc
00000050: 9c92 0ebd 87af fc3d 4d06 cabd 9ca5 c83b
00000060: e790 a33b 2c34 cb3b 7456 d53c 2e2b d03c
00000070: 5cd5 003e 743f d3bb 45a5 2abc 580c 383d

net.level2_0.inp_reinf.1.bn.running_mean f4 [32]
0.0019063646 0.008685613 0.0053612064 -0.0045017553 0.0015999534 -0.0148829315 -0.0015635054 -0.0080077695
0.0013367155 0.001398348 -0.0075502605 -0.011742234 -0.0056762877 -0.007082233 -0.017211558 0.0006475537
-0.0020357885 0.017530605 -0.0027712835 -0.0016132611 -0.0093943 -0.0038832354 -0.0019824165 0.0044899886
0.020512225 -0.0012365436 0.0013014459 -0.011853215 -0.015026521 -0.009456732 0.0028207605 0.0035603363
00000000: fbde f93a 1a4e 0e3c 0fad af3b 7683 93bb
00000010: 87b5 d13a 8ad7 73bc 89ee ccba 0533 03bc
00000020: bb34 af3a c648 b73a 2d68 f7bb 8062 40bc
00000030: 2700 babb 1412 e8bb 41ff 8cbc 98c0 293a
00000040: dd6a 05bb 589c 8f3c 6c9e 35bb 0f74 d3ba
00000050: 8dea 19bc e17d 7ebb 6eeb 01bb c120 933b
00000060: 4109 a83c 8513 a2ba 4795 aa3a fd33 42bc
00000070: cc31 76bc 69f0 1abc 82dc 383b 8854 693b

net.level2_0.inp_reinf.1.bn.running_var f4 [32]
0.00037343983 7.931244e-05 0.00010629077 7.2886316e-05 6.77354e-05 0.000119697484 0.0001407276 0.00018751455
7.9820435e-05 0.00011246107 6.0245744e-05 7.793457e-05 6.979181e-05 0.00022871776 0.00017543434 2.3495943e-05
6.0740607e-05 0.000199295 0.0001047826 4.632988e-05 4.969646e-05 0.00020496242 8.037859e-05 5.0860737e-05
0.0002946277 3.717899e-05 0.00010194223 0.00012540632 0.0005863227 0.00015469908 6.81838e-05 0.00012114429
00000000: 3fca c339 8b54 a638 6ce8 de38 8bda 9838
00000010: 2a0d 8e38 1906 fb38 4790 1339 8e9f 4439
00000020: 4565 a738 14d9 eb38 60b0 7c38 ce70 a338
00000030: 315d 9238 f5d3 6f39 ccf4 3739 2719 c537
00000040: bbc3 7e38 d8f9 5039 bbbe db38 5452 4238
00000050: 2b71 5038 2eeb 5639 ed90 a838 4d53 5538
00000060: 4378 9a39 a3f0 1b38 d1c9 d538 817f 0339
00000070: 73b3 193a b836 2239 e6fd 8e38 d80e fe38

net.level2_0.act.weight f4 [32]
0.0032463858 0.003609075 0.0043308805 -0.0019280674 8.0519065e-05 -0.0016748173 -0.0013902645 -6.7973364e-05
-0.008796102 0.00064143556 0.002466389 0.0011110796 -1.9801713e-05 0.0017153651 -0.0031365894 -0.00028633067
-0.023390844 -0.010311705 0.090467446 0.04803515 -0.010714671 -0.00071739696 -0.075454615 -0.0035042993
0.005655911 -0.0042066886 0.0148654645 0.003497691 -0.04760699 -0.022366108 0.008989653 -0.0066567585
00000000: 51c1 543b 3b86 6c3b 0fea 8d3b 35b7 fcba
00000010: 58dc a838 8b85 dbba 8939 b6ba ec8c 8eb8
00000020: 871d 10bc 0326 283a 24a3 213b a5a1 913a
00000030: db1b a6b7 1ad6 e03a 3d8f 4dbb a71e 96b9
00000040: 289e bfbc 6df2 28bc ff46 b93d 81c0 443d
00000050: 968c 2fbc b20f 3cba f387 9abd 63a8 65bb
00000060: 3855 b93b 43d8 89bb 478e 733c 8439 653b
00000070: 8cff 42bd 2139 b7bc 5649 133c f020 dabb

net.level3_0.eesp.proj_1x1.conv.weight f4 [8, 8, 1, 1]
-0.09490872 -0.02752566 0.0045969044 0.03646618 -0.03279771 0.119213365 -0.015342847 0.06429998
-0.03344609 -0.117513135 -0.020070605 0.0101385 -0.028243275 0.058031317 -0.0014713327 0.046484936
-0.022279048 -0.02214804 0.04708057 0.005571375 0.05449527 -0.00014848924 0.009604829 0.0076054404
-0.0198092 -0.060336642 0.042551965 0.009893426 0.062461752 0.008451917 -0.0250282 -0.020103605
-0.07792274 0.053326596 9.0299094e-05 -0.037607368 -0.06277469 0.013583083 -0.022952035 -0.024871964
0.0325319 -0.014342127 -0.04433476 -0.0036211626 -0.0594399 -0.058602184 0.017779907 0.005792864
-0.015238722 0.0012965802 -0.03671119 -0.014409373 0.04151953 0.008104386 -0.009812355 -0.016588824
-0.0379188 -0.049580276 -0.003568206 0.06287548 0.08586046 -0.053406846 0.0926172 0.013724614
00000000: 815f c2bd 7e7d e1bc a1a1 963b 905d 153d
00000010: e456 06bd 2326 f43d 9160 7bbc b5af 833d
00000020: c4fe 08bd baaa f0bd 1c6b a4bc f31b 263c
00000030: 715e e7bc 3fb2 6d3d bcd9 c0ba fd66 3e3d
00000040: 8d82 b6bc ce6f b5bc 8ed7 403d 1590 b63b
00000050: 6f36 5f3d c7b3 1bb9 935d 1d3c 0f37 f93b
00000060: e746 a2bc 8e23 77bd f84a 2e3d 0918 223c
00000070: e5d7 7f3d e979 0a3c f107 cdbc 51b0 a4bc
00000080: f595 9fbd fd6c 5a3d f55e bd38 2f0a 1abd
00000090: 0490 80bd 948b 5e3c e805 bcbc 4ac0 cbbc
000000a0: 2b40 053d 3efb 6abc 5e98 35bd 0751 6dbb
000000b0: 4177 73bd d808 70bd 2ba7 913c 11d2 bd3b
000000c0: d5ab 79bc 03f2 a93a 795e 16bd 4a15 6cbc
000000d0: 6210 2a3d 42c8 043c 00c4 20bc 49e5 87bc
000000e0: be50 1bbd b014 4bbd 90d8 69bb dcc4 803d
000000f0: 9cd7 af3d 23c1 5abd 16ae bd3d 34dd 603c

net.level3_0.eesp.proj_1x1.bn.weight f4 [8]
0.060964454 0.06841188 0.06692573 0.07318617 0.056506243 0.041436102 0.05079877 0.089504465
00000000: ddb5 793d 871b 8c3d 5b10 893d a1e2 953d
00000010: 1773 673d e7b8 293d 5f12 503d 1e4e b73d

net.level3_0.eesp.proj_1x1.bn.bias f4 [8]
0.027507445 0.05843589 -0.00074051984 0.01559823 0.040250197 0.039708056 0.045592148 0.048518404
00000000: 4b57 e13c 795a 6f3d 721f 42ba b88f 7f3c
00000010: 64dd 243d eaa4 223d d5be 3a3d 3cbb 463d

net.level3_0.eesp.proj_1x1.bn.running_mean f4 [8]
0.034716915 -0.0006217288 0.05163982 0.0031577304 -0.003136696 -0.018648505 0.0016821051 0.029859679
00000000: 5333 0e3d 83fb 22ba 4784 533d edf1 4e3b
00000010: 0791 4dbb c0c4 98bc 157a dc3a 499c f43c

net.level3_0.eesp.proj_1x1.bn.running_var f4 [8]
0.0021731607 0.002530603 0.0028078407 0.0022451286 0.00037779033 0.0001787306 0.00018361314 0.00080684066
00000000: 966b 0e3b 79d8 253b c003 383b 0223 133b
00000010: 2912 c639 a169 3b39 4788 4039 2982 533a

net.level3_0.eesp.proj_1x1.act.weight f4 [8]
0.014648563 -0.007833076 0.0062222793 0.015547959 0.0071924957 0.0012717159 0.01808133 0.005679471
00000000: 8700 703c 4d56 00bc 43e4 cb3b debc 7e3c
00000010: 07af eb3b b4af a63a 4c1f 943c db1a ba3b

net.level3_0.eesp.spp_dw.0.conv.weight f4 [8, 1, 3, 3]
-0.027081905 -0.07262306 -0.014160131 0.041201416 -0.039941296 0.028330186 0.027076608 0.03674068
0.08038299 0.039966397 0.040658917 -0.0016561006 0.010413161 -0.015383998 -0.0720558 0.0039029343
-0.046412017 0.0086303735 -0.048698977 0.022290435 -0.050585035 -0.021853486 0.0118223475 -0.003568923
0.06284526 0.023842376 0.031047767 0.008973728 0.029610438 0.000376982 0.01571923 0.04003428
0.01362415 -0.0036823894 -0.03569001 -0.025646912 0.02175064 0.015733184 0.02418681 -0.009213253
-0.027441554 -0.05563496 0.0030159333 -0.017163962 -0.06915174 0.017224086 0.0439888 0.05571412
0.012596191 0.004474328 0.01738761 -0.03120752 -0.04531878 -0.041489106 -0.0032326654 -0.011034908
0.0021134065 0.0125754755 -0.024109995 -0.03311918 0.044690248 0.03107655 0.012753723 -0.023458468
-0.06121953 -0.039690997 -0.0339823 -0.06364965 -0.05116879 0.010902835 -0.020455064 3.467067e-05
00000000: dfda ddbc 66bb 94bd e5ff 67bc d1c2 283d
00000010: 7c99 23bd b514 e83c c3cf dd3c 657d 163d
00000020: d69f a43d ceb3 233d f789 263d 8411 d9ba
00000030: f69b 2a3c 2a0d 7cbc fe91 93bd 5fc8 7f3b
00000040: 871a 3ebd 6966 0d3c 9478 47bd 6e9a b63c
00000050: 4132 4fbd 1506 b3bc 85b2 413c 98e4 69bb
00000060: 04b5 803d 1651 c33c e357 fe3c 8b06 133c
00000070: 9791 f23c aba5 c539 9dc5 803c fcfa 233d
00000080: d437 5f3c 3e54 71bb b02f 12bd 7919 d2bc
00000090: 662e b23c e1e2 803c 6b23 c63c 2ff3 16bc
000000a0: 1ccd e0bc 7ce1 63bd f7a6 453b 709b 8cbc
000000b0: 6d9f 8dbd 8719 8d3c 9a2d 343d 7d34 643d
000000c0: 4160 4e3c 629d 923b 7670 8e3c eaa6 ffbc
000000d0: 2fa0 39bd 7bf0 29bd 20db 53bb c2cb 34bc
000000e0: 1481 0a3b 5e09 4e3c 5382 c5bc faa7 07bd
000000f0: 1f0d 373d 4094 fe3c fef4 503c f92b c0bc
00000100: 54c1 7abd 0793 22bd 0631 0bbd bf5a 82bd
00000110: 5d96 51bd cea1 323c 6191 a7bc 596b 1138

net.level3_0.eesp.spp_dw.1.conv.weight f4 [8, 1, 3, 3]
-0.012060458 -0.011823254 0.004676002 0.018615492 0.029162973 -0.024609026 -0.047263563 -0.013633822
-0.014813734 0.00554288 -0.0028019657 0.00890272 0.015717853 -0.056221377 -0.009587058 0.032548852
-0.018761152 0.030355392 -0.016116258 0.003927792 -0.010981071 -0.01450449 0.031369295 0.015974313
-0.00944677 0.019085262 -0.014439913 0.0014045077 0.013999336 -0.01801793 0.0006970784 -0.05497861
0.021739978 -0.006160701 0.0411516 0.04026442 -0.0037435375 -0.051552024 0.015302969 0.027472492
-0.04060461 -0.0075232424 0.011350886 -0.035557978 0.0066572744 -0.0016864005 0.014045178 0.012933751
0.02610115 -0.034161575 -0.013983131 0.000513281 -0.04633545 -0.006155381 0.018735781 0.06498691
0.019158518 -0.030806925 -0.029777687 -0.014334204 -0.005395116 -0.02717936 -0.004208877 0.01713783
0.041545846 0.044130005 0.024139522 -0.036375523 0.00044049308 0.02535734 0.03680635 0.039984874
00000000: 3a99 45bc 52b6 41bc 2639 993b 847f 983c
00000010: 30e7 ee3c de98 c9bc 7097 41bd 6560 5fbc
00000020: 4eb5 72bc 0ca1 b53b 2fa1 37bb b7dc 113c
00000030: bac2 803c 6348 66bd 0913 1dbc f251 053d
00000040: fdb0 99bc dfab f83c 3e06 84bc b5b4 803b
00000050: f3e9 33bc 3ea4 6dbc 177d 003d 90dc 823c
00000060: a0c6 1abc b258 9c3c 6395 6cbc 7517 b83a
00000070: 795d 653c 579a 93bc 24bc 363a 4031 61bd
00000080: 0a18 b23c b5df c9bb 958e 283d 4eec 243d
00000090: 2356 75bb 3728 53bd 4eb9 7a3c fe0d e13c
000000a0: 0551 26bd 8885 f6bb 11f9 393c 3ea5 11bd
000000b0: 4425 da3b 360a ddba bf1d 663c 15e8 533c
000000c0: 14d2 d53c 02ed 0bbd 8119 65bc b48d 063a
000000d0: 3eca 3dbd 14b3 c9bb c87b 993c db17 853d
000000e0: 53f2 9c3c ce5e fcbc 56f0 f3bc 02da 6abc
000000f0: 83c9 b0bb 40a7 debc 9fea 89bb a264 8c3c
00000100: fa2b 2a3d aac1 343d 3fc0 c53c 80fe 14bd
00000110: fbf1 e639 32ba cf3c 41c2 163d 2ec7 233d

net.level3_0.eesp.spp_dw.2.conv.weight f4 [8, 1, 3, 3]
-0.014917524 0.007247137 -0.026290495 -0.019473637 0.03285188 -0.01965422 -0.018559363 0.029197192
-0.0011208204 0.007054993 0.016022028 -0.056713875 0.053066894 -0.056068353 0.002523572 0.035778943
-0.011241009 0.005789809 -0.007939273 -0.0008042041 0.004725738 -0.0117629925 -0.03923122 0.032140456
-0.0040481784 -0.008075457 0.020078795 0.0065068863 0.0071137715 -0.0004937374 0.021890583 -0.07088992
0.051968094 -0.021275356 -0.0067367884 -0.0098138815 -0.014238672 -0.026631098 -0.0006946921 -0.0032722827
-0.05078366 -0.00075014535 0.0019942257 -0.004920583 0.005542067 -0.014493717 -0.009652057 -0.012002859
-0.012320238 -0.012663817 -0.025548432 -0.003330655 -0.0010111735 0.024614502 -0.016135575 -0.00028471707
-0.005050305 -0.00982821 -0.019034484 -0.021340897 0.0105275875 -0.014599101 0.0030644485 -0.006545361
0.016038746 0.0013494455 0.03610285 -0.03378432 0.047499813 -0.029248279 0.009808377 -0.041181374
00000000: a168 74bc 6479 ed3b 2a5f d7bc 2d87 9fbc
00000010: b18f 063d e301 a1bc ce09 98bc f32e ef3c
00000020: 7ee8 92ba 922d e73b a140 833c cf4c 68bd
00000030: ac5c 593d eea7 65bd 8362 253b f18c 123d
00000040: 362c 38bc 70b8 bd3b b913 02bc 39d1 52ba
00000050: 5dda 9a3b 91b9 40bc eab0 20bd b6a5 033d
00000060: 95a6 84bb ec4e 04bc 497c a43c b837 d53b
00000070: a41a e93b 286e 01ba e153 b33c bc2e 91bd
00000080: 7fdc 543d a849 aebc 47c0 dcbb 67ca 20bc
00000090: 5249 69bc 7629 dabc ff1b 36ba cb73 56bb
000000a0: 8702 50bd 67a5 44ba 8eb1 023b d83c a1bb
000000b0: 3a9a b53b 0e77 6dbc a923 1ebc a4a7 44bc
000000c0: d3da 49bc e67b 4fbc f24a d1bc 1e47 5abb
000000d0: 5a89 84ba 5aa4 c93c c12e 84bc 1446 95b9
000000e0: 077d a5bb 8006 21bc 35ee 9bbc 1bd3 aebc
000000f0: e77b 2c3c 1131 6fbc ead4 483b 787a d6bb
00000100: b063 833c e1df b03a 95e0 133d 6d61 0abd
00000110: 2a8f 423d 169a efbc 51b3 203c cdad 28bd

net.level3_0.eesp.spp_dw.3.conv.weight f4 [8, 1, 3, 3]
0.0032879543 0.0057681273 0.0052338284 -0.039318074 0.06440168 -0.015392836 -0.012092712 0.0136506185
0.0027312527 0.014160716 -0.010283377 0.020810073 0.038030017 0.004715109 0.008869372 0.017721768
0.026583727 0.0483987 0.00041118072 0.0007186705 0.0008440092 0.00085317285 0.001985247 1.5056517e-05
0.0012820052 0.00068024924 0.0014285609 -0.0037313574 0.0017573279 -0.013767801 0.0032408729 -0.007965729
0.006754922 0.007446071 0.011618742 -0.004385559 -0.0022656443 0.006587416 -0.012529764 -0.010335138
-0.0049011437 -0.0132896425 0.0014905718 -0.00156718 -0.004649645 0.021087302 0.008956078 0.004271357
0.0059685917 0.0071407943 0.0053946557 0.023793422 0.024251428 0.005547781 -0.008352098 -0.022387164
0.0015734154 0.010117519 0.00036203384 -0.028507005 -0.013395636 -0.0052867024 0.0002188279 -0.0054270476
0.014587314 0.004245057 -0.0060109133 0.03790827 0.0311301 0.016545642 -0.0036531915 0.031174218
00000000: b87a 573b 8f02 bd3b 8980 ab3b fd0b 21bd
00000010: 07e5 833d 3c32 7cbc 8320 46bc d8a6 5f3c
00000020: d1fe 323b 5902 683c 9c7b 28bc e379 aa3c
00000030: 5dc5 1b3d 3381 9a3b d850 113c 3e2d 913c
00000040: 1ec6 d93c b73d 463d be93 d739 2965 3c3a
00000050: 8040 5d3a 76a7 5f3a eb1a 023b 409b 7c37
00000060: f508 a83a c152 323a 8d3e bb3a ca89 74bb
00000070: 2456 e63a 5892 61bc d364 543b b082 02bc
00000080: 6558 dd3b 2cfe f33b 895c 3e3c bcb4 8fbb
00000090: 347b 14bb 40db d73b a449 4dbc b654 29bc
000000a0: c699 a0bb cdbc 59bc 4a5f c33a d669 cdba
000000b0: 0d5c 98bb 47bf ac3c 84bc 123c bdf6 8b3b
000000c0: 2d94 c33b 53fd e93b a7c5 b03b 6cea c23c
000000d0: eeaa c63c 29ca b53b 3dd7 08bc 4965 b7bc
000000e0: 0f3b ce3a f3c3 253c 5ccf bd39 8687 e9bc
000000f0: 5f79 5bbc 133c adbb 2b75 6539 60d5 b1bb
00000100: a1ff 6e3c 1e1a 8b3b 32f7 c4bb b445 1b3d
00000110: 8d04 ff3c ba8a 873c 626a 6fbb 1361 ff3c

net.level3_0.eesp.conv_1x1_exp.conv.weight f4 [32, 8, 1, 1]
-0.016926901 0.0001933566 0.013320843 0.02160713 -0.03578749 0.024119519 0.0060644425 -0.004172548
0.0067823012 -0.01140271 -0.01192567 0.013853395 -0.01264668 -0.023637708 0.0054123877 -0.030905314
0.009632328 -0.03536767 0.036225732 -0.060709134 0.0044233534 0.038382556 0.020684494 0.026670655
-0.06470003 0.039798096 -0.030766517 0.02234227 0.04033564 -0.0049610953 -0.01982595 -0.0025607462
0.00048469557 -0.009617152 -0.008408503 -0.005991698 -0.026104476 -0.039862946 -0.00080281886 -0.03190183
0.030364694 0.022621611 0.01974452 -0.0030402977 0.016962843 0.014944205 -0.008235951 -0.024591155
0.010510198 -0.0060737487 -0.0052836733 -0.010724906 -0.009101039 -0.008724062 -0.0021347497 -0.019802187
0.042839848 0.039100267 0.009298142 -0.013658218 0.028781975 0.018599631 0.020332256 0.03114216
-0.023314182 0.05873589 -0.0066617187 0.01278635 0.03857032 -0.008123904 0.0075009638 0.009206853
-0.001992264 -0.013422216 -0.015227039 0.03488904 -0.01809819 0.038879447 0.0034886235 -0.02862131
-0.009769556 -0.002767511 -0.0059727165 -0.0004362975 0.007995753 0.0022133493 0.001076653 0.010666888
-0.016892895 0.032854438 -0.022379158 0.0178227 0.015438132 -0.057545424 -0.014113991 -0.0128325755
-0.016402656 0.01800577 0.060275372 0.0092616305 0.03595092 0.021707788 0.0060953684 -0.0008952379
0.028759226 0.004108814 -0.0067841713 -0.013762852 -0.026473653 -0.032549094 0.050078154 0.05674605
-0.022812998 -0.0053354064 0.013031864 -0.019863022 -0.013693607 -0.033326656 -0.03621372 0.004780414
0.0102076065 0.00636978 -0.003696865 0.014413549 0.03484092 -0.005503649 0.017731294 0.055738326
0.018655773 0.033564437 0.006511439 0.014779521 0.038199853 0.018890468 -0.0072394917 0.02986776
0.0024692311 0.049364626 0.014404564 0.038875908 0.012562909 -0.0154848555 -0.0006500376 0.04325369
0.035765596 -0.0033312407 0.009096752 0.026895914 0.03250879 -0.015086598 0.020303346 0.04183076
-0.022258872 0.048809316 -0.037768386 -0.017552046 0.039634287 0.014044702 -0.006382255 -0.003413705
0.02791511 0.008671744 -0.0028236452 0.022103272 0.0071756504 -0.013655261 0.017411064 0.040286403
-0.05940528 0.0012145505 0.008851059 -0.020445935 -0.0013311784 0.0023919316 -0.030375088 0.041312765
-0.022233473 -0.031283446 0.004910766 -0.012346738 -0.008065769 0.00029832497 -0.01093329 -0.024116645
-0.01684327 0.0042358087 0.0006752695 -0.010068427 0.021646231 -0.020516194 0.012789518 -0.015817314
-0.00726881 -0.0032709516 -0.0026270146 0.017727973 -0.0076455367 0.00741142 -0.003255932 -0.025094882
0.02031718 -0.0069329636 -0.0033079751 0.00025673478 0.0031462708 -0.0049694795 0.017592944 -0.01014403
0.04177624 -0.025868112 0.00094599655 -0.0035992202 0.0059 0.033298627 -0.024374943 0.0065485206
-0.024061732 -0.01489463 0.00032303744 -0.024626926 -0.012455585 -0.023901595 0.009828739 -0.042216048
0.003419863 -0.062428325 0.0022475186 -0.0036314512 0.03708252 -0.021339117 -0.025197392 0.003504431
-0.0027833825 0.008853434 -0.008891793 0.026249798 0.0014757899 -0.023531405 0.006666736 0.017465472
0.04073111 0.009394161 -0.0016568885 0.0009613071 -0.003809893 -0.008308214 -0.011151452 -0.012581604
-0.017467935 -0.004670049 0.00019040596 0.013534884 0.00603728 -0.013118604 0.01547419 0.05025027
00000000: 49aa 8abc c4bf 4a39 aa3f 5a3c 7001 b13c
00000010: e795 12bd 4c96 c53c 3bb8 c63b dfb9 88bb
00000020: 113e de3b 6fd2 3abc e363 43bc 5af9 623c
00000030: 0534 4fbc dea3 c1bc 665a b13b 242d fdbc
00000040: e9d0 1d3c b1dd 10bd 6f61 143d 24aa 78bd
00000050: c7f1 903b 0737 1d3d 8772 a93c 6b7c da3c
00000060: 7381 84bd 5403 233d 100a fcbc 2307 b73c
00000070: fc36 253d af90 a2bb 086a a2bc 31d2 27bb
00000080: bd1e fe39 4291 1dbc d1c3 09bc 0156 c4bb
00000090: 0ed9 d5bc 5447 23bd 4374 52ba 7eab 02bd
000000a0: 61bf f83c f550 b93c 42bf a13c bb3f 47bb
000000b0: a9f5 8a3c 8ad8 743c 15f0 06bc 6473 c9bc
000000c0: f732 2c3c 4c06 c7bb aa22 adbb 84b7 2fbc
000000d0: 861c 15bc 5eef 0ebc 28e7 0bbb 3238 a2bc
000000e0: d678 2f3d 9a27 203d 3c57 183c b8c6 5fbc
000000f0: 2dc8 eb3c 415e 983c d58f a63c d81d ff3c
00000100: 62fd bebc 0b95 703d 8c4a dabb d77d 513c
00000110: e9fb 1d3d 1f1a 05bc a5ca f53b 57d8 163c
00000120: a590 02bb dbe8 5bbc d57a 79bc cfe7 0e3d
00000130: a842 94bc 0e40 1f3d 64a1 643b 3d77 eabc
00000140: 7d10 20bc 215f 35bb c7b6 c3bb dcbe e4b9
00000150: 9e00 033c d70d 113b 7b1e 8d3a 2cc4 2e3c
00000160: f862 8abc 6092 063d 7f54 b7bc e900 923c
00000170: 38f0 7c3c c0b4 6bbd 5e3e 67bc b93f 52bc
00000180: dd5e 86bc d680 933c 4fe3 763d 18be 173c
00000190: 4641 133d 88d4 b13c a8bb c73b 66ae 6aba
000001a0: 7898 eb3c 3ba3 863b c14d debb 967d 61bc
000001b0: 46df d8bc 3352 05bd c01e 4d3d 8c6e 683d
000001c0: 53e2 babc a2d4 aebb 9983 553c c7b7 a2bc
000001d0: 275b 60bc 8881 08bd d654 14bd 05a5 9c3b
000001e0: ce3d 273c 96b9 d03b 1a47 72bb ce26 6c3c
000001f0: 5ab5 0e3d f457 b4bb 3841 913c df4d 643d
00000200: fed3 983c dd7a 093d e95d d53b ce25 723c
00000210: 7377 1c3d 2fc0 9a3c 4239 edbb 3cad f43c
00000220: d3d2 213b 9032 4a3d 1f01 6c3c 583c 1f3d
00000230: a9d4 4d3c 31b4 7dbc 4967 2aba c82a 313d
00000240: f27e 123d f250 5abb 8b0a 153c d254 dc3c
00000250: f027 053d c72d 77bc 3453 a63c bb56 2b3d
00000260: 3d58 b6bc 47ec 473d 06b3 1abd 4fc9 8fbc
00000270: 9057 223d c01b 663c 3c22 d1bb 77b8 5fbb
00000280: 3bae e43c ee13 0e3c e80c 39bb ec11 b53c
00000290: b821 eb3b 51ba 5fbc a6a1 8e3c 5b03 253d
000002a0: f352 73bd 8d31 9f3a 0804 113c 3c7e a7bc
000002b0: ef7a aeba f4c1 1c3b 2dd5 f8bc 9337 293d
000002c0: f922 b6bc 1223 00bd 7eea a03b f949 4abc
000002d0: 4a26 04bc 8068 9c39 8b21 33bc 4590 c5bc
000002e0: e6fa 89bc 8acc 8a3b 9204 313a 0bf6 24bc
000002f0: 7053 b13c 9411 a8bc 208b 513c 5093 81bc
00000300: 332f eebb 765d 56bb fe29 2cbb 413a 913c
00000310: 6987 fabb 7fdb f23b 7961 55bb c893 cdbc
00000320: 3770 a63c ea2d e3bb 9dca 58bb 5c9a 8639
00000330: aa31 4e3b 04d7 a2bb 141f 903c 2533 26bc
00000340: 901d 2b3d 5de9 d3bc c1fc 773a e5e0 6bbb
00000350: ca54 c13b 2464 083d f6ad c7bc f994 d63b
00000360: 1c1d c5bc 9b08 74bc 5a5d a939 68be c9bc
00000370: 8312 4cbc 47cd c3bc b808 213c bcea 2cbd
00000380: c81f 603b d8b4 7fbd 1b4b 133b a4fd 6dbb
00000390: d7e3 173d 5fcf aebc c36a cebc 99aa 653b
000003a0: 6969 36bb fe0d 113c e2ae 11bc d109 d73c
000003b0: 4b6f c13a efc4 c0bc a374 da3b c013 8f3c
000003c0: aad5 263d f8e9 193c f42b d9ba 3a00 7c3a
000003d0: 66af 79bb 2d1f 08bc 94b4 36bc 1223 4ebc
000003e0: ea18 8fbc 3607 99bb b6a7 4739 6bc1 5d3c
000003f0: 60d4 c53b 6aef 56bc 7587 7d3c 3ad3 4d3d

net.level3_0.eesp.conv_1x1_exp.bn.weight f4 [32]
0.035216346 0.049831692 0.07592411 0.096362114 0.068102784 0.04338978 0.0262718 0.10205004
0.074279636 0.06983533 0.012852737 0.076683514 0.07948265 0.07567444 0.046631902 0.06139077
0.057792395 0.06572506 0.063862234 0.062782 0.057271473 0.08157842 0.046902798 0.031001905
0.032955408 0.026682332 0.0512594 0.06148016 0.080100775 0.038480096 0.031575363 0.05318837
00000000: 043f 103d 511c 4c3d 1a7e 9b3d 8059 c53d
00000010: 7979 8b3d 7bb9 313d f537 d73c 9dff d03d
00000020: ec1f 983d d305 8f3d 4994 523c 3f0c 9d3d
00000030: cdc7 a23d 33fb 9a3d 1801 3f3d e374 7b3d
00000040: b8b7 6c3d dc9a 863d 34ca 823d d993 803d
00000050: 7e95 6a3d 9612 a73d 261d 403d b5f7 fd3c
00000060: 40fc 063d e894 da3c 60f5 513d 9fd2 7b3d
00000070: e00b a43d 4e9d 1d3d 2b55 013d 0cdc 593d

net.level3_0.eesp.conv_1x1_exp.bn.bias f4 [32]
0.021961765 -1.0114755e-05 0.0032062368 0.0011367943 0.0069449013 0.006446962 -0.0064468994 0.0054765674
0.00030995635 0.010691257 -0.0030792984 -0.013580962 -0.020603446 -0.0009268256 0.01379296 0.032329403
-0.0051681884 0.0022243934 0.009612812 -0.019660499 0.0004733504 -0.01585007 -0.005503968 0.0050850795
0.002017538 -0.010616629 0.015850704 0.010025827 0.018132763 -0.012526425 0.0051693963 0.0115809245
00000000: 29e9 b33c 8bb2 29b7 ba1f 523b 7d00 953a
00000010: 0e92 e33b 0941 d33b 8340 d3bb c774 b33b
00000020: a381 a239 622a 2f3c 0ece 49bb af82 5ebc
00000030: 8fc8 a8bc 37f6 72ba defb 613c d66b 043d
00000040: e859 a9bb 21c7 113b 0e7f 1d3c 0e0f a1bc
00000050: 042c f839 02d8 81bc a15a b4bb bda0 a63b
00000060: ac38 043b 5ff1 2dbc 56d9 813c 5e43 243c
00000070: 298b 943c a23b 4dbc 0a64 a93b ebbd 3d3c

net.level3_0.eesp.conv_1x1_exp.bn.running_mean f4 [32]
-0.00087727344 -0.001186684 0.0002029807 -0.0026770253 -0.0031425275 0.0024612292 -0.0011475423 0.005412698
0.0017234157 -4.6888956e-05 0.0005002251 -0.0038231413 0.0035533893 0.0024135124 -0.0036985364 0.004687808
0.004765793 0.0049803206 0.0038853704 0.0018832723 0.003160361 0.0003808823 -0.0031612683 -0.00073390704
-0.0011535854 -0.00016203613 0.0006141577 -0.004675875 -0.0030533187 0.000939049 -0.0008369506 0.00275119
00000000: d3f8 65ba 828a 9bba 37d7 5439 0871 2fbb
00000010: ddf2 4dbb 934c 213b 2169 96ba 005d b13b
00000020: 3ce4 e13a a2aa 44b8 8a21 033a ab8d 7abb
00000030: fbdf 683b 052c 1e3b 2563 72bb 2f9c 993b
00000040: 5f2a 9c3b f531 a33b b3a1 7e3b 22d8 f63a
00000050: 0f1e 4f3b 28b1 c739 482d 4fbb ab63 40ba
00000060: e733 97ba 3ee8 29b9 6dff 203a 1538 99bb
00000070: 301a 48bb 832a 763a ce66 5bba 4f4d 343b

net.level3_0.eesp.conv_1x1_exp.bn.running_var f4 [32]
4.6854598e-06 4.878927e-06 9.965688e-06 1.365957e-05 6.915106e-06 2.16367e-06 1.4027546e-06 1.4141653e-05
1.02095255e-05 9.061607e-06 4.4732747e-07 5.038285e-06 9.912719e-06 1.3408219e-05 2.3381765e-06 1.426024e-05
1.2249883e-05 1.4144569e-05 1.7074339e-05 8.920548e-06 9.939033e-06 1.0081428e-05 6.668672e-06 1.4734258e-06
7.1225514e-07 1.2294643e-06 4.5374295e-06 2.194852e-06 7.958323e-06 1.3453036e-06 2.299493e-06 2.571817e-06
00000000: cb37 9d36 aab5 a336 4e32 2737 682b 6537
00000010: 4f08 e836 9133 1136 4846 bc35 f041 6d37
00000020: 9449 2b37 4e07 1837 3828 f034 8a0e a936
00000030: ce4e 2637 ddf3 6037 91e9 1c36 443f 6f37
00000040: d984 4d37 764e 6d37 dd3a 8f37 76a9 1537
00000050: d2bf 2637 6723 2937 75c3 df36 86c2 c535
00000060: cd31 3f35 1204 a535 3940 9836 454b 1336
00000070: bd84 0537 4890 b435 fd50 1a36 7b97 2c36

net.level3_0.eesp.br_after_cat.bn.weight f4 [32]
0.051823817 0.07239628 0.049914632 0.04350408 0.056937758 0.06047827 0.028796433 0.0427511
0.046246868 0.06070781 0.06491198 0.044250105 0.06953101 0.04641894 0.05257162 0.053151134
0.08042787 0.06775927 0.040115066 0.072449155 0.060279224 0.03756401 0.036351677 0.06896489
0.06651904 0.06813245 0.008096954 0.0315309 0.022705274 0.03331449 0.028130136 0.032370962
00000000: 3645 543d 8044 943d 4973 4c3d 5631 323d
00000010: 9137 693d 10b8 773d 7fe6 eb3c c71b 2f3d
00000020: 5b6d 3d3d c1a8 783d 92f0 843d 993f 353d
00000030: 4666 8e3d c921 3e3d 5755 573d 01b5 593d
00000040: 5eb7 a43d 5fc5 8a3d b24f 243d 3960 943d
00000050: 59e7 763d b8dc 193d 7fe5 143d 773d 8d3d
00000060: 223b 883d 0789 8b3d 16a9 043c 8c26 013d
00000070: 6900 ba3c c674 083d 2c71 e63c 6a97 043d

net.level3_0.eesp.br_after_cat.bn.bias f4 [32]
0.066038445 -0.018415645 0.022345446 0.04796075 0.03171784 0.0044896794 0.0039692754 0.03806767
0.025234437 0.006342301 0.019419245 9.632516e-05 0.010598606 0.052255303 0.01782605 0.055473793
-0.010348189 0.023536185 0.0056830333 0.0011184484 0.016961241 0.012004479 0.004949375 0.043643534
-0.017839849 0.022590669 0.004433293 0.020730201 0.026406256 0.043428864 0.03353192 0.053018887
00000000: 2a3f 873d 68dc 96bc cc0d b73c 7e72 443d
00000010: 91ea 013d 291e 933b b210 823b d8ec 1b3d
00000020: 73b8 ce3c 14d3 cf3b 1c15 9f3c 2d02 ca38
00000030: c7a5 2d3c a809 563d f007 923c 7d38 633d
00000040: 738b 29bc f5ce c03c bd38 ba3b e798 923a
00000050: 4df2 8a3c 6fae 443c 5e2e a23b 90c3 323d
00000060: e024 92bc 1110 b93c 2845 913b 62d2 a93c
00000070: ef51 d83c 77e2 313d c458 093d 552a 593d

net.level3_0.eesp.br_after_cat.bn.running_mean f4 [32]
0.0025544974 -0.0019352975 0.0006250285 0.001871617 -0.005781744 0.00074983167 0.0014082452 -0.020162052
-0.0001991665 -0.0019306458 0.00044707666 0.0035346805 -0.009981843 -0.0012856101 0.0006111699 -0.0072509223
-0.0015243387 -0.0027817423 2.5965152e-05 0.0026582712 -0.014779195 -0.0039399867 -0.0032859677 -0.0070599406
-0.0005212166 0.0075299204 0.00025180244 0.0025985388 -0.017053444 -0.0001603537 -0.0067874673 0.0020677326
00000000: 5b69 273b cfa9 fdba f4d8 233a 0c51 f53a
00000010: c974 bdbb 5a90 443a de94 b83a e32a a5bc
00000020: 5ad7 50b9 b90d fdba 9d65 ea39 19a6 673b
00000030: e28a 23bc eb81 a8ba eb36 203a 2599 edbb
00000040: 52cc c7ba e44d 36bb bdcf d937 6436 2e3b
00000050: 7024 72bc 011b 81bb 6459 57bb 1357 e7bb
00000060: 41a2 08ba 8dbd f63b 5a04 8439 3f4c 2a3b
00000070: aab3 8bbc 9e24 28b9 6769 debb cc82 073b

net.level3_0.eesp.br_after_cat.bn.running_var f4 [32]
3.430176e-05 1.2353255e-05 5.4804195e-06 5.0567824e-06 8.269547e-06 1.1833698e-05 2.3409314e-06 0.00012543127
3.0464804e-05 2.3036762e-05 5.9772474e-06 1.2650355e-05 1.9655034e-05 1.9700245e-05 6.3765096e-06 3.860845e-05
3.434257e-05 3.5016463e-05 6.4983224e-06 9.2061155e-06 4.0013318e-05 2.6735126e-05 9.221927e-06 3.5227036e-05
3.9210372e-05 4.7686855e-05 6.5173404e-06 9.14649e-06 5.0254846e-05 2.1657386e-05 1.35642995e-05 2.047147e-05
00000000: 3cdf 0f38 d440 4f37 72e4 b736 6ead a936
00000010: 6fbd 0a37 5989 4637 e518 1d36 3386 0339
00000020: ab8e ff37 123f c137 2a90 c836 dc3c 5437
00000030: dde0 a437 f441 a537 cdf5 d536 82ef 2138
00000040: 0e0b 1038 a4de 1238 2a0c da36 f773 1a37
00000050: f9d3 2738 3f45 e037 e0b7 1a37 bec0 1338
00000060: d175 2438 5f03 4838 87af da36 e073 1937
00000070: bbc8 5238 e2ac b537 3992 6337 26ba ab37
