data/Trackingff.pth (torch_old, 503778 bytes, 365 tensors)

net.level1.conv.weight f4 [16, 3, 3, 3]
000000 da e1 0c 3d 5e 7b ad 3b 24 c0 a8 3b cc b3 a2 3c
       0.034395076 0.0052942475 0.005149858 0.019861124
000010 6a 1a bd bb 20 78 61 3b 36 82 ba 3c d0 fe c0 3c
       -0.005770971 0.0034403875 0.022767168 0.023559004
000020 01 5f f1 3c 7b 94 92 3b 90 a6 fe 3b ac 43 b6 bc
       0.029464247 0.0044732667 0.0077713206 -0.022249065
000030 be 9b 4c 3c 4a 05 0e 3c 69 90 0c bc 0e 43 bb 3c
       0.012488304 0.008668253 -0.008579352 0.022859123
000040 8d 29 e1 3b 3f 56 09 3d 74 c5 bb 3c 1f 03 81 3c
       0.0068714083 0.033529516 0.022921301 0.015748559
000050 f4 da d3 3c d6 f7 3e 3d 2c 7c a5 3c 48 aa 06 3d
       0.02586124 0.046623074 0.020200811 0.032877237
000060 5c 98 af 3c 22 39 0e 3d 60 61 3c 3d 0b 8e a3 3d
       0.021434955 0.034722455 0.0459913 0.07986077
000070 53 5a 2a 3e 7e 0a 51 3d 0c 81 88 bc 3a 80 bc 3d
       0.16636018 0.051035397 -0.016663097 0.09204145
000080 8e 8c 40 3d 98 1d 8f 3d 7b 91 73 3d 99 ab 3b bd
       0.047009043 0.069880664 0.059464913 -0.045817945
000090 45 61 0f be 09 ca 68 bd ef cb b4 bd 71 35 40 3d
       -0.14001949 -0.0568333 -0.0882796 0.046925966
0000a0 ae 21 ba bd a8 d5 ac bd 27 fe 4b bd 49 4f b2 bc
       -0.09088455 -0.08439189 -0.049802925 -0.021766322
0000b0 38 fc f2 bd bf b0 80 3d 36 af 18 bd 55 83 6a 3d
       -0.11864513 0.06283712 -0.03727647 0.057254154
0000c0 35 85 94 3c 46 89 d8 3d 83 ad e1 3d f6 2f c8 bc
       0.018129924 0.10573058 0.11019423 -0.024436932
0000d0 0b 1c bf 3d 8f cb 27 3e 7a 2e 21 3d c8 07 10 3d
       0.09331521 0.16386245 0.039350964 0.03516367
0000e0 23 18 a4 3c 50 90 95 3d 3c 59 1b 3d 0b 1d 3a bc
       0.02003104 0.07302916 0.037926897 -0.011359463
0000f0 b4 b6 bc ba f6 23 f9 3c 7e 43 99 bc 66 83 53 bd
       -0.0014397711 0.030412655 -0.01870894 -0.051638983
000100 29 f5 6e bd 11 07 85 bd ae 39 92 3c c9 26 2b 3d
       -0.05833927 -0.064954884 0.01784977 0.041785035
000110 73 3e e0 bb 2a 91 1a 3c 4f cd d0 3b 6d 76 9c bd
       -0.006843382 0.009434024 0.006372131 -0.076397754
000120 0e 47 95 bd 6f 59 2c bd 8d 2d 17 bd ec 33 6f bd
       -0.07288943 -0.042077478 -0.036908675 -0.058399126
000130 9c 54 16 bd b3 58 7b bd 8c 2e 25 bd 18 aa d5 bc
       -0.036701784 -0.061363887 -0.040327594 -0.026082084
000140 06 89 6e bd 18 d0 86 bb 53 47 04 3d cd c9 58 bc
       -0.058236144 -0.004114162 0.032294583 -0.013231707
000150 ef f6 8c 3d 40 11 90 3d 9a bc 3f 3d 5a 7f 85 3d
       0.06883036 0.0703454 0.046810724 0.06518431
000160 20 16 01 3d fe 9e 7d 3d 6c 30 c8 3c 09 4a 59 3d
       0.03151524 0.061919205 0.024437152 0.05304912
000170 fe 8f 29 bb 3f 88 80 3d 1e 05 a7 3c 62 78 20 3d
       -0.002587318 0.06275987 0.020388182 0.039177306
000180 f3 f3 9a bd a2 32 35 3d 31 22 3a bc 79 67 a6 bc
       -0.07566061 0.04423774 -0.011360691 -0.020313011
000190 34 0b dc 3c 64 89 67 bd ec d0 27 bc fe c2 11 3d
       0.02686081 -0.05652751 -0.010242682 0.03558635
0001a0 3a a3 2b 3b 1a 1e bb bb 66 3a 5a bc 18 1d e7 3b
       0.002618982 -0.0057103755 -0.013319587 0.007053029
0001b0 c3 c6 c6 3c 11 55 d4 bd e3 c0 6b bd 2f 1d b5 bd
       0.024264699 -0.10367788 -0.057556998 -0.08843457
0001c0 98 18 3a be 61 d0 82 bd ac 1b 16 3d db de b4 bd
       -0.18173444 -0.06387401 0.036647484 -0.08831569
0001d0 20 83 06 bd 20 87 83 3d ef af ba 3d 34 98 d5 3d
       -0.032839894 0.064222574 0.09115588 0.10429421
0001e0 37 d9 ac bb 30 66 41 3d 88 ea 7a 3d 82 4f fb 3d
       -0.0052749175 0.047216594 0.061258823 0.12271024
0001f0 07 59 6d 3d bf 48 1b 3e be 6f 17 3d 0c f3 36 3c
       0.05794623 0.15164469 0.0369718 0.011166345
000200 17 13 c5 3d 8e 44 73 3d 08 0c 0c bd ad b4 39 3a
       0.09622782 0.05939155 -0.03419116 0.0007084113
000210 f6 f5 95 3d 69 92 9f bc ff f3 38 3c ba 38 09 bc
       0.07322304 -0.019478993 0.011288642 -0.008375341
000220 37 5c eb 3c 76 13 8c 3c f6 2d 90 3c 17 df 8e 3d
       0.028730495 0.017099123 0.01760004 0.06976145
000230 46 35 77 3d 2a 7d ec bb 31 ec 81 3d 98 64 77 3d
       0.06035354 -0.007217069 0.06343878 0.060398668
000240 d9 36 e1 bc 83 23 48 3d 27 44 1d 3d 5f 8c 9e 3b
       -0.027491974 0.04886199 0.038395073 0.004838511
000250 ab 65 4d 3d 29 3b 79 3d 8c 82 6f bb 82 d3 a1 3d
       0.050145786 0.060847435 -0.0036546318 0.0790167
000260 4b cf d3 3d f8 6c ce 3c 9c 8f b2 ba 49 d4 0b bc
       0.10342272 0.025198445 -0.0013623121 -0.008534499
000270 15 30 82 bd ab 63 46 bc 8a 4c 30 bd 42 73 a1 3c
       -0.06356827 -0.012108724 -0.043041743 0.01970828
000280 cc 54 b5 bc 44 b1 20 bc ad 9d 06 be f0 bb 14 bd
       -0.02213516 -0.009807888 -0.13146086 -0.036312044
000290 ae 84 32 3d 68 38 10 bc 4f 92 8e 3d d3 3e 6b bd
       0.043583564 -0.008802511 0.069615 -0.05743296
0002a0 7d 6e 8e bd b7 d0 e4 3b 24 d0 51 3c a8 39 d3 3d
       -0.06954668 0.0069828886 0.012805972 0.103137314
0002b0 8f 59 20 bb 87 36 21 3e 05 df af 3c c4 f4 5d 3e
       -0.0024467444 0.15743457 0.021468649 0.21675402
0002c0 ee d0 fb 3d ad 90 c1 3d c8 f2 16 3e 8d 0a 29 3e
       0.122957096 0.09451423 0.14741051 0.16507931
0002d0 f8 05 b4 3c 57 e5 c8 bd f1 c7 1e be 08 02 b6 bd
       0.021975502 -0.09809368 -0.15505959 -0.08887106
0002e0 d3 6b d6 bd 2a 0e b6 bd 24 4e 8b 3d 8d 7e e5 bd
       -0.104697846 -0.0888942 0.068020135 -0.11205778
0002f0 4b 69 00 be 17 e0 bc bd cc 33 6a bd 7f f9 a4 bd
       -0.12540166 -0.09222429 -0.057178304 -0.080554
000300 d8 7c 1c bd 52 82 7f bd b1 9a 12 bd cf c8 11 b9
       -0.038204998 -0.062380143 -0.035792056 -0.00013903085
000310 d6 6f b0 bb 3e 59 48 be ce 23 d5 3d 44 bb c4 3d
       -0.0053844256 -0.19565293 0.1040722 0.096060306
000320 ed 5a 81 3d b6 50 ae 3d 07 2f 72 3d d2 ab 3e 3e
       0.06316171 0.08511488 0.05912688 0.18620232
000330 65 86 34 bb 1c aa cf 3d fb e4 5e 3d 86 c7 af 3d
       -0.0027545926 0.10139868 0.05441759 0.08582978
000340 72 56 2d bd 98 92 00 3d e3 5a 17 bd 34 0d 37 3d
       -0.04231877 0.031389803 -0.03695191 0.044690326
000350 c4 cf f3 3d 5f d9 b5 bd 5a 07 63 3d bb dc ed bc
       0.119048625 -0.08879351 0.055426933 -0.029035917
000360 65 1a 65 3d 66 95 94 3d f3 a5 1b 3d 5b 43 e0 3d
       0.055933375 0.07255058 0.03800006 0.10950347
000370 e3 97 9a bc a6 47 87 3d c2 5e 18 3d 0c 1f 91 3c
       -0.018871253 0.06605463 0.037199743 0.017715
000380 b1 c6 d5 3c 0c cd 8f bd 0f 9b fb bd 65 fd d7 bd
       0.02609572 -0.070215315 -0.122854345 -0.10546378
000390 17 35 e5 bd 88 44 f8 3a 41 99 cc bd ce 27 c0 bd
       -0.11191767 0.0018941322 -0.09990168 -0.09382592
0003a0 19 6d 3f bc 54 62 da bd 73 e2 36 3c 52 c8 2d 3d
       -0.011683726 -0.10663286 0.011162388 0.04242737
0003b0 83 6b 1a 3d 73 fc 23 bd ee ba 1a 3d d4 c4 76 3b
       0.037700187 -0.040035676 0.037775926 0.003765394
0003c0 27 1f a3 3d c3 a5 95 bd 98 b6 8a bd 99 31 b2 bc
       0.07964926 -0.07307007 -0.06773108 -0.021752166
0003d0 0d 3d 17 bc 24 d8 1d 3c 7e ff eb bb 3a 08 7a 3c
       -0.009230864 0.0096340515 -0.007202088 0.01526075
0003e0 9e 44 2d bc c3 51 0e 3c 2f f8 19 bb 19 eb e2 bc
       -0.010575442 0.008686486 -0.0023493876 -0.027699994
0003f0 ec 28 70 bd d5 27 7d bd ed 98 3c bd 1e db 1b bc
       -0.058632776 -0.061805565 -0.04604428 -0.009512691

net.level1.bn.weight f4 [16]
000000 f3 03 94 3e 42 04 20 3f 1b e9 ac 3e 9e 00 5b 3e
       0.28909263 0.62506497 0.33771595 0.21386954
000010 6f 62 2a 3f 72 a3 1c 3f cd b7 22 3f de cc da 3e
       0.6655645 0.611869 0.6356171 0.42734426
000020 75 65 c0 3e a4 b3 dc 3e 37 13 bb 3e 04 df 33 3e
       0.37577406 0.43105805 0.36538097 0.17565542
000030 ec ec da 3e 35 76 e5 3e e3 fc da 3e 0b 1c 23 3f
       0.42758882 0.44816747 0.42771062 0.63714665

net.level1.bn.bias f4 [16]
000000 f3 4f 7e be 96 34 a8 3e 25 cb d6 3e 43 be 4a 3f
       -0.24835186 0.3285262 0.41951862 0.79196566
000010 73 72 37 3f d9 a3 e8 3e c1 eb 49 3f ab 05 34 3f
       0.7165901 0.45437506 0.78875357 0.7032115
000020 0b 1d 82 be 58 8f ac 3e 80 7e 05 3f 87 a2 43 3f
       -0.25412783 0.33703113 0.5214615 0.7641987
000030 41 a6 28 bd fb 2a 82 bd 04 34 aa 3e a3 8f a0 3e
       -0.041174177 -0.06355854 0.3324281 0.31359586

net.level1.bn.running_mean f4 [16]
000000 71 ed d8 3e 97 40 af 3e 83 bf c4 be 76 12 df 3e
       0.42368653 0.34228966 -0.38427362 0.43568772
000010 63 98 d9 3e 33 53 0d 3f 39 af a5 3e 3d 07 da 3e
       0.42499074 0.55205077 0.32360247 0.42583647
000020 ad 2c ba be e7 5f 0f bf 54 e0 ee be 92 4f 52 3e
       -0.3636221 -0.5600571 -0.46655524 0.20538166
000030 43 fc 57 bc b5 23 c9 3d 95 ff 02 bf 27 91 4e bd
       -0.0131827025 0.09821264 -0.5117124 -0.050431397

net.level1.bn.running_var f4 [16]
000000 58 2c 49 3e e1 ea 6c 3e 44 a1 09 3e d2 6a 5d 3e
       0.19645822 0.23136474 0.13440424 0.2162278
000010 22 1b e3 3d 03 51 a0 3e 0f 8c 90 3d af 80 e6 3d
       0.110891595 0.31311807 0.07057964 0.11255013
000020 0b ff 9d 3d f0 aa 97 3e 0b 3f 8a 3e 8c cc 68 3d
       0.07714661 0.29622602 0.27001223 0.056835696
000030 ef 38 8a 3c 31 ff 0f 3d 1b 02 8f 3e cd 2d 2c 3d
       0.016872851 0.03515548 0.27931294 0.042035867

net.level1.act.weight f4 [16]
000000 de d6 88 3e f2 d0 05 be f1 81 df ba f1 fc ce 3c
       0.2672643 -0.13067988 -0.0017052275 0.025267096
000010 a4 b0 b8 3d 25 ae 36 3d 6b b9 d3 3d 53 dd 09 3d
       0.090180665 0.04459967 0.103381 0.033658337
000020 0f 8e a7 3d 68 d3 40 bc fd 2e 12 39 d3 02 96 3b
       0.081813924 -0.011769153 0.0001394115 0.0045779734
000030 39 31 2a be b9 19 43 3d e3 50 b4 bc 81 a5 40 be
       -0.1662034 0.047631953 -0.022011226 -0.18813135

net.level2_0.eesp.proj_1x1.conv.weight f4 [4, 4, 1, 1]
000000 16 5f 4e 3e 9a 09 7b be b0 0c 16 be b0 9b 59 be
       0.2015346 -0.24515381 -0.14653277 -0.21250796
000010 85 82 a4 be 74 89 e9 3e bd f8 e8 3d f6 ef 47 3e
       -0.32130828 0.4561268 0.11375568 0.19525132
000020 eb 9a c5 3c 3b 56 03 3d fa 89 e0 3d 65 11 08 bc
       0.024121722 0.032064658 0.10963817 -0.008304928
000030 bc ad ab 3c 36 32 e9 bd e2 75 01 be ef 10 8e be
       0.020956866 -0.1138653 -0.12642625 -0.27747294

net.level2_0.eesp.proj_1x1.bn.weight f4 [4]
000000 33 1e e3 3d 5b 5b fd 3d 5f ce 9b 3d 93 bc 52 3d
       0.110897444 0.1237094 0.076077215 0.05144937

net.level2_0.eesp.proj_1x1.bn.bias f4 [4]
000000 69 5e bc bd 40 0f b6 bc 4e 92 0b 3d 0f 57 a3 bd
       -0.09197695 -0.022224069 0.034075074 -0.079755895

net.level2_0.eesp.proj_1x1.bn.running_mean f4 [4]
000000 35 5b b8 be 1f 67 75 3e 47 ae 81 3d b2 33 3b be
       -0.36007085 0.23965119 0.06332069 -0.18281439

net.level2_0.eesp.proj_1x1.bn.running_var f4 [4]
000000 55 e7 af 3b 38 a8 cb 3c 93 e7 5d 3b e8 76 9c 3c
       0.005368153 0.024860486 0.0033859953 0.019099668

net.level2_0.eesp.proj_1x1.act.weight f4 [4]
000000 07 97 53 3e f4 cf f9 3c 66 a2 56 3c bc c8 74 3e
       0.20663081 0.030494668 0.013100242 0.23904699

net.level2_0.eesp.spp_dw.0.conv.weight f4 [4, 1, 3, 3]
000000 16 cb 30 3e 57 30 60 bd ac f5 be bc 88 8f 0d 3d
       0.17264971 -0.0547336 -0.023310505 0.03456071
000010 76 be f2 bb 98 dc 9a bd 6a 56 60 bd 9e cf d4 bd
       -0.0074079586 -0.07561606 -0.05476991 -0.10391162
000020 f7 6f 16 3c e7 c3 0b 3d 99 de 53 3d 1b a7 97 3d
       0.009181968 0.034122374 0.051725958 0.0740492
000030 9d ee 47 3d 16 0f 94 3d de 02 a4 3d 6e d4 b4 3d
       0.048811544 0.0722944 0.080083594 0.0882958
000040 87 d1 66 bd 0a 84 04 3e a9 59 35 3c 6f fc c8 3c
       -0.056352165 0.12940994 0.01106874 0.024534432
000050 bf 84 8e bd 57 12 54 be f9 a3 86 3e 1f 2a 4a be
       -0.06958913 -0.20710121 0.26296976 -0.1974263
000060 df 49 b5 bc 28 49 e6 3b b6 6e ee 3d 02 14 9a bd
       -0.022129951 0.007027764 0.1164221 -0.075233474
000070 a7 93 fb bd 52 2b 00 3d 24 98 82 bc 24 0f 1c be
       -0.12284022 0.031291313 -0.015941687 -0.1524015
000080 bc d8 18 be fe 11 56 3d ab f3 64 bd 5b 4d e2 bd
       -0.14926428 0.052263252 -0.055896442 -0.11049911

net.level2_0.eesp.spp_dw.1.conv.weight f4 [4, 1, 3, 3]
000000 7a e5 17 bd 48 f2 11 3b 47 9b 16 bd f6 b9 2e 3d
       -0.03708408 0.0022269655 -0.036769178 0.042657815
000010 11 a7 06 be c0 79 a2 3d 43 99 40 3c bc 54 f6 3b
       -0.13149668 0.07933378 0.01175529 0.0075174253
000020 39 10 ee bd 1f df 54 3e 2f fb 84 3d aa 2b 53 be
       -0.11624188 0.20788239 0.06493222 -0.20622125
000030 45 7c a6 3d ff d0 70 3d 11 15 ba ba 62 33 07 bd
       0.08129171 0.058793064 -0.0014196952 -0.033007987
000040 e3 ed 5e bd 52 fa a3 3d b4 24 b9 bb 92 a6 97 bc
       -0.054426085 0.08006729 -0.0056501273 -0.018512044
000050 98 2b 37 bc c4 03 87 bd f0 5c e0 bd d5 fe 9c bd
       -0.011179827 -0.06592515 -0.109552264 -0.07665793
000060 37 c3 66 3d 43 3f 53 3d 51 45 31 3e 53 19 32 3d
       0.056338515 0.051574003 0.17311598 0.043481182
000070 49 d0 b3 bc a0 da 09 3d 64 52 8a 3d 46 68 e9 bd
       -0.021949904 0.033655763 0.06753996 -0.11396842
000080 d7 bc 8f bc 3e 1a 7f 3d d8 7e 9f bc 54 ae f5 bc
       -0.0175461 0.062280886 -0.019469664 -0.029990353

net.level2_0.eesp.spp_dw.2.conv.weight f4 [4, 1, 3, 3]
000000 28 28 a9 bd 79 94 3f bd c4 16 e8 bd 8a fd 9a bc
       -0.08259612 -0.046772454 -0.11332467 -0.018919725
000010 25 54 14 3d 97 4b 23 3d 6e 4a d5 bc 69 cd b7 3d
       0.03621306 0.03986701 -0.026036467 0.08974726
000020 a5 d3 19 3d 17 af a5 bd 55 1a 96 bc 7f a0 80 3d
       0.037555356 -0.08090036 -0.018323103 0.06280612
000030 93 ca a4 3c 5b 2c fb 3c ee 54 0c bd 6f b1 85 3c
       0.020116126 0.030660799 -0.034260683 0.016319958
000040 66 b6 b4 3c 4c 3d 12 3d 01 86 44 3a f7 39 8e bc
       0.02205963 0.03570299 0.0007496775 -0.017361624
000050 26 e0 00 bd 5c d5 37 bc 45 3a 0d bb ce ba f8 ba
       -0.031463765 -0.011220302 -0.0021549624 -0.001897657
000060 ed 86 a3 bc 86 4a e1 3a f7 f1 1f 3d 10 a8 25 bc
       -0.019961799 0.0017188347 0.039049115 -0.01011087
000070 11 c0 0c 3e 7a e3 44 bb 81 10 34 3e 56 aa 3e bd
       0.13745143 -0.0030042813 0.1758442 -0.046549164
000080 7a bb 1d bb 0d a7 86 bc 6c 6b 02 bd 69 e3 c6 3d
       -0.0024068044 -0.016437078 -0.031840727 0.09711344

net.level2_0.eesp.spp_dw.3.conv.weight f4 [4, 1, 3, 3]
000000 b3 37 35 bc 04 50 6a bd 62 ff 46 bd 02 b8 06 bd
       -0.011060643 -0.057205215 -0.048583396 -0.032890327
000010 06 df 46 3b e0 13 52 bc 82 c2 2d bd 9b 85 f2 bb
       0.0030345335 -0.012822121 -0.042421825 -0.007401181
000020 f9 f4 8f bc 47 0f da 3c a4 35 f8 3b a5 9f b6 bc
       -0.017572867 0.026618613 0.007574754 -0.022292921
000030 db 87 9a bb 9a be 67 3d 63 00 3e 3d 8f 6d ed bd
       -0.0047159023 0.056578256 0.046387088 -0.11593162
000040 29 6b aa bc c9 a1 16 3c 1a ef bd 3a 11 50 12 ba
       -0.020803051 0.009193846 0.0014490813 -0.0005581389
000050 a3 d4 e4 ba ad 80 18 bb 2b b4 20 bb cf b7 bf bb
       -0.001745839 -0.0023270056 -0.002452145 -0.005850769
000060 4f a4 f7 3b 51 31 db ba 7a e2 25 bc b2 28 d0 3b
       0.007557429 -0.0016723071 -0.010124797 0.0063525075
000070 e2 2b 62 3d c2 67 82 3c 31 98 e9 3d ce aa cc bc
       0.05521763 0.015918616 0.11405981 -0.02498379
000080 f1 7c fe 3a a7 f4 8b 3d cb 67 7d bc 15 0d d7 3d
       0.0019415898 0.06833773 -0.015466641 0.10500542

net.level2_0.eesp.conv_1x1_exp.conv.weight f4 [16, 4, 1, 1]
000000 50 2a 95 3d 5a c3 07 bc db c3 c2 3d f4 f8 e1 bb
       0.07283461 -0.008286322 0.09510013 -0.0068961326
000010 df 12 64 bd 93 6c f4 bd da 37 ca bc 44 75 ff 3d
       -0.05568206 -0.119347714 -0.024684835 0.124735385
000020 20 f9 3b 3c bb f5 2d 3c b5 63 e9 3b e6 51 1c be
       0.01147297 0.010617669 0.0071224817 -0.15265617
000030 2e 03 a1 3d 20 14 65 bc bd d1 04 3e dc 85 60 3c
       0.078619346 -0.013981849 0.12970634 0.01370379
000040 c5 ec 46 be 5d 9f 0d 3d bf c5 8c bd c3 2a db 3d
       -0.19426258 0.03457581 -0.068736546 0.107015155
000050 f7 e0 2d 3a b1 8a 68 bb 89 04 ed b9 cc a4 90 39
       0.00066329486 -0.0035483057 -0.00045207542 0.00027588604
000060 40 a4 a9 bd 2c 35 a7 ba 81 df 26 3e f7 51 b9 bd
       -0.08283281 -0.0012756935 0.16296197 -0.09048837
000070 ce 4a 8f 3d 29 40 83 bd 7f 51 87 3d 53 48 83 3d
       0.0699669 -0.06408722 0.06607341 0.06410279
000080 29 d1 4d bd dc 33 f5 3d f4 d9 a2 3b 3e 83 b9 bd
       -0.0502483 0.11972782 0.0049698297 -0.090582356
000090 c3 3c e3 bd ff 65 8c 3d 1b 2e 89 bb c6 ea 14 be
       -0.11095574 0.06855392 -0.0041864044 -0.14542684
0000a0 bd 02 aa bd b2 07 e1 bc 83 80 54 bd dd 94 d2 bd
       -0.083013035 -0.02746949 -0.05188037 -0.102823
0000b0 35 ee 89 bd 7c 4d 7a bd cd 5d 73 3c ca d3 85 3d
       -0.067348875 -0.06110905 0.014853907 0.06534536
0000c0 9e 2d 08 be ee 22 ef 3d 46 14 f2 b9 e7 53 96 bd
       -0.13298652 0.11676584 -0.00046172942 -0.07340222
0000d0 ce 26 f5 3d b5 59 57 be 1c 9a 89 3c f7 ab 13 3e
       0.11970292 -0.21030314 0.016797118 0.14421068
0000e0 86 b8 81 3d 62 ce 12 3e e3 cc 8b bc b5 68 0a 3e
       0.06334023 0.14336541 -0.017065471 0.13516505
0000f0 cd b3 a2 bd 02 de 9b 3d a8 af 5b ba 43 bb ce bd
       -0.079444505 0.07610704 -0.0008380362 -0.10094311

net.level2_0.eesp.conv_1x1_exp.bn.weight f4 [16]
000000 d0 8d 28 3e da 06 a0 3d 8b eb 45 3e 3c 22 3d 3e
       0.16460347 0.07813807 0.19328134 0.1847009
000010 bc c5 4f 3e 81 0d 48 ba 9a 63 28 3e ee bb 43 3e
       0.20290273 -0.0007631407 0.16444245 0.19114658
000020 f8 9c 3d 3e e3 7b 7f 3e af d0 83 3e a8 0e ff 3d
       0.1851691 0.24949603 0.2574515 0.12453967
000030 af b3 88 3e 64 68 c3 3e 1f 95 bf 3e 37 76 00 3e
       0.26699588 0.3816558 0.37418458 0.12545095

net.level2_0.eesp.conv_1x1_exp.bn.bias f4 [16]
000000 3f 15 03 3b 4a 04 7a 3d 4d 36 39 3d 5b 2a 8f bd
       0.0020001677 0.061039247 0.0452178 -0.069905005
000010 82 7f 92 bb e2 d0 6d 3d 45 2f 1b bb f9 6e 34 bd
       -0.0044707665 0.058060534 -0.0023679298 -0.044051144
000020 36 98 a3 bd eb d0 53 ba de 1b b9 3c 26 de f3 3c
       -0.07988016 -0.00080801424 0.022596296 0.029769015
000030 50 71 c6 b9 88 c8 7e 3d 9b da 37 3c 2e 2b fc bb
       -0.00037849927 0.06220296 0.011221553 -0.007695577

net.level2_0.eesp.conv_1x1_exp.bn.running_mean f4 [16]
000000 59 31 51 3b c3 57 ac 3b 9b 4f 3e bc 48 66 bd 3b
       0.0031920283 0.0052594854 -0.011615659 0.005780015
000010 ee 8d b0 bc de e0 5f 39 30 29 16 bc e1 2d 87 3c
       -0.021552052 0.00021350707 -0.009165093 0.016501369
000020 ca 42 b2 bb 29 d5 a5 bc d5 25 a6 bc 4e 4c c6 bb
       -0.005440091 -0.020243244 -0.020281712 -0.0060515767
000030 17 a6 08 3b fb c7 6a bc 48 ee 03 3d b7 b0 48 b8
       0.002085095 -0.014329906 0.032209665 -4.7848294e-05

net.level2_0.eesp.conv_1x1_exp.bn.running_var f4 [16]
000000 b0 3a 7c 38 ad 94 f5 39 3a ce 08 3a 35 30 ed 38
       6.013614e-05 0.00046840814 0.00052187184 0.0001131002
000010 1d 82 82 3a 3d d3 ab 33 7f b1 00 3a f0 10 5e 39
       0.000995699 8.001232e-08 0.00049092615 0.0002117788
000020 6f a4 18 3a b0 00 60 3a 0a 3f e2 39 93 41 d6 39
       0.00058228424 0.00085450243 0.00043153047 0.00040866117
000030 1d ff 8b 3a bd e1 86 3b e0 57 2c 3b 2f 5a 4f 3a
       0.0010680888 0.0041162656 0.0026297495 0.0007909862

net.level2_0.eesp.br_after_cat.bn.weight f4 [16]
000000 b2 65 33 3e 78 a6 e1 3d 77 6d 3b 3e c8 43 67 3e
       0.17519262 0.110180795 0.18303476 0.2258445
000010 83 e8 86 3e 72 d9 9a 3d fe cc 49 3e b9 10 4b 3e
       0.26349267 0.07561006 0.19707105 0.19830598
000020 a7 54 57 3e 11 f7 42 3e 51 18 52 3d d1 1f 81 3e
       0.21028386 0.19039561 0.05129272 0.25219586
000030 88 ab 68 3e cf 5e bd 3e aa 12 a0 3c cf b3 ad 3e
       0.22721684 0.36986396 0.01954015 0.33926246

net.level2_0.eesp.br_after_cat.bn.bias f4 [16]
000000 91 65 67 bd cf a6 85 bd 25 44 19 bd 3d a4 cb 3b
       -0.056493346 -0.06525957 -0.037418503 0.006214647
000010 2a 6a 6b 3d e8 85 f3 bc a9 98 6d 3c 91 05 20 3c
       0.057474293 -0.029726937 0.014501729 0.009766952
000020 51 f3 69 3d 19 5d 23 ba 61 2d a4 bc e9 6b 05 3d
       0.05711681 -0.0006231829 -0.02004117 0.032573614
000030 69 c3 de bb 1a 73 7d 3c 81 67 82 bc 8d 0b bf bd
       -0.006798197 0.015469337 -0.015918495 -0.09328375

net.level2_0.eesp.br_after_cat.bn.running_mean f4 [16]
000000 06 ef 60 3a b6 0d a5 3c 87 88 2c bb 34 15 3a 3c
       0.0008580539 0.02014814 -0.0026326494 0.011357594
000010 9a 75 23 3b 05 51 e9 3c ff e4 5d bb 70 fa 3a 3c
       0.0024941922 0.028481016 -0.0033858416 0.011412248
000020 3d 0e 59 3b 81 5e fb 3c 6a 93 a2 bb ed e0 c6 3b
       0.003312006 0.030684711 -0.004961421 0.0060692937
000030 07 a3 b4 3b dc 26 f8 3c 58 d3 b6 bb 4a 5f 5e 39
       0.0055125984 0.030291967 -0.0055793934 0.00021207068

net.level2_0.eesp.br_after_cat.bn.running_var f4 [16]
000000 36 c1 ac 37 16 11 91 3a f3 eb 46 38 00 85 57 38
       2.0593969e-05 0.0011067714 4.7426623e-05 5.138386e-05
000010 f1 80 ca 38 e5 a5 0e 3b aa 61 94 39 60 a1 6c 38
       9.656128e-05 0.0021766361 0.00028301525 5.6417077e-05
000020 ca f9 21 39 0c 96 24 3b 3a 45 b7 39 69 40 e4 37
       0.0001544721 0.002511385 0.00034956058 2.7209711e-05
000030 6c a3 c2 39 da 20 28 3b 09 e0 bf 39 ee 40 ac 37
       0.00037124322 0.0025654347 0.00036597278 2.0534233e-05

net.level2_0.eesp.br_after_cat.act.weight f4 [16]
000000 a1 6d 26 bd d0 b2 8e bc 26 2b 63 3b 4a 00 16 3c
       -0.040631894 -0.017419249 0.003466317 0.009155342
000010 29 38 93 3d cd 02 19 bc dc a4 23 bc 43 07 a8 3b
       0.07188446 -0.009339047 -0.009988036 0.005127819
000020 92 29 9c 3d 90 74 76 3c 9c 34 87 3c fd 91 a9 3d
       0.076251164 0.015042439 0.016504578 0.08279798
000030 60 bc b0 bb 08 76 0e 3c 52 db fa 39 7c aa 2b 3d
       -0.00539355 0.008695133 0.00047847122 0.041910633

net.level2_0.eesp.module_act.weight f4 [16]
000000 00 00 80 3e 00 00 80 3e 00 00 80 3e 00 00 80 3e
       0.25 0.25 0.25 0.25
000010 00 00 80 3e 00 00 80 3e 00 00 80 3e 00 00 80 3e
       0.25 0.25 0.25 0.25
000020 00 00 80 3e 00 00 80 3e 00 00 80 3e 00 00 80 3e
       0.25 0.25 0.25 0.25
000030 00 00 80 3e 00 00 80 3e 00 00 80 3e 00 00 80 3e
       0.25 0.25 0.25 0.25

net.level2_0.inp_reinf.0.conv.weight f4 [3, 3, 3, 3]
000000 88 55 c7 bb d4 d0 1b 3c 85 e5 97 3d ab a1 00 be
       -0.006083194 0.009510238 0.07416824 -0.12561671
000010 6d 62 b4 bd e8 ab 8c bd 18 54 5b bd be 4c 38 bd
       -0.08807836 -0.06868726 -0.053546995 -0.044995062
000020 1d 9c 12 3d 0c b5 ba 3d c9 ac 69 bb ce a7 1d 3e
       0.035793412 0.09116563 -0.0035655966 0.15396044
000030 3f db d3 bd 5d da 87 bd d1 86 cf 3d 3a 58 32 be
       -0.10344552 -0.06633446 0.10133136 -0.17416468
000040 ca 77 86 bd 79 23 d7 3c 9f 57 33 3d ff c4 9b bb
       -0.06565817 0.026262032 0.043784734 -0.0047537084
000050 c9 58 a1 3d 9f f8 7e bd 4f 3d 91 bc d2 7d b3 3c
       0.078782625 -0.062248822 -0.01772943 0.021910582
000060 4c 00 23 bd 62 61 60 3c 84 2e 96 3d 2b e7 16 be
       -0.039795205 0.013695093 0.07333091 -0.14736621
000070 ad c5 4d be d8 3c c8 3d cc 10 d4 3d a3 27 cb 3d
       -0.20094939 0.0977723 0.10354766 0.099196695
000080 43 ad 44 3e 2a ea 79 3e 37 79 9e 3d 7c b9 86 bc
       0.19206719 0.24405733 0.07737964 -0.016445868
000090 0b 81 27 bd 90 cf 84 3c 5d 29 84 be 66 c9 3a 3e
       -0.04089455 0.016212255 -0.25812808 0.1824089
0000a0 04 12 01 3e a4 96 62 3c 7b f1 f3 bd f4 0c e2 bd
       0.12604529 0.013829861 -0.11911293 -0.11037627
0000b0 0f dc f1 3d 4a 71 7e bd 79 d5 51 be 7e c0 78 3e
       0.11809551 -0.06211976 -0.2049159 0.2429218
0000c0 59 fb 29 bd a7 62 75 bd 1c 3e c9 3d 27 82 29 bd
       -0.04149947 -0.059908535 0.098262995 -0.04138389
0000d0 00 61 42 be 33 b2 92 3c 61 f9 86 be 3d 56 e3 3e
       -0.18982315 0.017907238 -0.26362136 0.44401732
0000e0 34 b2 13 3d 74 a1 01 3e 09 05 29 3e fb dd cf be
       0.03605862 0.12659246 0.16505827 -0.40599045
0000f0 7c 16 cd 3d dc 09 de bd ba e8 15 be 51 a2 5b bd
       0.10014054 -0.10841724 -0.1463956 -0.053621594
000100 56 c1 62 be 66 7b a1 3e ea b0 8f bd da 36 09 3e
       -0.22144064 0.31539458 -0.070161656 0.1339983
000110 11 81 1b 3e 31 49 fb 3d 5b c8 49 be da 14 13 be
       0.15185954 0.122698195 -0.19705336 -0.14363423
000120 72 51 b9 be 04 e8 25 3b f0 62 a3 3e c2 c8 50 3d
       -0.3619495 0.0025315294 0.3191142 0.050972708
000130 ba bf 58 3d a8 f8 ce be 7a 5f c4 3e 1e b6 ba bd
       0.05291722 -0.40424085 0.38354093 -0.09116767
000140 c5 8e b1 3c
       0.021674523

net.level2_0.inp_reinf.0.bn.weight f4 [3]
000000 93 e5 f0 3e 13 f0 b8 3e 8a f8 01 3f
       0.4705015 0.36120662 0.50769866

net.level2_0.inp_reinf.0.bn.bias f4 [3]
000000 31 98 6c 3d 87 9d c5 3c d9 76 76 3e
       0.05776233 0.024122966 0.24068774

net.level2_0.inp_reinf.0.bn.running_mean f4 [3]
000000 4a a4 3e be c8 72 c8 3d ec c1 59 bd
       -0.18617359 0.09787518 -0.053163454

net.level2_0.inp_reinf.0.bn.running_var f4 [3]
000000 1f 8e c1 3d 63 c2 8c 3d fe f2 11 3d
       0.094509356 0.06873014 0.035632126

net.level2_0.inp_reinf.0.act.weight f4 [3]
000000 d0 e8 9d 3d 47 85 08 3e b5 80 a1 3e
       0.07710421 0.13332091 0.31543508

net.level2_0.inp_reinf.1.conv.weight f4 [32, 3, 1, 1]
000000 69 f4 1a bb 44 a6 0c 3d 72 b5 2c 39 c4 2c 32 3d
       -0.0023644215 0.03433825 0.00016470792 0.043499723
000010 17 5f cb 3d 31 51 ec 3c 77 7d b1 bd 5c 2b a0 bc
       0.09930246 0.028847309 -0.08666509 -0.019551925
000020 61 cc bb 3c 5e b5 63 bd 70 53 c6 3d 51 cf 8c bc
       0.022924604 -0.055592887 0.09683883 -0.0171887
000030 e8 3a 0d 3e 3c f9 96 bb fb a0 a1 3c 03 f7 c0 3d
       0.13792002 -0.004607348 0.019730082 0.09422114
000040 d6 64 4a bd e4 dc 97 39 6b dd aa bc 6b d9 a5 bd
       -0.04941257 0.0002896554 -0.020857533 -0.0809811
000050 94 1f c3 bd c9 0b ff bc db fe cc bb 3c 5d 21 3e
       -0.095275074 -0.03113355 -0.006255967 0.15758222
000060 15 75 37 3d db be b5 bd 23 1f 9b 3d 48 82 67 bc
       0.044789393 -0.088742934 0.07574298 -0.014130183
000070 53 6a 14 3e 31 c0 28 3d 13 53 25 3d d8 b9 39 bc
       0.14493684 0.041198913 0.04036243 -0.0113358125
000080 87 47 07 be 87 02 7c bd c9 00 7a 3d e1 07 fb 3c
       -0.1321088 -0.061525848 0.061035905 0.030643405
000090 f7 f8 0d 3c ef 3c 82 3b 78 8e 2e bd 57 84 b2 3d
       0.008665315 0.003974549 -0.042616338 0.08716648
0000a0 05 2a b4 bd 2d 1f 17 be 08 06 d0 3d b7 7c 68 ba
       -0.08797077 -0.14757986 0.101574 -0.00088686816
0000b0 9c d8 6a bd c3 1b b4 3d 9c ff 84 3b 1b df a7 3d
       -0.05733548 0.08794358 0.0040587913 0.08196851
0000c0 d1 1d 52 3d 4b 60 9d bc b2 c5 5d 3d 20 20 a0 3a
       0.051297966 -0.019210955 0.054143615 0.0012216605
0000d0 cc 45 d9 3c 7f 37 28 3e f6 38 1e be ab 47 f0 bc
       0.02652254 0.1642742 -0.15451416 -0.029331049
0000e0 1d f2 ec 3d 8e c8 03 3c 32 ab 44 bd bd 12 b0 3d
       0.11569617 0.008043421 -0.048014827 0.08597324
0000f0 48 76 92 3d 1c 80 ed bc a0 c9 5a bd bd ab be 3c
       0.071514666 -0.028991751 -0.05341494 0.02327525
000100 c6 1f f8 bb bb e4 be bd ae 60 d1 3d b1 3f 96 bd
       -0.007572147 -0.093209706 0.10223518 -0.07336367
000110 1d fe 7e bc a4 02 cc 3d 38 a6 a9 3d 0b 9a 9b bd
       -0.015563515 0.09961441 0.08283657 -0.07597741
000120 a6 28 01 bc 1f a7 96 3d c6 1c f2 bc cc 2c f6 bc
       -0.0078832265 0.073560946 -0.029554736 -0.030050658
000130 ec b8 24 3e 4e 35 d5 3c 6b e9 9b 3d 80 6d c5 3c
       0.16086167 0.026026394 0.0761288 0.024100065
000140 19 22 f0 bd cf 4d b8 bd 44 fb 88 3b 76 5b 58 3d
       -0.117252536 -0.08999216 0.004180344 0.0528216
000150 91 ea 38 bd fa 65 cc 3c 35 e5 40 bd 7c f2 0c be
       -0.045145575 0.02495097 -0.04709359 -0.13764375
000160 20 0a f0 3d 62 57 5a 3e 66 39 68 3d 75 0e 2c bd
       0.11720681 0.21322396 0.056695364 -0.042005975
000170 72 c2 a0 3d a9 cd d4 bd b0 4e 92 bd ba 0e ac 3d
       0.078495875 -0.10390789 -0.07143915 0.08401246

net.level2_0.inp_reinf.1.bn.weight f4 [32]
000000 4d f8 80 3d aa 14 49 3e 9a a0 57 3e 96 7e 48 3e
       0.062973596 0.19636789 0.21057358 0.19579539
000010 dd a6 c3 3e b8 74 81 3e a1 75 d8 3d ff 01 e8 3e
       0.38213244 0.25284362 0.10569311 0.45314023
000020 30 33 64 3e 58 84 ea 3d bf cd 37 3e 0f f9 d5 3d
       0.22285151 0.11451024 0.1794958 0.10447895
000030 33 79 e1 3c df 90 f0 3e 84 56 1f 3e 7e 62 a3 3e
       0.027523613 0.46985528 0.15560347 0.3191108
000040 ba ac 0c 3e 6b 8c d6 3e e6 4f 57 3e 59 a4 60 3e
       0.13737765 0.41904005 0.21026573 0.21937694
000050 2e 64 36 3e fd 01 25 3e 1a af ad 3e 02 f4 6e 3e
       0.17811653 0.1611404 0.33922654 0.23335269
000060 2b 21 3e 3e 31 5c cb 3e 6b 83 8b 3e 36 1c 76 3e
       0.1856734 0.39718774 0.272487 0.24034199
000070 61 22 dc 3d 54 5f ad 3e 3d 1d 93 3e 17 26 3d 3e
       0.10748745 0.33861792 0.28733245 0.18471561

net.level2_0.inp_reinf.1.bn.bias f4 [32]
000000 56 df 9a bc 8c cd dc bd d5 fe 9c bd f8 0a eb bd
       -0.018905323 -0.107813925 -0.07665793 -0.114767015
000010 23 85 e2 bc 7b 0d 92 bc b9 89 cd bc 94 13 5e bd
       -0.027651375 -0.017828694 -0.025090085 -0.05421789
000020 2c 94 c7 3c ff 9f 16 be 48 28 e7 3c 0a 21 4c bd
       0.024362646 -0.14709471 0.02821745 -0.049836196
000030 3d df 72 3c f3 ad 6a 3c 8a 65 3f bd 25 39 dd bc
       0.014823732 0.014323699 -0.046727695 -0.027004788
000040 3f 15 03 3b 4a 04 7a 3d 4d 36 39 3d 5b 2a 8f bd
       0.0020001677 0.061039247 0.0452178 -0.069905005
000050 82 7f 92 bb e2 d0 6d 3d 45 2f 1b bb f9 6e 34 bd
       -0.0044707665 0.058060534 -0.0023679298 -0.044051144
000060 36 98 a3 bd eb d0 53 ba de 1b b9 3c 26 de f3 3c
       -0.07988016 -0.00080801424 0.022596296 0.029769015
000070 50 71 c6 b9 88 c8 7e 3d 9b da 37 3c 2e 2b fc bb
       -0.00037849927 0.06220296 0.011221553 -0.007695577

net.level2_0.inp_reinf.1.bn.running_mean f4 [32]
000000 f9 97 6d 3b a4 04 d6 3c 78 e0 34 bc 34 65 8b bb
       0.0036253913 0.02612526 -0.011039846 -0.0042540077
000010 51 54 ee 3c ce f3 3a 3c 48 60 1e bd f9 ed 1b 3d
       0.02909294 0.011410667 -0.03866604 0.038068745
000020 22 12 a1 3c c4 41 c6 3c 15 e9 f7 bc da f3 92 3b
       0.019661967 0.024201281 -0.03026251 0.004484636
000030 2e 60 28 bc c2 22 10 bd cd ec 04 3b 65 c3 1c 3d
       -0.010276837 -0.035189398 0.0020282746 0.03827228
000040 26 18 b2 3c 21 0a 46 3d b7 a3 ee 3a 14 8b a1 3c
       0.02174003 0.048349503 0.001820675 0.019719638
000050 1c 94 a0 bb 54 6a bb bc 9b 11 bd 3b 3a 31 97 3b
       -0.0049004685 -0.02287785 0.005769921 0.0046140226
000060 a8 d9 11 bb de c9 9d 3c 2e c9 84 bc 2a 3d d8 b9
       -0.0022254977 0.019261297 -0.016209211 -0.000412443
000070 d4 aa 95 bc fb 6c 46 3d 84 d9 db 3c c3 04 59 bb
       -0.018269934 0.048443776 0.026837118 -0.003311441

net.level2_0.inp_reinf.1.bn.running_var f4 [32]
000000 d9 1c 64 38 fa c4 19 3a e7 50 4b 3a de 2b b8 3a
       5.4386303e-05 0.00058658386 0.0007755891 0.0014051159
000010 52 18 3d 3b 21 d8 c5 3a ec 7d d2 3a 94 ca 84 3b
       0.0028853607 0.0015094319 0.0016059256 0.0040524695
000020 4f c7 31 3b 2d d0 78 3a 4c 4d 27 3b 1f 54 2d 3a
       0.0027126854 0.000949147 0.002552825 0.0006611961
000030 74 e1 a3 39 dd a6 4c 3b a3 41 9d 3a e5 76 47 3b
       0.00031257758 0.0031227388 0.0011997711 0.0030435857
000040 3c 7b ae 3a 6f be 94 3b 19 ef 56 3b eb 04 ed 3a
       0.0013311873 0.004539303 0.0032796322 0.0018083131
000050 50 ed 40 3a 6b da aa 3a 89 1c e7 3a e4 8c e2 3a
       0.0007359581 0.0013035064 0.0017632406 0.001728442
000060 b5 56 27 3a 03 0b ad 3a b2 a7 0f 3b 37 24 77 3a
       0.0006383465 0.0013202134 0.0021920023 0.00094276987
000070 53 fa 8d 3a 60 d1 de 3b 17 ba 21 3b 8e 11 ef 3a
       0.0010832049 0.006799862 0.0024677569 0.0018239485

net.level2_0.act.weight f4 [32]
000000 53 7a eb 3b cb 30 97 3b e1 34 c4 bb 12 bd 92 3b
       0.007186213 0.004613971 -0.005987749 0.0044781053
000010 b8 f1 b5 bb bf 16 19 3c d9 d8 6b 38 e5 4f a0 bc
       -0.0055524968 0.009343802 5.623032e-05 -0.019569347
000020 5f 01 b5 3c 46 7a 6f 3c d3 6f 9d 3a b6 d6 8b bb
       0.02209538 0.014616555 0.0012011476 -0.004267539
000030 39 85 1f b9 dc 69 7a 3d da 62 3c bc 46 fa 8c 3c
       -0.00015213051 0.06113611 -0.011498177 0.017209183
000040 83 5c 6a 3b d0 f2 a8 3d bf 0c 36 3c 5e 92 60 3c
       0.0035760708 0.08249438 0.011111437 0.013706772
000050 00 8a 9c 3d 62 09 ec bc 40 1d 2e 3d c5 91 aa 3a
       0.07643509 -0.028813068 0.042508364 0.0013013413
000060 df 06 cc 3c 19 6a 06 3c 02 98 2d bc 50 32 33 bc
       0.02490562 0.008204007 -0.0105953235 -0.010937288
000070 eb d3 ca 3c 30 73 6a 3e bc ef ad 3d 6d 7b 40 3d
       0.024759253 0.22895503 0.08492991 0.046992708

net.level3_0.eesp.proj_1x1.conv.weight f4 [8, 8, 1, 1]
000000 9d cd ba bc 6a 4f 0f be 8e 60 64 3d 9f 42 99 bd
       -0.022803122 -0.13995138 0.055756144 -0.0748341
000010 36 d1 82 3c b5 ab 86 bd a5 e8 a1 3d c1 92 9b bd
       0.0159689 -0.06575719 0.079057015 -0.075963505
000020 f9 30 60 3d 43 65 42 3c 8d f6 3c bc 7f da 2f 3e
       0.054734204 0.011864963 -0.011533392 0.17173193
000030 b6 48 38 3e 4e c2 9b 3c 94 e8 16 3e 4e 8a 57 be
       0.17996487 0.01901355 0.14737159 -0.21048853
000040 43 00 dc 3d fd 69 0a 3d 8c 26 a4 3d 03 8e 92 3d
       0.107422374 0.033792485 0.08015165 0.07155993
000050 81 cb b9 3c 99 90 12 3e f6 a6 0a bd fb 89 ad bc
       0.022680046 0.14312972 -0.033850633 -0.021183958
000060 23 cd a0 bd 27 be 08 be 29 55 d1 3d 3c 4d aa bd
       -0.07851627 -0.13353787 0.10221321 -0.083155125
000070 5c 6c 9d 3d 77 ac 76 3e 68 c1 0d bd 68 b8 2d bd
       0.076866835 0.24089228 -0.034608275 -0.04241219
000080 ba 78 1a bc 03 0e 65 3e 78 c0 13 3e ce 35 e5 bd
       -0.0094281975 0.22368626 0.1442889 -0.11191903
000090 d5 23 24 be 05 60 09 be a5 cd e2 bd b1 92 e1 3b
       -0.16029294 -0.13415535 -0.1107438 0.006883942
0000a0 86 9c 9f 3d b0 b3 e5 3c 4e 37 09 bd ad c9 a2 3d
       0.07793526 0.028039783 -0.03350001 0.07948623
0000b0 de ad 11 3e 44 68 7e bc 98 e3 ce 3c 12 6f 87 bc
       0.14226481 -0.015527789 0.02525501 -0.016532455
0000c0 34 df b3 3d 4f 32 ef bd 8c 9a 2c 3e 78 0e e1 3d
       0.08782807 -0.116795175 0.1685583 0.10989088
0000d0 58 46 fd 3d 5f ea 93 be 61 e3 26 be 58 b9 12 3d
       0.12366933 -0.28889748 -0.16297676 0.03582129
0000e0 8b 93 7e bc c6 35 ed bc 20 3b 9d bd a8 87 c9 3d
       -0.015538107 -0.028956305 -0.07677293 0.098403275
0000f0 f2 03 89 bd 08 d9 37 3e f8 bd a8 3d e4 30 b8 3d
       -0.06690206 0.17953885 0.08239359 0.089937

net.level3_0.eesp.proj_1x1.bn.weight f4 [8]
000000 df 0e 9c 3d f0 58 b2 3d da 69 53 3d 77 9b 2c 3e
       0.07620024 0.0870837 0.05161462 0.1685618
000010 69 7f 19 3e 94 21 99 3d 0e e9 e5 3d b4 ee f5 3d
       0.1499001 0.07477108 0.11226092 0.1200842

net.level3_0.eesp.proj_1x1.bn.bias f4 [8]
000000 1c 17 6b 3d 07 80 cc bd 30 bd ab bd 91 b4 23 3d
       0.057395086 -0.09985357 -0.08385694 0.039967123
000010 98 ec ae 3b 86 59 9f 3c 03 82 a8 3c 65 5e a5 3c
       0.0053382628 0.019451868 0.020569807 0.020186612

net.level3_0.eesp.proj_1x1.bn.running_mean f4 [8]
000000 c7 88 cf bd 7d 45 79 3e 12 8e f9 3d 7a 2a ec bc
       -0.1013351 0.24342914 0.12185301 -0.028828848
000010 7a 17 e4 3b d9 b5 b4 3c e0 8e 45 bd 77 ad 29 3d
       0.0069608064 0.022059368 -0.04823196 0.041425195

net.level3_0.eesp.proj_1x1.bn.running_var f4 [8]
000000 00 94 01 3c fa 84 d7 3c 1f 3c 90 3b a1 75 40 3c
       0.007908821 0.026308525 0.0044016982 0.011746795
000010 69 18 1d 3c e4 0b 62 3b 67 dd a6 3c ea 0f 4e 3c
       0.009588339 0.003449195 0.020369245 0.012577036

net.level3_0.eesp.proj_1x1.act.weight f4 [8]
000000 6a 64 00 3c cd 0c 56 3e 05 95 51 3d 9c 38 34 bd
       0.007836441 0.2090332 0.051167507 -0.0439993
000010 ec ec 48 bd b7 8f 7f 3c ef f9 3b 3e ee a3 8b 3c
       -0.04905407 0.015598229 0.18357061 0.017045941

net.level3_0.eesp.spp_dw.0.conv.weight f4 [8, 1, 3, 3]
000000 02 ac 0f bd 60 0d 23 bd 38 3d bb bc 56 ed 1f bd
       -0.03507615 -0.039807677 -0.02285634 -0.0390447
000010 27 1b de 3b 2d 34 ee bc 65 44 af bc 2f 4f 93 bc
       0.006778139 -0.029077614 -0.021394918 -0.017982094
000020 2f 60 87 bd 33 2c 8d bd ad 2a 85 bd b0 65 ae bd
       -0.066101424 -0.06893196 -0.065022804 -0.08515489
000030 6a 97 3c 3e c9 4f db bb 34 a0 2d 3d af 91 0b 3e
       0.18417135 -0.0066928607 0.04238911 0.13629793
000040 ff 29 34 be 68 ca 44 3d cc be 15 3b e5 99 10 3d
       -0.17594145 0.048044592 0.002284932 0.035303015
000050 a0 ad e3 3d 09 14 79 bd 6c a4 b5 bd 5a 41 fc 3d
       0.11117101 -0.060810123 -0.088692516 0.12317152
000060 cd bd 59 bd cc f8 3b bd 33 73 49 bd 54 a9 de bc
       -0.053159524 -0.045891568 -0.04918213 -0.027180351
000070 9a c9 f4 bd 8e ca 21 be 69 01 2c be 67 d3 df bd
       -0.11952515 -0.15799925 -0.16797413 -0.10928994
000080 d7 28 81 3e 72 6b 4a 3e fe ec 4b 3e d3 c2 fe 3c
       0.2522647 0.1976755 0.19914624 0.031098759
000090 0a 11 3d 3c 68 c8 05 bd 75 72 48 bd c0 08 a3 bd
       0.011539707 -0.032661825 -0.04893728 -0.07960653
0000a0 eb bc 2f bd a5 3d 09 bd 34 99 b9 bc 62 5d 3e be
       -0.042904776 -0.033506054 -0.02265606 -0.1859031
0000b0 86 1d 0d 3e 20 2d ab 3d 93 75 6d 3d 54 d3 84 3d
       0.13780794 0.08358216 0.057973456 0.0648562
0000c0 e3 56 90 bd d6 1c df bb 35 fb 7e bc d4 8d ba 3d
       -0.07047822 -0.0068088574 -0.015562822 0.09109083
0000d0 51 6a b3 bb 0f 68 f4 bd 9e 2c d9 bc f9 a8 05 be
       -0.0054753204 -0.1193391 -0.026510533 -0.13052739
0000e0 1b 29 24 3d 41 ca c4 3d 95 ba 06 3d 51 08 0e be
       0.040078264 0.09608889 0.032892782 -0.1387036
0000f0 30 c8 97 bd ce e2 e0 3d 7f d1 ab 3d 21 cf 12 bd
       -0.074112296 0.109807596 0.083895676 -0.035842065
000100 72 a7 2e 3c 91 71 d7 bd 05 c2 13 3d 25 de 90 3d
       0.010660039 -0.10519708 0.036073703 0.07073621
000110 a0 cd 12 bc 04 39 9a 3c e4 bd 8a 3d 1f a7 b0 3d
       -0.008960158 0.018826015 0.067745 0.08625626

net.level3_0.eesp.spp_dw.1.conv.weight f4 [8, 1, 3, 3]
000000 e5 cd df bb 6f cc 05 bd d6 1a 3c bd cd c1 12 bd
       -0.0068299645 -0.032665666 -0.04592403 -0.035829354
000010 07 ac 01 3c 43 3c af bc 12 6f 97 bc 98 1b 3b bc
       0.00791455 -0.02139104 -0.01848558 -0.011420153
000020 e2 79 2f bd 69 6f b2 3c 99 7b 63 bb 32 fa 15 bc
       -0.042840846 0.02178164 -0.003471112 -0.0091538895
000030 cd f1 00 3d 2d e7 29 3d e8 62 56 3d c0 7e 88 3d
       0.0314806 0.041480232 0.052340418 0.06664801
000040 b8 1a ab 3d 8d c7 31 3d fa d3 1e 3d 31 a8 69 3d
       0.083547056 0.043403197 0.038776375 0.057045165
000050 7a 2b ea 3d b1 c9 86 3d ec 36 e8 3c fd 24 1c 3c
       0.11434074 0.06581438 0.028346501 0.009530303
000060 e7 88 49 3d ca 75 38 bd 4e d6 3f 3d 11 0e 18 bd
       0.049202826 -0.045034207 0.046835236 -0.03712279
000070 18 8c b8 bd 73 0f be 3d 55 34 a5 bd 3d fa 0a 3e
       -0.09011096 0.092802905 -0.08066622 0.13572021
000080 37 19 03 3e 69 6e 03 3d 6a 7c 0c 3d cd 7e bb bd
       0.12802587 0.032087717 0.034298338 -0.09155045
000090 e2 7d f9 bc c7 a6 62 bd 67 0f cc bc 6c b7 4a bd
       -0.030455533 -0.055334833 -0.024909688 -0.04949133
0000a0 c0 ce 3b 3e ed 48 0c 3e be 8e 14 bd da 9f 29 3d
       0.18340588 0.13699694 -0.036268942 0.041412212
0000b0 38 51 0c 3e 55 f6 37 bd 31 6f 2c bd 5f 49 b7 bc
       0.13702857 -0.044912655 -0.042098228 -0.022373853
0000c0 3f 91 fb 3d 55 18 01 be ab 94 98 3c 3f 53 66 3d
       0.12283563 -0.12606938 0.018625578 0.056231733
0000d0 1e 22 fb 3d a3 16 0a be a5 ec 5e bd 29 bb b8 bc
       0.12262367 -0.13485198 -0.0544249 -0.022550182
0000e0 07 9e 23 3d 32 bf 4b 3d 8e bb 9b bd aa 03 67 be
       0.03994563 0.049742885 -0.076041326 -0.22559991
0000f0 a5 92 3c bd 5e d5 f3 3d c8 f2 43 3e de 22 af bc
       -0.04603829 0.11905931 0.19135582 -0.02137893
000100 fc ba fd ba 49 5e b2 bb 6c d0 d0 bd 5a ef a4 bd
       -0.0019358094 -0.0054433686 -0.10196003 -0.08053465
000110 e4 74 bd bd f6 45 be bd 21 ae c5 bd 41 30 e8 bd
       -0.09250811 -0.09290688 -0.09652353 -0.11337329

net.level3_0.eesp.spp_dw.2.conv.weight f4 [8, 1, 3, 3]
000000 5b ab 16 bd 38 06 da bc eb d5 32 bd 35 1e a8 3b
       -0.03678451 -0.026614293 -0.04366104 0.005130554
000010 f8 12 1e bb 65 c7 d4 3b 53 df 65 bd 29 08 9a 3c
       -0.0024120193 0.0064934962 -0.05612118 0.01880272
000020 c9 93 a4 bc 6c 88 07 bd 2c 2f 40 bc 0d 6f 14 3d
       -0.02009 -0.033089086 -0.011729997 0.03623872
000030 97 35 87 3c 45 d4 0c bc 38 80 7b 3d 24 ed 38 3d
       0.016505046 -0.008595531 0.061401576 0.04514803
000040 b2 2a 4c 3d 38 5c 9e 3d 59 d3 b5 3b 18 3b 4a 3d
       0.049845405 0.07732433 0.0055488762 0.049372762
000050 0e c0 a8 3d 5e 46 63 bc d1 e2 67 3c b4 21 0c bd
       0.082397565 -0.013871757 0.014153198 -0.03421183
000060 86 94 4e 3d 05 ac 2f bc 51 54 61 bc 2e 52 51 3d
       0.05043461 -0.010722165 -0.013753013 0.051103763
000070 68 70 88 bd 5d 12 02 3e 31 92 41 3d bd e8 47 3d
       -0.06662065 0.12702318 0.04725856 0.04880594
000080 df 8a f5 3c 14 f7 37 be 6d c1 f2 bc 55 e4 ea bc
       0.029973445 -0.17965347 -0.029633248 -0.02867333
000090 de 01 cc bc ce 89 e7 3c 17 31 f3 3a b7 7d 43 3d
       -0.024903234 0.028263953 0.0018554059 0.047727313
0000a0 5b 3f 49 3c ba ed 29 bc 2e 59 9a bc 33 13 05 bb
       0.0122831715 -0.01037162 -0.018841352 -0.0020305633
0000b0 7e e7 b1 3c 12 39 46 3c 12 e9 75 bc 0e 24 be bc
       0.02171683 0.012098568 -0.015009182 -0.023210552
0000c0 a4 0a 9f bc ab 9b ed b9 0c 25 0f bc 97 8f 2d 3b
       -0.019414254 -0.00045320144 -0.00873686 0.0026483291
0000d0 20 1e a0 3b a5 92 5e 3a 51 64 51 bd ff 71 07 bd
       0.0048864037 0.00084904797 -0.05112106 -0.0330677
0000e0 0f 7b d3 3d 53 af 87 3d f7 17 b6 bc db 89 19 be
       0.10326206 0.06625237 -0.022228224 -0.14993994
0000f0 13 19 f5 bb a0 fa 0a bd c5 4a 63 3d 03 22 3a 3d
       -0.0074797957 -0.03393042 0.055491228 0.045442592
000100 38 0b 97 3c 27 e4 32 3d 75 48 80 bd d4 ae ae bd
       0.018437967 0.043674614 -0.0626382 -0.085294396
000110 63 88 c5 3c 99 b7 c7 3c 48 b8 03 bd 7d 0a 1b bd
       0.024112886 0.024379538 -0.032158166 -0.0378518

net.level3_0.eesp.spp_dw.3.conv.weight f4 [8, 1, 3, 3]
000000 23 34 72 3c 12 9d 50 bb 77 60 86 bc 35 fb c5 bb
       0.014782938 -0.0031831902 -0.01640342 -0.006041909
000010 cf de 8a 3c 1a b4 d6 bc f6 54 48 bd 9f 36 d2 bc
       0.016951947 -0.026208926 -0.04890915 -0.025660811
000020 8d ed 3a bd d4 36 c9 bc 6b 90 25 ba 78 1f 9b 3c
       -0.045636702 -0.024562277 -0.00063157704 0.018935904
000030 9e c3 f7 bc ab d2 90 bb f4 40 10 3c 4c 22 f9 bb
       -0.030244645 -0.004419645 0.0088045485 -0.0076029655
000040 0a e1 b0 3c 59 b3 a5 39 50 92 ea bc bf 8a 92 3c
       0.021591682 0.00031604877 -0.02863422 0.017888425
000050 05 30 b0 3d 2f 9e 6f bc 5a e7 87 3c 75 ee 2c bc
       0.08602909 -0.014625116 0.01658981 -0.010554899
000060 85 69 06 bd 61 f1 92 bc 51 e5 fd bc c5 fc 36 3d
       -0.032815475 -0.017937364 -0.030993136 0.044674654
000070 b6 8e a1 3c f2 e0 50 3d 8f 67 15 bd f6 3b ed bc
       0.01972137 0.050995775 -0.036475714 -0.028959256
000080 3d 65 b8 3b 5e c4 64 bd db ff 68 bd d4 79 fb bc
       0.005627303 -0.055851333 -0.056884628 -0.03069774
000090 2b 69 27 bc 3e 2a b0 3c a4 d8 9d 3c e4 41 b2 3d
       -0.010217945 0.021504518 0.019268341 0.08703974
0000a0 41 fd 9d 3c a3 fc 68 3b cf 07 a8 bc c6 12 f0 bc
       0.0192858 0.0035550974 -0.020511536 -0.029305827
0000b0 09 26 47 3d 04 5b e7 3c 72 33 23 3b 04 09 80 bb
       0.048620258 0.028241642 0.002490249 -0.0039073247
0000c0 67 cc 68 bc 62 63 d9 3b 04 11 b6 bb 89 33 72 bc
       -0.01420889 0.006634162 -0.0055562276 -0.014782795
0000d0 f5 63 87 bc 1b 39 74 3b 78 c2 94 3c 82 9d 54 bc
       -0.016527155 0.0037265483 0.018159136 -0.012977006
0000e0 4d 69 00 3b 7a e1 c1 bc be ec ef 3c 6e 63 d1 bc
       0.0019594014 -0.023667086 0.029287692 -0.025560107
0000f0 9c 67 d9 3c e7 e5 7d 3c 78 d3 53 3c 40 53 42 3c
       0.026538663 0.0154967075 0.012928836 0.011860669
000100 20 08 19 bc 68 4c e7 bc d2 4f 03 bd fa 5a 21 bd
       -0.009340316 -0.028234676 -0.032058544 -0.039393403
000110 08 05 2f 3c f7 9a 9a 3c 27 83 f4 3b c3 a1 9f bc
       0.010682352 0.018872721 0.0074619236 -0.019486314

net.level3_0.eesp.conv_1x1_exp.conv.weight f4 [32, 8, 1, 1]
000000 e5 05 b6 bb ee 5e 31 3d 49 2d ad bc 89 89 f3 bc
       -0.005554902 0.043303423 -0.021139758 -0.029728668
000010 0a af 25 3d 35 05 81 39 f8 2b ca bb 4b 54 73 3d
       0.040450133 0.00024608677 -0.0061697923 0.05940656
000020 83 52 82 bb a2 84 16 bd 78 74 83 3a d8 37 a3 bd
       -0.0039771213 -0.036747582 0.0010029217 -0.07969636
000030 43 42 6b 3c 07 e0 44 39 9e 23 ba bd 17 95 1f bd
       0.01435906 0.00018775473 -0.09088825 -0.038960543
000040 75 3b 70 3b 6c 17 d9 3c 33 9b 98 bc 3b cb b4 3d
       0.0036656533 0.026500426 -0.018628692 0.08827826
000050 a2 5a 19 be f8 e5 b0 b8 57 72 1a 3d cd 65 72 bd
       -0.1497598 -8.435169e-05 0.0377067 -0.059179116
000060 dc 72 bf 3a 25 65 a7 ba f1 7d a6 bd aa ba 84 3d
       0.0014606374 -0.0012771232 -0.0812949 0.06480916
000070 7b 0f b4 bd de bb b4 b9 2e d8 6d bc 26 bd 7f 3d
       -0.08792015 -0.00034472247 -0.014516873 0.062436245
000080 e6 a5 f1 3b e7 73 29 bd 2a fa 91 bc 4f c8 91 bc
       0.007374513 -0.0413703 -0.017819483 -0.01779571
000090 7d e7 fe bd 3e bb ab b8 d6 7b ab bb 1f 48 ac 3d
       -0.12446497 -8.188792e-05 -0.0052332683 0.084121935
0000a0 6e fe af bb a9 d4 fa bb c0 35 10 bd 67 26 a1 bc
       -0.0053709066 -0.0076547456 -0.03520751 -0.019671632
0000b0 4e a6 5b 3d 71 8d 13 38 d2 71 81 bd af d2 7e bb
       0.053625397 3.517926e-05 -0.063205376 -0.0038882901
0000c0 8c 17 ec 3a d0 ae 60 3d 35 d0 11 be 84 30 dc 3d
       0.0018012389 0.054854214 -0.14239581 0.10751441
0000d0 53 ed a6 bc 20 5d a3 b9 b5 96 4b 3d 1d 6e df 3d
       -0.020376837 -0.00031159166 0.049704272 0.10909674
0000e0 46 29 62 3b c0 0a 87 bc 02 4b 03 bd c1 f6 02 3e
       0.0034509464 -0.016484618 -0.032053955 0.12789442
0000f0 3c 94 b8 3d e0 9f 45 39 39 00 fa 3d bd 8f 4e 3d
       0.090126485 0.00018846942 0.12207074 0.05043005
000100 b8 7b 8f 3b ef 62 ed bb 28 f8 0f bc 72 0c 21 3c
       0.004378762 -0.00724446 -0.008787192 0.009829627
000110 4b f3 14 bd a0 32 cd 3c d8 36 55 bd 47 23 80 3b
       -0.036364835 0.025048554 -0.052054256 0.0039104554
000120 88 1b ad b9 93 bb 82 bc cd f9 c4 bc 06 d4 7d 3b
       -0.00033017644 -0.015958583 -0.024044896 0.0038731112
000130 c2 a8 b7 3d 68 3e 38 bd 61 13 54 bd 07 32 82 bb
       0.08967735 -0.04498139 -0.051776294 -0.003973249
000140 5e ab 1f 3a 1b 8e 12 3b 0e 63 04 ba 90 b1 ec 3b
       0.00060909044 0.0022362533 -0.00050501607 0.0072233155
000150 dc 06 0b bd 07 96 cb 3b de b4 62 ba 29 bd 80 bc
       -0.03394209 0.006212953 -0.0008648167 -0.015715199
000160 78 6c 3e bc ce a5 0b 3c 19 e0 00 bd f1 4d 60 3d
       -0.011622541 0.008523418 -0.031463716 0.05476183
000170 f0 6e ff 3d fe fd d9 3b ba b2 96 bd c9 db f8 3c
       0.124723315 0.0066525927 -0.07358308 0.03037824
000180 5d 90 93 3b 91 76 18 3d b2 75 3f 3c e2 da fa 3d
       0.0045032934 0.03722245 0.011685776 0.1224878
000190 8a 6c 2e 3d 79 07 41 3d 63 41 ea 3d 24 59 58 3d
       0.04258398 0.047126267 0.11438253 0.052819386
0001a0 6b 4d 04 3b a6 e0 d3 bd 3c ed 19 bc 27 7c e8 bc
       0.0020187746 -0.10345583 -0.00939494 -0.028379513
0001b0 0d c2 78 3d 9e 35 02 3d 48 a5 05 3e 51 b8 8a bc
       0.060731936 0.031789415 0.13051331 -0.016933592
0001c0 d0 11 13 39 64 f9 10 3c ec ca 86 bc 8c 6d 09 3d
       0.00014025648 0.008848522 -0.016454183 0.033551738
0001d0 c6 a7 b1 3c ff 5f 06 bd e6 c4 c2 bd 1f 05 1a 3c
       0.021686446 -0.032806393 -0.09510212 0.009400635
0001e0 6e 24 a4 bc 7c ce 34 bc eb de e3 3b 71 cc a3 3c
       -0.020036902 -0.011035558 0.006954064 0.019994946
0001f0 83 35 df bd be a5 ef bd 70 b2 84 3d b9 54 91 bd
       -0.108988784 -0.11701535 0.06479347 -0.07096238
000200 d2 0e 96 bd 03 37 6f 3c 39 e0 3c bc 19 7a 07 bd
       -0.073270455 0.014600518 -0.011528068 -0.033075426
000210 8f 51 64 bd b7 ff 5d bc 80 6a a9 bd 6a 0a b7 3d
       -0.055741843 -0.013549737 -0.082722664 0.08937533
000220 11 99 95 3c af 68 88 bc 05 12 aa 3b 89 32 ae bc
       0.018261464 -0.01665148 0.0051901364 -0.021264331
000230 2b 11 a2 bc fe bf 14 3b cb 0b 67 3d 3e aa 88 bc
       -0.019783577 0.0022697444 0.05640773 -0.01668274
000240 dd a9 9f 3b 63 28 03 bd 33 2f 3f bc 3e 05 8d 3d
       0.004872544 -0.032020938 -0.011668968 0.068857655
000250 07 2e 20 bc b0 ee f6 3a ac ff 3a 3c e1 b1 45 3c
       -0.009776599 0.0018839445 0.011413496 0.012066335
000260 e6 6d 9f 3d 78 a1 c0 bd b5 b7 0f bd a2 0f 8b bd
       0.07784633 -0.09405798 -0.035087306 -0.06790091
000270 ef ad 22 3d 72 e5 04 bb 47 55 e6 3d ee 72 97 bd
       0.039716657 -0.0020278362 0.11246734 -0.07394968
000280 d1 43 70 bd 86 b3 ef 3d 95 ca 73 3b ae 58 a9 3d
       -0.058658425 0.11704163 0.0037199606 0.082688674
000290 52 4c 0d bd 8d bc de bb ec b3 09 3d fd 0b 05 3d
       -0.034496613 -0.0067973793 0.033618852 0.032482136
0002a0 c9 63 10 bd 31 c7 16 bd f7 45 de ba df 71 0b 3e
       -0.035251413 -0.036811057 -0.0016958107 0.13617657
0002b0 7e 47 89 3d e4 26 3f 3c 71 65 85 bd bd db dd bd
       0.06703089 0.011666987 -0.06513489 -0.108329274
0002c0 5a 1b 16 be 15 cf a3 3c 58 15 67 3d 64 f3 bb 3c
       -0.14658871 0.019996205 0.05641684 0.022943206
0002d0 f3 0a 15 bc 62 47 86 3c 7c 77 1b 3d 5a ac 15 3d
       -0.009096849 0.01639146 0.037955746 0.03654132
0002e0 9b ef 38 bd 47 b5 02 bd a7 7a 26 bb 50 78 d1 3b
       -0.04515038 -0.03191116 -0.0025402696 0.006392516
0002f0 d6 69 13 3d 30 94 d4 bc 49 9a ef 3d 04 0b cf 3c
       0.035989605 -0.025949568 0.116993494 0.025273807
000300 e7 1f dc 3c 8f 91 13 3d cc 8e 9f bd f7 43 0a 3e
       0.026870681 0.036027487 -0.07790908 0.13502489
000310 f2 f0 b9 bb 16 23 b7 3c bb 64 5a 3d f9 23 fd 3b
       -0.005674475 0.022355597 0.05331872 0.0077252355
000320 7a f8 fd bb ce 55 85 3d 94 25 79 bc b9 0b ea bd
       -0.007750568 0.065105066 -0.015206713 -0.11428017
000330 e1 e7 79 3a 7f 5c 36 bc cc 69 9e bd b4 30 f8 3c
       0.0009533149 -0.011130451 -0.07735023 0.030296661
000340 5c 62 26 bd 03 d8 d8 bc 5e ca 39 bd 13 bd 68 bd
       -0.040621147 -0.02647019 -0.045359008 -0.05682094
000350 38 f7 3e 3d 4b db 52 3d fd 08 01 bd c7 18 f9 bc
       0.046622485 0.051478665 -0.031502713 -0.030407323
000360 64 34 58 3d 99 53 46 3c 0f 2e d2 3d e3 b1 b0 3c
       0.05278434 0.012104892 0.10262691 0.021569198
000370 8a 3a 89 3d 99 6e 51 bd a6 13 52 bd eb c2 3b bd
       0.067006186 -0.051130865 -0.05128827 -0.045840185
000380 60 50 23 ba 31 89 9e bc 59 0c 35 bd 85 05 c4 3c
       -0.00062299334 -0.019352527 -0.04420123 0.023928413
000390 4d 67 68 bd e0 a8 3d 3c d2 65 4c bd 49 70 14 3d
       -0.05673914 0.0115759075 -0.04990179 0.036239896
0003a0 f3 cb 05 bd 1b b9 92 bd c7 36 84 bc 2b d7 97 3d
       -0.032665204 -0.07164212 -0.016139401 0.07414087
0003b0 1c f4 8b 3d db 4f 2f 3d 15 f7 6b 3d 23 1c 43 bd
       0.068336695 0.042800765 0.057608683 -0.047634255
0003c0 37 d8 78 bc 36 fb 7c 3c 6a ad 56 3d c5 9e a6 3c
       -0.015188268 0.015440753 0.052411474 0.02033938
0003d0 41 0f 00 3d 58 6b aa 3d 2e 5a 72 3d 37 f3 56 bd
       0.031264547 0.083212554 0.059168033 -0.05247804
0003e0 33 cf 06 be 5f 99 20 bd a5 66 42 bd 26 90 32 3c
       -0.13164978 -0.039208766 -0.04746117 0.0108986255
0003f0 85 e3 40 3c 09 fa 46 3c b6 8e d5 3c 39 23 43 bd
       0.011772995 0.012144574 0.026069026 -0.047641013

net.level3_0.eesp.conv_1x1_exp.bn.weight f4 [32]
000000 25 b9 c9 3d 26 45 3d 3e 7c f2 4f 3e 01 62 40 3e
       0.09849767 0.1848341 0.20307344 0.18787386
000010 13 52 61 3e d7 bf cb 3d 39 c0 ab 3e 38 03 98 3e
       0.22003965 0.099487 0.33545092 0.29689956
000020 5b 74 5c 3d 75 2a 4e 3e 4e 9b 53 bc a6 59 6d 3e
       0.053821903 0.20133384 -0.0129154455 0.2317873
000030 c1 bd 52 3e 14 3e 7a 3e 91 c2 96 3d 2b 8d 6e 3e
       0.20580198 0.24437743 0.07361329 0.23296039
000040 84 f6 db 3d 8e 2b a9 3d aa 03 66 3d 9d e8 58 3e
       0.107403785 0.082602605 0.056155838 0.21182485
000050 f3 3b 53 3e b8 e6 50 3e c7 7d 0c 3e c4 28 e2 3d
       0.20628338 0.20400512 0.13719855 0.11042932
000060 ef 46 47 3e fa 0b 25 3e 73 89 f3 3d bd 3a 2e 3e
       0.19460653 0.1611785 0.11891451 0.17014594
000070 3f 44 2d 3d c6 e2 1a 3e 57 02 d0 3d b4 01 eb 3d
       0.042301413 0.1512557 0.10156696 0.11474934

net.level3_0.eesp.conv_1x1_exp.bn.bias f4 [32]
000000 1a e7 aa bc a0 6b 3d 3d b4 b9 20 3d 6f d3 a0 3c
       -0.020862151 0.046245217 0.0392396 0.01963207
000010 78 1a 28 3c 08 61 2c bc 90 f4 95 3d 37 d9 54 3d
       0.010260217 -0.010521181 0.07322037 0.051964965
000020 f3 16 a4 bb b1 17 ca bc ce f5 a4 bc 3f 93 fb bb
       -0.0050076186 -0.0246695 -0.02013674 -0.007677465
000030 ac 2f 74 bc 7a e3 3c 3d 37 6e 1e bd 3b e4 1d 3d
       -0.014903944 0.046115376 -0.038679328 0.038547736
000040 3b d8 af 3b d9 13 da bc 6c 88 be bc 18 cc a1 3c
       0.005366353 -0.026620792 -0.02325841 0.01975064
000050 bc 9b 67 bd b9 6d 1b 3d 1b 09 de bc 3a 4a 4c 3d
       -0.056545004 0.037946437 -0.027103951 0.049875475
000060 2d 73 10 3c 5c 6d 1d 3d 63 21 ea 3c e0 59 29 3d
       0.008816523 0.03843437 0.028580373 0.041345477
000070 62 e0 97 bc 19 cf 6b 38 de 1b 1b 3b f0 c8 3d bc
       -0.018539611 5.622124e-05 0.0023667733 -0.011583552
