data/Trackingf.pth (torch_old, 503233 bytes, 365 tensors)

net.level1.conv.weight f4 [16, 3, 3, 3]
-0.16439156 -0.0014407806 -0.11327018 0.20699894 -0.0633665 0.0009333624 -0.07548108 0.07250086
-0.044554487 -0.1935553 0.13045129 0.17027913 0.059112955 0.09630496 0.008441078 0.14140059
-0.042263184 -0.3215023 -0.0580755 0.09389649 0.00651266 0.007942335 -0.056387406 -0.09139624
0.043911926 0.15844883 -0.12614843 -0.020013815 -0.09728517 -0.04278839 -0.17405418 -0.05385522
-0.023134904 0.10534972 -0.095158465 -0.10586951 0.035798732 -0.0058083525 0.0014508134 -0.045007266
0.060234267 -0.14636244 -0.07556017 0.023238378 -0.0005304127 0.07438395 0.16067109 0.14384206
0.10016761 -0.14947361 0.1310214 0.12429394 0.13265689 0.14085242 0.10519317 -0.051886342
0.06867708 -0.019638147 0.032582335 0.0505571 -0.002753234 -0.0378949 0.053607088 0.026234312
0.07509385 0.048107475 0.028383566 0.11266955 0.02887033 0.013283739 0.05445579 0.027144535
-0.0819508 -0.080645055 -0.027434593 -0.028688174 -0.10545871 -0.07958075 -0.017273217 0.0029806388
-0.052477174 -0.04542117 0.037080165 -0.024445444 -0.005738467 0.029586317 -0.06602592 0.0035676772
0.018960265 -0.07214455 -0.1041813 0.0050982186 -0.015432913 -0.012536569 0.015863286 0.009974244
0.034591254 0.04224667 -0.0017310883 0.0884366 0.077695526 0.08489308 0.06607156 0.03457993
0.05659101 0.024591377 0.015832232 -0.012074116 0.056866653 -0.049856458 0.079247415 -0.04076373
0.015435443 0.07019806 -0.008921749 0.018461378 -0.0026202067 -0.031853903 -0.14008653 -0.06444489
0.097194955 0.041661847 0.036912985 -0.071305595 -0.0670459 0.045969017 0.06588094 -0.03278254
-0.06836407 0.0791193 0.0858985 0.059319697 0.057983015 -0.035561893 -0.0038900157 -0.023787973
-0.048529096 -0.15371703 -0.03066462 0.11794965 -0.02553607 -0.0138328755 0.055440564 -0.14020246
-0.09312976 -0.036250193 -0.15655413 0.080047004 -0.1818806 -0.02480397 -0.0019736905 -0.13561143
-0.06731051 0.07891022 -0.0023676378 0.07213336 -0.0038769247 0.14018829 0.069118716 0.0672863
0.014205123 0.0691973 0.06532073 -0.041253373 0.0553844 -0.026728185 -0.043323275 0.075497
-0.01832505 -0.10000711 -0.0311317 0.021378594 -0.054072104 0.07458156 0.050823927 0.062521465
-0.13215345 -0.061783947 -0.1054928 0.01754194 0.059354905 0.10120592 0.10440695 0.04138852
0.017578017 0.04818301 0.07186663 -0.015545376 0.035987392 -0.02913041 -0.06298452 -0.049377643
-0.1257373 -0.01518542 -0.015434199 0.040409155 -0.14840528 -0.035368867 0.013411101 0.037644617
-0.0691169 0.012737388 -0.07945455 -0.044217043 -0.018513238 0.026220065 -0.021684099 0.11551918
0.10181985 0.16419221 0.13462909 0.050632745 0.022010546 0.050967064 0.15087284 0.17558087
-0.068987474 0.017829077 -0.17813326 -0.11106298 -0.12450831 -0.13508621 0.064100005 -0.021025594
0.051424176 0.07657318 -0.07763799 -0.027973779 -0.03418621 0.032213632 -0.11370626 -0.17467819
-0.02723219 -0.15495615 0.007617952 0.105887584 0.17316276 0.120900616 0.09069524 0.20525193
0.06937539 0.030354971 0.05942156 0.021093784 -0.23339869 -0.15508337 -0.063889235 -0.05050997
-0.010275759 -0.13373373 0.051172297 -0.120783 -0.11160338 0.062008355 0.06715691 0.04372509
00000000: 4356 28be 93d8 bcba 32fa e7bd 88f7 533e
00000010: 4cc6 81bd e4ac 743a d395 9abd 557b 943d
00000020: c47e 36bd 5c33 46be 0695 053e a75d 2e3e
00000030: 6d20 723d 893b c53d 724c 0a3c 51cb 103e
00000040: 291c 2dbd f39b a4be 93e0 6dbd ce4c c03d
00000050: 2768 d53b 9120 023c 7bf6 66bd f42d bbbd
00000060: fedc 333d 6940 223e 0e2d 01be 03f4 a3bc
00000070: 723d c7bd e142 2fbd 423b 32be 4b97 5cbd
00000080: 6985 bdbc 98c1 d73d 71e2 c2bd 1dd2 d8bd
00000090: b1a1 123d fe53 bebb 3829 be3a 8a59 38bd
000000a0: 35b8 763d 09e0 15be 4abf 9abd 695e be3c
000000b0: 650b 0bba 9d56 983d f686 243e 554b 133e
000000c0: ad24 cd3d 9c0f 19be 792a 063e d28d fe3d
000000d0: 35d7 073e 9e3b 103e 846f d73d c686 54bd
000000e0: 92a6 8c3d 2ee0 a0bc 0e75 053d f614 4f3d
000000f0: 9a6f 34bb af37 1bbd 1b93 5b3d 57e9 d63c
00000100: ceca 993d 580c 453d a784 e83c 4bbf e63d
00000110: 7881 ec3c 0aa4 593c 090d 5f3d 375e de3c
00000120: d2d5 a7bd 3c29 a5bd 83be e0bc 7603 ebbc
00000130: bcfa d7bd 3bfb a2bd 9080 8dbc d256 433b
00000140: 4ef2 56bd 8c0b 3abd 5fe1 173d d041 c8bc
00000150: c009 bcbb 015f f23c 9938 87bd b1cf 693b
00000160: 8f52 9b3c 86c0 93bd 015d d5bd f50e a73b
00000170: 54da 7cbc 2e66 4dbc b9f3 813c 036b 233c
00000180: 8faf 0d3d d80a 2d3d afe5 e2ba 401e b53d
00000190: d51e 9f3d 6cdc ad3d 8750 873d afa3 0d3d
000001a0: facb 673d db73 c93c 99b2 813c 83d2 45bc
000001b0: 02ed 683d 4936 4cbd 784c a23d def7 26bd
000001c0: f1e4 7c3c 00c4 8f3d 872c 12bc 513c 973c
000001d0: c6b7 2bbb 3d79 02bd d872 0fbe affb 83bd
000001e0: 260e c73d 9da5 2a3d 1232 173d ab08 92bd
000001f0: 5c4f 89bd 024a 3c3d 96ec 863d fc46 06bd
00000200: 7602 8cbd 4d09 a23d 8eeb af3d 36f9 723d
00000210: 997f 6d3d 59a9 11bd a2ef 7ebb ffde c2bc
00000220: 72c6 46bd ff67 1dbe 5f34 fbbc 968f f13d
00000230: 0531 d1bc 49a3 62bc a515 633d 3c91 0fbe
00000240: d1ba bebd 157b 14bd ba4f 20be afef a33d
00000250: e83e 3abe b231 cbbc 0859 01bb b9dd 0abe
00000260: 18da 89bd ae9b a13d 5f2a 1bbb a8ba 933d
00000270: 0114 7ebb 858d 0f3e 1d8e 8d3d 66cd 893d
00000280: 9bbc 683c 50b7 8d3d e0c6 853d 4cf9 28bd
00000290: c1da 623d 11f5 dabc bf73 31bd 2c9e 9a3d
000002a0: 6a1e 96bc 87d0 ccbd e807 ffbc 2922 af3c
000002b0: b67a 5dbd 38be 983d c02c 503d 410b 803d
000002c0: 3c53 07be 2a11 7dbd 9c0c d8bd 1db4 8f3c
000002d0: 211e 733d 0d45 cf3d 50d3 d53d 0287 293d
000002e0: c6ff 8f3c 8c5b 453d d02e 933d 08b2 7ebc
000002f0: 8467 133d e6a2 eebc 07fe 80bd 3640 4abd
00000300: 47c1 00be 45cc 78bc b9df 7cbc 1284 253d
00000310: 8ef7 17be f2de 10bd 3cba 5b3c 3e31 1a3d
00000320: 298d 8dbd 7ab0 503c 11b9 a2bd ee1c 35bd
00000330: 13a9 97bc 76cb d63c daa2 b1bc 5295 ec3d
00000340: ed86 d03d 0122 283e 35dc 093e 4864 4f3d
00000350: 764f b43c d7c2 503d 697e 1a3e 79cb 333e
00000360: 4e49 8dbd 490e 923c 9168 36be fd74 e3bd
00000370: 36fe febd 0a54 0abe dd46 833d de3d acbc
00000380: 28a2 523d 66d2 9c3d ab00 9fbd 4429 e5bc
00000390: d706 0cbd 71f2 033d d4de e8bd d7de 32be
000003a0: 0b16 dfbc d3ac 1ebe 03a0 f93b 97db d83d
000003b0: 9451 313e be9a f73d 6dbe b93d 902d 523e
000003c0: af14 8e3d fdaa f83c 0664 733d dfcc ac3c
000003d0: 1100 6fbe 2dce 1ebe 5cd8 82bd 8be3 4ebd
000003e0: a85b 28bc 7ff1 08be 0b9a 513d 145d f7bd
000003f0: 5090 e4bd 79fc 7d3d 9089 893d 1419 333d

net.level1.bn.weight f4 [16]
0.50328946 0.8961054 0.6625457 0.9022151 0.54436654 0.78335243 0.83366513 0.8645446
0.6600708 0.90892774 0.8774229 0.39844355 0.8055081 0.6050963 0.31581068 0.64069855
00000000: 94d7 003f 2a67 653f 989c 293f 92f7 663f
00000010: 9b5b 0b3f c989 483f 146b 553f cb52 5d3f
00000020: 66fa 283f 7daf 683f ca9e 603f cb00 cc3e
00000030: c735 4e3f 97e7 1a3f f0b1 a13e d204 243f

net.level1.bn.bias f4 [16]
-0.20281081 0.3633344 0.42507276 0.38948697 -0.15273272 0.422568 0.39479262 0.33015698
0.5943633 0.2769568 0.5352762 -0.083048984 0.42116734 0.446225 -0.11557537 0.3278948
00000000: a3ad 4fbe f706 ba3e 23a3 d93e d66a c73e
00000010: f765 1cbe d55a d83e 4222 ca3e 560a a93e
00000020: 3128 183f 48cd 8d3e dc07 093f 9615 aabd
00000030: 3fa3 d73e 9a77 e43e c8b2 ecbd d4e1 a73e

net.level1.bn.running_mean f4 [16]
-0.07203606 0.21888554 0.05999915 0.17895298 0.11175813 -0.15268803 0.19346046 0.28944647
0.039442692 0.22313622 0.12636581 0.0034644976 0.04853682 -0.08053814 -0.028493669 0.12825885
00000000: a487 93bd 8823 603e abc1 753d 733f 373e
00000010: 72e1 e43d 405a 1cbe 801a 463e 5432 943e
00000020: a98e 213d d27d 643e 0a66 013e a00c 633b
00000030: 8bce 463d 2ef1 a4bd 8e6b e9bc 4a56 033e

net.level1.bn.running_var f4 [16]
0.037893347 0.0462885 0.040126085 0.06257107 0.05428998 0.14388137 0.09121888 0.10523507
0.030608052 0.036557544 0.078140296 0.008610234 0.010026492 0.022081299 0.032014646 0.0138727
00000000: 0e36 1b3d 0399 3d3d 405b 243d 4325 803d
00000010: 2c5f 5e3d a355 133e f7d0 ba3d 7c85 d73d
00000020: bdbd fa3c 5dbd 153d 0508 a03d f011 0d3c
00000030: 2846 243c d7e3 b43c ca21 033d 524a 633c

net.level1.act.weight f4 [16]
0.21788923 -0.15044723 0.043788124 -0.06271772 0.19191602 0.009263788 -0.07504146 -0.04338934
-0.039313678 -0.16439521 -0.05680531 -0.0065091588 0.015312223 0.023080077 0.059583142 -0.019606134
00000000: 5b1e 5f3e d70e 1abe 2d5b 333d 2672 80bd
00000010: a285 443e 25c7 173c 56af 99bd 05b9 31bd
00000020: 6107 21bd 3857 28be afac 68bd c84a d5bb
00000030: 1ee0 7a3c 6e12 bd3c 740d 743d 0b9d a0bc

net.level2_0.eesp.proj_1x1.conv.weight f4 [4, 4, 1, 1]
-0.32343513 0.2431276 -0.025299577 -0.25328323 0.18161722 0.25840688 0.26270497 -0.42116615
-0.23500904 0.13521686 0.16404347 -0.063952714 -0.13194749 -0.19150548 0.057340365 -0.24700558
00000000: 4a99 a5be 71f6 783e 0f41 cfbc 57ae 81be
00000010: ddf9 393e e84d 843e 4481 863e 17a3 d7be
00000020: 36a6 70be 4a76 0a3e 03fb 273e a4f9 82bd
00000030: 3e1d 07be 031a 44be bbdd 6a3d 08ef 7cbe

net.level2_0.eesp.proj_1x1.bn.weight f4 [4]
0.16558337 0.1438473 0.06167416 0.053422865
00000000: b08e 293e b54c 133e 0b9e 7c3d efd1 5a3d

net.level2_0.eesp.proj_1x1.bn.bias f4 [4]
0.06364695 0.070237294 0.053364113 0.04296965
00000000: 5559 823d 92d8 8f3d 5494 5a3d f200 303d

net.level2_0.eesp.proj_1x1.bn.running_mean f4 [4]
-0.040695656 0.07902219 0.03601669 -0.28667215
00000000: 7db0 26bd 63d6 a13d 3d86 133d b1c6 92be

net.level2_0.eesp.proj_1x1.bn.running_var f4 [4]
0.014580778 0.04333775 0.053635426 0.04472062
00000000: 37e4 6e3c ed82 313d d2b0 5b3d f82c 373d

net.level2_0.eesp.proj_1x1.act.weight f4 [4]
0.14029855 0.043304384 0.08901776 0.07143646
00000000: 6caa 0f3e f05f 313d f14e b63d 474d 923d

net.level2_0.eesp.spp_dw.0.conv.weight f4 [4, 1, 3, 3]
0.062137414 -0.11363266 -0.20854451 0.0413144 0.2706139 0.105889425 0.061563183 -0.13875814
0.2119345 0.048138 0.06554589 -0.2910059 0.18025535 0.15514287 -0.07461426 0.073054604
0.24266194 -0.06801489 -0.1655819 0.0031205772 0.09060024 0.11100885 -0.14123017 -0.12414444
-0.1032099 0.066516586 -0.19998044 0.057276458 0.111098394 -0.10730106 0.029049905 -0.010851579
0.088983685 -0.08967088 0.024011116 0.20896167
00000000: cd83 7e3d 3db8 e8bd b18c 55be 4a39 293d
00000010: e88d 8a3e 8edc d83d ad29 7c3d 9d16 0ebe
00000020: 5c05 593e 5a2c 453d ec3c 863d bafe 94be
00000030: dc94 383e c6dd 1e3e 5ccf 98bd a79d 953d
00000040: 5f7c 783e 644b 8bbd 4d8e 29be 9982 4c3b
00000050: 9e8c b93d 9c58 e33d a49e 10be 713f febd
00000060: b65f d3bd d939 883d acc7 4cbe b89a 6a3d
00000070: 8e87 e33d a8c0 dbbd 11fa ed3c d2ca 31bc
00000080: 143d b63d 5ea5 b7bd f6b2 c43c 0cfa 553e

net.level2_0.eesp.spp_dw.1.conv.weight f4 [4, 1, 3, 3]
-0.0029702806 -0.07467937 -0.106752284 -0.050724868 0.10077371 -0.13597569 -0.009760284 -0.16298637
-0.013841896 -0.037638273 -0.08813719 -0.0030240188 -0.23241304 0.040470473 0.05660494 0.0069559426
-0.00019009977 -0.08545542 0.052293885 -0.0320585 0.025294475 -0.015414248 0.13695498 0.13196564
0.15217584 -0.022412207 -0.14627722 -0.024538722 -0.21375065 -0.01840052 -0.041015428 0.0930113
-0.03688757 0.09134955 0.023382116 -0.022256218
00000000: 0aa9 42bb 7ff1 98bd f1a0 dabd e1c4 4fbd
00000010: 7262 ce3d 363d 0bbe 99e9 1fbc e6e5 26be
00000020: 1fc9 62bc 972a 1abd 4581 b4bd 9e2e 46bb
00000030: affd 6dbe 5ec4 253d 95da 673d adee e33b
00000040: 8555 47b9 4003 afbd 1d32 563d c64f 03bd
00000050: 5c36 cf3c 0b8c 7cbc ed3d 0c3e 0022 073e
00000060: fcd3 1b3e ce99 b7bc b2c9 15be 6e05 c9bc
00000070: 73e1 5abe b0bc 96bc cbff 27bd b57c be3d
00000080: 6c17 17bd 7915 bb3d da8b bf3c ac52 b6bc

net.level2_0.eesp.spp_dw.2.conv.weight f4 [4, 1, 3, 3]
-0.039847307 0.21077973 0.04437309 -0.04832481 0.029011292 0.1298568 -0.009967325 0.052544486
-0.09007975 -0.019554064 0.08795604 -0.016538886 -0.016235247 -0.030661864 -0.075834855 -0.02829467
-0.15020633 -0.081829034 0.07825654 0.029405512 0.018569537 -0.37256444 0.015470925 0.058051813
0.09882344 -0.06851964 0.0679801 0.07005236 -0.0015719966 0.06817347 -0.0050634076 -0.03790219
-0.063012786 0.028321546 -0.022871107 0.05334796
00000000: ee36 23bd a4d6 573e 8fc0 353d 3cf0 45bd
00000010: 17a9 ed3c 2ef9 043e fe4d 23bc e338 573d
00000020: bb7b b8bd d82f a0bc 4c22 b43d 8f7c 87bc
00000030: c8ff 84bc 972e fbbc 4e4f 9bbd 39ca e7bc
00000040: b0cf 19be fb95 a7bd f744 a03d d4e3 f03c
00000050: 241f 983c c4c0 bebe c379 7d3c bdc7 6d3d
00000060: f263 ca3d 0654 8cbd 2739 8b3d 9d77 8f3d
00000070: 740b ceba 889e 8b3d f1ea a5bb 543f 1bbd
00000080: d90c 81bd 9602 e83c 305c bbbc 6483 5a3d

net.level2_0.eesp.spp_dw.3.conv.weight f4 [4, 1, 3, 3]
0.012227206 -0.009070946 -0.028518977 -0.011401763 -0.0011625678 -0.047257256 -0.004427733 -0.036900196
0.04095992 0.013966111 -0.008722302 0.05768217 0.050848577 0.029082155 0.0521675 -0.0027285062
-0.03663134 -0.017368518 0.23826262 -0.17177191 -0.004891752 0.041816417 -0.03504816 -0.037352238
0.0051826523 0.010991051 0.1344084 -0.018733136 0.0012688555 0.027809044 0.016663006 -0.18234982
-0.023681514 -0.04136142 -0.025798079 0.007975685
00000000: 9e54 483c 4e9e 14bc a1a0 e9bc 76ce 3abc
00000010: 4d61 98ba d390 41bd 8416 91bb a924 17bd
00000020: 97c5 273d 1dd2 643c fce7 0ebc 2444 6c3d
00000030: 9946 503d b33d ee3c 97ad 553d bdd0 32bb
00000040: be0a 16bd 6c48 8ebc 1efb 733e fae4 2fbe
00000050: fd4a a0bb b147 2b3d a98e 0fbd a9fe 18bd
00000060: 3dd3 a93b cf13 343c 5ba2 093e 3c76 99bc
00000070: ba4f a63a cbcf e33c db80 883c e9b9 3abe
00000080: bcff c1bc 986a 29bd 7e56 d3bc 73ac 023c

net.level2_0.eesp.conv_1x1_exp.conv.weight f4 [16, 4, 1, 1]
-0.041295942 -0.014885078 -0.028367793 -0.017918725 -0.00359562 -0.054973282 0.0025734312 -0.015722139
0.062210035 -0.029029178 -0.14006537 0.0026668594 0.025804307 0.06983164 -0.008556422 -0.031084003
0.07801315 0.17055742 0.1439846 -0.025707137 -0.0152149405 0.0062424215 0.01292879 -0.051868033
0.11966098 0.06582834 -0.061640646 -0.18561514 -0.046395443 0.09144136 0.016226431 0.14524
-0.0022870435 0.052887842 -0.04794577 -0.006091653 0.011531673 -0.09431918 0.060388498 0.01796579
0.11259491 -0.016692746 0.025422229 -0.011807835 0.08808808 0.046909768 0.031181052 0.018501509
-0.08318488 -0.06830968 -0.00016013057 0.08816211 0.10375679 -0.0009849273 -0.00044915653 0.049405493
-0.03209691 -0.030817306 -0.027688932 -0.027352324 0.07740848 0.13449743 0.15601583 0.026579075
00000000: ef25 29bd 8be0 73bc 9363 e8bc 4aca 92bc
00000010: 7ea4 6bbb aa2b 61bd 03a7 283b b7cb 80bc
00000020: f3cf 7e3d 99ce edbc 4c6d 0fbe 7ac6 2e3b
00000030: 8e63 d33c e403 8f3d 3c30 0cbc e1a3 febc
00000040: 5cc5 9f3d 9ba6 2e3e b370 133e c697 d2bc
00000050: 1648 79bc 3a8d cc3b 47d3 533c 9373 54bd
00000060: d110 f53d 02d1 863d e77a 7cbd e511 3ebe
00000070: 2609 3ebd 9c45 bb3d 4bed 843c cbb9 143e
00000080: 39e2 15bb eca0 583d c962 44bd 7d9c c7bb
00000090: 58ef 3c3c 6a2a c1bd ee59 773d fe2c 933c
000000a0: 2998 e63d 3abf 88bc 4742 d03c a675 41bc
000000b0: 8667 b43d 7524 403d 686f ff3c 7a90 973c
000000c0: d65c aabd f2e5 8bbd b9e8 27b9 568e b43d
000000d0: 717e d43d ad18 81ba c57c ebb9 6a5d 4a3d
000000e0: 0d78 03bd 9374 fcbc e6d3 e2bc fb11 e0bc
000000f0: 5688 9e3d b2b9 093e 9dc2 1f3e 5cbc d93c

net.level2_0.eesp.conv_1x1_exp.bn.weight f4 [16]
0.08252259 0.1225368 0.22139661 0.2654946 0.42137834 0.105741285 0.28793204 0.2615846
0.17065302 0.14793919 0.24930945 0.13705456 0.15409406 0.2154602 0.1475449 0.3179969
00000000: 9b01 a93d 93f4 fa3d cbb5 623e e9ee 873e
00000010: e7be d73e e38e d83d d46b 933e 6bee 853e
00000020: aabf 2e3e 5f7d 173e fa4a 7f3e 0858 0c3e
00000030: d5ca 1d3e 99a1 5c3e 0316 173e 7dd0 a23e

net.level2_0.eesp.conv_1x1_exp.bn.bias f4 [16]
-0.024095442 -0.029512888 -0.026128748 0.0029156085 0.032104388 -0.014733482 0.0023899248 0.01896772
-0.034720674 -0.0028724992 0.036232382 -0.0036852 -0.011194612 0.021736471 -0.0136138555 0.023152681
00000000: ce63 c5bc 03c5 f1bc f50b d6bc cb13 3f3b
00000010: e47f 033d b464 71bc 49a0 1c3b 3162 9b3c
00000020: 4437 0ebd 8a40 3cbb 6868 143d 6583 71bb
00000030: 9b69 37bc af10 b23c a60c 5fbc b1aa bd3c

net.level2_0.eesp.conv_1x1_exp.bn.running_mean f4 [16]
-0.0064356322 -0.0040660305 -0.007842426 0.0051505202 0.020772528 -0.007899316 -0.01987071 0.02698438
-0.0015288105 0.0009614881 0.0072959578 0.008544749 -0.0051547014 0.0063064885 -0.0048539764 0.01834554
00000000: ffe1 d2bb 563c 85bb 857d 00bc b2c5 a83b
00000010: 262b aa3c 226c 01bc e6c7 a2bc 590e dd3c
00000020: 5e62 c8ba 600c 7c3a ee12 ef3b 46ff 0b3c
00000030: c5e8 a8bb a9a6 ce3b 1b0e 9fbb 6349 963c

net.level2_0.eesp.conv_1x1_exp.bn.running_var f4 [16]
4.3871045e-05 2.3859004e-05 0.0003008276 5.0994055e-05 0.0017201359 0.00011577513 0.0019845448 0.0010699598
2.0537569e-05 5.6036795e-05 0.0001728176 0.00010529522 0.0001855732 0.00022063735 4.8490645e-05 0.0006432094
00000000: 2d02 3838 d224 c837 66b8 9d39 73e2 5538
00000010: 2f76 e13a 4dcc f238 230f 023b e53d 8c3a
00000020: 1848 ac37 0d09 6b38 5f36 3539 f1d1 dc38
00000030: 6d96 4239 e35a 6739 6f62 4b38 0d9d 283a

net.level2_0.eesp.br_after_cat.bn.weight f4 [16]
0.19264615 0.10775905 0.18948461 0.0728434 0.28225526 0.30195567 0.17783624 0.299325
0.15909192 0.12444671 0.07479332 0.048852045 0.2024194 0.19342874 0.19716904 0.10760833
00000000: 0845 453e c7b0 dc3d 4108 423e ec2e 953d
00000010: c383 903e ef99 9a3e b41a 363e 2041 993e
00000020: fee8 223e ebdd fe3d 3d2d 993d 1519 483d
00000030: 0847 4f3e 2f12 463e aee6 493e c261 dc3d

net.level2_0.eesp.br_after_cat.bn.bias f4 [16]
0.012173385 0.046910398 -0.014598697 -0.019831968 -0.06754713 -0.055217598 -0.048258822 0.0813172
0.015515194 -0.0202545 0.053499587 -0.03415043 -0.002306729 -0.055368792 -0.02217496 -0.03476641
00000000: e172 473c 1e25 403d 602f 6fbc a776 a2bc
00000010: 2656 8abd d92b 62bd 0bab 45bd a289 a63d
00000020: 7133 7e3c c4ec a5bc 6222 5b3d 52e1 0bbd
00000030: 7e2c 17bb 63ca 62bd 43a8 b5bc 3967 0ebd

net.level2_0.eesp.br_after_cat.bn.running_mean f4 [16]
0.027392194 0.0318446 -0.027534569 0.015539716 -0.015977433 0.0014308932 -0.011389499 0.008155309
0.009393113 -0.02672766 -0.01606426 0.012744963 0.0010798548 -0.013885336 -0.005872807 0.0012110119
00000000: 9865 e03c 7c6f 023d 2d90 e1bc 4b9a 7e3c
00000010: 1be3 82bc cf8c bb3a 059b 3abc d89d 053c
00000020: 92e5 193c f7f3 dabc 3299 83bc 40d0 503c
00000030: ea89 8d3a 527f 63bc ad70 c0bb d1ba 9e3a

net.level2_0.eesp.br_after_cat.bn.running_var f4 [16]
0.0015496743 0.0017963587 0.0006400268 0.0001653896 0.0014159512 0.0005360564 0.00012841533 7.091908e-05
0.0015942092 0.0015296842 0.00027760043 0.0001238599 0.0014419843 0.0011082068 0.00013131078 2.34077e-05
00000000: 711e cb3a cc73 eb3a 79c7 273a 6f6c 2d39
00000010: 7097 b93a 2386 0c3a 3aa7 0639 64ba 9438
00000020: c9f4 d03a af7f c83a e68a 9139 64e0 0139
00000030: f700 bd3a 4041 913a 78b0 0939 a75b c437

net.level2_0.eesp.br_after_cat.act.weight f4 [16]
0.0056292065 -0.007645016 0.056775298 -0.0009900631 -0.045998584 -0.07376854 -0.0038040648 0.0994381
-0.08412212 0.08797156 0.00015764381 -0.0024202187 -0.03442897 0.0013084628 -0.04218575 -0.016104035
00000000: 3575 b83b 0b83 fabb 378d 683d 01c5 81ba
00000010: 0369 3cbd f613 97bd 9e4d 79bb 34a6 cb3d
00000020: 3848 acbd 6f2a b43d 304d 2539 889c 1ebb
00000030: 6405 0dbd ba80 ab3a f7ca 2cbd 9cec 83bc

net.level2_0.eesp.module_act.weight f4 [16]
0.25 0.25 0.25 0.25 0.25 0.25 0.25 0.25
0.25 0.25 0.25 0.25 0.25 0.25 0.25 0.25
00000000: 0000 803e 0000 803e 0000 803e 0000 803e
00000010: 0000 803e 0000 803e 0000 803e 0000 803e
00000020: 0000 803e 0000 803e 0000 803e 0000 803e
00000030: 0000 803e 0000 803e 0000 803e 0000 803e

net.level2_0.inp_reinf.0.conv.weight f4 [3, 3, 3, 3]
-0.008484597 -0.15951902 0.22538033 0.3564326 -0.17923714 0.19752625 0.24010353 -0.3736214
-0.23760387 0.36433482 -0.0286224 0.15205227 -0.28973255 -0.16514489 -0.29447538 0.04472811
-0.28861335 0.19341795 0.08545726 0.046006896 0.25881535 -0.10667928 0.115378425 -0.24675633
-0.076349005 -0.20282507 0.33280078 0.032256752 0.11037914 0.11541725 0.08083932 0.07343934
-0.06365943 -0.090794966 -0.1500959 0.08927751 0.0698056 0.10840382 0.06775757 0.027853882
0.028051771 0.030009404 0.018895531 0.21491693 -0.022066273 0.12269465 0.09483092 0.081845894
-0.044913027 0.008697351 -0.07476785 -0.009643365 -0.13197953 -0.11058282 0.059388556 -0.032589257
-0.044999484 -0.06739009 -0.15267572 0.0136626875 0.11035485 0.061456308 0.040523812 0.030157764
-0.07235746 -0.00034453522 -0.026296988 -0.008567362 0.07099301 0.04101667 0.069269374 0.010422245
-0.027589716 0.056498747 0.018051652 0.035301484 0.07364701 -0.031317018 0.029920721 0.07625811
0.07669395
00000000: fb02 0bbc f458 23be 1aca 663e 557e b63e
00000010: f189 37be 5244 4a3e b3dd 753e 4e4b bfbe
00000020: 6e4e 73be 188a ba3e 8679 eabc 97b3 1b3e
00000030: d357 94be be1b 29be 7ac5 96be d334 373d
00000040: 21c5 93be 5b0f 463e 3704 af3d ba71 3c3d
00000050: 7283 843e ab7a dabd 864b ec3d b1ad 7cbe
00000060: de5c 9cbd 60b1 4fbe dd64 aa3e a81f 043d
00000070: 750e e23d e15f ec3d 168f a53d 5d67 963d
00000080: e05f 82bd b6f2 b9bd bdb2 19be 21d7 b63d
00000090: 3df6 8e3d d202 de3d 7bc4 8a3d d32d e43c
000000a0: d4cc e53c 48d6 f53c cdca 9a3c 2f13 5c3e
000000b0: 54c4 b4bc 5547 fb3d b736 c23d d29e a73d
000000c0: b9f6 37bd 567f 0e3c e31f 99bd 34ff 1dbc
000000d0: a425 07be 3f79 e2bd 6a41 733d 507c 05bd
000000e0: 6151 38bd d103 8abd 0657 1cbe 77d9 5f3c
000000f0: b901 e23d 9cb9 7b3d 4cfc 253d 6a0d f73c
00000100: 2630 94bd bca2 b4b9 c86c d7bc 1f5e 0cbc
00000110: c964 913d 1901 283d 1add 8d3d 10c2 2a3c
00000120: d403 e2bc 3b6b 673d 0fe1 933c 4a98 103d
00000130: 3ed4 963d 4646 00bd 4d1c f53c 362d 9c3d
00000140: b811 9d3d

net.level2_0.inp_reinf.0.bn.weight f4 [3]
0.5659325 0.5863671 0.5805166
00000000: f4e0 103f 271c 163f bc9c 143f

net.level2_0.inp_reinf.0.bn.bias f4 [3]
0.08196522 0.060666997 -0.020724647
00000000: 62dd a73d f57d 783d bcc6 a9bc

net.level2_0.inp_reinf.0.bn.running_mean f4 [3]
-0.018670866 0.34026298 0.25080848
00000000: a5f3 98bc f336 ae3e f869 803e

net.level2_0.inp_reinf.0.bn.running_var f4 [3]
0.13448738 0.36076838 0.14720544
00000000: 0fb7 093e a2b6 b83e 06bd 163e

net.level2_0.inp_reinf.0.act.weight f4 [3]
0.23955347 0.18075731 0.110539675
00000000: 814d 753e 7218 393e a062 e23d

net.level2_0.inp_reinf.1.conv.weight f4 [32, 3, 1, 1]
-0.07594355 0.005110961 -0.08943055 -0.06120026 -0.08772567 -0.08819296 -0.09299326 0.06924507
-0.22924955 -0.01910875 -0.20531626 0.10882685 0.23527142 0.19174093 0.06959658 -0.07075986
0.023477875 -0.0245481 -0.10987991 -0.19728601 0.001657364 0.048795767 0.058473855 0.08065528
-0.08487113 -0.08569329 -0.0547042 -0.06995725 0.07734583 0.028626718 0.11366734 -0.19097458
0.11345213 0.0037878393 0.04487533 0.054714523 0.011342484 0.061294563 0.056488536 -0.097865924
-0.07162923 0.090671144 -0.08300232 0.18680817 -0.16790687 0.064605236 0.008236878 -0.022535428
-0.055790663 0.092989154 -0.11291518 -0.02243291 -0.089360304 0.05531474 0.10648245 0.054734804
0.08436546 -0.034829285 0.036537122 0.06806322 0.18986164 -0.07500931 0.18233193 0.035205245
-0.04765347 0.05763333 -0.013298766 0.06130153 0.03751659 -0.0039642677 -0.006825274 -0.08195007
-0.0350312 -0.039760754 0.013293217 0.09556101 -0.0010058688 0.033781655 0.12622839 0.06431286
0.061790075 -0.019713543 0.0750428 -0.087864704 -0.013172874 0.060863033 0.060514696 -0.055409957
0.033275336 -0.012370801 0.06410429 0.029624306 -0.02836492 -0.090811685 0.08407242 -0.08539971
00000000: 4b88 9bbd d979 a73b 5d27 b7bd 20ad 7abd
00000010: 84a9 b3bd 839e b4bd 4073 bebd 5cd0 8d3d
00000020: 65c0 6abe f489 9cbc 6d3e 52be 9de0 de3d
00000030: feea 703e bc57 443e a788 8e3d 8cea 90bd
00000040: ac54 c03c 1919 c9bc b808 e1bd 5805 4abe
00000050: e83b d93a 12de 473d 4882 6f3d 982e a53d
00000060: ead0 adbd f77f afbd 8311 60bd bf45 8fbd
00000070: 7e67 9e3d 9482 ea3c 6cca e83d d78e 43be
00000080: 9759 e83d 663d 783b 32cf 373d 561c 603d
00000090: d3d5 393c 0210 7b3d 8660 673d ee6d c8bd
000000a0: 59b2 92bd cbb1 b93d 1ffd a9bd a44a 3f3e
000000b0: c7ef 2bbe c04f 843d f8f3 063c 389c b8bc
000000c0: c084 64bd 1971 be3d 1340 e7bd 39c5 b7bc
000000d0: 8902 b7bd b591 623d 7913 da3d 9a31 603d
000000e0: ccc7 ac3d 27a9 0ebd f3a7 153d bb64 8b3d
000000f0: 176b 423e 7b9e 99bd 39b5 3a3e 6033 103d
00000100: 4930 43bd ed10 6c3d 11e3 59bc 5017 7b3d
00000110: ffaa 193d b0e6 81bb 8ca6 dfbb 70d5 a7bd
00000120: e07c 0fbd 2cdc 22bd cbcb 593c 7eb5 c33d
00000130: 5bd7 83ba a25e 0a3d 0442 013e 76b6 833d
00000140: 9717 7d3d 4c7e a1bc 0ab0 993d 69f2 b3bd
00000150: 0ad3 57bc 844b 793d 42de 773d 8df5 62bd
00000160: b84b 083d e6ae 4abc 1c49 833d acae f23c
00000170: 8c5d e8bc 7afb b9bd 292e ac3d 0be6 aebd

net.level2_0.inp_reinf.1.bn.weight f4 [32]
0.18296681 0.32005388 0.3709611 0.5982841 0.42436987 0.40913302 0.44014347 0.2502646
0.11880727 0.2851218 0.4746683 0.25758246 0.266125 0.23984836 0.18804975 0.18334055
0.23803493 0.12104727 0.24900413 0.25829098 0.4008724 0.14258328 0.23753792 0.29736853
0.0359393 0.29547155 0.2900888 0.06582145 0.34817374 0.100602515 0.2478303 0.1551617
00000000: a75b 3b3e 1ade a33e 9dee bd3e 2629 193f
00000010: 0247 d93e e279 d13e 7c5a e13e af22 803e
00000020: 3a51 f33d 7cfb 913e b907 f33e d9e1 833e
00000030: 8941 883e cf9a 753e 1d90 403e a0bd 3b3e
00000040: 6ebf 733e a2e7 f73d f0fa 7e3e b73e 843e
00000050: 263f cd3e 5a01 123e 243d 733e b040 983e
00000060: 1635 133d 0c48 973e 8586 943e 65cd 863d
00000070: d443 b23e b108 ce3d 3ac7 7d3e b5e2 1e3e

net.level2_0.inp_reinf.1.bn.bias f4 [32]
0.050247513 0.022188902 0.026142458 -0.067762576 -0.0010923228 0.011884958 -0.067048356 -0.023392433
-0.002640613 0.013261523 -0.0055466387 0.062960565 0.009409791 -0.009245453 -0.009137323 -0.062335994
-0.024095442 -0.029512888 -0.026128748 0.0029156085 0.032104388 -0.014733482 0.0023899248 0.01896772
-0.034720674 -0.0028724992 0.036232382 -0.0036852 -0.011194612 0.021736471 -0.0136138555 0.023152681
00000000: 56d0 4d3d 80c5 b53c b528 d63c 1bc7 8abd
00000010: 452c 8fba 20b9 423c a650 89bd 7da1 bfbc
00000020: 220e 2dbb dc46 593c 94c0 b5bb 78f1 803d
00000030: 862b 1a3c 3e7a 17bc b6b4 15bc 0754 7fbd
00000040: ce63 c5bc 03c5 f1bc f50b d6bc cb13 3f3b
00000050: e47f 033d b464 71bc 49a0 1c3b 3162 9b3c
00000060: 4437 0ebd 8a40 3cbb 6868 143d 6583 71bb
00000070: 9b69 37bc af10 b23c a60c 5fbc b1aa bd3c

net.level2_0.inp_reinf.1.bn.running_mean f4 [32]
-0.03154793 -0.050177023 -0.047594514 -0.029325088 0.10301802 -0.01181722 -0.06648999 0.039034247
-0.04692663 0.012356923 -0.0020124554 0.0225933 0.028262585 -0.016761776 -0.0051358286 0.008288615
-0.011116502 -0.013394688 0.04963262 0.016628448 0.053952266 0.006624525 0.020026125 -0.01921412
-0.01329576 0.024381343 0.05089019 -0.003307198 0.025071606 -0.004891928 0.012471825 -0.014212197
00000000: 6738 01bd 6c86 4dbd 77f2 42bd 2b3b f0bc
00000010: 1dfb d23d 039d 41bc e72b 88bd 60e2 1f3d
00000020: 2336 40bd b174 4a3c 66e3 03bb 9615 b93c
00000030: f086 e73c fe4f 89bc 744a a8bb f9cc 073c
00000040: fd21 36bc 6575 5bbc 934b 4b3d 6238 883c
00000050: 0dfd 5c3d 8b12 d93b d40d a43c ee66 9dbc
00000060: 76d6 59bc 62bb c73c 3b72 503d 93bd 58bb
00000070: f862 cd3c 774c a0bb a056 4c3c 46da 68bc

net.level2_0.inp_reinf.1.bn.running_var f4 [32]
0.0009394496 0.0027875297 0.0021421094 0.0026938384 0.013259875 0.0008220308 0.006023542 0.0016108521
0.0023982802 0.0025587813 0.0039622704 0.00089463725 0.0012468424 0.0027727108 0.002081225 0.0008492609
0.00057277444 0.0005860811 0.0025211049 0.0015626098 0.0045862226 0.00019229767 0.0011033054 0.00066923676
0.0003354135 0.0014163487 0.0031104789 0.00025310914 0.0015530473 0.0006481086 0.0009572862 0.0012738504
00000000: 6545 763a fdae 363b a262 0c3b 1c8b 303b
00000010: f23f 593c 8e7d 573a 2261 c53b 3a23 d33a
00000020: 772c 1d3b 3ab1 273b efd5 813b 1786 6a3a
00000030: 176d a33a 5eb6 353b 2965 083b efa0 5e3a
00000040: 3e26 163a 3da3 193a 1f39 253b 7cd0 cc3a
00000050: 0648 963b 83a3 4939 c99c 903a b86f 2f3a
00000060: 70da af39 c7a4 b93a 2dd9 4b3b bcb3 8439
00000070: 9f8f cb3a d5e5 293a 64f2 7a3a 54f7 a63a

net.level2_0.act.weight f4 [32]
0.025249105 0.036522377 -0.012285677 -0.018720726 0.052951805 0.023144878 -0.04072372 -0.001149744
0.0005059078 0.0007182101 0.0066115055 0.016779771 0.027185224 -0.012314024 0.0019842403 0.0072809714
-0.012630809 0.0067778435 0.04544069 -0.001782961 0.091631055 -0.011224594 0.03324208 0.04280392
-0.013274008 0.031315822 -0.0002712986 0.00013432752 0.033439744 0.026137462 0.045989975 0.0056006303
00000000: 36d7 ce3c 7d98 153d dd49 49bc 355c 99bc
00000010: fee3 583d 549a bd3c eacd 26bd 02b3 96ba
00000020: e69e 043a 4446 3c3a 54a5 d83b bb75 893c
00000030: 8cb3 de3c c3c0 49bc 070a 023b 3795 ee3b
00000040: 74f1 4ebc ac18 de3b 0420 3a3d 3eb2 e9ba
00000050: 10a9 bb3d 5ce7 37bc d928 083d 2a53 2f3d
00000060: 3a7b 59bc 0545 003d 153d 8eb9 45da 0c39
00000070: 1df8 083d 3b1e d63c fc5f 3c3d 7e85 b73b

net.level3_0.eesp.proj_1x1.conv.weight f4 [8, 8, 1, 1]
0.12516661 0.09452516 0.21649608 -0.036114533 -0.1636088 0.15830259 -0.09004186 0.11150617
0.10086929 0.026935482 -0.079752244 -0.31517097 -0.010833319 -0.18541966 -0.09062921 0.13288517
-0.045055006 0.17583644 0.012417262 0.069041505 0.075731955 0.19253314 -0.079232 -0.022072397
0.053771745 -0.25728428 0.1785583 -0.0768326 0.08650373 -0.030053155 -0.08875546 0.107736945
0.031681333 0.0039604423 -0.011292978 0.06538847 0.23001818 -0.020344233 0.10605899 -0.065267555
0.025108065 0.057626452 -0.15448889 -0.053296488 -0.18588965 0.02289946 -0.17475106 0.07423393
-0.0089015085 0.065100916 0.20031571 0.05241484 -0.07427614 0.03566896 -0.13738288 0.1406444
-0.048792288 0.17557588 0.028954523 0.07799359 0.10858801 -0.08069401 0.11748425 0.0040982747
00000000: ad2b 003e 6896 c13d 26b1 5d3e d5ec 13bd
00000010: 1189 27be 131a 223e de67 b8bd 595d e43d
00000020: 8f94 ce3d cda7 dc3c 2555 a3bd 175e a1be
00000030: 3c7e 31bc a7de 3dbe cf9b b9bd 0d13 083e
00000040: 998b 38bd 780e 343e c671 4b3c a265 8d3d
00000050: 5b19 9b3d 6827 453e 6344 a2bd 2cd1 b4bc
00000060: c33f 5c3d c4ba 83be fdd7 363e 695a 9dbd
00000070: de28 b13d 0932 f6bc 6cc5 b5bd 30a5 dc3d
00000080: 49c4 013d 99c6 813b 2f06 39bc 64ea 853d
00000090: e389 6b3e f3a8 a6bc 7535 d93d ffaa 85bd
000000a0: 6eaf cd3c b709 6c3d 5632 1ebe 6b4d 5abd
000000b0: db59 3ebe a697 bb3c f1f1 32be f507 983d
000000c0: a2d7 11bc a153 853d 901f 4d3e f1b0 563d
000000d0: 171e 98bd 9e19 123d 19ae 0cbe 1605 103e
000000e0: 6cda 47bd 2aca 333e 0932 ed3c 1abb 9f3d
000000f0: 6463 de3d e742 a5bd 959b f03d d24a 863b

net.level3_0.eesp.proj_1x1.bn.weight f4 [8]
0.09916642 0.11276518 0.08675869 0.097700104 0.120699875 0.09127504 0.09964703 0.06637084
00000000: c417 cb3d 6ef1 e63d 8aae b13d fe16 c83d
00000010: 7f31 f73d 68ee ba3d be13 cc3d 6fed 873d

net.level3_0.eesp.proj_1x1.bn.bias f4 [8]
0.18338698 0.024070224 0.0073964177 -0.025190257 0.032450702 0.0699163 0.02188442 0.07379036
00000000: ccc9 3b3e eb2e c53c a65d f23b cc5b cebc
00000010: 07eb 043d 4730 8f3d f546 b33c 661f 973d

net.level3_0.eesp.proj_1x1.bn.running_mean f4 [8]
0.25430262 -0.29001066 0.22670703 0.05889167 0.055101827 -0.06385899 0.034461398 0.044426154
00000000: f433 823e 477c 94be e325 683e 6438 713d
00000010: 74b2 613d 81c8 82bd 6527 0d3d 33f8 353d

net.level3_0.eesp.proj_1x1.bn.running_var f4 [8]
0.0131680425 0.03198308 0.017983655 0.013073283 0.019136373 0.01719481 0.008526558 0.0056968485
00000000: c6be 573c b100 033d 7552 933c 5331 563c
00000010: e2c3 9c3c 21dc 8c3c fab2 0b3c a1ac ba3b

net.level3_0.eesp.proj_1x1.act.weight f4 [8]
0.10180378 0.05714765 0.056319267 0.07405497 0.006747636 0.02522797 0.037730824 0.009608024
00000000: 807e d03d a713 6a3d 08af 663d 22aa 973d
00000010: 461b dd3b e3aa ce3c a38b 1a3d f96a 1d3c

net.level3_0.eesp.spp_dw.0.conv.weight f4 [8, 1, 3, 3]
-0.09704419 0.0122339325 0.09492651 0.14918159 -0.110060714 -0.039572064 0.09463288 0.010358047
-0.0972523 -0.025673142 0.02284079 -0.030698355 0.040471725 0.13178223 -0.1486256 0.05045323
-0.11626951 0.06528593 -0.032374274 0.03405416 0.03735351 0.07012104 0.03440968 0.01659777
-0.036466096 0.010495771 -0.018685501 0.023416847 -0.115178704 0.05725392 0.012317938 -0.06406516
0.069964185 0.08163881 0.03424769 -0.12896433 0.0001938997 -0.0001979334 -0.0063075796 -0.09582966
0.03176306 0.056915414 -0.018941095 0.123347454 -0.13098188 0.018377706 0.09315134 0.016392216
0.047827385 0.071057305 0.037468486 0.01681819 0.114711024 0.028716164 0.0013029283 -0.083632275
-0.053805895 0.04077051 -0.08130823 0.043384973 -0.114152394 0.04315663 0.0338641 0.1094035
-0.11480895 0.025895689 0.018751716 0.02235389 0.053538963 -0.14615963 0.08646198 0.08178438
00000000: 1bbf c6bd d570 483c d468 c23d 0fc3 183e
00000010: 8367 e1bd 5116 22bd e2ce c13d ccb4 293c
00000020: 372c c7bd 7b50 d2bc 9c1c bb3c 1e7b fbbc
00000030: aec5 253d ecf1 063e 4f31 18be 0ca8 4e3d
00000040: b51e eebd a1b4 853d e39a 04bd 607c 0b3d
00000050: feff 183d 9f9b 8f3d 2af1 0c3d 0cf8 873c
00000060: 795d 15bd 74f6 2b3c 5612 99bc b0d4 bf3c
00000070: d0e2 ebbd 1683 6a3d 2dd1 493c 9834 83bd
00000080: 6249 8f3d 4032 a73d 4e47 0c3d 3a0f 04be
00000090: 8e51 4b39 588c 4fb9 d0af cebb 5742 c4bd
000000a0: fb19 023d 2320 693d 5b2a 9bbc 979d fc3d
000000b0: 1d20 06be d88c 963c 21c6 be3d f848 863c
000000c0: a6e6 433d 7e86 913d 8e78 193d 4dc6 893c
000000d0: 9ded ea3d 293e eb3c 05c7 aa3a 6647 abbd
000000e0: 9263 5cbd fafe 263d ee84 a6bd 71b4 313d
000000f0: bbc8 e9bd 02c5 303d 15b5 0a3d f10e e03d
00000100: f420 ebbd 3223 d43c 339d 993c 811f b73c
00000110: ac4b 5b3d dfaa 15be fb12 b13d 927e a73d

net.level3_0.eesp.spp_dw.1.conv.weight f4 [8, 1, 3, 3]
0.02216856 0.04898111 -0.09419552 -0.013600619 -0.095694974 0.09683922 -0.0246386 -0.027151275
0.13356131 0.0418792 0.022413658 0.0022651516 -0.09196085 -0.111972675 -0.02543815 0.014353939
-0.043791503 -0.051277403 -0.029120862 -0.005351326 0.010198643 -0.02414697 -0.068270676 -0.068495534
-0.023752844 -0.031983864 -0.02491889 -0.08706968 0.11292263 0.035183147 0.053573854 0.04747281
-0.063488066 0.1143912 0.03460305 -0.07909213 -0.0122541 0.008262551 -0.02139438 -0.033496063
-0.021366382 -0.05896107 -0.00977188 -0.04672072 -0.041539576 -0.009091109 0.014783318 -0.0036275364
0.052125894 0.029533176 0.044009186 -0.03995796 0.06531867 -0.0019108775 0.006429294 -0.113526754
-0.0027595016 -0.018445633 -0.106557816 -0.04450801 -0.033858754 -0.062474422 -0.006265509 -0.007848
0.02581714 -0.04190375 0.02053458 -0.27423143 0.1280523 0.022425424 -0.014778295 -0.015832212
00000000: d79a b53c 6ba0 483d 95e9 c0bd 21d5 5ebc
00000010: bafb c3bd a453 c63d e4d6 c9bc 5a6c debc
00000020: 4cc4 083e 8689 2b3d d99c b73c f072 143b
00000030: f855 bcbd ee51 e5bd ab63 d0bc c92c 6b3c
00000040: b85e 33bd 4108 52bd e08e eebc 2d5a afbb
00000050: 3618 273c decf c5bc 7fd1 8bbd 6347 8cbd
00000060: 5395 c2bc 8301 03bd b322 ccbc 9751 b2bd
00000070: fb43 e73d 341c 103d 4270 5b3d d972 423d
00000080: 0806 82bd ef45 ea3d eebb 0d3d 0efb a1bd
00000090: 6cc5 48bc a75f 073c 4443 afbc 2b33 09bd
000000a0: 8d08 afbc 2a81 71bd 3c1a 20bc 3a5e 3fbd
000000b0: 6725 2abd e0f2 14bc bb35 723c f6bb 6dbb
000000c0: f681 553d 8fef f13c fa42 343d f5aa 23bd
000000d0: cbc5 853d 6976 faba d4ac d23b b780 e8bd
000000e0: c1d8 34bb 4c1b 97bc fc3a dabd 084e 36bd
000000f0: 7aaf 0abd 2ee5 7fbd e64e cdbb e694 00bc
00000100: 777e d33c 44a3 2bbd 2338 a83c 1068 8cbe
00000110: 2420 033e 86b5 b73c a920 72bc 8eb2 81bc

net.level3_0.eesp.spp_dw.2.conv.weight f4 [8, 1, 3, 3]
-0.0065039867 0.008940523 -0.044829577 -0.028162923 -0.09748684 -0.09619211 0.019172987 0.043526556
-0.07145622 -0.013453286 0.22607796 0.0002495525 0.0035307745 -0.103463136 0.025486808 -0.00667796
0.00961 0.032848198 0.0034269665 -0.0014011252 0.013696226 0.0011482235 -0.0011096448 -0.00065573805
0.004725512 -0.00990107 -0.009211293 -0.014927564 0.008877905 0.003395302 -0.058653567 0.0024963946
-0.0534805 0.06003535 0.0037973418 0.11160686 -0.011113842 -0.024263363 -0.0031401443 0.009089928
-0.023172015 -0.02858188 0.0038731096 -0.035018485 0.01401862 -0.0063694012 0.009004595 0.00012758267
0.029337384 0.014726669 -0.029886007 -0.03256703 0.016915351 -0.017088562 0.0044129253 -0.03978383
0.0028755842 0.02821198 0.0005144678 -0.013739306 -0.003820693 -0.04426278 -0.020824315 0.023135241
0.041915003 -0.005226333 0.026572064 -0.039013065 0.019573305 -0.011716742 -0.030606022 -0.044485856
00000000: 651f d5bb 457b 123c 389f 37bd eeb5 e6bc
00000010: 2ea7 c7bd 5e00 c5bd ab10 9d3c e748 323d
00000020: a357 92bd 2c6b 5cbc fb80 673e 5fd6 8239
00000030: 9164 673b 7be4 d3bd b6c9 d03c cad2 dabb
00000040: 4373 1d3c d58b 063d f596 603b f6a5 b7ba
00000050: 2366 603c fd7f 963a 8071 91ba d6e5 2bba
00000060: 78d8 9a3b 1938 22bc f7ea 16bc be92 74bc
00000070: a274 113c b783 5e3b b93e 70bd 8d9a 233b
00000080: 5e0e 5bbd a1e7 753d d3dc 783b 2392 e43d
00000090: d516 36bc f6c3 c6bc e1ca 4dbb eced 143c
000000a0: 3dd3 bdbc 8c24 eabc ffd3 7d3b 8b6f 0fbd
000000b0: 5bae 653c 69b6 d0bb 0288 133c b6c7 0539
000000c0: f454 f03c 2048 713c 80d3 f4bc 0265 05bd
000000d0: 1092 8a3c 50fd 8bbc 4d9a 903b 5ff4 22bd
000000e0: 4c74 3c3b cf1c e73c 5add 063a d31a 61bc
000000f0: 9764 7abb e44c 35bd c197 aabc 1e86 bd3c
00000100: 11af 2b3d a941 abbb a8ad d93c 2acc 1fbd
00000110: 3258 a03c 94f7 3fbc 7bb9 fabc cd36 36bd

net.level3_0.eesp.spp_dw.3.conv.weight f4 [8, 1, 3, 3]
6.587842e-05 -0.00037873548 -0.005233168 -0.0035063676 -0.0019539087 -0.0013092557 0.0072373776 0.011320149
0.003124599 0.015067907 0.07313454 0.023136096 -0.0076114745 -0.07295637 -0.0102205565 -0.009216616
0.037346333 -0.015721839 -9.726516e-15 5.6452006e-13 7.420563e-15 1.3893075e-14 -1.9292978e-13 -2.4692106e-14
-4.8824785e-14 -3.862548e-14 1.9695564e-15 0.030753862 0.018114228 -0.013619563 -0.023410518 0.060157992
0.017302282 0.08878713 0.010589037 0.009101471 0.031761535 -0.014976186 0.0014115971 0.05190083
-0.010950384 -0.010678686 0.035379115 -0.02356384 -0.0002347958 0.0032958963 -0.0005944459 -0.013037378
0.001134129 0.00042931116 -0.019723617 0.041304816 0.02574051 0.0114234965 0.010295814 -0.007921911
0.0099307895 0.025072625 -0.006745206 0.024195949 -0.013194392 -0.020628085 0.007291953 -0.022338679
-0.0021910274 -0.018479701 -0.0056013917 -0.0022118909 -0.0020576208 0.0041645016 -0.005697237 -0.013525748
00000000: 3528 8a38 0491 c6b9 ff7a abbb 16cb 65bb
00000010: 260d 00bb 559b abba 8627 ed3b 2578 393c
00000020: 13c6 4c3b 62df 763c 90c7 953d e987 bd3c
00000030: ad69 f9bb 266a 95bd 1f74 27bc 4a01 17bc
00000040: 78f8 183d 16cb 80bc a337 2fa8 f5e5 1e2b
00000050: 4ead 0528 8046 7a28 3938 59aa 1f68 dea8
00000060: 25e3 5ba9 26f4 2da9 e7eb 0d27 86ef fb3c
00000070: 4a64 943c 9624 5fbc 6ac7 bfbc 3a68 763d
00000080: 84bd 8d3c 07d6 b53d a47d 2d3c 561e 153c
00000090: 6218 023d ad5e 75bc 5705 b93a f795 543d
000000a0: 3d69 33bc a8f5 2ebc b1e9 103d f408 c1bc
000000b0: 8533 76b9 f7ff 573b 97d4 1bba ba9a 55bc
000000c0: 0ea7 943a 2b15 e139 6c93 a1bc 3d2f 293d
000000d0: c3dd d23c 9e29 3b3c c6af 283c e7ca 01bc
000000e0: c0b4 223c 1b65 cd3c e406 ddbb 9536 c63c
000000f0: 4b2d 58bc 3bfc a8bc 56f1 ee3b 9bff b6bc
00000100: 5797 0fbb be62 97bc e18b b7bb 5ff5 10bb
00000110: 26d9 06bb 5f76 883b e3af babb 199b 5dbc

net.level3_0.eesp.conv_1x1_exp.conv.weight f4 [32, 8, 1, 1]
0.04079743 -0.0075470787 -0.0012820256 0.007020364 -0.03584336 -0.020211507 -0.028454924 0.06424336
0.046179306 0.03358955 0.039312415 -0.010852341 0.013105022 -0.0026391551 -0.0015464034 0.011707906
-0.10153086 -0.06377293 0.037366983 -0.077331215 -0.0997086 -0.1143712 -0.14170133 0.017042594
0.059750337 0.022560176 -0.0010256057 0.010625163 -0.0015310628 0.025691021 0.02272252 0.07026841
-0.014157826 -0.03843376 -0.05416403 -0.009092849 -0.059972424 -0.012793871 -0.090694994 -0.033972014
0.057016872 0.089473486 -0.057961833 0.009508567 0.08137598 -0.09937719 0.080387466 0.0014622546
-0.027016 -0.033737686 -0.017565746 0.006784239 -0.02725259 -0.036217146 -0.04220127 -0.0137817
-0.012224278 -0.010627923 -0.053278398 -0.032264803 -0.018130723 -0.040373385 0.032859266 -0.040686317
-0.007003483 0.046740804 0.14806506 0.07460178 0.089950815 0.17499071 0.08274436 -0.11308243
0.031028738 -0.040799618 -0.005256726 0.13314945 -0.032432124 0.0033622556 0.050712727 -0.06796255
0.011151748 -0.09156543 0.0055362056 0.03513449 -0.008914297 -0.027378803 -0.0441516 0.010465047
-0.11479978 0.06303465 -0.04553741 0.011207818 0.034821775 0.0761926 0.033486716 -0.09584162
0.05404335 -0.10894105 0.09362372 0.010600755 -0.06377417 0.08194264 -0.0005039428 0.115050495
0.060242042 -0.044578332 0.12113037 -0.09707203 -0.01274904 -0.10670958 -0.03843795 0.047983028
0.0092815375 0.06124164 -0.010554384 0.004310925 0.010772364 0.027661586 0.015316896 -0.0026343344
-0.029514499 0.038487934 0.09021207 0.059144218 0.014724528 0.08903844 -0.16122374 0.0061278776
-0.0058202264 -0.042301137 -0.028165113 0.015170634 0.035368007 0.05544355 0.02154385 -0.027048888
0.039958242 -0.020526934 -0.0014949293 0.0077661034 0.016503504 -0.03418285 0.010046472 -0.00875687
0.117415145 0.00018626796 0.0008092755 0.041417554 -0.018585432 -0.005845592 0.028501287 -0.07461134
0.046500172 0.08133108 0.024217922 -0.02777474 0.0070910044 0.03265324 -0.014630403 -0.013971355
0.02937337 -0.0029094978 -0.011161285 -0.023666907 0.01694128 -0.024976958 0.01910075 -0.012844989
-0.08109003 -0.022292674 -0.008914455 0.016515968 -0.017376482 0.049669754 -0.012285975 0.07298647
-0.017074535 -0.058954593 0.00048128172 -0.0017685387 0.027489986 -0.03596406 0.038940683 -0.009449515
0.025790455 -0.024998246 -0.0010724736 -0.019072419 -0.018397054 -0.07490014 -0.009390331 -0.0069204764
-0.030890524 -0.03665065 -1.7237244e-06 -0.019705197 -0.019167976 0.017844254 -0.0053677093 0.024892924
0.012345458 -0.019868843 6.2972344e-07 -0.02219376 -0.0015094075 -0.027546557 -0.021336721 -0.007005907
0.017237572 -0.0022482213 -3.721857e-07 -0.015943369 0.0019217749 -0.03596499 -0.03434572 0.01188688
0.006821788 -0.04773073 -1.8653167e-05 -0.024337983 0.028198281 0.020478522 0.025658559 0.005685056
-0.015896294 0.06948116 7.0894584e-06 0.02448152 0.024097733 0.044918224 -0.0033847576 0.024526557
0.020488776 0.107505895 2.806402e-06 -0.073440835 -0.005429879 0.017936168 -0.04254108 -0.015853541
-0.025378382 -0.06646931 2.1235915e-05 0.07252125 0.071302965 0.03469139 -0.005303641 -0.019535145
0.0068144975 -0.04785813 0.00017314804 -0.0012096344 0.0027111117 0.06531958 0.0049593244 0.027096476
00000000: 351b 273d 7c4d f7bb a409 a8ba 150b e63b
00000010: 7dd0 12bd 9a92 a5bc 4d1a e9bc 0692 833d
00000020: 8326 3d3d 3295 093d 0e06 213d 04ce 31bc
00000030: 72b6 563c adf5 2cbb b0b0 caba 84d2 3f3c
00000040: 69ef cfbd 629b 82bd 1f0e 193d d45f 9ebd
00000050: 0634 ccbd 733b eabd 271a 11be e99c 8b3c
00000060: c5bc 743d 1ed0 b83c 9e6d 86ba 2a15 2e3c
00000070: f1ad c8ba fa75 d23c 9424 ba3c e2e8 8f3d
00000080: 3af6 67bc b86c 1dbd 1adb 5dbd 2cfa 14bc
00000090: a5a5 75bd 629d 51bc 4cbe b9bd 3d26 0bbd
000000a0: 868a 693d e03d b73d 6369 6dbd d2c9 1b3c
000000b0: 73a8 a63d 4586 cbbd 2fa2 a43d 1fa9 bf3a
000000c0: a950 ddbc 8730 0abd 0ae6 8fbc 524e de3b
000000d0: d340 dfbc 6e58 14bd 3ddb 2cbd a4cc 61bc
000000e0: 5748 48bc bd20 2ebc 733a 5abd 1928 04bd
000000f0: e286 94bc 905e 25bd 7097 063d b2a6 26bd
00000100: 797d e5bb 4973 3f3d 5e9e 173e d1c8 983d
00000110: 2238 b83d c430 333e e075 a93d c397 e7bd
00000120: fb2f fe3c 801d 27bd 9d40 acbb 5458 083e
00000130: 8cd7 04bd 4a59 5c3b 26b8 4f3d f32f 8bbd
00000140: d2b5 363c a886 bbbd 0f69 b53b 2fe9 0f3d
00000150: 460d 12bc 8349 e0bc 4fd8 34bd 9775 2b3c
00000160: 261c ebbd 5018 813d 6f85 3abd ffa0 373c
00000170: 47a1 0e3d de0a 9c3d 5e29 093d 9c48 c4bd
00000180: 8f5c 5d3d 7c1c dfbd cbbd bf3d caae 2d3c
00000190: 089c 82bd 8bd1 a73d 071b 04ba 989f eb3d
000001a0: 5cc0 763d c597 36bd 3313 f83d b3cd c6bd
000001b0: 59e1 50bc 8d8a dabd 1d71 1dbd da89 443d
000001c0: 9711 183c 84d8 7a3d 4cec 2cbc a942 8d3b
000001d0: 927e 303c 8d9a e23c b8f3 7a3c cca4 2cbb
000001e0: 64c8 f1bc 86a5 1d3d 1bc1 b83d 3541 723d
000001f0: 263f 713c c959 b63d d617 25be 5dcc c83b
00000200: 99b7 bebb f543 2dbd 86ba e6bc 408e 783c
00000210: 0bde 103d c718 633d ba7c b03c a195 ddbc
00000220: 41ab 233d 1a28 a8bc 81f1 c3ba cc7a fe3b
00000230: 5b32 873c 5103 0cbd f599 243c fa78 0fbc
00000240: 5a77 f03d ed50 4339 8f25 543a 74a5 293d
00000250: 7a40 98bc 618c bfbb 887b e93c d5cd 98bd
00000260: f776 3e3d e990 a63d aa64 c63c da87 e3bc
00000270: a85b e83b 67bf 053d 5cb4 6fbc 1ce8 64bc
00000280: 6ca0 f03c 46ad 3ebb d3dd 36bc 1ae1 c1bc
00000290: 70c8 8a3c 7a9c ccbc 2d79 9c3c ca73 52bc
000002a0: 8812 a6bd 209f b6bc ef0d 12bc 7f4c 873c
000002b0: 2059 8ebc 8372 4b3d 1d4b 49bc ee79 953d
000002c0: e5df 8bbc 5f7a 71bd 8a54 fc39 50ce e7ba
000002d0: ae32 e13c 0d4f 13bd 4480 1f3d 23d2 1abc
000002e0: 8146 d33c 1fc9 ccbc 3e92 8cba c33d 9cbc
000002f0: 6bb5 96bc 3f65 99bd e7d9 19bc 2ac5 e2bb
00000300: 200e fdbc fe1e 16bd b85a e7b5 cb6c a1bc
00000310: 2906 9dbc 1d2e 923c 9ce3 afbb 3fec cb3c
00000320: 9b44 4a3c fcc3 a2bc 440a 2935 b0cf b5bc
00000330: 50d7 c5ba 51a9 e1bc 59ca aebc cf91 e5bb
00000340: cf35 8d3c e556 13bb d0d0 c7b4 ab9b 82bc
00000350: 11e4 fb3a 0650 13bd 19ae 0cbd 30c1 423c
00000360: 4e89 df3b 4c81 43bd 5f79 9cb7 7360 c7bc
00000370: 1500 e73c 93c2 a73c e631 d23c b549 ba3b
00000380: f238 82bc 234c 8e3d fce1 ed36 788d c83c
00000390: 9c68 c53c 2cfc 373d cfd2 5dbb ebeb c83c
000003a0: 14d8 a73c 0d2c dc3d 9f55 3c36 2668 96bd
000003b0: 20ed b1bb dfee 923c 8e3f 2ebd 49df 81bc
000003c0: 53e6 cfbc 1021 88bd c823 b237 0586 943d
000003d0: 4a07 923d 8f18 0e3d 2aca adbb 2b08 a0bc
000003e0: 264c df3b e306 44bd 138f 3539 988c 9eba
000003f0: e8ac 313b 46c6 853d d481 a23b 6ef9 dd3c

net.level3_0.eesp.conv_1x1_exp.bn.weight f4 [32]
0.09656184 0.09092166 0.40362817 0.16988467 0.29491705 0.33209223 0.12546228 0.097569674
0.48616484 0.28623718 0.14384906 0.22712916 0.28801763 0.2617297 0.059318714 0.2799318
0.12206151 0.09215547 0.21374756 0.15628925 0.051280368 0.16425395 0.100349285 0.1666219
0.06012221 0.046350412 0.071477436 0.09315168 0.1597516 0.20652844 0.17368665 0.19637156
00000000: 37c2 c53d 2335 ba3d 5aa8 ce3e 3ff6 2d3e
00000010: 5eff 963e fe07 aa3e 2f79 003e 9cd2 c73d
00000020: 99ea f83e ae8d 923e 2b4d 133e 8c94 683e
00000030: 0c77 933e 6f01 863e 2ef8 723d 3953 8f3e
00000040: 63fb f93d 02bc bc3d a4e0 5a3e 4a0a 203e
00000050: 5d0b 523d 3032 283e ed83 cd3d ee9e 2a3e
00000060: b542 763d eed9 3d3d c362 923d 4fc6 be3d
00000070: ec95 233e 317c 533e eada 313e a015 493e

net.level3_0.eesp.conv_1x1_exp.bn.bias f4 [32]
-0.020898713 -0.025543805 0.034883574 0.002571209 0.08545375 0.10376622 0.011137663 0.037213508
0.023827117 -0.038214095 -0.0061840415 0.01331914 0.021541119 0.021137472 0.008412467 -0.026825659
0.002168537 -0.013333214 -0.0016070431 0.015567859 -0.008272838 -0.007394465 0.0066566877 -0.00061331905
-0.01135849 0.010173754 0.001465638 0.018932173 0.014919515 0.041655723 0.020622969 0.0076915002
00000000: c733 abbc 3e41 d1bc 14e2 0e3d bb81 283b
00000010: 6002 af3d 6283 d43d bf7a 363c 316d 183d
00000020: 1631 c33c 6286 1cbd 80a3 cabb 8638 5a3c
00000030: 0077 b03c 7e28 ad3c 72d4 093c 7cc1 dbbc
00000040: 031e 0e3b 8e73 5abc 6ba3 d2ba 5510 7f3c
00000050: cc8a 07bc 454d f2bb 5820 da3b 25c7 20ba
00000060: f618 3abc d1af 263c a71a c03a a517 9b3c
00000070: fb70 743c 319f 2a3d 80f1 a83c fb08 fc3b

net.level3_0.eesp.conv_1x1_exp.bn.running_mean f4 [32]
-3.3521952e-05 0.006610963 -0.022082172 0.008808378 -0.013818648 0.0022772918 -0.0091044055 -0.0102322595
0.06393264 0.003492036 -0.016752597 0.011320904 0.013091193 -0.015537393 0.013049329 0.012503403
0.000104908126 -0.00052047474 0.0062497254 0.011602024 -0.00010788238 -0.0012874092 -0.007901526 -0.0065247607
-0.0029047034 -0.0044123894 -0.0036635 -0.0010897252 0.008043365 0.0017226335 0.0040736464 0.0020181583
00000000: ec99 0cb8 c7a0 d83b ace5 b4bc 0451 103c
00000010: 9c67 62bc 9e3e 153b a52a 15bc 35a5 27bc
00000020: 1eef 823d a4da 643b be3c 89bc 507b 393c
00000030: 717c 563c 8d90 7ebc dacc 553c 13db 4c3c
00000040: 1f02 dc38 7870 08ba 7fca cc3b 6a16 3e3c
00000050: e93e e2b8 49be a8ba 6775 01bc a9cd d5bb
00000060: d65c 3ebb ce95 90bb 5517 70bb 1cd5 8eba
00000070: 51c8 033c fdc9 e13a 397c 853b 1443 043b

net.level3_0.eesp.conv_1x1_exp.bn.running_var f4 [32]
8.208085e-05 6.8193905e-05 0.0010256306 0.00014211376 0.00026284685 0.000742453 8.318455e-05 7.2444316e-05
0.0033199778 0.0006836626 0.0002451006 0.0013017604 0.0015161372 0.0011467502 0.00010778845 0.00087488233
5.5424258e-05 4.880346e-05 0.00030878064 6.272894e-05 2.7159977e-05 0.00021322124 3.827005e-05 7.6119395e-05
3.0461038e-05 1.7685494e-05 1.283348e-05 5.6863133e-05 9.971903e-05 0.00024871354 0.0001610022 6.842571e-05
00000000: d222 ac38 5303 8f38 746e 863a 5f04 1539
00000010: b5ce 8939 2da1 423a 5d73 ae38 3fed 9738
00000020: fc93 593b d237 333a d880 8039 d59f aa3a
00000030: 1fb9 c63a 8d4e 963a 7c0c e238 5c58 653a
00000040: 5877 6838 51b2 4c38 d6e3 a139 588d 8338
00000050: 9bd5 e337 2494 5f39 2784 2038 4aa2 9f38
00000060: 9586 ff37 4f5b 9437 604f 5737 5380 6e38
00000070: 3f20 d138 c465 8239 b3d2 2839 c67f 8f38

net.level3_0.eesp.br_after_cat.bn.weight f4 [32]
0.18928276 0.2574173 0.15112947 0.18844217 0.25754157 0.18148358 0.26744595 0.1264011
0.21972103 0.23123966 0.23703903 0.24270919 0.12218543 0.37443385 0.2314477 0.29454944
0.17227891 0.10340143 0.04592391 0.062493026 0.0553575 0.13184124 0.07546157 0.1546953
0.046650358 0.21615028 3.245704e-05 0.14095725 0.09569189 0.12080854 0.054339726 0.022930885
00000000: 57d3 413e 33cc 833e afc1 1a3e fcf6 403e
00000010: 7ddc 833e d5d6 393e adee 883e 4a6f 013e
00000020: 8dfe 603e 17ca 6c3e 5cba 723e c288 783e
00000030: 5b3c fa3d cbb5 bf3e a000 6d3e 2fcf 963e
00000040: e269 303e 21c4 d33d b61a 3c3d b0f8 7f3d
00000050: 8cbe 623d 6401 073e 988b 9a3d 7268 1e3e
00000060: 7214 3f3d 8056 5d3e 7b22 0838 1957 103e
00000070: 1cfa c33d 786a f73d 5593 5e3d 8dd9 bb3c

net.level3_0.eesp.br_after_cat.bn.bias f4 [32]
-0.053499065 -0.06240039 0.027417624 -0.017055381 -0.048588935 -0.01295334 -0.09748441 0.009625275
-0.053491436 0.04602261 0.0195845 -0.031816732 0.07607216 0.016807301 0.06360498 -0.0012977824
0.055155527 0.06145142 -0.011220222 -0.03299272 0.0004249666 0.040915452 -0.009040389 0.02863871
0.00079638994 -0.04072533 -0.00015547479 0.0022725738 -0.011768553 0.020598594 0.0065488894 -0.008362996
00000000: d621 5bbd 8d97 7fbd ed9a e03c bab7 8bbc
00000010: 3105 47bd 3f3a 54bc e8a5 c7bd 54b3 1d3c
00000020: d619 5bbd 3482 3c3d ac6f a03c 4352 02bd
00000030: b8cb 9b3d 77af 893c 5443 823d 5a1a aaba
00000040: c3ea 613d 7cb4 7b3d 06d5 37bc 6023 07bd
00000050: 0dce de39 f696 273d 241e 14bc ba9b ea3c
00000060: d3c4 503a 9bcf 26bd f206 23b9 76ef 143b
00000070: e4d0 40bc 62be a83c 1198 d63b f304 09bc

net.level3_0.eesp.br_after_cat.bn.running_mean f4 [32]
0.0016244514 -0.00062160083 0.0041237622 -0.00034108057 -0.0022560123 0.03742816 -0.005248916 0.01105625
0.0096618645 -0.013830024 -0.005510151 0.0028087252 -0.011626517 0.050377317 -0.016874328 -3.2328015e-05
-0.03752226 -0.004652054 -0.0056494325 0.00422033 -0.015801115 0.049304083 -0.01970365 -0.0012599741
-0.035897184 -0.0032103271 -0.0056494325 0.0073018707 -0.013916999 0.053248387 -0.018733406 -0.00566936
00000000: 8beb d43a edf2 22ba a020 873b 0fd3 b2b9
00000010: 9bd9 13bb 454e 193d 19ff abbb 4625 353c
00000020: cc4c 1e3c 5397 62bc 7f8e b4bb 9712 383b
00000030: 267d 3ebc 7258 4e3d 083c 8abc f197 07b8
00000040: f1b0 19bd 4270 98bb e01e b9bb b24a 8a3b
00000050: 5771 81bc 14f3 493d 8d69 a1bc b725 a5ba
00000060: ed08 13bd 5a64 52bb e01e b9bb 8844 ef3b
00000070: 2004 64bc fb1a 5a3d cd76 99bc 0ac6 b9bb

net.level3_0.eesp.br_after_cat.bn.running_var f4 [32]
0.00012136013 2.7556052e-05 4.8688715e-05 3.662955e-05 0.0002188204 0.00024168841 0.000216127 0.00011880218
0.00025713255 0.00023028094 6.785833e-05 9.736678e-05 0.0004370344 0.0004406939 0.0009056091 0.00011056788
0.0006496617 0.00042122538 7.551969e-05 0.00017833845 0.00059844746 0.00046330952 0.0010623554 0.00016937392
0.00069383334 0.00072174036 7.551969e-05 0.00025139243 0.0006002355 0.00050873595 0.0010325004 0.00016790374
00000000: b982 fe38 2c28 e737 1c37 4c38 aea2 1938
00000010: 2773 6539 bd6d 7d39 26a0 6239 6f25 f938
00000020: bfcf 8639 9277 7139 2a4f 8e38 6431 cc38
00000030: c421 e539 ef0c e739 6666 6d3a aee0 e738
00000040: 0f4e 2a3a ead7 dc39 5360 9e38 5d00 3b39
00000050: 21e1 1c3a 5ae8 f239 bb3e 8b3a f799 3139
00000060: 5ee2 353a 2d33 3d3a 5360 9e38 52cd 8339
00000070: 1f59 1d3a b15c 053a f754 873a 510f 3039

net.level3_0.eesp.br_after_cat.act.weight f4 [32]
-0.14858474 -0.1854931 -0.006378794 -0.052003536 -0.25916788 0.03043165 -0.11938939 0.013255518
-0.06565699 0.042262603 0.039272256 0.063200444 0.019757448 0.07451602 0.08015192 -0.021394692
0.06451744 0.008625218 9.7607415e-05 -0.005196087 0.005651458 0.029332193 -0.010857498 0.03846536
-0.0016452251 -0.011796879 -2.566078e-08 -0.003858411 0.0069806403 0.008646414 -0.007519712 0.0044544004
00000000: 9926 18be e7f1 3dbe 3405 d1bb a901 55bd
00000010: a7b1 84be cc4b f93c 6d82 f4bd ac2d 593c
00000020: 2c77 86bd 8d1b 2d3d f2db 203d 3c6f 813d
00000030: 5fda a13c db9b 983d b126 a43d ec43 afbc
00000040: b821 843d c950 0d3c 95b2 cc38 f043 aabb
00000050: de2f b93b 114a f03c a6e3 31bc da8d 1d3d
00000060: 98a4 d7ba b247 41bc a76c dcb2 65dd 7cbb
00000070: dbbd e43b b0a9 0d3c eb67 f6bb 38f6 913b
